models/cnn_lstm_model_training.pth (torch, 992486 bytes, 15 tensors)

cnn.0.weight f4 [32, 7, 3]
00000000: bfd5 ad3d 8b48 ac3d fce2 51be d3f7 143e
00000010: 7c7b 423e e81b 98bc 1e42 29be c096 a73d
00000020: 3a48 0c3e 6cd9 15be 65e1 fdbd 2df5 d23d
00000030: 1e09 efbd 8616 043e fbe2 d5bd f2fe 5abd
00000040: 7212 193e 2f6f c3bb db78 683e 6445 1fbd
00000050: cee6 613e 9126 6abe f2d6 9c3d b78d 59be
00000060: 4107 553d 7a2e 59be 19cd 51be 9022 093e
00000070: 4058 64be 10de f7bd 2532 95bd 9a66 0fbe
00000080: b27b ee3d 53e8 cfbc df3a c9bd 675b ebbd
00000090: e030 6e3e 1eb2 c1bd 992e e93c 83bd 05bd
000000a0: 484e cbbd 1379 46be bf34 aabc ae5b 14be
000000b0: 9a90 503e 9d25 08be 8e4d 5b3e 2413 633c
000000c0: 763c 263e 6f8e da3b a977 30be 0710 883e
000000d0: 9180 b2bd 8105 b4bc 21f2 f7bd bd5b 563e
000000e0: bea0 3a3d be4e 123e 05d1 26be f5b3 a83b
000000f0: 2e53 6fbd e9c5 06be 781a 5bbe 26d8 213e
00000100: 0478 043d e539 5cbe e605 6a3d 204f 663e
00000110: 3200 05be 225f 37bd 2bd3 7f3b 7de7 293e
00000120: 7485 45be c395 e03d b42d dfbd 34b0 2abe
00000130: a4a3 17be 29dc 42be 2ad3 af3c c034 3ebe
00000140: 5902 2a3d 8ebf 623e 89c3 fabd 158f cb3d
00000150: 8e03 5cbe 41a0 273e cf57 62be b30f dd3d
00000160: 670c 373e 9898 19be d424 20be ffe4 3cbe
00000170: 2f95 3dbe 66eb 47be 2b8e 863c f91d f7bc
00000180: 4088 ddbd bd4c 593d d0de 323d b286 003e
00000190: 233f 4f3d 01a1 d2bc 4d0c 373e c2c7 8e3d
000001a0: b17c c1bc f5da 653e 0976 623e c813 3a3e
000001b0: a274 b2bd 390f 643e 46c9 fabd 363c 24bc
000001c0: 5604 3d3e 9595 df3d e5e0 de3d 376e 68bc
000001d0: d921 d03c df4c 8c3d 37c1 563e c93c acbd
000001e0: 7c57 d3bd 02a6 413e abb5 3dbc 3386 eabd
000001f0: 4f14 3fbe 6639 a6bc 85de 343e d3b6 103e
00000200: 862a 34bc c484 b13d 2eb3 b03d 0c1b 8b3d
00000210: 9fe4 98bc 3a89 193e e0a9 c93d 9e43 4d3e
00000220: ffe3 4c3d b014 4dbe 79fa 053e 8ae0 853c
00000230: 850c 0dbe 94b8 aabc f965 3e3d 480e b6bd
00000240: 20f2 23ba f967 50be 76a8 fdbb 3970 04be
00000250: 9c08 85bd 8f49 743d 3a2e f0bc af1a 27be
00000260: efd4 363e bc1a 6abe 480c 33bd aa0e aabd
00000270: d265 20bd 87b9 67bd 1273 b3bd 6c2d 6c3d
00000280: 6d98 a5bc ac38 3d3e 8983 e1bd ebf8 c5bd
00000290: 490c b8bd b1fe f83c 0c8f 23be 77c7 55be
000002a0: a1e4 2c3e 6e01 153e 669e 95bd 35cd 0f3e
000002b0: 4cef 03be 9b09 483e e17e 0e3e e69a 313d
000002c0: be7d 1e3e f6ab 113d b284 063e 7263 8e3d
000002d0: 16e6 64be 9026 65be ffba 02be f935 7dbc
000002e0: cc7a 043e 1463 a5bd 711e abbc c4cd 23be
000002f0: 4728 403e a361 42bd 7ffe a43d 888e 19be
00000300: 8c65 26be 31d8 683d f2b6 dd3c cb7e 02be
00000310: ba4a 49be 5469 9c3d e58e 7abe 1b03 5ebb
00000320: ef61 6dbc ab66 09be 219c e53c fcb1 dabd
00000330: 4ac9 13bc 8a56 d43d 2b7e 33be d081 c73d
00000340: a443 27be 9347 cebd e3e4 14be 533c 8ebb
00000350: 3bc4 ac3d d7c4 32be 4372 49bd 79c3 06be
00000360: 84e0 7f3d 7569 0abd 5398 193e 25cc 30be
00000370: 1e52 94bd baf0 52be d02a 1f3d 210d 133e
00000380: 9be9 c5bd 0710 d73d 6d95 a73d 4ba8 563d
00000390: 5d4d cdbd 030b 60be 9ead d63d 8e09 2abc
000003a0: b484 34be d6e3 353e 3324 3e3e d7b3 9cbd
000003b0: ca38 8b3d 5d63 253e 216d 9d3d 4176 04be
000003c0: 8782 2dbe 1ae0 53be e463 b4bd f0b8 303e
000003d0: 35ca 693d 1443 fb3c 017d 1dbe 1b11 ccbb
000003e0: e259 cb3d 8b68 03bd 74d1 133e cc78 1f3e
000003f0: 4ba5 4fbe 7064 6cbe 57f2 f7bd 57da e63d
0.084880345 0.08412274 -0.20496744 0.14547662 0.18992418 -0.018567994 -0.16529128 0.0818305
0.13699427 -0.14633721 -0.12396506 0.1030067 -0.11671661 0.12899217 -0.10443684 -0.05346579
0.14948443 -0.005964182 0.22702353 -0.038884535 0.22060701 -0.22866274 0.07658185 -0.21245466
0.05200887 -0.21209136 -0.20488395 0.13392091 -0.2229929 -0.12102902 -0.07284955 -0.14003983
0.11644687 -0.025379336 -0.09825682 -0.11492043 0.23260832 -0.09457801 0.028464602 -0.032651436
-0.0992704 -0.19382124 -0.020777104 -0.14488098 0.20367661 -0.13295598 0.21416304 0.013859544
0.16234002 0.0066698114 -0.17233147 0.26574728 -0.08715928 -0.02197528 -0.12106729 0.20933433
0.045563452 0.1428785 -0.16290672 0.0051484057 -0.058428936 -0.13161434 -0.21396816 0.1580511
0.03234102 -0.2150646 0.05713453 0.22491121 -0.12988356 -0.04476846 0.0039035778 0.16592212
-0.1928919 0.10966065 -0.10897389 -0.16668779 -0.14808518 -0.19029297 0.021462996 -0.1857481
0.041506145 0.22143385 -0.122443266 0.099394 -0.21485731 0.16369726 -0.22103809 0.1079401
0.17875825 -0.14999616 -0.15639049 -0.1844673 -0.1851394 -0.19523391 0.016425213 -0.03016566
-0.10817003 0.0530517 0.04366952 0.12551382 0.05059732 -0.025711538 0.17875786 0.069716945
-0.023619028 0.22446807 0.2211534 0.18171608 -0.08713652 0.22271432 -0.12245421 -0.010024121
0.18458685 0.109172024 0.10882739 -0.0141864335 0.025406765 0.068505995 0.20972143 -0.08410031
-0.10319421 0.18910983 -0.011578958 -0.11451378 -0.18660091 -0.020291042 0.1766301 0.14132242
-0.0109964665 0.08667901 0.08627926 0.06792268 -0.018663703 0.14993754 0.09846854 0.20045325
0.05002212 -0.20027423 0.13083829 0.01634242 -0.13774307 -0.020839967 0.046483967 -0.08889443
-0.0006254036 -0.20352162 -0.0077410294 -0.12933435 -0.06495783 0.059640463 -0.029318918 -0.16318773
0.17854665 -0.22861761 -0.043712884 -0.08303578 -0.039159603 -0.056573417 -0.08762182 0.057660505
-0.020214284 0.1847865 -0.110114165 -0.09666618 -0.08986718 0.030394884 -0.15972537 -0.20876871
0.1688409 0.14551327 -0.07305603 0.14043124 -0.12884253 0.19534914 0.13915588 0.043360613
0.15477654 0.035564385 0.13136557 0.069525614 -0.22353396 -0.22377992 -0.12766646 -0.015454763
0.12937468 -0.08075538 -0.020888539 -0.15996462 0.18765365 -0.047456395 0.08056354 -0.14995778
-0.16249675 0.0568468 0.027064774 -0.1274368 -0.19657412 0.07637277 -0.24468572 -0.0033876363
-0.014488681 -0.13418071 0.02802855 -0.10678479 -0.009020159 0.103680685 -0.17528598 0.09741557
-0.16334397 -0.100722454 -0.14540438 -0.0043406873 0.084358655 -0.17457901 -0.049181234 -0.13160504
0.062469974 -0.033791978 0.14999513 -0.17265375 -0.07242225 -0.20599642 0.03885919 0.14360477
-0.09663697 0.10501104 0.081827976 0.05240659 -0.100245215 -0.218792 0.104823336 -0.010378255
-0.17628747 0.17762694 0.18568496 -0.07651489 0.06797941 0.16151185 0.0768683 -0.12935735
-0.16944323 -0.20690957 -0.08808115 0.17258048 0.057077605 0.030671634 -0.15379716 -0.006227625
0.09929253 -0.03208212 0.14435369 0.15573424 -0.20277898 -0.23085189 -0.121067695 0.11272114

cnn.0.bias f4 [32]
00000000: 314a d6bc aec1 1bbe 32ff 433e 07bc 25be
00000010: 61ed d1bc e442 af3d 22b2 213e 4cb7 183e
00000020: 63c2 09be c1ba 153e 4c29 cabc e894 26be
00000030: a787 82bd 2c4d a2bd 1280 19be 4908 f43d
00000040: abaa b53d c29c 27be a85e a8bd 2bfa 47be
00000050: a81d 3abe dedb 1b3e 9524 093e 5444 683e
00000060: e83c 623d bbe7 32ba ff3e 083e 948e a33d
00000070: f6d2 293d c46b 07be 2256 fbbd 1e2b 1b3e
-0.026158424 -0.15210602 0.19140318 -0.16185008 -0.025625886 0.0855768 0.15790609 0.14913672
-0.13453059 0.14622022 -0.024677895 -0.1626774 -0.0637353 -0.079248756 -0.14990261 0.11915643
0.08870443 -0.16368392 -0.08221179 -0.19529025 -0.18175375 0.15220591 0.13392861 0.22682315
0.055233866 -0.00068246917 0.13305281 0.07986179 0.041460954 -0.13224703 -0.12272288 0.15153167

cnn.3.weight f4 [64, 32, 3]
00000000: a98a b23d c768 df3d d5c4 2fbc 999a b03c
00000010: 7b68 aa3d 180a c43b d076 c23d 5317 d83d
00000020: 9b34 4a3d 4adb 35bb 94ef 04bd f9be aabc
00000030: 24a8 6cbd 5853 a0bd 4152 733d 1aa4 a4bd
00000040: 1ba4 9abd 1231 173d fdb2 dfbd 1529 783d
00000050: fa90 83bc cf2c 9e3c 656d 98bd 0c93 c63d
00000060: e76d 0b3d ea2f 633c d3d8 803d 99fb 3b3d
00000070: 0a03 c13d 1418 6f3d dfdf 9d3d 7f6d bc3d
00000080: d6f4 053e 6d14 8bbd 7245 4fbd 482c 9dbc
00000090: fd61 ba3d a851 68bb 7a18 b63d 0d79 27ba
000000a0: 24aa cc3d 7976 423d 2f0b 913d 83b2 e03d
000000b0: bd80 333d 30fe 84bd 81cd e73d 58df c33d
000000c0: 40d7 093e 711f 273d 21fd 1ebd 9192 d03d
000000d0: ff70 1fbd 783e 04bc febe 8c3d b221 9d3d
000000e0: 33d1 5d3d 4a8a c2bc 0c05 953d bf76 3bbd
000000f0: 5feb 70bc 878e 953d 1539 5a3d e80e cb3c
00000100: 79d8 1ebd 801b c3bc 88b7 a03d bd52 c63d
00000110: 31b2 bdbc 107c 903d a500 9dbd 226f 0f3d
00000120: 2f7d 3ebc 2448 a83d a10a 02bd 1203 983c
00000130: b9c5 37bd 3026 853d e5c9 95bd 6153 813d
00000140: b339 253b e424 dd3d 6f94 633d bc57 a13d
00000150: 2343 c93c 3653 88bd a5cd 62bd da0a 8bbd
00000160: 582d 4dbd 86ec 843d d62f ba3c ed76 10bd
00000170: 5aa0 a33d c942 283d 23c3 ac3d 05b6 993c
00000180: 9b50 44bc 87d0 353d 567e cb3d a940 6abb
00000190: 8cf6 a23d 8f6d 993d d23f 48bd a359 783d
000001a0: 6241 053d 52b2 773d 830b b5bd ef26 8abd
000001b0: ef78 cd3d 7704 8c3d 5701 973d fae1 84bd
000001c0: c3c2 1a3c 189b 983d 35d9 a53d 4c8d f63c
000001d0: 3ffc 813c bcb9 883d 1e99 85bd 20f8 babd
000001e0: 2be5 a0bb 9469 e43d 1ff2 6fbd d6e2 d5bd
000001f0: f281 18bd 3d07 03bd d0e1 123c ea93 39bd
00000200: 2cb7 95bd 146e 54bd 68d3 b7bc 1e3a 8e3d
00000210: 2697 bf3d aaf4 c23c 29d3 f6bb a3d7 583d
00000220: e9cb 89bd 98a0 97bd 3cbc f63c 02be d53d
00000230: aab6 ce3c d831 68bd 9504 17bc 716e 9cbd
00000240: 849a 88bd 70e7 923d 4f52 f9bc 659d 363d
00000250: 541d dc3d 9e37 533d 9df4 2f3d 2d9f 3f3c
00000260: c025 313d 2d7d fcbc 7a63 c93d a735 b93d
00000270: da7e b1bc 8fa7 45bb 0e66 bcbd aeed 86bd
00000280: 0b7f 8ebd 1295 3e3d ba01 2e3d df55 8a3d
00000290: 09e1 d73c 1fb1 9f3d 20d9 f93c a5c0 3abc
000002a0: 48a5 a33d e713 6e3d 620e ddbb d4e5 22bb
000002b0: 4f3a de3c c5e1 0bbc 7cd1 e636 95db 6f3d
000002c0: bfba fe3c 323e dd3d 6f05 0bbc cfa4 cabb
000002d0: a760 323d 585b 333d 9b74 5ebd f7f3 023c
000002e0: b512 553d 04ac 1abd 65b7 cb3c 0287 24bc
000002f0: e42a e83c 816b 693d 7dfc f4b9 2ef2 5bbd
00000300: 5a16 aabd 22e7 4e3d 5ac1 c83c e407 9b3d
00000310: 76b9 f73c f1ec 833b 92cf 05bc 51d7 c03c
00000320: 9ce5 9a3c 60f8 143c 8529 d83c d3f0 be3d
00000330: 86d8 423d 6e75 403c 7af6 a83d 3ee3 a63d
00000340: d144 6dbc 4de6 adbd b983 ccbc aef0 d1bd
00000350: c89e 343d 46c3 bd3d 5c1a 583d 8d6a c6bd
00000360: 4333 903d e50d eb3d a3ea 59bd f44c 1c3d
00000370: aac2 25bd e371 c53d 9d5c 183d 3871 1ebd
00000380: 6075 fb3c bcd3 33bd a225 1c3d f11c ed3d
00000390: 1d29 95bd c4b5 a9bc 39aa 98bd 9a75 a13c
000003a0: 5dee 3a3d 52ef b23c 9842 d83d 7054 993c
000003b0: 32e0 4fbd 64c3 943d 59be 76bd 427d a8bd
000003c0: 29d7 a5bc 8880 57bd effe c33c 8978 d23c
000003d0: a3b5 16bd f8ef 1d3d 10fb 7e3d 3ffd a3bd
000003e0: 0165 033c 5dfb be3d f3c1 a9bd 4952 0d3d
000003f0: 1e2a 9d3d a3f7 943b 0a08 003d 1107 913d
0.087178536 0.109086566 -0.010728081 0.021558093 0.08320709 0.0059826486 0.09495318 0.10551324
0.049366575 -0.0027749115 -0.032455042 -0.020843016 -0.05777754 -0.078283966 0.059404615 -0.080391124
-0.07550832 0.03691203 -0.10922811 0.060586054 -0.016060341 0.019308476 -0.0744274 0.09696016
0.034040358 0.013866404 0.06291356 0.04589424 0.09424408 0.058372572 0.07708716 0.09200572
0.13081679 -0.06791005 -0.050603338 -0.019186154 0.09100721 -0.0035449062 0.08891387 -0.00063885824
0.09993389 0.047476266 0.07082211 0.109715484 0.043823946 -0.06493795 0.11318494 0.09564084
0.13461018 0.04080147 -0.03881562 0.10184205 -0.03892612 -0.008071534 0.06872366 0.076724425
0.054154586 -0.023747582 0.07276353 -0.045767542 -0.014704554 0.073025756 0.053277094 0.024787381
-0.038780663 -0.023816824 0.07847506 0.0968375 -0.023156257 0.07054913 -0.076661386 0.035018094
-0.011626526 0.08216885 -0.031748418 0.018556152 -0.044866297 0.06501424 -0.07313899 0.063147314
0.0025211393 0.10798052 0.05556148 0.07878062 0.024568146 -0.06656496 -0.0553719 -0.06789179
-0.05009207 0.06490426 0.022727888 -0.035269666 0.07989569 0.041079316 0.08435657 0.018763551
-0.0119821085 0.04438832 0.09936206 -0.0035744107 0.07957181 0.074916 -0.04888899 0.06063236
0.032533057 0.060472794 -0.08840086 -0.06745707 0.10032832 0.06836789 0.073733024 -0.06488414
0.009445849 0.07451457 0.080980696 0.030096672 0.01586735 0.06676051 -0.065233454 -0.09129357
-0.0049101315 0.1115295 -0.058580514 -0.10443656 -0.0372333 -0.031989325 0.008964971 -0.045307077
-0.07310328 -0.05186279 -0.022439674 0.06944679 0.09355001 0.023798306 -0.0075324965 0.052940022
-0.06728346 -0.07403678 0.030119054 0.10436632 0.025233585 -0.05668816 -0.009217401 -0.076382525
-0.066700965 0.071730494 -0.030434756 0.044583697 0.107477814 0.051566713 0.04295789 0.011695665
0.04324889 -0.030821407 0.09833427 0.090434365 -0.021666933 -0.0030159687 -0.09199153 -0.065883026
-0.06957825 0.046528883 0.042482115 0.0675466 0.026352422 0.07797455 0.030499041 -0.011398469
0.07990509 0.05812445 -0.0067460993 -0.0024856227 0.027127413 -0.008537714 6.8789213e-06 0.05855902
0.031094907 0.108028784 -0.008485182 -0.0061841975 0.043549206 0.043788284 -0.054310422 0.007992736
0.052019794 -0.037761703 0.024867723 -0.010041954 0.028340764 0.05698729 -0.00046727425 -0.053697757
-0.083050445 0.050513394 0.02450626 0.075698644 0.030239802 0.0040260484 -0.008167164 0.02354017
0.018908314 0.00909242 0.026386986 0.09323277 0.047569774 0.011746747 0.08250137 0.08148812
-0.014481739 -0.08491192 -0.024965154 -0.10250984 0.044096738 0.09265761 0.052759513 -0.09688292
0.070410274 0.114772595 -0.053202283 0.038159326 -0.04046885 0.09640863 0.037197698 -0.038682193
0.030695617 -0.043903098 0.038121827 0.11577786 -0.07283232 -0.020716555 -0.074543424 0.019709397
0.045637477 0.021842632 0.10559577 0.01871702 -0.05075092 0.0726383 -0.060240123 -0.08227016
-0.020244198 -0.05261281 0.023925273 0.025692241 -0.036794316 0.03855893 0.06225115 -0.08007287
0.008019687 0.093252875 -0.08288946 0.0345023 0.07674049 0.004546122 0.031257667 0.07081426

cnn.3.bias f4 [64]
00000000: ec84 ef3d 3ea2 453d c33d 3f3d 785a b63d
00000010: 3d5e 9a3d b6ac c73d 082b 08bd 4008 463b
00000020: df23 a3bd 307c 5c3c 99a9 143d aca2 d83c
00000030: 6be1 333d 9564 6e3c c10f 503d d258 21bd
00000040: b806 b0bd fd46 a63d 5433 c1ba 6742 4abd
00000050: 02ca 2f3d debe 3dbc 0e95 4fbd 207d 5cbc
00000060: aacc 993c cce8 7fbd 01bf 6cbc 8879 b73c
00000070: 3d22 41bd 688a 85bd 12e0 8bbc 4e0b 83bd
00000080: 6056 f93b a0b4 e53d 9c3b ab3c a995 053d
00000090: c311 44bd 77de a4bd ded0 80bc 01d2 6bbd
000000a0: 43cc 6a3c a525 6e3d 578c 673c eb78 8a3d
000000b0: c69c 84bb e95d ff3b 27ea 2fbd 5838 cd3d
000000c0: 0ab0 f03c 0409 5dbd 3050 e3bc 1d9b babc
000000d0: d38f d2bc 6054 b43d c98f 4fbd fc48 ee3b
000000e0: b220 d0bd 35aa 70bd 1a95 5cbd 1795 11bd
000000f0: afb0 81bd 3142 9bbd fb89 913d b141 ce3d
0.11695275 0.04825043 0.04668976 0.08903974 0.07537506 0.09749739 -0.033244163 0.003021732
-0.07965826 0.013457343 0.036294553 0.026444755 0.043916147 0.014550348 0.050796274 -0.039391346
-0.085950315 0.08119009 -0.0014740028 -0.049379732 0.04291726 -0.011581151 -0.05067926 -0.0134575665
0.01877435 -0.06247787 -0.014449836 0.022396818 -0.047151793 -0.065205395 -0.017074618 -0.063986406
0.0076091737 0.11216092 0.020902447 0.03261343 -0.0478685 -0.08050244 -0.015724596 -0.057573322
0.014330926 0.05814137 0.014132581 0.067613445 -0.004047009 0.0077931774 -0.042947914 0.10020512
0.029380817 -0.053963676 -0.027748197 -0.022779042 -0.025703346 0.08805156 -0.050674234 0.007271884
-0.10162486 -0.058756072 -0.05385313 -0.035542574 -0.06332528 -0.075809844 0.07106396 0.100711234

lstm.weight_ih_l0 f4 [512, 64]
00000000: c7d0 d33d e4d5 9abb 56db aa3d 2824 763d
00000010: 3ab2 f43c b16e 6f3c 7c49 6d3c ef0a a93d
00000020: 7cbd 3db9 4f42 933d 5148 e6bc a4f0 183d
00000030: 2322 bc3d 51f8 b7bd 16f1 62bd 971e 45bd
00000040: 78e7 69bc c988 883d a2cc c0bc 1e2f e33c
00000050: 3ffd 833d 45ce e53c a078 3e3d b60e c43d
00000060: 700d 813d b026 95bd eb26 6ebd ed0e 86bd
00000070: 0317 8dbc 1553 a9bd 4542 673d edf8 33bd
00000080: 3c14 b2bc ef06 cebc 5d0c 3e3d 11dd ab3d
00000090: 7257 983d 5f4f 5c3d 47fe ce3d 5b8a 993d
000000a0: 65a6 fabc 8eea 72bd 5845 d9bc 9733 79bd
000000b0: 07d1 1d3b ef6b 50bd e70f 2c3d 35ce 87bd
000000c0: b897 a2bd 3817 053c 59a3 43bb 336c 4d3c
000000d0: 1672 ba3d 27b5 fe3c 5f7b 8a3c a7a7 7d3b
000000e0: ffd6 6a3b 48bf 53bd 4acd 463d 0007 ee3d
000000f0: 7e02 68bd 22e0 af3d b106 383c 7016 983d
00000100: 7365 23bd b4ad b83d 50a9 bbbc b9f5 c23d
00000110: ed27 f0bc b1d1 b73d 00e5 c6bc 915c 6f3d
00000120: 2d0e d0bb cfb2 f03c d1cd 5f3d ecae b03d
00000130: b943 c93b d454 d33c 0c7b db3b 8523 ac3d
00000140: 5765 5dbd a263 84bc 671f 873d 83e3 48bc
00000150: 39c5 2f3d 58ef 293d 84ba a83d d62f f33c
00000160: 783a f0bc 1b2a 863d a66f b2bd dcf5 843c
00000170: d88d 793d 4bd4 6d3c 7ab6 14bd 0667 acbc
00000180: 3c87 0f3d 5c30 b9ba 70ea e23a e950 133d
00000190: 9a58 cb3d dfb5 863d 903f 3f3c e66d 36bc
000001a0: 5d0c b4bc 3ef2 66bd 9d6e efbc 3a18 3ebd
000001b0: b299 bf3d f738 c73d 17bb 5e3d 6990 32bd
000001c0: ecb0 61bd 9a11 4f3d 5560 23bd e439 53bd
000001d0: 5b3d 263d 29a3 843d 8361 a0bd dcc6 883d
000001e0: be08 9a3d edba 473d 302a 1bbd 3454 853d
000001f0: 682e 023d 2bbc 893d d7a2 8a3d 83ae b23d
00000200: d4f9 79bd 3341 0cbc d184 88bd b7d9 af3c
00000210: cce6 14bb e025 74bd 25bd dc3d 5208 ae3d
00000220: bdb7 863d 1482 ba3d cdea ca3d 1e87 bbbc
00000230: 0f5b 13bd b5e5 343d a4b9 81bd 265f 833d
00000240: aa2d 993b 94e6 273c ddef 28bd 5e98 9fbc
00000250: fd0d b83d f9c2 76bd b0e6 56bd 67b1 963b
00000260: 4530 203d fb68 633c 7612 b3bd 491b b4bd
00000270: abb2 d5bc 6967 ebbd 3d7b 8e3d 4ba7 6e3d
00000280: aefb 213d fc82 863d fb7c 68bd 2829 c5ba
00000290: 3181 e83d 2bc0 c3bd fda7 e6bc 646d f73c
000002a0: 1684 d7bc c2d0 d0bc cdf0 973d 77d4 2b3d
000002b0: 36b1 3fbd c7c8 b43d ae8b c5bc d0d5 9639
000002c0: c1fd 98ba 72bb 5a3d e210 2f3c 5f3d bcbd
000002d0: 46c1 983d 4f99 f83c e292 123d 2fe7 993d
000002e0: ea46 ddbb 32e6 ec3a 7470 9abd b481 c93b
000002f0: 6823 fa3a e07a 723b 3886 25bd 225a 16bd
00000300: 745f f23d cc25 14bd 2a47 933d 0b91 533d
00000310: 3d12 52bd e37b de3c 639c d83c 5c95 fb3d
00000320: bfa5 953b e6e0 8cbc feac c63d f51c 7c3d
00000330: 8e01 b83c d8a2 bf3d 6da0 a6bb b883 07bd
00000340: d2fc 47bb 0464 d33c b4f1 b93c 51c9 db3c
00000350: 5dea 8b3a d7b0 33bd a18c 25bd e575 22bd
00000360: ba23 9abc 8e9b 083c d5eb 0fbb 284d 203c
00000370: 40d3 c7bc 2fe5 0d3e 1947 0bbc c9d1 e338
00000380: dbb5 b93d 2584 9a3d 66ff 13bd 94a7 98bc
00000390: ef38 02bd 8443 cabc 5d70 ccbb e7c8 d83d
000003a0: 7527 a73d 14d4 2fbd 5fa2 8f3d 15af b03d
000003b0: 2183 573c 5c1c 883d 46ba e83d 9c40 133d
000003c0: 9a26 f73d 201b 45bb 645d bebc 0bd5 493d
000003d0: ecea 8d3d c44a b2bd 1eda e03d 3fdc df3d
000003e0: 959b 033d a3c4 b7bc 3f4f d3bc f5e9 c8bd
000003f0: a144 c73c 595d 8ebd f893 d83b ee56 cf3d
0.103425555 -0.004725205 0.08342616 0.060093075 0.029870141 0.014613793 0.014482852 0.082540385
-0.00018095033 0.07190382 -0.028110655 0.037338868 0.091861986 -0.089829095 -0.0554057 -0.048124876
-0.014276378 0.06666715 -0.023535077 0.027732428 0.06444787 0.028052459 0.046501756 0.095731184
0.06301391 -0.0728277 -0.058142584 -0.065458156 -0.017222887 -0.082678 0.056459684 -0.043938566
-0.021738164 -0.02514979 0.04639851 0.083917744 0.07438554 0.05378663 0.10107093 0.07497092
-0.030596921 -0.05930572 -0.026522323 -0.060840216 0.0024080889 -0.050884183 0.042007353 -0.06631128
-0.07939094 0.008123212 -0.0029852001 0.012538004 0.091037914 0.03109224 0.016904531 0.0038704665
0.0035833714 -0.051696092 0.048535623 0.11622429 -0.056643 0.08587672 0.011232064 0.074261546
-0.03989167 0.09017506 -0.022907883 0.09519524 -0.029315913 0.08975542 -0.024279118 0.058437888
-0.006349346 0.029382138 0.05463964 0.08627114 0.0061421064 0.025797285 0.006698018 0.08405212
-0.054051723 -0.01616079 0.065977864 -0.012261274 0.042912696 0.04148802 0.082387 0.029685896
-0.029324755 0.06551 -0.087127015 0.016230516 0.06092629 0.014515947 -0.036306836 -0.02104522
0.03504108 -0.0014128792 0.00173123 0.035965834 0.09929009 0.06577658 0.011672869 -0.0111346
-0.021978552 -0.056383364 -0.02922755 -0.046409823 0.09355487 0.09727662 0.05437764 -0.04359475
-0.055100366 0.050553896 -0.03988679 -0.05156888 0.040585857 0.06476433 -0.07831099 0.066785544
0.07521199 0.04876225 -0.03788203 0.06510201 0.031782538 0.06725343 0.067693405 0.08724692
-0.06102927 -0.008560467 -0.06665958 0.02146612 -0.0022720573 -0.059606433 0.10778264 0.08497681
0.06578014 0.09106842 0.09908066 -0.022891577 -0.035975512 0.04416438 -0.06334236 0.064146325
0.004674633 0.010247845 -0.041244376 -0.019481834 0.08987043 -0.060244534 -0.052466094 0.0045987847
0.039108533 0.01388001 -0.087437555 -0.08794267 -0.026086172 -0.11494333 0.069570996 0.05826501
0.03954666 0.06567952 -0.056759816 -0.0015042173 0.11352766 -0.095581375 -0.028156275 0.030203529
-0.0263081 -0.025490168 0.07418976 0.04195067 -0.04679986 0.08827358 -0.024114456 0.00028769532
-0.0011672304 0.053401418 0.0106851775 -0.09191393 0.07458739 0.03034654 0.03578461 0.07514798
-0.0067528384 0.0018073975 -0.0754098 0.006149495 0.0019084038 0.0036999509 -0.040411204 -0.03670705
0.118346125 -0.03616886 0.07191308 0.051651996 -0.051286925 0.027158683 0.026441758 0.122843474
0.0045668776 -0.017197084 0.097009644 0.061551053 0.022461679 0.09357232 -0.005085042 -0.0330846
-0.0030515683 0.025804527 0.02269826 0.026829394 0.0010674704 -0.04386982 -0.040417317 -0.039663214
-0.018815864 0.008337868 -0.0021960635 0.0097840205 -0.024392724 0.13856958 -0.008500838 0.00010863279
0.09067889 0.07544736 -0.03613224 -0.018634595 -0.031792577 -0.024690397 -0.0062389807 0.10585194
0.08161823 -0.042926863 0.07013392 0.08627144 0.013153822 0.06646034 0.11363654 0.03595029
0.120679095 -0.0030075982 -0.023237891 0.04927544 0.069295734 -0.08705667 0.109791026 0.109306805
0.032130796 -0.02243263 -0.025794623 -0.09810249 0.024324717 -0.069513984 0.006609436 0.101240024

lstm.weight_hh_l0 f4 [512, 128]
00000000: 537d 74bd 42e4 3dbd 9818 84bd d61b 0d3d
00000010: c6ca 6fba cf91 a8bd 26e8 d03d be72 573d
00000020: 0c29 e1bc 6375 25bd a0fd 573d a18f b23c
00000030: 2f8c b3bd 562c ddbc c10a e2bd 2d4a b6bd
00000040: 3b46 e43c 3bbe 22bd a774 fcb8 e62c e3bd
00000050: 60b9 c23d cec5 2b3c d812 843d c6ba 7d3d
00000060: e862 1d3d 8b67 88bc 734a 4abc 68a0 923d
00000070: 2807 a93c 6028 cebd 67d6 33bd 49af 5dbd
00000080: 1754 373d 7f11 963c fdb1 d2bd 6dd5 9cbd
00000090: 31e9 08bd 471e 363c e2da 5cbb e0b0 893c
000000a0: 9329 c93c 1193 173d 21ed aabd ece4 b9bd
000000b0: 8569 293c efeb a43d a22e 2fbd fa2d 34bd
000000c0: daaa 3ebb 7445 35bd 0864 813d c6ab cb3c
000000d0: 5704 383c 4e30 d8bc 3a4a 32bc cf29 c3bd
000000e0: d6d4 4abd d7f1 ccbd 8b92 c73c 2a64 dd3c
000000f0: b8b7 5e3d 5755 03bc 285d 8b3d 70fe 65bd
00000100: 2e72 4abc b1f3 3f3d fdf6 bf3d c23e c4bd
00000110: cd03 cc3d 1905 1dbd 0991 523d bda8 c9bd
00000120: 5441 af3c c50e f53c 314d 10bd 0d66 6e3d
00000130: a8e6 963d f541 00bd 36f0 573c 2f50 2f3c
00000140: f58e 7ebd 54d2 7cbd 8e4f 333d 53cd fabc
00000150: fb2f 303d ef27 03bd 79ab 70bb 60ed 8c3d
00000160: dc82 b0bd 1bd2 b23b ef48 c73c 7031 c7bd
00000170: a5ff aabd 976c 87bc 9722 aabc 5c3d 5ebd
00000180: 3d77 d8bc 0f4b b93d e9f1 863d 9a9c 503b
00000190: ecf7 b0bd 2388 6dbc ef53 97bd 5123 e7bc
000001a0: 4444 adb9 6dcc bd3c 7458 563d 785d cd3d
000001b0: ff61 0fbd 21c4 7d3d abf3 3dbd cc20 fe3c
000001c0: b889 30bd 1746 82bd 9c6d 2b3d 5a9f 4cb9
000001d0: 3520 b73d fa6b e73d 8697 56bc ad88 1cbd
000001e0: 3793 dbbb 8003 aabb 910f c1bc 77aa f13b
000001f0: 2cc7 c8bc d293 be3d 5643 f9bc c4b9 223d
00000200: 1229 583d ce1d 803d 9363 663d 5569 aa3c
00000210: 1d07 8dbd 2e77 033c 7526 9abc 71c2 6e3d
00000220: 4866 6dbc fde3 cdbd bdc2 813d c9c4 983d
00000230: ac8e 5fbd 6a8b 41bd ca18 6f3d a9d7 26ba
00000240: 2d94 1ebd 8be3 c4bd d85a 313d a510 593d
00000250: 791e 6c3d 34db 97bc 441f 2fbd e4ab 70bd
00000260: 2912 2bbb 9511 81bd ff60 933d 2f81 8b3d
00000270: f513 b2bc c405 083d a586 ea3c 499d 88bd
00000280: dd78 473c baa5 31bd 83b6 cdbd 30e6 9f3d
00000290: d6fe d6bb 8a29 a13d 75fc 13bd 0030 efbc
000002a0: 9c98 253d b364 85bd 3d9a 03bd f8e2 6e3d
000002b0: 184b b43d 72ad 7b3d 6e0e 22bd 2304 98bd
000002c0: e44c 86bd f306 1d3d 5f8d 393c 3c2e 363c
000002d0: 6ae5 d13c 12ab 4abd 5f35 5b3d 65d8 703d
000002e0: 679d f93b 3491 92bd aa6f 25bd ad80 cfbc
000002f0: 30a2 06bc a9a6 debb 996f 5c3d c9b1 72bd
00000300: 23ce 51bd f5a6 b0bd 45ac 97bc f423 b43c
00000310: b1f6 abbc 07dc b03d b705 203d 5950 92bd
00000320: 1c33 aebd 1920 1a3c 626e e33c 05fb 133c
00000330: 55e1 813c 1692 2cbd c2a6 c43d 7626 d43d
00000340: fdc5 443d a132 75bd 8135 063d 10bd b43c
00000350: fdc5 2d3d 8f65 7dbd 1d7c a3bd 8d59 213d
00000360: 6e31 c83b 3a3f c53d 4606 38bd 00f6 9ebc
00000370: 39e4 2abd 78db 203d 737b ae3c 29ba 933d
00000380: f5aa 553d 3105 a03c 6a7b 8c3d 6efa babc
00000390: 6d54 72bc 1086 d1bd 1364 60bd a05e a33d
000003a0: b0cb ba3c da28 90bd 2810 8dbc e55e 163b
000003b0: a178 943d 4de1 d93d a78b 0bbd f1fd d4bd
000003c0: c04b 853c 5d7f 8d3c 0231 7d3c a8df 55bc
000003d0: 4078 d83c fefb 5bbd 5943 4cbd c5bb ae3c
000003e0: 75e6 54bd b338 4fbd 8ea4 203c 6f42 94bb
000003f0: 0ec6 93bd b850 053d d3ba e43d c8d2 90bd
-0.05968983 -0.04636026 -0.064500034 0.034450375 -0.0009147342 -0.08230936 0.10200529 0.05259966
-0.027485393 -0.04039515 0.05273211 0.021797003 -0.08766972 -0.02699868 -0.110372074 -0.08900867
0.02786552 -0.0397322 -0.000120380246 -0.11092548 0.09508014 0.010484172 0.06448907 0.0619457
0.038424402 -0.016650936 -0.012346852 0.07159501 0.020633295 -0.10066295 -0.043905642 -0.054122243
0.04475793 0.01831889 -0.10287855 -0.07657895 -0.033425514 0.011115617 -0.00336998 0.016807973
0.024555957 0.037005488 -0.0834601 -0.090768665 0.010340099 0.08052813 -0.042769082 -0.04398916
-0.0029093535 -0.04425569 0.063179076 0.024862181 0.011231503 -0.026390221 -0.010881955 -0.09529459
-0.049519382 -0.10007065 0.02436187 0.027025301 0.054374427 -0.008015952 0.068048775 -0.056150854
-0.012356324 0.04686326 0.09373281 -0.095822826 0.099616624 -0.03833494 0.051407848 -0.098466374
0.021393456 0.02991427 -0.035229865 0.058202792 0.07368213 -0.0313129 0.013179829 0.01070027
-0.062148053 -0.061724022 0.04377704 -0.030615484 0.043014508 -0.032020506 -0.00367233 0.06881213
-0.086187094 0.0054571754 0.02432677 -0.09726226 -0.083495416 -0.016531272 -0.020768447 -0.054257736
-0.026424045 0.090475194 0.065891095 0.0031831623 -0.08641037 -0.01449779 -0.07389056 -0.028215082
-0.00033047993 0.023168767 0.05233045 0.100275934 -0.035005566 0.06195462 -0.046374958 0.031021498
-0.04310009 -0.06361025 0.04185258 -0.00019514319 0.0894169 0.11299892 -0.013097649 -0.03821628
-0.006700899 -0.0051884055 -0.023566993 0.0073750573 -0.024509035 0.09305538 -0.030427616 0.03972794
0.052773543 0.06255685 0.056247305 0.02080218 -0.068861224 0.00802402 -0.018817166 0.058290903
-0.014489718 -0.10053251 0.063359715 0.07459409 -0.054579422 -0.047252096 0.05837325 -0.00063645333
-0.03871553 -0.09613713 0.043299526 0.05299439 0.05764625 -0.018537141 -0.042754427 -0.058757678
-0.0026103354 -0.06302182 0.07196235 0.06811749 -0.021738032 0.033208624 0.028628657 -0.06670625
0.012174812 -0.04337094 -0.10044577 0.07807577 -0.0065611405 0.07869251 -0.036129434 -0.029197693
0.040428743 -0.065133475 -0.032129515 0.058321923 0.088033855 0.061444707 -0.039564542 -0.07422664
-0.065576345 0.038336705 0.011325209 0.011119422 0.025622088 -0.04947955 0.053517696 0.05880012
0.007617641 -0.071566015 -0.040389694 -0.025329912 -0.008217379 -0.00679477 0.053817365 -0.05925158
-0.051221978 -0.086255945 -0.018514762 0.0219898 -0.020991655 0.08635717 0.03906795 -0.07144231
-0.08505842 0.009407067 0.027762596 0.009032016 0.015854517 -0.042131506 0.09602119 0.10358898
0.04804038 -0.059862737 0.03276587 0.022062808 0.042425144 -0.061864432 -0.07982657 0.039392043
0.006109408 0.096312 -0.044927858 -0.019404411 -0.041721556 0.0392718 0.0212991 0.072132416
0.05216499 0.019533725 0.06859477 -0.022824492 -0.0147906365 -0.102306485 -0.05478294 0.07977033
0.022802204 -0.07039042 -0.017219618 0.0022944745 0.07249571 0.10638676 -0.03406873 -0.10399998
0.016271472 0.017272646 0.015453579 -0.013053812 0.026424527 -0.053707115 -0.049868915 0.02132977
-0.051977593 -0.050591182 0.009804858 -0.004524521 -0.0721551 0.032547683 0.111684464 -0.07071453

lstm.bias_ih_l0 f4 [512]
00000000: ea99 a9bc d8dd c13d 90b0 64bd 504e 42bd
00000010: 8e86 fc3d 8ea0 97bc b4a6 4e3d 45b1 dbbc
00000020: bad7 9bbc 1fbe c93c c858 353d baf6 b83d
00000030: f71d 6fbd 5e7b 253d 483c dc3c 7654 273d
00000040: b6a2 fe3c fcab 053e 3b78 61bd 2cd4 e43d
00000050: 7091 04bb b16b 22bd 2958 33bd 7318 9b3c
00000060: 9b38 a53d 6fe8 663d feed 993c 3419 5c3d
00000070: 06a7 d13d 976b 5c3c c149 8fbc cfd5 4c3d
00000080: bf06 b53d f07e 0b3d 950d a93d 45b8 0a3d
00000090: 6b25 80bd 5f30 f33c 9d9a 2abb 03f5 f13d
000000a0: 9b93 60bd ebfa c63d dc29 813d 1219 443d
000000b0: 9c8a c23d a565 aa3d 0d69 f3bc 74f6 0bbd
000000c0: b402 773c 1448 1d3d 508e bbbc 6642 9fbb
000000d0: a78d 2f3a 4782 443d d303 14bd cbe1 8abd
000000e0: dd78 383d 8754 83bd 4cdb 9e3d 60fb 373c
000000f0: 3117 9c3d e070 debc a275 da3d a91f e4bc
00000100: bfae ac3d 2318 c13d 1b73 913c d407 0e3d
00000110: c796 063d fb70 323d 84cb 41bd 27b2 a13d
00000120: bd3c 0cbd 38bd 85bd 3435 e3bc 5b2e d43d
00000130: 20df 5cbd 8de8 883d 296c 4ebc 0679 d43c
00000140: f526 d83c f1b1 80bc 0abd 7abd 2c04 ba3d
00000150: b7d5 163d 1ee1 65bd 6a66 a73d dc45 4e3d
00000160: 6fbe ae3d aa2a b33d 8ae4 58bd 849f 44bd
00000170: b4e0 d2bc 06a4 343d 271c 943d f29a 7c3d
00000180: 53f3 5cbd f05d 6f3c e98f 32bd f3a4 31bd
00000190: 1169 23bd 78c8 823d d6ff ae3d afd4 323d
000001a0: e48b fabc b9b5 6a3d 98cd a43d 2ae2 bf3d
000001b0: 0bc1 ed3c 53ab 0fbd 0a87 74bc c92e bd3d
000001c0: 447c 2dbd 1c7f 28bc 0983 3ebb c991 af3d
000001d0: 116a 8c3d 2011 dc3d e45f 82bd 2ff4 073d
000001e0: f613 893d db61 56bc c635 a93d 426b 543d
000001f0: bed4 cfba aab6 1ebd dafb 283c 4f9f 01bd
00000200: cc5a bf3d c37f 3cbd 74ea 4cbd 07e8 61bd
00000210: a861 833b d66e 4a3d b9a8 de3d 7a43 1cbd
00000220: b4fe 80bd cdf0 0abc 95b6 12bd 1991 453d
00000230: 667b 4f3d 4dba 063d 7ca1 db3c 76c9 9bbc
00000240: 876a 5c3c 6cb2 0b3e fb42 2e3c 03ad ba3d
00000250: 2ef1 30bc 0146 0e3d d632 3d3c 40bb 2ebd
00000260: 97a4 3abd 6055 543d ac74 623d cdfb db3c
00000270: f511 81bd 745b 8cbd 269a cb3c 889f a63d
00000280: e5b9 48bd 0093 793c 3afd f33c c2ec f63b
00000290: ecb2 2b3c fb50 b4bc 296d f3bc 4b52 a33d
000002a0: beb8 1e3d b935 04bc a829 5c3c 4e9d b43b
000002b0: 7862 963d a2e7 49bd 31b8 d23c 7c6b bd3c
000002c0: 61b8 84bd 00a9 5b39 bef2 87bd cecf df3c
000002d0: 433b c93c 86b8 b13c c39e 4a3d 3751 c53b
000002e0: 6900 ffbc 0884 53bc 76c2 51bd 4759 b5bc
000002f0: 7367 b33c 30f7 ac3d 2170 30bd abe4 0c3c
00000300: 04a7 8f3d 7951 59bd 0a61 903d 3cd8 bb3d
00000310: fc08 b93d 9d80 43bc 1094 0bbd bb06 8a3d
00000320: 457b c13d 18a1 e1bc 7641 873d 5919 16bc
00000330: be49 e43d f3d1 d23d cf95 1a3d 32ab 553c
00000340: 1473 41bc 0385 c13d 2003 5a3d 06e3 553d
00000350: b965 563d 2c94 d43d 7541 e63d 7e4a bdbc
00000360: 554c 053d 2380 883d ee5d 1fbd 3139 c03d
00000370: f596 1fbd de28 e8bc 8ab0 4a3d 14c5 c23d
00000380: 8e11 943c 0522 9dbb 1850 c93d b2f7 603d
00000390: f5b6 b23d 546d 3bbd 92b4 a83d 26c3 da3c
000003a0: 7a50 d03d d5ae a73b 4441 603d ba56 afbb
000003b0: 8315 94bb fae6 7f3c c5a2 a4bc f910 ccbb
000003c0: 3354 383c b6a3 80bd 28c0 22bd 4346 263d
000003d0: 7cff 34bb 00ea 813b b277 3fbd 5532 fb3d
000003e0: 411f 38bd 6393 0e3d 24f6 b53d d496 e43b
000003f0: 3451 153d 5305 2b3d 2c87 793c 1697 193d
-0.020703275 0.094661415 -0.055832446 -0.047437966 0.12330352 -0.018509176 0.05045195 -0.026817927
-0.019023765 0.02462679 0.04427412 0.09031434 -0.058378186 0.040400855 0.026884213 0.040852033
0.031083446 0.13053888 -0.0550463 0.11173281 -0.002022829 -0.039653484 -0.043785248 0.018932557
0.08067437 0.05637401 0.018790241 0.053734973 0.10236935 0.013453386 -0.017491223 0.05000859
0.08839177 0.034056604 0.08254544 0.03386714 -0.06257137 0.029686151 -0.0026032098 0.118143104
-0.054828268 0.097158276 0.06306812 0.04787547 0.09499094 0.083201684 -0.029713178 -0.034170583
0.015076328 0.038398817 -0.022895008 -0.00486021 0.0006696828 0.047975805 -0.03613646 -0.06781348
0.04503714 -0.06412607 0.07756671 0.011229366 0.07621611 -0.027153432 0.10666968 -0.027847128
0.08431768 0.09428432 0.017755082 0.034675434 0.032858636 0.043564778 -0.04731323 0.07895308
-0.034237612 -0.06530231 -0.02773533 0.10360404 -0.053923726 0.066849805 -0.01259903 0.025936615
0.026385764 -0.01570985 -0.061215438 0.09082827 0.036824908 -0.05612289 0.08173831 0.05035959
0.08532416 0.08748372 -0.052952327 -0.04800369 -0.025741912 0.044101737 0.07231932 0.061671205
-0.05394299 0.014609799 -0.043594275 -0.0433702 -0.03989512 0.06385893 0.085448906 0.043659862
-0.030584283 0.05730221 0.080470264 0.09369309 0.029022714 -0.035075497 -0.014924774 0.09237439
-0.042354837 -0.0102842115 -0.0029069802 0.08572728 0.06856168 0.10745454 -0.06365946 0.033191856
0.0669326 -0.013084854 0.082622096 0.0518601 -0.0015856249 -0.03874842 0.010313952 -0.03164607
0.0934349 -0.04602028 -0.05002828 -0.05515292 0.0040094443 0.049422108 0.10872025 -0.03815029
-0.06298581 -0.008480263 -0.035818655 0.04823408 0.05065479 0.032892514 0.0268104 -0.019016962
0.0134531325 0.13642281 0.010636087 0.091150306 -0.010799689 0.03473473 0.011547765 -0.042659044
-0.04556712 0.051839232 0.05528705 0.026853466 -0.06302253 -0.06853381 0.024853777 0.08135897
-0.049005408 0.015232801 0.029783834 0.007535548 0.01047967 -0.02201127 -0.029715138 0.079746805
0.038750403 -0.008069449 0.013437666 0.0055119162 0.07343 -0.049293168 0.025722595 0.023122542
-0.0648048 0.00020948425 -0.06638096 0.027320769 0.024564391 0.021694433 0.049467813 0.0060216445
-0.031128125 -0.012909897 -0.051210843 -0.022137297 0.021899914 0.08445585 -0.043075684 0.008599441
0.070142776 -0.053056214 0.07049759 0.09172103 0.09034917 -0.011932519 -0.03407675 0.06739565
0.0944734 -0.027542636 0.066042826 -0.009161317 0.11146878 0.10293951 0.037740525 0.013041304
-0.011807222 0.09449198 0.053225636 0.05221846 0.052343104 0.10379824 0.11242954 -0.02310681
0.0325435 0.06665065 -0.038907938 0.093859084 -0.038962323 -0.0283398 0.049484767 0.09510246
0.018074777 -0.004795315 0.0982973 0.05492372 0.087263025 -0.04575856 0.08237566 0.026704382
0.101716 0.005117277 0.054749742 -0.005350915 -0.004519166 0.015619034 -0.020097146 -0.0062276092
0.011250543 -0.062812254 -0.039734036 0.04059435 -0.00276181 0.0039646626 -0.04674501 0.122654594
-0.04495168 0.034808528 0.08884838 0.006975988 0.036454394 0.041753124 0.015229981 0.037497602

lstm.bias_hh_l0 f4 [512]
00000000: 22c1 7e3d a2a4 a0bc bafc 80bd bb16 a63c
00000010: 9c99 663d 3ab6 243d 6650 873d f950 6bbd
00000020: f4ac 803d 5755 9a3d c8fd 4b3d 32c0 fe3d
00000030: 8ad2 ae3d 2719 c8bc c200 29bd 1905 8f3d
00000040: 8a4f 9d3b 1859 763c 0150 843c 4978 0b3d
00000050: 1a8c 2c3c eadd 873c b52e a13d 79fe 71bd
00000060: 9029 b33d e9fa 6a3c 2c39 8cbd 0522 24bd
00000070: b721 b9bc 29e3 a03d 0942 de3d 2ec1 ba3d
00000080: aea4 053c 3189 59bd a36f 123c c9f8 873d
00000090: 42c1 ca3a 72af 73bd e8d9 1fbd 81db e03d
000000a0: 4e38 3f3d c846 353c 0a3a 6cbc d33d 443d
000000b0: 1a2f b03d 1da3 593d 6256 3ebd 94a2 053d
000000c0: c971 823d 8f1d f33b 4451 cfbc 7bdf c53a
000000d0: 26bd 80bc 8a41 9f3d 38cd cc3d 7d18 5dbd
000000e0: ee9e c83d 9ec4 743d 4096 de3d b69f b73d
000000f0: daf3 223d 489e 8ebc 77bd 1b3d 9aa8 2dbd
00000100: f5b2 eb3a 7d80 b63d 3bbc 81bd 07e5 8ebc
00000110: 0b4d d63d dbeb 6f3d e162 35bc 20b7 79bc
00000120: adda 903d 10a2 083d a79e 33bd d8c9 d43d
00000130: 0d1d 8a3c 7f61 cf3b ee2a 5fbd 8ba7 8d3d
00000140: 9d0a 8e3d f581 37bc 579c 85bd 3461 12bd
00000150: bb77 5fbd e479 2b3c e315 afbc 3c20 143d
00000160: ae1b 293d da95 193d aa08 9e3d 87b3 d33d
00000170: 633d 7cbd 4974 6c3d 7d71 c93d f06c 45bc
00000180: 73d4 fc3b 6bf4 76bc 278a 3bbd df23 c93d
00000190: f9e4 d5bb 229e 7e3c f405 0ebc b758 14bd
000001a0: eb61 9d3d f9f1 50bd dfa1 f1bb 5312 ee3c
000001b0: 4c39 c03d f4e8 5fbc a169 7cbd ffcb dabc
000001c0: 74f1 c4bc da51 b2bc 361c 3dbd 7d94 2c3c
000001d0: 56f2 fd3d 7087 da3d bb8c 33bd 5633 173d
000001e0: fdbd 3a3d 74ab c53d b798 563d 6558 f83c
000001f0: aae2 d7bc 0a30 51bd 884f a1bc 3d30 eb3d
00000200: 7afe bb3d 4043 463d 4f41 a7bc ca67 993d
00000210: ae5e 8e3c e254 4b3d e42b df3d 8786 91bd
00000220: 1594 833c a938 acbc 5207 bf3d a1d2 283d
00000230: e647 7b3d f426 6b3d f4d5 d2bc 94ad 503c
00000240: 0131 943d 1433 e83c 79a3 7e3d fcbc 2dbd
00000250: ef7f cfbc 0bd5 b63b 176e 3fbd e87e 14bd
00000260: 643f 9a3c 4caf 33bd 78dd 16bc 8000 793c
00000270: 4e83 d9bb 16b9 5b3d 6c45 05bd eafd d33d
00000280: b684 9e3d add0 7c3d 0ea0 f03b f40c febc
00000290: c340 2bbd be39 cf3d 28e3 393d b589 803d
000002a0: 2b1b 65bd 492e ccbc 4d85 c13d 72ac e13c
000002b0: 9828 24bd c12d 833a f9a5 fdba 6961 52bd
000002c0: 2660 4b3d 6e63 5f3d 43c7 283d c9ed 1dbd
000002d0: b29b 31bd 15a3 2c3d ae4b 973d 57de 843d
000002e0: 76fc 89bd d1cb c4ba 0d69 183d d520 a63d
000002f0: a51f 713d 01e3 af3c 79c8 d13d 6801 d23c
00000300: 56b0 c83d 8251 bb3d cfba 99bd 8f37 a6bc
00000310: 90ae 97bd 0b89 2a3d 054b 3fbd 6cd8 863d
00000320: ff94 6b3d 9f84 30bd 334f a63d f365 953d
00000330: a754 50bd b688 32bd 6881 943d 05fe 49b9
00000340: c60c 953d 851a 873d 7005 153d 48b9 213d
00000350: 5aea 05bd b10e 9d3d 4673 d13d f6c7 94bc
00000360: a54b 3b3d 8237 15bd 4a88 003d a0a2 25bc
00000370: 3b6d 8b3d 561e 83bd 24cb efbc f1cf f3bc
00000380: fe89 253d 647a b03c aa13 a5bc a333 873d
00000390: ad3d 913c e0b5 7bbd 15bf 4f3d 050e c83d
000003a0: 7df4 26bc f79d 9a3d f2d4 353d 67b4 76bd
000003b0: 6099 69bc ce77 f0bc 3fc4 473d c71f 2c3d
000003c0: d8f3 973c bc7e 9abc 8900 923d ebe3 233d
000003d0: 3fcd bd3d 4715 e63d 795e 703d b2d5 9bbc
000003e0: c50d 0b3d 8104 ecbc 8152 15bc 5793 1abc
000003f0: 892c f3bc e188 873c e9c0 33bc 85a9 a0bc
0.062195905 -0.019609753 -0.06298204 0.02027451 0.056298837 0.040212847 0.06607132 -0.05745027
0.06282988 0.075358085 0.04980257 0.12439002 0.08536251 -0.024426056 -0.04126049 0.06983394
0.0048007416 0.01503589 0.01615143 0.03405026 0.01053145 0.016585309 0.07870237 -0.059080575
0.08748162 0.014342048 -0.06846842 -0.040071506 -0.022599084 0.07855827 0.10852439 0.09118877
0.0081569385 -0.05310935 0.008937749 0.06639249 0.0015468972 -0.05949349 -0.03902617 0.10979367
0.046684556 0.011064239 -0.0144181345 0.047910523 0.08602734 0.053134073 -0.0464691 0.03262575
0.06369359 0.007419295 -0.025307305 0.001509651 -0.015715193 0.077761725 0.1000008 -0.053978432
0.097959384 0.05975782 0.10868502 0.08966009 0.039783336 -0.017409459 0.038022485 -0.04239712
0.001798241 0.08911226 -0.0633473 -0.017443193 0.104639135 0.05857454 -0.011070938 -0.015241414
0.07072959 0.03335768 -0.043852475 0.10390061 0.016859556 0.006328761 -0.0544843 0.06916722
0.06935618 -0.011200418 -0.0652396 -0.03573723 -0.054557543 0.010466073 -0.021372741 0.036163554
0.041286163 0.037496425 0.07716496 0.103369765 -0.06158198 0.057728086 0.09836099 -0.0120498985
0.0077157556 -0.015072922 -0.04578605 0.09821295 -0.00652754 0.0155406315 -0.0086684115 -0.036217418
0.07684692 -0.051012013 -0.007374033 0.029061472 0.093859285 -0.01366638 -0.061624173 -0.026708601
-0.024040915 -0.021767545 -0.046169482 0.010533449 0.123997375 0.10670364 -0.043835383 0.036914192
0.045591343 0.09651843 0.052391734 0.030315587 -0.026353199 -0.051071204 -0.019691244 0.1148381
0.09179397 0.04840398 -0.020416884 0.07490499 0.017379131 0.049641497 0.10897043 -0.07105737
0.016061822 -0.021023111 0.09327568 0.041216496 0.061347865 0.057410195 -0.025736786 0.012736697
0.07235909 0.028344668 0.06216762 -0.042416558 -0.025329558 0.005579596 -0.04673585 -0.03625384
0.018829055 -0.043868348 -0.009208076 0.015197873 -0.006637967 0.05364331 -0.03253691 0.10351165
0.07740156 0.061722446 0.0073432988 -0.031012036 -0.04180981 0.10118435 0.04538265 0.062762655
-0.055934113 -0.024924414 0.09449253 0.027548049 -0.040077776 0.0010008143 -0.0019351832 -0.05136243
0.04965224 0.054538183 0.041205656 -0.038556848 -0.043361373 0.042147715 0.07387482 0.064877205
-0.06737606 -0.0015014355 0.03720956 0.08111731 0.05886807 0.021470549 0.10243315 0.025635436
0.097992584 0.09146406 -0.07506334 -0.020290164 -0.07406342 0.0416346 -0.046702404 0.06584248
0.05751514 -0.043095227 0.08120575 0.07294836 -0.05086198 -0.04358741 0.07251245 -0.00019263483
0.07277827 0.06596855 0.03638214 0.03948334 -0.0326942 0.07668818 0.10227065 -0.018161755
0.045726437 -0.03642989 0.031379975 -0.010109574 0.068079434 -0.064022705 -0.02927167 -0.02976224
0.040414803 0.021542735 -0.020150978 0.06601646 0.017729605 -0.061452746 0.05071934 0.09768299
-0.0101901265 0.07549661 0.044392534 -0.06023064 -0.014257759 -0.029354002 0.04877114 0.042022493
0.018548891 -0.01885926 0.07129008 0.04001228 0.09267663 0.11234527 0.058683846 -0.019022796
0.03394868 -0.028810741 -0.009113909 -0.009434543 -0.029684322 0.016544761 -0.010971286 -0.019612083

lstm.weight_ih_l1 f4 [512, 128]
00000000: b2ca c4bd 3306 17bd 9d04 713d 7911 b8bc
00000010: 9e17 a43d 4dab 08bc 6c7f 88bc 8739 fbbb
00000020: 0d7a 08bd 78c6 313c 4f3a 50bc 17eb 67bd
00000030: eaf6 923d ef07 bcbc f61d 483d c689 86bd
00000040: c96f a73d 0952 313d 3654 72bd f486 fe3d
00000050: b58c 213c 3a45 c7bd 7ee7 1ebd f30c 913c
00000060: 1354 86bd b6d6 9ebd 63cb 2f3d 03e5 7b3c
00000070: 7cca 01bd b302 9b3c 3c39 03bd 3432 7cbd
00000080: 4e1f ee3d 8c5d 913d 38c6 d53d 7942 673d
00000090: 6526 bb3d 45ff d23d 66ed a33d 8fb2 df3c
000000a0: bb4c a0bc 15d2 8fbd b780 44bd 0a89 603d
000000b0: 1f0d 913d fcd4 4abd f76a 763c 37e2 b2bd
000000c0: 566e db3c 040a 1d3c c21a 7c3d ef41 a8bd
000000d0: 8200 ee3c 56c0 693d 330e 5dbd 348a 0fbd
000000e0: 173e db3c ae65 733d 3704 493d 0796 d9bd
000000f0: 3f71 d1bc d0fc 1fbb f56c e7bc 35d5 ad3d
00000100: 4716 26bd d74a a7bc f2d6 373b 5a90 19b9
00000110: e2e7 cdbd eac3 4ebd 32fb c53d f9e5 a0bc
00000120: 5013 d4bd 2dff b53d 3ad6 1dbc 2f10 f13b
00000130: 7b18 03bd daa2 583d 4836 1cbc 1603 c13c
00000140: 4c2a 123c 8c16 c03d 0488 323c 1da5 a23d
00000150: ee4b bcbc 0a08 ae3d e48c 11bd ea6b 843d
00000160: 7cfa 68bd 7a73 16bd 7953 f23c 2085 9d3d
00000170: d566 eabb c216 dbbb 90ee 92bd 4ef0 623d
00000180: e41d fa3c 062b 1bbc 9dca e8bc 49af b63c
00000190: 3424 dbbb d2d6 7cbb 3cde 9e3b ee40 58bc
000001a0: b93b 133d 9cce de3c f0b8 8ebd 7f66 99bd
000001b0: 6594 b93d 75e9 88bc 032e b8bd f275 923d
000001c0: f370 d93c f0b9 cebc 07d6 a13d 20cc 2b3c
000001d0: 8c37 dc3c 4a64 e9bb 4986 5e3d 5c4c 043e
000001e0: 97c8 62bd 4567 073c 7358 cabc 136b 8c3d
000001f0: 6c72 b63d cc79 21bc 0885 ba3d b73a 743d
00000200: dbb3 d83c e994 fdbc d6eb 47bd 49d9 933d
00000210: 8074 623d 9008 ebbd 5bbb 70bd 525b d3bc
00000220: 95cf d6bb aff6 0ebd 57f7 ea3d dcd1 0e3d
00000230: ded4 aebd 3e96 97bd 8068 0dbd ee5d f6bd
00000240: 4713 be3c 9a8e cd3c 43bc ccbd 497e 84bd
00000250: d447 be3d cb1d 85bd e3de 2abb 867d ca3c
00000260: a292 d43c 40b2 a4bc 44bb c9bd 459f 2d3d
00000270: e3a1 313d 6345 5cbc f240 60bc e731 df3d
00000280: 1190 3a3c 955f 60bd ab1d 3fbd 6903 a63d
00000290: 7e07 52bd 2733 983c de36 303d 4592 813d
000002a0: 4b13 debd 8afa 163c 1b1c 79bd 95b6 88bd
000002b0: d0d5 3fbd 7be4 83bd 2138 6ebc 5ee3 f9bd
000002c0: b960 3e3a 46fc 3cbd 460d 8bbd 1a68 c5ba
000002d0: bd71 d9bd c70c c53c acf0 19bd f524 8bbd
000002e0: 54a4 4b3d 06d1 87bd 54b1 a33d 67fc c93c
000002f0: 5fd2 a03b 6cc3 b0bd c8be dcbd 41e1 903d
00000300: f5e5 c13d 7e9e a4bd e4f7 8cbd d635 c4bd
00000310: c00e c63b 8a06 813d d39d c5bb e76d c13c
00000320: b04f 05bc ccb2 85bd 175e 143d cd5d 2cbd
00000330: 0413 b93c a88a b43d a4fa 1a3d c488 62bc
00000340: 92b0 eb3c d064 413d 61ae 00bd 6138 cb3c
00000350: 375b 96bd 21be 853d 2dbb c93c c43f ec3d
00000360: 9331 d53c 8d40 8b3d 9011 933d 7ac9 07bd
00000370: 2221 eabd cc95 a93c 2a96 ae3c c78a a83d
00000380: 8a88 893d 44dc a53c ed56 c9bc f757 afbd
00000390: 9935 943d 3e6a abba c365 aebd 9641 4d3a
000003a0: 468c c6bd 2d5a 5cbd 5d79 f9bc 5d09 c03d
000003b0: 4c17 60bd 24e6 ac3d e5c9 dcbc 122c 12bd
000003c0: 49e7 843c 6e17 f8bc 7953 423c dec6 5a3d
000003d0: 1822 fabb 8d66 823d 92a9 703d 6f03 a0bb
000003e0: a55b 2a3d 5605 4e3d 6344 223b b9f4 353d
000003f0: b3da 64ba 9f0f 76bd f203 eabc d67c 073c
-0.096089736 -0.036871146 0.05884229 -0.02246927 0.08012317 -0.008341623 -0.016662322 -0.00766677
-0.03331952 0.010850541 -0.012709214 -0.056620684 0.07176001 -0.022953002 0.048856698 -0.06569247
0.08175618 0.043291125 -0.05916234 0.12428084 0.009860207 -0.09730001 -0.038794987 0.01770637
-0.06559005 -0.077557966 0.042918574 0.015374425 -0.031687245 0.018922186 -0.032037005 -0.061571315
0.11627065 0.07097921 0.10438198 0.056459878 0.091381826 0.10302595 0.080042645 0.027306823
-0.019567838 -0.07022492 -0.047974315 0.05481819 0.07082581 -0.049519524 0.015040151 -0.08734553
0.02678601 0.009584907 0.061548956 -0.08215701 0.029052977 0.05706819 -0.05396862 -0.03504391
0.026763005 0.05942314 0.049076285 -0.106243186 -0.025566695 -0.0024412163 -0.028250197 0.08487932
-0.04054859 -0.020421429 0.0028051701 -0.00014644992 -0.10053994 -0.050479807 0.09667052 -0.01964091
-0.10355246 0.088865615 -0.009633595 0.0073566656 -0.03200577 0.052889682 -0.009534426 0.023561042
0.008921217 0.093793005 0.010896686 0.07941649 -0.022985425 0.08497627 -0.035534754 0.064658955
-0.056879506 -0.03673122 0.029580818 0.07691407 -0.007153372 -0.0066860626 -0.071744084 0.055404954
0.030531831 -0.009470707 -0.028416926 0.02230038 -0.0066876654 -0.0038580191 0.0048482697 -0.013199074
0.035945628 0.027198128 -0.06968868 -0.07490253 0.09061507 -0.016712883 -0.08993151 0.071514025
0.026543116 -0.025235146 0.079021506 0.010485679 0.026881956 -0.007122551 0.054327283 0.12919754
-0.05536708 0.0082643675 -0.024700379 0.0685636 0.08908543 -0.009855699 0.09107405 0.059626307
0.02645295 -0.030954795 -0.048808895 0.07219178 0.055286884 -0.114762425 -0.058772426 -0.02580038
-0.0065555074 -0.034903225 0.114729576 0.034868106 -0.08536695 -0.07401703 -0.034523487 -0.120296344
0.023202552 0.025092412 -0.099968456 -0.064693995 0.09291044 -0.06499823 -0.0026072792 0.024718057
0.025948826 -0.020104527 -0.09850171 0.04238822 0.043367278 -0.013444277 -0.013687359 0.1089819
0.011386887 -0.054778654 -0.046659153 0.08106119 -0.051276676 0.018579079 0.043021075 0.06326727
-0.108435236 0.009215007 -0.06081782 -0.0667545 -0.046834767 -0.064400636 -0.014539749 -0.1220157
0.00072623376 -0.046139024 -0.06789641 -0.0015060932 -0.10617397 0.024053944 -0.03758304 -0.06794158
0.049717262 -0.06631665 0.07992807 0.024656488 0.0049078907 -0.08631024 -0.10778576 0.07074214
0.09467689 -0.080380425 -0.06883219 -0.09580581 0.006044239 0.06300075 -0.006030777 0.023611976
-0.008136675 -0.065282434 0.036222544 -0.042081643 0.022592075 0.08815509 0.037836686 -0.013826553
0.028770719 0.047215283 -0.0314163 0.024807157 -0.073416166 0.06530405 0.024625385 0.115356
0.026024615 0.067994215 0.07181084 -0.033151127 -0.11432101 0.020701312 0.021311838 0.08229595
0.06715496 0.020246632 -0.024577582 -0.085617 0.072367854 -0.0013077927 -0.08515503 0.00078299025
-0.09694724 -0.053796936 -0.030453378 0.09376786 -0.054709718 0.08442333 -0.02695174 -0.03568656
0.016223567 -0.03028461 0.011860722 0.05341231 -0.007633459 0.06367216 0.058755465 -0.004883222
0.041591305 0.050298057 0.002476 0.04442284 -0.00087300985 -0.06007349 -0.028566334 0.008269509
