models/cnn_lstm_model.pth (torch, 992486 bytes, 15 tensors)

cnn.0.weight f4 [32, 7, 3]
000000 22 c5 08 be 0a f8 c6 3d a7 2d 4b 3e 11 34 27 bd
       -0.1335645 0.097152784 0.19841634 -0.04082114
000010 d4 90 d0 bd e8 16 ff bd 5c e5 b0 bd 3a 3b ab 3b
       -0.10183874 -0.12455541 -0.08637497 0.005225566
000020 ec 28 25 be e7 1c 06 be c4 8f 61 be 2b db 59 be
       -0.16128892 -0.13096963 -0.22027498 -0.21275012
000030 d9 e7 00 bd 0a f8 ff bd 37 74 dc bd 2e 87 d5 3d
       -0.031471107 -0.124984816 -0.10764354 0.10426174
000040 a9 5a 70 be e3 af 1e 3e ec 35 b1 bc 19 ac 6d bd
       -0.23472084 0.15496783 -0.021632157 -0.058025453
000050 25 72 10 be 57 d6 5f 3e 18 24 d2 bd 3d 69 77 bd
       -0.14106043 0.21859108 -0.102607906 -0.060403097
000060 05 1f 31 3e 0c 5e 9b bd 98 44 d7 3d e3 3f 70 3d
       0.1729699 -0.075862974 0.1051113 0.058654677
000070 2c 09 87 bd d9 87 e2 bc 42 2f 66 3d a3 66 32 3e
       -0.06593546 -0.027652668 0.056197412 0.17421965
000080 9b 20 fa 3d ac ff 4b be fc da 7c bd 5e a0 fb bd
       0.1221325 -0.1992175 -0.061732277 -0.12286447
000090 ad 9b 31 be 82 5f 1b 3e ba f0 30 3e ca 16 31 be
       -0.17344542 0.15173152 0.1727933 -0.1729385
0000a0 ca 3e 54 be e7 ac 40 be af a3 35 bd 1d 91 67 3d
       -0.20727077 -0.18815957 -0.044345554 0.056534875
0000b0 30 fa dd bd 90 7e 22 3d f7 55 14 be 32 67 1c 3e
       -0.10838735 0.03967148 -0.14485918 0.15273741
0000c0 7f 3a d8 bd c4 66 1c 3e a9 3a c7 3d 62 01 0e be
       -0.10558032 0.15273577 0.097279854 -0.13867715
0000d0 d7 50 78 be 95 58 50 be 2d 77 6c 3e 5d 12 5a 3e
       -0.24249588 -0.20346291 0.23092337 0.21296068
0000e0 24 ff 25 3e 2e 30 bc bd a2 65 8e 3b 86 c6 2c bd
       0.1621061 -0.09188877 0.0043456117 -0.042181514
0000f0 d7 9a 5b bd c4 b3 4c 3e 80 57 e5 bd 4c 51 27 3c
       -0.053614464 0.1999045 -0.1119833 0.010212254
000100 e3 cb e4 bd 3b 31 04 3e 36 7c 13 3e 03 f1 cb 3c
       -0.11171701 0.12909405 0.14402851 0.024895197
000110 d7 9e 51 be ef 0c 32 be b2 a5 3e be 28 7c 62 bc
       -0.20470749 -0.17387746 -0.18617895 -0.0138235465
000120 e9 a9 48 be db dc 8b bd a5 e6 78 3e 3c 12 50 3e
       -0.19596066 -0.06829234 0.24306734 0.20319456
000130 73 77 a2 3c a7 de e5 3d 88 76 0a 3d ae 30 e1 bd
       0.019832348 0.11224108 0.033804446 -0.10995613
000140 a5 d1 27 be c5 26 fd bd 3f b0 41 bd 54 b7 72 be
       -0.16388567 -0.1236091 -0.047287222 -0.23702747
000150 01 b2 c7 bd 3b 8d 88 3d b2 40 ae bd c9 57 c7 3d
       -0.097507484 0.066675626 -0.085084334 0.097335406
000160 f4 4e 10 bc 0f 01 dd bd 68 2d e7 3d 90 fe 20 be
       -0.008807886 -0.107912175 0.112879574 -0.15722108
000170 bf a7 a3 bd c4 26 03 3b b7 42 77 3e f4 86 c5 bd
       -0.079909794 0.002001212 0.24146543 -0.09644881
000180 7f 90 01 3e 0c 74 79 39 0c 09 26 3e 76 e9 1b be
       0.12652777 0.00023789721 0.16214389 -0.15225777
000190 9c ca e8 bd f5 cb d5 3d 89 4b 37 3e 2e e5 ff bd
       -0.1136677 0.10439292 0.17899908 -0.124948844
0001a0 86 25 3a 3e 6b fa 45 3c 51 b3 2d be 80 c1 d4 bd
       0.18178377 0.01208363 -0.16962935 -0.1038847
0001b0 ce 3d 34 be 84 87 bd bd bc 11 5c 3e 7d ba 9a bc
       -0.17601702 -0.09254363 0.2149114 -0.018887753
0001c0 38 9b 57 bd dd f7 1a be 0d 60 14 3e c0 e6 c0 bd
       -0.052638263 -0.15133615 0.14489765 -0.09419012
0001d0 5d de 08 be 34 65 e8 3d 8b 2f 62 be 92 f1 11 3e
       -0.13366075 0.11347428 -0.22088449 0.14252308
0001e0 df cd d2 bc 44 74 87 3c c7 7f 58 be 8e 00 1b be
       -0.025732933 0.016534932 -0.21142493 -0.1513693
0001f0 45 dd 31 3e 4a ad 68 bd 87 29 4c 3e c7 88 6b 3e
       0.17369564 -0.056805886 0.19937716 0.23001395
000200 60 04 fb 3d 75 85 4a 3e c5 f2 03 bb 7f 76 4f 3d
       0.12256694 0.19777472 -0.0020133716 0.050650116
000210 ae 3e e7 bd 6c 6b 02 3e 1a 37 dc bd 87 5d 6d be
       -0.11291252 0.1273629 -0.10752697 -0.23180209
000220 7e da 02 3e fb ce 68 be 36 e6 c5 bd 73 4a a3 bd
       0.1277866 -0.22735207 -0.0966305 -0.079731844
000230 ef 74 58 bb 2e 2a c8 bc fd 29 19 be 27 ca 6d 3e
       -0.0033028682 -0.024434175 -0.14957424 0.23221646
000240 2a a5 4d be 26 74 e9 3d 3a 56 ab 3d 8e 21 87 3d
       -0.20082536 0.11399107 0.08366056 0.06598197
000250 24 53 13 3c df bf e9 bd e8 98 42 be f0 47 57 be
       0.00899199 -0.1141355 -0.19003642 -0.21023536
000260 40 4c a9 bd 79 d1 9e bd 0e 1e 61 be 3b fb 23 3e
       -0.08266497 -0.077547975 -0.21984121 0.16013806
000270 62 15 6c 3d 58 a5 64 3e 53 f4 3f be 2a 91 b5 3d
       0.05763758 0.22328699 -0.18745546 0.088655785
000280 a1 64 46 be 7a dc 0a be 70 80 47 be c8 f9 34 3d
       -0.19374324 -0.13560668 -0.19482589 0.044183522
000290 d4 0a 74 bd 3a 93 9d bd 95 1c 06 be 25 1c 5e 3e
       -0.05958064 -0.07694097 -0.1309684 0.21690424
0002a0 d0 76 2c 3e ab 9d 1f 3e 44 dc 10 3e 0d 46 47 be
       0.16842198 0.1558749 0.14146525 -0.19460316
0002b0 9e c2 53 3d 66 47 2a be 69 af 17 3e b1 56 15 3e
       0.051699273 -0.16628799 0.14813007 0.14583851
0002c0 cd 9d fd bd 07 66 21 3e 13 54 18 be 20 9b bd 3c
       -0.12383614 0.15761577 -0.14875822 0.023145258
0002d0 d5 af d0 3d 92 62 24 be 3b ef 9d 3d d8 26 48 be
       0.10189787 -0.16053227 0.07711645 -0.19546068
0002e0 f4 3f 1a bd 3d c2 21 be b3 a1 02 3e a9 a1 16 bd
       -0.037658647 -0.15796752 0.12756996 -0.036775265
0002f0 2a 5a 1c 3e fe 1f db bd f5 42 34 bd 7e 5e 3d 3e
       0.1526877 -0.106994614 -0.044009168 0.18493077
000300 28 84 e4 bc 51 37 b1 bd 78 3c 51 3e a6 d5 e7 3d
       -0.027895048 -0.08653129 0.20433223 0.11320047
000310 1b b0 e2 bd a8 14 77 3d 1b 7e 4d 3e a2 9c 57 3e
       -0.11068746 0.060322434 0.20067637 0.21055844
000320 6e 29 77 ba f0 38 ee 3d f5 af 96 bd 62 48 ab 3d
       -0.0009428476 0.11631954 -0.0735778 0.08363415
000330 4d ee 51 bd d2 f8 4e be 56 06 2e ba c0 26 95 3c
       -0.051252652 -0.20212105 -0.00066385174 0.018206954
000340 7d 81 11 3e b6 3f 34 be e5 b1 f6 3d 12 cb 4a be
       0.14209552 -0.17602429 0.120456494 -0.19804028
000350 e6 4b ae 3d c5 e3 54 be e8 6e 47 be 92 c0 4f be
       0.0851057 -0.20790012 -0.19475901 -0.20288303
000360 4b 7a 0f 3e 6f b5 a8 bd c9 30 5a 3e a2 a5 06 be
       0.14011495 -0.08237731 0.21307673 -0.13149121
000370 e5 41 e8 bd 1c 45 29 be 5a 1b 0c bd 6b 1d 0e 3e
       -0.113406934 -0.1653027 -0.034205772 0.1387841
000380 5b d7 42 3e b4 27 5c be f9 49 1d 3e 9a a6 95 bd
       0.19027464 -0.2149952 0.1536025 -0.07307167
000390 81 ca 6e be 2c 91 9b 3d 12 6f 3c be 11 a0 b8 bd
       -0.23319437 0.07596049 -0.18401745 -0.09014905
0003a0 fe 73 1f be 76 8b 2d 3e 05 9c 48 3e 3f d0 64 bd
       -0.15571591 0.16947731 0.19590767 -0.05586266
0003b0 af 89 2c 3e b6 f0 4f bd b2 4c fd bb 25 55 4a 3e
       0.16849397 -0.05076667 -0.00773009 0.19759043
0003c0 03 c8 8f bb 28 f1 6f be 63 2a 03 3e c8 7e 00 3e
       -0.004387857 -0.23431838 0.12809138 0.12548363
0003d0 86 97 64 3c 3a e8 41 bc 03 b4 ea 3d ed 6c 82 3d
       0.013952142 -0.011835152 0.11460116 0.06368432
0003e0 a8 d0 12 3b 02 37 62 be 53 2d 39 3e 71 e0 79 bc
       0.00224022 -0.22091296 0.18083696 -0.015251265
0003f0 87 58 d4 3c 78 38 85 3d 20 d6 c1 3d 1b 3a 04 be
       0.02592112 0.06504911 0.09464669 -0.1291279

cnn.0.bias f4 [32]
000000 59 cd c2 bb f7 7f 55 3e 1a ab 0f be 85 dc d9 bd
       -0.0059448895 0.20849596 -0.14030114 -0.10637764
000010 e8 cd 4f 3e 36 14 41 be c9 09 dc 3d 35 af be 3d
       0.20293391 -0.18855366 0.10744054 0.09310762
000020 a0 a2 bc 3d 28 86 d4 3c 9e 93 08 be e8 1b 9b 3d
       0.09210706 0.025942877 -0.13337561 0.07573682
000030 0e 51 d1 bd f9 f6 25 3d 27 70 4f 3e 74 47 93 3d
       -0.10220538 0.040518735 0.20257626 0.07191363
000040 01 67 dc bb 7a 5f 3c 3e 57 70 59 3e 1a e2 3b bd
       -0.006726146 0.18395796 0.2123426 -0.045869924
000050 95 3e 1f bd 9e fd 1a be 12 a2 55 3e 4d f5 21 be
       -0.038878042 -0.1513581 0.20862606 -0.15816231
000060 d4 55 14 3c 5a b6 01 be 93 e0 42 3d e5 39 36 3c
       0.009053666 -0.12667218 0.047577452 0.011122202
000070 44 fa ab 3d f4 40 27 3e 1d 9f 07 be 75 0b f6 bc
       0.08397344 0.16333371 -0.1324429 -0.03003476

cnn.3.weight f4 [64, 32, 3]
000000 d0 6f 17 bd 41 3a ec 3d af 6b b4 3d 27 c7 a7 bb
       -0.036971867 0.115345486 0.088096015 -0.0051201764
000010 e8 ef 8c bd 0f 02 4d 3d 32 99 09 3c f2 ca 94 3c
       -0.06881696 0.05005079 0.008398341 0.018163178
000020 63 8a a7 bd ea b0 bf 3c 00 ca b3 3d ee 8c 51 bc
       -0.08180692 0.023399789 0.08778763 -0.012789948
000030 a0 d4 3f bd 8c 39 e4 3c 6e 24 a0 3c 7d e4 6a bd
       -0.046833634 0.027859472 0.019548621 -0.05734681
000040 53 3a ac 3d 1b e9 ef bb d8 f5 c0 3d 66 46 86 3d
       0.08409562 -0.0073214895 0.09421891 0.06556396
000050 4b 6a 57 3c b9 4a 69 bd 72 0a af 3d d9 50 a1 3d
       0.013147901 -0.056956027 0.08546914 0.078767486
000060 9f 64 67 bd 3b d4 bd 3d bf 5e ff 3c 37 88 e5 3c
       -0.056492444 0.092689954 0.031173108 0.028019054
000070 46 7f a6 bd d0 34 9e bd db f3 88 bd 3e fb bb 3d
       -0.08129744 -0.07724917 -0.06687137 0.0917878
000080 b4 2d d4 3d 08 df 9c bc 68 81 fb 3d ad 5d 28 3b
       0.1036028 -0.019149318 0.12280542 0.00256906
000090 59 a9 21 bd b7 a8 48 bd 0e 9d 23 bd 13 a4 02 3c
       -0.039468143 -0.048989024 -0.0399447 0.007973689
0000a0 22 9f 82 3d 93 24 91 bd 05 c6 c2 bd 71 7c 44 3d
       0.063780084 -0.07087054 -0.095104255 0.04797024
0000b0 bf d8 51 3d 47 77 72 bd 13 fe c1 3d 34 c5 6e 3d
       0.051232096 -0.059195783 0.09472289 0.058293536
0000c0 39 60 13 3c ce 26 7a 3c dc c5 92 3c f5 bf 9c 3d
       0.008995109 0.015268041 0.017916612 0.076538004
0000d0 7e e9 e8 bc 3c ae 08 3d 65 f7 7e ba e0 d5 db bc
       -0.02843165 0.033369288 -0.0009726196 -0.026835382
0000e0 3d 08 c5 39 4b e5 da bc 75 d7 14 bd df dc 8f bd
       0.00037580906 -0.026720664 -0.03633829 -0.0702455
0000f0 38 16 95 bd e7 77 88 bd f2 0c cc 3d cb c7 ba 3d
       -0.072796285 -0.066634946 0.099634066 0.09120139
000100 fb 29 19 3d ec f7 40 bd 85 66 fe 3b f7 24 59 bc
       0.03739355 -0.047111437 0.007763686 -0.013253442
000110 26 4a 07 bd eb 8e 8f bd d3 f9 90 3d 82 7b 1f 3d
       -0.033029698 -0.07009681 0.070789 0.038936146
000120 4a c3 06 3d 1c f4 00 3e 6c 89 81 3d c2 13 79 3d
       0.032901086 0.1259312 0.06325039 0.06080986
000130 21 aa 31 3c 90 80 33 3b 03 dc 0b bd dc cf 89 3d
       0.010843785 0.0027389862 -0.034145366 0.06729099
000140 76 1c 44 bc 43 17 5d 3d 82 f3 7b bc ef 49 f5 3d
       -0.011969676 0.053977262 -0.015377881 0.11976992
000150 7f 94 18 bd 01 ec 1d bd 53 e4 38 bd 91 0a ba 3d
       -0.037250992 -0.03855515 -0.045139622 0.09084047
000160 79 3c 9e bd 13 70 92 bd 34 f3 f3 3d ac 67 66 bd
       -0.07726378 -0.07150283 0.11911622 -0.056251213
000170 60 8b e0 3c 56 25 0a 3d 66 d1 6d bd ec 89 ae 3d
       0.02741021 0.033727013 -0.058061026 0.085224
000180 04 ea 62 3d dc 48 e6 bc 51 42 82 3d 6b fc e8 bc
       0.055398956 -0.028110914 0.06360305 -0.028440675
000190 81 1e 93 3d 5b ab 3a 3b 38 4e 02 3e 1e 21 e4 3d
       0.071835525 0.0028483483 0.1272515 0.11139129
0001a0 28 19 df 3d a8 29 db 3d ef df 47 3d 69 da 7a 3c
       0.1089347 0.10701305 0.048797544 0.015310862
0001b0 7e b9 96 bd 5a 0e ce 3c 1e b2 9d 3c 8c 82 3c 3d
       -0.073595986 0.025153328 0.019249972 0.046022937
0001c0 09 5d 97 bd 4b 95 ff 3c 49 83 a8 bd 73 de 03 3c
       -0.07390792 0.031199118 -0.08228166 0.0080486415
0001d0 4a 92 8c bd a3 35 0c 3d 2e 7d a7 3d 11 0a 22 3d
       -0.0686384 0.03423084 0.08178173 0.03956038
0001e0 b6 be aa 3c 08 c8 ec 3d 80 59 12 bd 42 61 c4 3d
       0.020842891 0.115615904 -0.035729885 0.09588863
0001f0 15 25 ae 3d c3 a6 c8 bc 4a 84 94 bc c0 a8 d2 bc
       0.085031666 -0.02449358 -0.018129487 -0.025715232
000200 6f 23 ab bd 75 bc 84 bd 63 f5 a1 3d 7a 08 26 3d
       -0.08356368 -0.06481258 0.07908132 0.040535428
000210 9c 4e 7d 3d 89 18 a3 bc 04 01 c0 3d d5 d9 43 3d
       0.061842546 -0.01990916 0.09375194 0.047815163
000220 c9 16 99 bc 2f 9e 17 3c 68 4a b5 bd 18 df 45 bd
       -0.018687623 0.0092540225 -0.088520825 -0.048308462
000230 1e 9d 6e bc 69 2c 09 3d 3f 1d 2a bd 1b 78 61 3d
       -0.014563827 0.03348962 -0.041531797 0.055046182
000240 3f f1 ae 3c c5 ac 19 bd e9 c2 d2 bc 26 20 c4 bd
       0.02135527 -0.03751828 -0.025727706 -0.09576444
000250 9f 4b 86 3d 06 a7 9e 3d 8b 85 80 3c a7 c2 a3 3c
       0.06557392 0.07746701 0.015688678 0.019990278
000260 e2 0c 09 bd 0a ac c7 3c 22 d5 3e bd 36 be 84 3d
       -0.03345955 0.024374027 -0.046589978 0.06481592
000270 dd 83 9c bc b5 54 9e bd 63 4a c1 bc d8 d7 28 bd
       -0.019105846 -0.07731 -0.02359504 -0.04122147
000280 07 30 64 bd 07 1c 57 bd 5d 27 5c bd 29 c6 42 bd
       -0.055709865 -0.052516963 -0.053748477 -0.04755226
000290 d4 ab 83 bd 1e 55 9e 3c eb fa c4 bd 6e b9 4a bd
       -0.06429258 0.019327696 -0.09618171 -0.049493246
0002a0 2c 16 87 3d 2d 1a cb bd da 88 b1 bd 0e 36 a7 3d
       0.06596026 -0.09917102 -0.086686805 0.08164607
0002b0 6b 74 e8 3d ef 1a c2 3d 2d 8b 5a bd 4d 3b eb 3d
       0.1135033 0.094777934 -0.053355385 0.1148592
0002c0 20 55 ae 3d 00 b6 ff 3b c6 3e 4b bd 72 72 b3 3c
       0.0851233 0.0078036785 -0.049620412 0.021905158
0002d0 03 90 dc bc e2 ac 2c 3c e5 6a b3 bd f1 16 9b bd
       -0.026924139 0.010539265 -0.08760623 -0.07572735
0002e0 8b 4f 41 bd b2 00 9d bd cf aa 05 3d 89 30 8e bc
       -0.047195 -0.07666148 0.0326336 -0.017357128
0002f0 fa 3d aa bd c3 8e 79 bd 7c d1 6f 3c 9f 00 20 bc
       -0.08312602 -0.060927164 0.014637347 -0.009765773
000300 53 97 f5 3d 17 6f 8b 3d 22 ab e1 3d e1 a0 bd 3d
       0.119917534 0.06808298 0.11018969 0.09259201
000310 77 12 62 3d de f5 8f 3d 5e 9f ad 3d 26 8f a6 bd
       0.05519339 0.07029317 0.084776625 -0.08132772
000320 b4 6e 08 3d b3 18 74 3c 65 1a 98 3d 6e 8e 82 bc
       0.0333087 0.014898467 0.07426909 -0.015937056
000330 66 2e 67 3d d2 0a cf 3d 29 15 c7 3d 33 85 80 bd
       0.056440733 0.10109486 0.09720833 -0.06275406
000340 a7 23 c5 3d 35 21 ca 3d 73 fd 38 bd 12 8e 5e bc
       0.09625941 0.09869615 -0.045163583 -0.013583677
000350 bc ff f0 3c 4e 9b 1b 3c df fd 55 bd c8 5c b3 3d
       0.029418819 0.009497477 -0.052244063 0.08757931
000360 93 2c 57 bd e6 c9 b4 bd d7 4f 94 3d 29 2e ba bd
       -0.052532744 -0.088275716 0.07241791 -0.090908356
000370 5d ff 8e 3d ce 53 6e 3d 5c 3b 69 3d bb 5d 69 3d
       0.069823004 0.05818539 0.056941375 0.056974154
000380 fa 92 dc 3d 6f 78 36 3d 2f 12 a1 bd 65 ed c5 bb
       0.10770221 0.04454845 -0.07864796 -0.0060402625
000390 f5 63 14 bc c9 2b b8 bb 16 55 1b 3b 14 a1 94 3d
       -0.009057035 -0.005620454 0.0023701838 0.07257286
0003a0 e5 4e 19 3d c8 4f 41 bd b1 a4 3e 3c e2 22 87 bd
       0.037428755 -0.047195226 0.011635945 -0.0659845
0003b0 f1 e1 ba bc 26 69 0f bd 63 40 88 3d 26 fb 75 3d
       -0.022812815 -0.035012387 0.06652906 0.060053967
0003c0 12 af 79 3d 21 c7 67 bc 58 f3 bf 3d 70 4e b2 3d
       0.060957976 -0.014146597 0.09372586 0.08706367
0003d0 d1 5a 6d 3d cd 2c 78 bd 3e 72 7c 3d b7 d7 92 3d
       0.057947937 -0.0605896 0.061632387 0.071700506
0003e0 5c 1e 3d 3d 0e 09 88 bd f9 0c a9 3d 08 8b 46 3b
       0.04617153 -0.06642352 0.082544275 0.0030295271
0003f0 e1 5a e5 3d 41 e1 8d 3d 01 4d 80 bd 81 10 93 3d
       0.111989744 0.069277294 -0.06264687 0.07180882

cnn.3.bias f4 [64]
000000 72 c2 9b bd b2 8d dc 3c 6d 61 92 bd 29 2d a3 3c
       -0.07605447 0.026923034 -0.07147489 0.019918995
000010 6f 56 ad bd 4b f7 53 bc d1 e3 6e 3b 55 64 84 3d
       -0.084637515 -0.012937377 0.0036451707 0.06464449
000020 c5 58 47 3d 55 42 3d bc d5 eb 1a bc e7 44 97 3d
       0.04866864 -0.011551459 -0.009455641 0.07386189
000030 b9 f7 c5 3d 49 75 56 bd 5b fa 8b 3c b4 ce 19 bd
       0.0966639 -0.052357946 0.017087152 -0.037550643
000040 f7 c1 7e bd 10 74 a6 3d 47 20 bf 3d 6b 02 89 3d
       -0.062196698 0.08127606 0.09332328 0.06689914
000050 e9 99 c4 3c f1 16 82 3c 57 ad 69 3c 92 ff 30 3d
       0.023999171 0.01588008 0.014262519 0.04321248
000060 87 24 b7 3d 13 09 2d bd 17 17 a2 3d cd 4a ac 3d
       0.08942514 -0.042244982 0.0791456 0.084127046
000070 ec 33 d3 3d c5 c2 a9 bc ad 21 9e bd 6d 08 b9 3d
       0.10312638 -0.020722756 -0.07721267 0.0903481
000080 18 ab 8a 3d 58 93 e3 3d 03 96 58 bd 59 c1 da 3d
       0.06770915 0.11112088 -0.052877437 0.106814094
000090 18 7d d3 3d f1 43 84 3d 51 53 11 3d 56 84 e2 bc
       0.10326594 0.06458271 0.035479847 -0.027650993
0000a0 33 02 91 bd d0 84 f2 3c 30 18 fa 3c 5e b0 8f 3c
       -0.070804976 0.029604346 0.030529112 0.017540153
0000b0 0c 0a eb 3d 32 85 6b bb 05 1b 5b 3c 32 1b d2 bc
       0.11476526 -0.0035937545 0.013373141 -0.025647733
0000c0 c5 eb 67 3d 05 32 78 bd 88 da 20 3d c3 34 d7 3d
       0.05662133 -0.060594577 0.039270908 0.105081104
0000d0 1b 7a b8 3d 0d 65 b0 3d b7 bc 59 3c 97 af 5b bd
       0.09007665 0.08613024 0.013289622 -0.053634252
0000e0 b6 cd c7 3d 5a b1 6e 3d 80 a6 6c 3c 94 69 4d 3d
       0.09756033 0.058274604 0.014443994 0.050149515
0000f0 36 e9 99 bd 7e 48 4f bc 21 e0 30 3d 31 81 c0 bb
       -0.075151846 -0.012651561 0.043182496 -0.005874776

lstm.weight_ih_l0 f4 [512, 64]
000000 05 20 c8 3d 0d c0 96 3c bb 77 4e bc 00 78 d9 3d
       0.09771732 0.018402124 -0.012601788 0.10618591
000010 c5 43 b2 3a 56 c0 b4 3d 5a 04 af 3d cf 1a 93 3d
       0.0013600519 0.08825748 0.08545752 0.07182848
000020 e6 79 b4 3d f8 cf bc 3c 07 d8 19 3e 03 5a fd bc
       0.08812313 0.023048386 0.15023814 -0.03092671
000030 60 18 e8 3c 9f 40 16 3e 27 40 b2 3d c2 e0 25 3e
       0.028331935 0.14673088 0.08703642 0.1619902
000040 bb 67 dc 3c c7 23 be bc 3c db 12 3e 6b 41 e6 3c
       0.026904931 -0.02321042 0.14341444 0.028107366
000050 9a 29 9e 3d 3d 7b 16 3e 06 fa 8a bc 9e 2f 13 3d
       0.077227786 0.14695449 -0.016964924 0.035934083
000060 16 da 0d 3e b8 a9 04 3d c1 f6 ca 3d 9d f5 4a 3d
       0.13852724 0.03238842 0.09910346 0.04955064
000070 06 c2 83 3d a8 09 59 3c 18 45 bb bc d7 bb 82 3d
       0.064334914 0.013246931 -0.022860095 0.06383484
000080 9b 19 28 3d fd bf ed 3d 5e be f5 bc cb 58 d3 3c
       0.041040044 0.116088845 -0.029998 0.025799176
000090 31 3b 0e 3d 37 d5 e5 3c c4 cd cd 3d 87 17 0f 3d
       0.034724418 0.02805577 0.10049012 0.034934547
0000a0 df e4 bd 3d a1 9a dd 3d 80 8b 0a bd 3d 27 c3 3c
       0.09272169 0.10820509 -0.033824444 0.023822421
0000b0 88 3e 11 3e 95 6d 80 3d 51 b0 95 3d cc b9 5e 3d
       0.1418401 0.06270901 0.0730902 0.05437641
0000c0 05 2d b4 3d 32 64 83 3d f1 02 07 3e 5c 36 73 3d
       0.08797649 0.06415595 0.13184716 0.059378013
0000d0 26 d9 f9 bc 86 49 9d bc af 06 75 bc 01 96 08 3e
       -0.030499052 -0.019200098 -0.014955207 0.13338472
0000e0 9d 0e c0 bb 71 0c e0 3d c0 f3 de 3d 72 e0 6e 3d
       -0.005861117 0.10939873 0.108863354 0.058319516
0000f0 0f c8 e3 3d 76 c8 dd 3d 9b c3 8a 3d 36 7e 18 3c
       0.111221425 0.108292505 0.0677559 0.009307435
000100 d1 a0 95 3d 7d 4c 6d bc 0a e5 20 bd c1 3b 0e bd
       0.07306064 -0.014483568 -0.03928093 -0.034724955
000110 1d bc 45 bd 49 9a 8b 3d 95 d8 21 bd 0d 40 4a 3d
       -0.048275102 0.06816537 -0.03951319 0.04937749
000120 7a fa 50 3d 47 73 33 bd cf cd 3d bc 67 08 7b 3d
       0.051020123 -0.04381111 -0.011584713 0.06128731
000130 6a 50 99 3c 09 bb 8f bc 94 21 af bd 35 48 10 bd
       0.018715102 -0.01754524 -0.085513264 -0.035225112
000140 9f e6 6e bd df 7f b9 bc 48 77 18 3d bc ca 0c 3d
       -0.058325406 -0.022643982 0.03722313 0.03437303
000150 79 a7 86 bd cf 83 57 bd d3 ab 6e bd 4f 6e 98 3d
       -0.065749116 -0.052615937 -0.058269333 0.07442915
000160 7e ee 60 3d 20 d7 a4 3d 1b 91 04 3d eb d1 f0 3d
       0.054914944 0.08048844 0.032364946 0.11758789
000170 eb 23 81 bd b7 65 b8 3d df 69 a3 3d 7f fd 5c 3c
       -0.06305679 0.090037756 0.07979178 0.013488173
000180 1d 18 9a 3d 0c 90 77 3d 3b 25 56 3d 76 c7 b9 3d
       0.075241305 0.06044011 0.0522816 0.09071247
000190 a4 da e5 bb 0b 0d 1e 3d 5b 87 30 3d ef b0 d6 3d
       -0.0070145894 0.038586657 0.043097835 0.10482966
0001a0 78 7d 99 3c ae b1 47 bd 05 92 31 3d 99 eb 80 3c
       0.018736586 -0.048753433 0.043352146 0.015737342
0001b0 6d da 87 3c 3d e6 00 bd 12 02 ae 3d 08 da 18 bd
       0.016583646 -0.031469572 0.08496489 -0.037317306
0001c0 a5 cf 8a bd 3a 72 bc bd 7d 39 ae bc f8 b5 0b bd
       -0.06777886 -0.092014745 -0.021267647 -0.034109086
0001d0 b3 8d 9e 3c c5 f1 58 bd 9f 37 06 bd c8 39 bd 3d
       0.019354677 -0.052964944 -0.03276789 0.092395365
0001e0 89 90 fc bc ce 40 d7 3c 0b c2 ae 3d b5 de 8d 3d
       -0.030830638 0.026276018 0.085331045 0.069272436
0001f0 10 ec b3 3c af 48 c5 3b 84 4d da 3d e4 b8 58 bd
       0.02196315 0.0060206275 0.10659316 -0.0529107
000200 ac f2 fd 3d 67 da cf bc 73 31 e6 3d fd 3e 42 3d
       0.123998016 -0.025372697 0.112399004 0.04742335
000210 37 bc 29 bd e5 10 15 bc 4b 91 09 bd 31 a0 ea 3d
       -0.04143926 -0.009098266 -0.033585828 0.11456335
000220 98 21 70 3d 35 20 c3 3c 05 2b e6 3d a1 9d cb 3d
       0.058625787 0.023819068 0.11238674 0.09942175
000230 e6 f3 3e bd 7f 07 d7 3d d7 73 20 bc c3 c5 fa 3d
       -0.04661932 0.10499477 -0.009793243 0.12244751
000240 f9 ff d3 3d 05 06 f1 bc 20 9a e2 bc 02 1b 89 3c
       0.10351557 -0.029421816 -0.027661383 0.016736511
000250 7f 7a 1d 3c ba 7b 9c 3d bd f9 ba 3b 7f d2 a3 3d
       0.009611725 0.076407865 0.0057060407 0.07999133
000260 f8 7a 9a bc 0c ad 65 3d 2c da cd 3d ab 08 e5 bb
       -0.018857464 0.056073233 0.100513786 -0.0069895587
000270 b9 a6 9d 3c 90 c1 e9 bb 39 e5 d6 3d 71 17 2e 3d
       0.019244539 -0.00713367 0.104929395 0.042502824
000280 c6 a7 12 bc 92 92 b1 3d 05 40 15 3e be 78 58 bd
       -0.008951133 0.08670534 0.14575203 -0.052849524
000290 66 7a 78 3d 40 66 cd 3b dc b4 b3 3c 99 a8 8e 3d
       0.060663603 0.0062682927 0.021936826 0.06965751
0002a0 1f c8 2b 3d 2f 93 01 3e 80 67 29 3d ed 28 c6 3c
       0.041938897 0.12653802 0.04135847 0.024189437
0002b0 a2 5d 13 3c 3a a9 3b 3d f2 3b 23 bd 26 52 7b 3d
       0.008994492 0.045815684 -0.03985209 0.06135764
0002c0 5d 0d a1 bc 49 9d 80 3d b4 c3 c9 3d c5 f2 1a 3c
       -0.019659692 0.0628 0.098517805 0.009457295
0002d0 06 4c 60 3c c3 0d 00 3e 84 cb 31 bd 6e 9b 19 3c
       0.01369 0.1250525 -0.04340698 0.009375436
0002e0 4e 16 0e 3e ee 80 50 bc 25 57 cc 3d 54 b1 e2 3d
       0.13875696 -0.012726052 0.09977559 0.11068979
0002f0 9b b9 b0 3d c0 d9 dc 3b f9 7b 0a 3e 18 d9 82 3d
       0.086291514 0.006739825 0.13523854 0.063890636
000300 df 42 c3 bc 0d 28 94 3d 8b b4 6c bd 85 df 8f 3d
       -0.023835598 0.072342016 -0.057789367 0.07025055
000310 ff 47 79 3d 50 73 19 3c 25 9f 7b 3d 58 19 8c 3d
       0.060859676 0.009365872 0.06143107 0.068407714
000320 f1 8a b9 bc af 84 f7 bc 55 19 4b bc 87 4f e2 3c
       -0.02264926 -0.030214636 -0.012396176 0.027625812
000330 c8 49 d1 bb 4a a1 4b 3d ea e0 37 3d 1f eb 2b bd
       -0.0063869692 0.049714364 0.04489223 -0.041972276
000340 74 57 14 bd 6f 9e 4f 3d 10 74 00 3d 51 16 c4 bd
       -0.036216214 0.050688203 0.031360686 -0.09574569
000350 ed 99 a9 3d 03 f3 25 3d 7c 44 18 3d fa 36 4b 3d
       0.08281312 0.040514957 0.037174687 0.049612977
000360 30 16 e3 3d 46 7f 81 3d ce ba 0e 3d d3 20 ab 3d
       0.11088216 0.063231036 0.03484612 0.0835587
000370 9f ed e0 3d c5 85 ca bc f0 40 bf 3d 2f cf ca 3d
       0.109828226 -0.02472199 0.09338558 0.099027984
000380 a4 9b bf 3d c4 74 3b 3c eb 92 c6 bc aa 28 7a 3d
       0.09355858 0.011441413 -0.024239978 0.061073937
000390 91 18 30 3d 00 79 82 3d 4d 82 bc 3d 40 21 f0 3d
       0.04299218 0.06370735 0.092045404 0.11725092
0003a0 f0 29 c4 3d 6a f0 35 bd 87 c9 51 bc 41 cf c3 3d
       0.095783114 -0.04441873 -0.0128043955 0.09561015
0003b0 ae 69 e5 bd 7d ab 30 bc 44 20 98 3b a1 fc 29 3d
       -0.112017974 -0.0107830735 0.0046425182 0.04150069
0003c0 76 6c 37 3c 89 4a fd 3c 17 76 75 3d c0 3a 5e bd
       0.011195293 0.03091933 0.059927072 -0.054255247
0003d0 98 93 51 bd 07 fc 24 3d a5 84 40 3d 44 b4 82 3d
       -0.051166147 0.040279415 0.0470015 0.06382039
0003e0 c5 6f 17 3c f0 57 96 bc 3d 3f 2b bd 85 6e ca bc
       0.0092429565 -0.018352479 -0.041808356 -0.024710903
0003f0 37 a7 93 3d 0f f6 05 bd 5a ff 8d bc c6 74 c4 3c
       0.07209628 -0.032705363 -0.017333675 0.023981463

lstm.weight_hh_l0 f4 [512, 128]
000000 5a c9 7d 3d 91 39 7f 3d e3 c6 85 3b f3 11 f5 bd
       0.061959602 0.06231076 0.004082547 -0.11966314
000010 df 6f 96 bb b5 48 55 bd 58 80 e4 3d 9c 44 a9 bb
       -0.004590973 -0.052071292 0.11157292 -0.0051656496
000020 b2 24 16 be d7 c9 2f bd b0 e9 9e 3d ad 8b 79 bd
       -0.14662436 -0.0429171 0.07759416 -0.06092422
000030 be 7b 65 3c ed 70 a1 bd 6c 05 82 bb 1d 65 09 bc
       0.014006553 -0.07882867 -0.0039679315 -0.008385924
000040 1f b1 ee bd 9e b9 18 be 5a e5 ea 3d ba 2b 5a bc
       -0.11654877 -0.14914557 0.114695266 -0.013316089
000050 4f f2 3a bd af b3 c2 bd ea 52 38 3d 46 5e d8 3d
       -0.04564124 -0.09506928 0.045000948 0.10564856
000060 fd 34 1d be d1 17 0c 3b f8 de 93 bd e3 1e 5b bd
       -0.15352245 0.00213765 -0.07220262 -0.053496253
000070 7d 80 4e 3d 64 69 8f 3d af 24 49 bc 71 23 38 bd
       0.050415505 0.070025235 -0.012276812 -0.044955675
000080 ea 46 8a bd 6c f2 80 3d 19 6e a6 3d fc f9 92 bd
       -0.06751807 0.06296238 0.08126468 -0.07176587
000090 06 57 1b 3e c2 55 b0 bd 80 c5 cd 3b a7 cd 92 3d
       0.15169916 -0.08610107 0.0062796474 0.07168131
0000a0 70 15 6b bd 0b 35 1d be f2 eb c7 bd 97 06 b0 3d
       -0.05739349 -0.15352266 -0.097618 0.08595007
0000b0 be 32 f4 3d 5a 0d e5 3d 76 5e ba 3c ee c7 01 be
       0.11923741 0.11184187 0.02275012 -0.12673923
0000c0 d5 fe af bd 65 c0 fe bd 85 d7 57 3c 38 08 9e 3b
       -0.08593527 -0.1243904 0.013173942 0.004822757
0000d0 cf 5e 24 bc 47 01 8a 3d ee f0 9c bd 47 7b e2 bc
       -0.01003237 0.06738525 -0.07663141 -0.027646674
0000e0 4a f3 3d bd c2 fb 2b 3d 27 c4 d0 3c 71 87 48 bd
       -0.046374597 0.04198814 0.025484158 -0.048957292
0000f0 12 bd 9c bc 23 b0 c6 3d 98 11 96 bd 5b fc 54 bd
       -0.019133125 0.09701564 -0.073275745 -0.051998477
000100 1d 63 c0 3d d9 f3 c2 bc 09 87 c2 bc 34 f6 70 3d
       0.09393904 -0.023797916 -0.02374603 0.058828548
000110 7c 42 2d bc f2 9c 25 bd 18 1c 16 bd 29 bb 0d be
       -0.010574933 -0.040432878 -0.036647886 -0.13840927
000120 ae c5 81 bc d5 95 04 3e ec 32 cd 3c ca c3 00 3e
       -0.015841331 0.12947781 0.025048696 0.12574688
000130 85 e1 a5 bb 4f 9c 99 3d 2d e1 e8 3b 1e 63 1a bd
       -0.0050622844 0.075005166 0.007106921 -0.03769218
000140 38 ce c2 bc d9 9c 2b 3c 0c 8b 65 bd 0b a1 30 bc
       -0.023779973 0.010474407 -0.05604081 -0.010780583
000150 48 76 c0 3d 9a d9 84 bd fa 91 0e 3e b0 d9 5d bd
       0.0939756 -0.06486817 0.13922873 -0.05416268
000160 b8 fe 10 3c 97 a4 e6 3d db 49 df bb 06 2b cc 3d
       0.008849792 0.11261862 -0.006814224 0.099691436
000170 ae 1c 9f 3d 63 00 cf bd 7c f3 a2 bc dc ff 20 bd
       0.07769142 -0.10107496 -0.019891493 -0.039306507
000180 5f 4f 8f 3c 9c c0 63 3d 88 39 de bd 2d bd 93 3c
       0.017493902 0.05560361 -0.10850817 0.018034542
000190 95 0f 03 3e df 4c 96 bc c7 45 77 bc d1 c1 73 bd
       0.12798913 -0.018347202 -0.01509232 -0.05951101
0001a0 5f 5b 5a bd 6c 9e 7f bc c8 a5 27 bd 64 a3 d7 bb
       -0.053309795 -0.015601736 -0.040929586 -0.006580757
0001b0 38 78 50 bd 2c c0 da bd a7 a7 86 bd 3a 8c e6 bd
       -0.0508959 -0.10681185 -0.06574946 -0.11257215
0001c0 23 26 5f bd 25 dc 48 bc db 49 6e 3d 5c 80 9f 3d
       -0.05447973 -0.012259518 0.058175903 0.077881545
0001d0 2d e7 4f bd 6e 65 c5 3d f9 1e 07 be 99 38 96 bd
       -0.050757576 0.09638487 -0.13195409 -0.07335014
0001e0 6a bf b3 bd 3f 17 40 bd 3e b7 a4 3b fc ab 84 bc
       -0.08776744 -0.04689717 0.005026727 -0.01619529
0001f0 4f 26 dc bd d4 21 3c 3d 1b 9b 6b bd 54 d5 e6 bd
       -0.10749494 0.0459307 -0.057520967 -0.11271158
000200 f2 cf 7e bd 98 c3 40 3c 7b 57 60 bd 3c 9b 9d 3c
       -0.06221003 0.011765383 -0.054770928 0.01923906
000210 f6 c6 ba bd 9e d7 69 3d ee 3f bb 3c 2a a0 84 3c
       -0.0911998 0.057090394 0.022857632 0.016189653
000220 de 24 8c bd 45 2c ef 3d 30 28 ad 3c e5 cf e1 3c
       -0.06842969 0.116783656 0.021137327 0.027564952
000230 84 f3 96 bd 00 29 71 bc 1f 97 36 3d e9 5c 37 3c
       -0.07370666 -0.014719248 0.044577714 0.011191585
000240 a2 40 87 3d b0 66 14 bd b9 bf 5c bd 46 e2 cf bc
       0.066041246 -0.036230743 -0.05389378 -0.02537645
000250 93 39 79 3c df 2e c7 bd c2 62 9b 3d 2d 97 5a bd
       0.015211481 -0.09725737 0.07587196 -0.05336683
000260 b4 7b 17 bd e6 d0 9b bd 7a 5e c2 bd 0f 0b b5 bd
       -0.036983207 -0.076082036 -0.09490676 -0.0884
000270 ea 5c 9d 3d b1 bd 1b 3d f4 b7 a7 bc 45 5f f3 3c
       0.076837376 0.0380227 -0.020473458 0.029708514
000280 ba b2 8e bd c3 4c f8 bc 79 e9 ee bc df b0 98 bd
       -0.06967683 -0.03031004 -0.029164063 -0.074556105
000290 95 3f da 3d 09 eb c8 bd a1 28 c5 3d 57 93 62 3d
       0.106566586 -0.098104544 0.0962689 0.055316295
0002a0 14 e4 83 3c be 6a 90 3c ce d0 4b 3b 38 7d d6 3d
       0.016099967 0.017629024 0.00310998 0.10473102
0002b0 de a9 cb ba da 1c 2f 3d 26 0e 33 bd 18 4f 2b 3d
       -0.0015538295 0.042752124 -0.043714665 0.041823477
0002c0 d4 64 47 bd 73 bb fc 3c 58 68 d5 3d 33 6e 1f 3d
       -0.04868014 0.030851102 0.104202926 0.038923454
0002d0 1b c6 46 3c 1e d1 f7 bb 4a 09 cf bd 23 92 94 3c
       0.012132193 -0.0075627705 -0.101091936 0.01813609
0002e0 43 0d c5 bc 23 df 8b 3d 13 01 64 3d 4a f3 83 3d
       -0.024054175 0.06829669 0.055665087 0.06442888
0002f0 45 e5 74 3c da 7c 00 bd 97 cb eb 3b 28 4c ee 3c
       0.01494724 -0.031369068 0.0071959007 0.029089049
000300 b3 b1 70 3d e4 24 86 3d 24 05 92 3c 48 22 19 bd
       0.058763217 0.06550005 0.017824717 -0.03738621
000310 cd 53 36 bc a5 fa db bc eb 7e 30 bd 3a c4 57 bd
       -0.011128378 -0.026852915 -0.04308979 -0.05267737
000320 f3 a7 b6 3d 9f a9 20 3d a0 ca d5 3d cd a9 a1 b9
       0.089187525 0.039224263 0.10439038 -0.00030834824
000330 0b bc d5 3d 4a 0b 01 bc f4 0c e5 3c 13 4f 04 3d
       0.10436257 -0.007876227 0.027960278 0.032301974
000340 76 a7 fc bb 4d cf b9 3d 46 be 59 3d 75 5e f4 bb
       -0.0077103926 0.090727426 0.053159975 -0.007457549
000350 a0 4c 75 3d be 8f da bc 90 c4 e4 bc 3e 09 cb bc
       0.05988753 -0.02667987 -0.02792576 -0.02478468
000360 67 78 8b bd 08 b2 ee bb a7 7f 7c bc db fc 91 bd
       -0.06810074 -0.0072844066 -0.015411294 -0.071283065
000370 71 05 1b bd d0 f4 8a bd 7b 7b f9 3c 60 61 cb bd
       -0.037846986 -0.067849755 0.030454388 -0.09930682
000380 19 dd 71 3d 0d 56 26 bd 5c fe a6 3c 45 6d 80 3c
       0.059048746 -0.04060941 0.02038496 0.015677104
000390 0c b9 d1 3d d5 91 00 bc c6 3d 9c bb 1e 2a 4e bd
       0.10240373 -0.007847269 -0.004768106 -0.050333135
0003a0 0c 49 c8 bd 55 36 91 3d cb 40 c1 bd 5f 70 b5 bd
       -0.097795576 0.07090441 -0.094361864 -0.08859324
0003b0 e9 07 14 3d 94 f7 58 bc 6d 1a ba 3c 98 cd ea bc
       0.036140356 -0.013242621 0.022717679 -0.028662488
0003c0 e1 1c 19 bd 19 1b 31 bd d3 ce e0 3d c4 d7 bb 3d
       -0.037381057 -0.043238733 0.109769486 0.091720134
0003d0 24 a2 50 bc 6c 3a 09 3d a7 d1 6c bc fc c2 c7 3d
       -0.01273397 0.03350298 -0.014454282 0.09753987
0003e0 1b 3d c6 3c 39 09 d2 3c 92 87 23 bd 33 e0 6c 3d
       0.02419906 0.025639163 -0.03992421 0.057831
0003f0 04 96 fe bd 24 50 9c 3d 01 ea 15 3d 8a f0 e0 bc
       -0.12430957 0.07632473 0.036600117 -0.027458448

lstm.bias_ih_l0 f4 [512]
000000 9b c7 74 bb b5 ca 01 bd 30 6c 34 3c 74 51 e5 3d
       -0.003735042 -0.031687457 0.011012122 0.111971766
000010 3d 95 d7 3c cd a8 4d 3d 88 4b 85 3d 4c 23 d3 3c
       0.02631628 0.05020981 0.06508547 0.025773667
000020 7b fa a2 3b 69 c7 b9 39 11 0b 83 3d c2 66 6d 3d
       0.0049737073 0.00035434522 0.06398595 0.057959326
000030 f3 66 c7 b9 38 01 f3 bc 27 f4 dd bc fd 2c ac 3d
       -0.0003803294 -0.029663667 -0.02709396 0.08407018
000040 d9 29 a3 3d a9 7a a4 3d 92 1a 72 3d 72 41 d9 3c
       0.07966966 0.08031208 0.05910737 0.026520465
000050 7f 52 21 3d 47 4d 38 3d 46 34 04 3e f4 f4 b8 bc
       0.039385315 0.044995572 0.12910566 -0.02257774
000060 cb 5d c4 3d e7 60 c6 38 40 1d 77 3d 13 6c f2 bc
       0.09588202 9.459425e-05 0.06033063 -0.02959255
000070 fc 2a aa bc f9 49 b3 3d 47 99 d2 3d db 52 e4 3d
       -0.02077245 0.087543435 0.102831416 0.11148616
000080 90 e0 cd 3d 35 9c c2 3c 1d 65 f1 3c 85 27 04 3e
       0.100525975 0.023756126 0.02946716 0.129057
000090 5a 0b cf 3c 5a 88 ee 3c 4b 16 e4 bc 20 54 c8 3c
       0.025273968 0.029117752 -0.027842661 0.024454176
0000a0 b5 4f 7f 3d bd 83 c7 3d 94 7e 79 bd 56 cc 87 3c
       0.062331874 0.09741924 -0.06091173 0.016576927
0000b0 ae ae 4e 3d fb ef a6 3d ac 0a a9 3d 9e d8 fe 3d
       0.050459556 0.081512414 0.082539886 0.1244366
0000c0 bb 31 72 3d a1 37 06 bd 9a a8 cd 3d 65 ed da 3d
       0.059129458 -0.032767896 0.10041924 0.10689811
0000d0 0c 2f 1f 3e 5a 23 bc 3d 54 b7 f7 bb b0 fb f0 3c
       0.1554529 0.0918643 -0.007559696 0.029416889
0000e0 a2 3c 83 3d 1d 8a f2 3c b4 c6 f4 bc d4 46 9b bc
       0.06408049 0.029606873 -0.029879905 -0.018954672
0000f0 1b b8 4c 3d bc 9e b1 3c 42 e0 c3 3d 96 f1 6a bd
       0.049980264 0.021682136 0.09564258 -0.0573593
000100 a2 e1 82 3c 1c 4b e7 3d 74 e2 98 3d 71 b1 c6 3d
       0.01597673 0.11293623 0.074650675 0.09701813
000110 01 33 96 bb 44 f4 68 3d 9d 6d 27 3d 1a a3 e3 3c
       -0.004583717 0.056873575 0.04087602 0.027787734
000120 a2 ac 12 3d 21 84 01 3e c1 9b 8a bc 1f 5b b7 3d
       0.035809167 0.1264806 -0.016919972 0.08952927
000130 a6 65 24 3d 0d 42 c3 3c e3 0e cc bb f4 48 c5 3d
       0.040136002 0.023835206 -0.0062273606 0.09633055
000140 ef 1f bd 3c 8f fb 0c b9 48 0e 0f 3e 02 09 08 3d
       0.023086516 -0.00013445153 0.13970292 0.033211716
000150 1d 2a cf 3a ae c5 81 3c b0 d6 87 bc d7 e7 5b 3d
       0.0015805397 0.015841331 -0.016581863 0.053687897
000160 98 7c 30 3d 14 3d e4 3d fc 34 da 3d a7 ad 41 3c
       0.04308757 0.11144462 0.10654637 0.011821187
000170 cd e1 e1 3d b6 a9 05 bc 62 75 ec 3d 92 f6 fe 3d
       0.11029396 -0.008158138 0.115458265 0.12449373
000180 3e 3d 75 3d 0e 19 36 bd 8e 30 a1 3d d2 14 4d 3d
       0.05987286 -0.044457488 0.07870589 0.050068684
000190 c7 03 c8 3d c6 35 27 bd d5 24 ba bc 92 cb 82 3d
       0.097663455 -0.040822767 -0.022722641 0.06386484
0001a0 62 03 89 3d 09 0f e9 bb ea 6d 8e 3d 7f 68 89 bc
       0.06690098 -0.007112388 0.06954558 -0.01677346
0001b0 72 fa 24 bd 1c ca 0e bd 3e cf e4 3c 30 7f 46 3c
       -0.040277906 -0.034860715 0.027930852 0.012115285
0001c0 77 59 a9 3d 3d 25 6a 3d 0f 7e 18 bd 87 02 45 bd
       0.08269017 0.05716442 -0.037229594 -0.048098113
0001d0 be 95 ce 3c 7d c2 8a 3d 97 e2 ba 3d ae 21 14 3d
       0.025217887 0.06775377 0.0912525 0.036164932
0001e0 38 54 59 3d 9b 63 49 3d bd 1e 4f bd e5 ff d8 bc
       0.053058833 0.049167257 -0.050566424 -0.026489208
0001f0 d2 c4 8d 3d fa a6 25 bd f8 05 ea 3c cd c4 e3 3d
       0.06922306 -0.040442444 0.0285673 0.11121521
000200 b3 9f 09 bc 8f 36 55 3d 97 ba d3 bc 3c 4f 8d bc
       -0.008399892 0.052053984 -0.025845809 -0.017249696
000210 b3 e9 89 3d c3 9b 5b 3d a9 50 d7 3c f0 4c 3d 3d
       0.06734028 0.053615343 0.026283579 0.04621595
000220 f4 f0 8e 3d 4e e1 4b bd ea 3c 22 bd ea 11 21 3d
       0.06979552 -0.049775414 -0.039608873 0.039323725
000230 2f 6a 71 3c 76 72 ab 3d c8 14 e1 3d 8b 4a e6 3c
       0.014734789 0.08371441 0.10990292 0.028111717
000240 53 e6 03 3d 46 c5 48 3d 3f 9a cd bc 42 64 19 bc
       0.032202076 0.04901626 -0.025097964 -0.009362282
000250 e2 dd da 3d 6c 74 9d 3d 5f cf 67 3d 2e ff 1d bd
       0.10686852 0.07688221 0.05659425 -0.038573436
000260 12 1d 69 3d ad 54 53 3c b0 79 ee 3d 32 2b 91 3d
       0.05691249 0.012898606 0.11644304 0.07088317
000270 68 3c 0d bd 74 db 79 3d 1c 29 5c bc 1d 11 46 bd
       -0.034481436 0.061000302 -0.013437536 -0.048356164
000280 88 e8 c8 3d 1a 60 b6 3d 89 5a 02 b9 dd 3d f8 3d
       0.09809977 0.08905049 -0.00012431493 0.121211745
000290 44 3a 8e bb 01 c3 4a 3d 0c 3d 3b bc ff e1 3a bc
       -0.004340442 0.049502376 -0.011428129 -0.011406421
0002a0 80 79 d2 3d 68 8e 2b 3d c0 c5 4d bd 0b fe a0 3c
       0.102770805 0.041883856 -0.050237417 0.019652387
0002b0 c6 d0 f2 3b fa 63 98 3d 18 e8 8e bb fc dc fc bc
       0.0074101416 0.07440944 -0.004361164 -0.030867092
0002c0 08 8a b7 bc a3 37 24 bd 39 85 bd 3b c2 a0 2d bb
       -0.022404686 -0.04009212 0.0057837036 -0.0026493524
0002d0 d3 e5 7f 3a fa e5 27 bd 37 8d c6 3d 20 59 c2 3c
       0.00097617245 -0.040990807 0.09694903 0.023724139
0002e0 a4 70 13 3d 18 82 42 3d 38 47 27 3c 95 e5 01 bb
       0.035996094 0.04748735 0.010209851 -0.001982068
0002f0 43 b7 ba 3d 1e 62 ec 3d 1c 7b 98 3d d1 4b b5 3d
       0.09116986 0.11542152 0.07445356 0.088523515
000300 a0 b3 56 bc 71 d1 72 3d 22 b4 c7 3c 9c eb 48 3d
       -0.013104349 0.05928177 0.024377886 0.04905282
000310 df 7d 8b bd 9e 27 d1 3d 93 79 9d 3d 30 9e 8e 3d
       -0.068111174 0.102126345 0.07689204 0.069637656
000320 65 4b a0 bc c2 6d f0 3d eb 4f 02 bd 7d e9 43 bd
       -0.0195672 0.11739685 -0.031814497 -0.047830094
000330 0c 28 24 bd ce 2a 83 3c 7d ad c4 3c f3 44 37 3d
       -0.040077254 0.016011622 0.024008507 0.04474349
000340 12 8a 81 3d b0 14 6b bb d2 5b fd 3d 05 87 49 bd
       0.06325163 -0.0035870485 0.12371029 -0.04920103
000350 9e bd 32 bd a0 a2 f0 bc 89 41 af 3d d2 ed ca 3c
       -0.043637864 -0.02937442 0.08557422 0.024771605
000360 03 03 81 bc e7 d0 c3 3d fe 3c db bb cc cb 06 3d
       -0.015748506 0.09561329 -0.0066906204 0.0329092
000370 8b 1d 98 3d 33 a4 35 bd 20 fa ca 3d db 77 f3 3d
       0.0742751 -0.044346046 0.09910989 0.11888095
000380 59 e4 29 3e 8e 43 e4 bc 35 ba 70 bc 3c 20 ce 3d
       0.16591014 -0.027864244 -0.014692833 0.10064742
000390 61 05 42 3c e9 15 4f 3d 96 4e b7 3d 07 dd eb bc
       0.011842103 0.050558005 0.08950536 -0.028791917
0003a0 ae 1f e2 3d 2f e7 8e 3d 91 66 6e 3d 4a 18 cc bc
       0.11041199 0.069776885 0.058203284 -0.024913926
0003b0 03 8d da 3d 9a 3c 4a 3d 37 5d f5 3c 79 47 1f bd
       0.10671427 0.0493742 0.029951675 -0.03888652
0003c0 44 c3 6d bd 5c d3 78 3d 0f 8a cf 3d ef 26 b0 3d
       -0.058047548 0.060748443 0.101337545 0.08601176
0003d0 cf 2a 13 3d 54 11 22 bd 1b 2a 5c 3d f6 bf ee 3d
       0.035929497 -0.039567307 0.053751092 0.116577074
0003e0 fc 6e ee 3c 86 b7 ab bc 5b 8c 39 bb e6 84 ec 3b
       0.029105656 -0.020961534 -0.0028312418 0.007217991
0003f0 86 3e fa 3d 69 3c db 3c 0d 17 06 3d e5 50 0b bc
       0.12218957 0.026762204 0.032736827 -0.0085031735

lstm.bias_hh_l0 f4 [512]
000000 b8 b0 31 3d 7e 8c b4 3d 86 1f d0 3d 1b 8c 28 3c
       0.043381423 0.08815859 0.101622626 0.01028731
000010 d5 30 15 3d 0d 08 28 3d 5d 22 ea bc ac 21 07 3d
       0.036423523 0.041023303 -0.028580839 0.032991096
000020 d4 39 a3 3d 09 74 f5 bc ce 5a ef 3d ad 47 e6 3d
       0.07970014 -0.029962556 0.116872415 0.1124414
000030 d6 ac 4e bd 2b ab e2 3c 8c 84 87 bc 6b c1 34 3d
       -0.050457798 0.02766951 -0.016542695 0.04412977
000040 89 23 5b 3d 4d 07 c4 3d 1e 47 40 3d 19 0b f1 3d
       0.053500686 0.09571705 0.046942823 0.11769695
000050 fe ca 4a 3d bd 9e 1a 3d ef dd 03 bd c8 0c 09 bd
       0.049509995 0.03774904 -0.032194074 -0.033459455
000060 2a 10 93 3d e7 ec 9e 3d 1a d4 af 3d 50 5a 3d bd
       0.071808174 0.07760029 0.08585377 -0.046228707
000070 a2 98 4e bc 9a 20 93 bc 82 33 19 3d 63 87 8b 3d
       -0.012609633 -0.017959882 0.037402637 0.06812932
000080 c8 41 bb bc d2 94 f8 3c 3c 5c f8 3d 82 92 1a 3d
       -0.022858515 0.0303444 0.12126967 0.037737377
000090 8b 1c ad 3d 6c 92 fa 3d 07 4e e6 3d c9 cb c2 3c
       0.0845271 0.12234959 0.11245351 0.023778813
0000a0 94 e0 05 3e 24 a7 2a bc 24 3f 46 bc 81 b4 15 3c
       0.13073951 -0.010415826 -0.012100015 0.009137274
0000b0 c8 e0 71 3d 37 38 9f bc a5 23 f9 3c a5 e0 ef bc
       0.05905226 -0.019435985 0.030412504 -0.029281924
0000c0 70 eb b7 3d d6 9d 83 3b 6a 3b 92 3d 32 89 98 3c
       0.08980453 0.0040166182 0.071402386 0.018620107
0000d0 44 7a 9f 3d 74 81 11 3d 66 8b 51 3d 48 8c 02 3e
       0.07786992 0.035523847 0.05115833 0.12748826
0000e0 c9 c5 12 bd e2 cd d8 3d cc 41 39 bd 5c 1d 06 bc
       -0.035833154 0.10586144 -0.045228764 -0.008185711
0000f0 6a 1e 25 bd 88 e5 ba bc b6 9b 7d 3d 2f 12 f8 3c
       -0.04031221 -0.022814527 0.061916076 0.030282108
000100 49 0f 84 3d 41 c9 3c 3d 9a 91 b8 bc 4a 12 8c 3d
       0.06448228 0.04609037 -0.022530366 0.06839426
000110 72 b9 a8 3c 74 23 f2 3c 64 fd d1 3d bb 77 9d 3d
       0.02059624 0.029557921 0.102534086 0.076888524
000120 be 3a be 3d 5d da be 3d 71 96 0d bc f3 ae 87 3d
       0.09288548 0.09318993 -0.008641825 0.06625166
000130 ee 69 29 3c 53 df fe bc 83 ca d3 3c e6 ae db 3d
       0.010340197 -0.031112349 0.025853401 0.107267186
000140 28 1d d6 3d fb b8 1b bd 13 02 86 3d c8 9a 9f 3b
       0.1045478 -0.038018208 0.065433644 0.0048707463
000150 60 f6 95 3d d1 5c 94 3c ae a2 e9 bc df 1f e2 3d
       0.07322383 0.018110665 -0.028519955 0.11041235
000160 e4 44 c8 3c bb 82 67 3d ef e7 db 3d 56 1c d5 39
       0.024446912 0.05652116 0.10737597 0.00040647638
000170 7f 75 8d 3d 41 e1 4e bd c5 a4 14 bd fe 9a e8 3d
       0.06907176 -0.050507788 -0.03628995 0.113576874
000180 cf 02 dc 3c 0c cc 1e bd 94 57 cd 3d e0 d9 56 3d
       0.026856808 -0.038768813 0.1002647 0.052453876
000190 f2 a5 ca 3d 6b 62 a3 bb af bf 81 bc 23 fe d7 bc
       0.09894933 -0.0049860976 -0.015838472 -0.026366299
0001a0 75 60 b9 3d 69 bc 59 3d 65 05 e1 3d d9 0d 06 bc
       0.09051601 0.053158198 0.10987357 -0.0081820125
0001b0 c6 6b 6a 3c 0b 6a af 3d eb 11 cc 3c 81 d6 95 3d
       0.014307922 0.08565148 0.024910888 0.07316304
0001c0 15 6d 9d 3c 99 b4 95 ba fa 23 b2 bb de fb f4 bc
       0.019217053 -0.001142162 -0.0054364176 -0.029905256
0001d0 aa 7f 00 3e 53 4a f6 3c ab 73 4d 3d 43 6f 0a 3e
       0.125487 0.030064737 0.050159138 0.13519005
0001e0 61 de 48 3b f9 a1 f7 3d 83 29 eb 3d 26 ec e6 3d
       0.0030650126 0.12091441 0.11482527 0.112755105
0001f0 bf 32 18 bb 38 ab 51 3d 0f d8 98 3d 9f 54 5e 3d
       -0.0023223606 0.051188678 0.07463085 0.05427992
000200 b0 19 88 bc 69 57 35 3d f5 f1 66 3d 84 2c 89 bc
       -0.016613811 0.044272814 0.056383092 -0.01674486
000210 3c 61 60 bd b8 e4 85 bc 93 c4 5f 3c 42 5d 98 3d
       -0.05478023 -0.016344413 0.013657707 0.074396625
000220 8f 88 de 3d 08 36 02 3d c5 93 c2 3d 3e 31 03 3e
       0.1086589 0.03178981 0.09500841 0.12811753
000230 78 2c 9b b9 67 b3 3c 3c 33 da 5e 3d 8c a2 c9 3c
       -0.00029597036 0.011517382 0.05440731 0.024613641
000240 79 a3 c9 3d 61 97 df bc a7 79 26 bd 5f df fa 3a
       0.09845633 -0.027293863 -0.04064336 0.0019140056
000250 17 f4 f1 3d 9c 88 05 bd 95 b6 ec 3d c1 94 da 3d
       0.118141346 -0.032600984 0.11558262 0.10672904
000260 16 23 cf 3d 82 d9 42 3d 92 56 e7 3c 3e f4 dc 3d
       0.10114114 0.047570713 0.028239522 0.10788773
000270 4b f2 92 3d 04 b7 f5 3d 15 dd ae bc c0 97 3d bd
       0.0717512 0.11997798 -0.021345655 -0.0462873
000280 ec 4d c7 3d 2d 83 0e bb fe 1a fa 3d 11 8b a6 3d
       0.09731659 -0.0021745667 0.122121796 0.081319936
000290 e9 52 c8 bc 82 46 4f bc 49 18 b2 3d 28 24 91 bd
       -0.024453597 -0.012651088 0.08696038 -0.070869744
0002a0 4b 5b a1 3d 90 d4 63 3b 4d c2 17 bc 57 88 e4 3d
       0.07878741 0.0034764148 -0.0092626335 0.11158817
0002b0 a4 83 20 bd 84 7d a2 3c 52 7b 39 bc 1c 53 40 bd
       -0.039188042 0.019835241 -0.011320906 -0.04695426
0002c0 44 9f 8b 3d 44 84 74 3d aa 2c fc 3d aa d0 0b 3d
       0.06817487 0.05969645 0.123132065 0.034134544
0002d0 19 9f f9 3d 66 a4 07 3d 24 c6 32 bd 0b 13 0d 3e
       0.121885486 0.033115767 -0.043645993 0.13776796
0002e0 a7 f1 33 3d 21 c2 b3 3d ff 71 fe b8 08 2f 5f bc
       0.04393163 0.087772615 -0.00012132897 -0.013622053
0002f0 a2 2c 48 bc 7e 8e 4d 3d 32 d2 42 3d da 6c b9 3d
       -0.012217673 0.05018472 0.04756374 0.09053965
000300 d7 fd ec bc 8f 3d 97 bc d2 2e 56 ba 12 b4 78 3d
       -0.028929634 -0.01846197 -0.0008170429 0.060718603
000310 b9 08 70 bc 3d d7 9b bc 8b ea 42 bb 23 82 8e 3d
       -0.014650517 -0.019023532 -0.002974185 0.06958415
000320 91 c3 7b bc 6f 91 5a 3d 57 70 94 3d ec db 21 bd
       -0.015366451 0.053361353 0.072479896 -0.039516374
000330 c0 76 42 3d f3 cc e0 3d 84 17 57 bd be 8f 97 3c
       0.04747653 0.10976591 -0.05251266 0.018501159
000340 de dd ea bc f3 a7 0b 3d 1b cd de 3d 8d a9 1f bc
       -0.028670248 0.034095716 0.108789645 -0.009745014
000350 72 3b 19 bd 0e fe 99 bc 77 68 0b 3d ea df d3 3d
       -0.037410207 -0.0187979 0.034035172 0.103454426
000360 07 8c bb bc 73 09 35 3c c4 ac d9 38 d3 01 8d 3d
       -0.022893919 0.011049616 0.000103795464 0.068851136
000370 67 00 33 3b 4c 0d 1c 3c 3e 8c 16 bd bb 44 38 3d
       0.0027313472 0.009524655 -0.03675484 0.04498742
000380 a9 b6 91 3d e8 e7 8a 3d 05 0e c8 3d 47 97 59 bd
       0.07114918 0.06782514 0.09768299 -0.053122785
000390 4f 60 5e 3d 8f d8 71 bd 19 98 c3 3c 6b 3e b1 3d
       0.054291066 -0.059044417 0.023876237 0.086544834
0003a0 a8 95 12 3d 57 c4 b9 bc 72 10 b2 3d f6 71 8e 3b
       0.035787255 -0.02267663 0.08694543 0.0043470813
0003b0 a3 3f d2 3d c8 3e e4 3c 32 03 c4 3d 50 0d e1 3d
       0.10266044 0.027861968 0.09570922 0.10988867
0003c0 06 95 19 3d e7 a8 06 3e b0 4f 58 3d 7c 1c ce bc
       0.037495635 0.13150369 0.05281037 -0.025160067
0003d0 a9 71 56 bd 53 00 b2 3d 98 57 b8 3d 43 bc 3e bd
       -0.05235449 0.08691468 0.09001082 -0.04656626
0003e0 7d b6 93 3d 6c 7f 62 3c 07 ca 9e 3d 8b a5 a6 bc
       0.07212541 0.013824325 0.077533774 -0.020342609
0003f0 5f c8 19 bb ce f1 ff 3d 39 03 c2 3a ae 72 ba 3d
       -0.0023465378 0.124972925 0.0014801986 0.09103905
