models/cnn_lstm_model_training.pth (torch, 992486 bytes, 15 tensors)

cnn.0.weight f4 [32, 7, 3]
000000 b2 dd b8 3d 58 35 a5 bd 92 4a 07 be a6 25 c5 3d
       0.0902666 -0.08066815 -0.1321204 0.096263215
000010 1b d6 c0 bd ff 1c 1d be 0f 37 d7 3d f5 e7 06 be
       -0.094158374 -0.15343092 0.105085485 -0.13174422
000020 28 4a 20 3d 11 37 c8 bd 9b 87 75 3d 79 5e fa 3d
       0.03913322 -0.09776128 0.059943777 0.122250505
000030 f0 fe 8b bd 4d 91 c6 bc 52 11 3f 3e 86 43 21 3d
       -0.06835735 -0.024239207 0.18658951 0.039371036
000040 6a de 41 3d 27 2c f9 bc 6e e7 7a 3c 5c a2 47 be
       0.04733125 -0.030416561 0.015313966 -0.19495529
000050 e6 2f 30 bd 5f d3 c5 3c 6e 9c 41 3d 34 50 0c 3e
       -0.04301443 0.024148641 0.047268324 0.1370247
000060 49 78 5f be f8 8a eb 3b 94 75 f2 3d 1a 22 18 3e
       -0.21823229 0.007188197 0.118388325 0.14856759
000070 a7 82 de bd 77 9d 34 3d eb c7 33 be 25 f4 a0 bd
       -0.10864764 0.044095483 -0.17556731 -0.07859067
000080 f6 ba 7d 3d 21 80 5c 3e 41 a4 20 3d 5e e7 3a 3b
       0.061945878 0.21533252 0.039219145 0.0028519253
000090 79 e9 33 be c6 0a bb bd 56 00 4e be 34 2f fd 3d
       -0.17569532 -0.09132914 -0.20117316 0.12362519
0000a0 3f 07 55 3e 70 7b 12 3e 9d a1 a9 3b 57 5e 14 3d
       0.20803545 0.143049 0.0051767365 0.036222782
0000b0 04 ab 02 bd 41 43 1d 3d b2 9f 4f 3d d8 48 aa bd
       -0.031901374 0.038394216 0.050689407 -0.08314675
0000c0 9a f7 32 3c 99 e9 11 be cf be 46 bd 9e 0b b2 bd
       0.010923291 -0.14249267 -0.048521813 -0.08693622
0000d0 b9 39 cc 3d c9 e8 3a be dc 46 8d 3d 29 39 ae bd
       0.09971947 -0.18252863 0.06898281 -0.08506996
0000e0 1e 8a f9 3d 73 96 32 3e 08 0b 12 3e fa 36 00 be
       0.12184547 0.17440204 0.1426202 -0.12520972
0000f0 a3 40 fc 3a 05 d7 4c 3c 6d c2 76 bd 8f 90 e4 3d
       0.0019245337 0.0125024365 -0.060244013 0.11160385
000100 80 ea fa 3d c1 59 49 3d 10 08 1f 3b 5a 5b a6 3d
       0.122517586 0.04915786 0.002426628 0.08122893
000110 ef 47 da 3d 32 a2 35 3e 50 92 3b be fe 20 57 3e
       0.106582515 0.17737654 -0.18317533 0.2100868
000120 59 e4 cf 3c 6f 07 3c 3e 44 6c 5c be 71 63 09 3e
       0.02537744 0.1836221 -0.21525675 0.1341684
000130 be c3 ef 3d c3 d9 52 3e 80 f5 4d be 5a 7a 3a be
       0.11707257 0.20590882 -0.20113182 -0.18210736
000140 de bc 2f 3d d5 f1 93 3d 49 40 37 be 5d 0e 7c bd
       0.042904727 0.0722386 -0.17895617 -0.061537135
000150 c1 9b d9 3d 65 f1 b2 3d 94 a9 51 be 30 25 91 3c
       0.10625411 0.087374486 -0.20474845 0.017717928
000160 f5 19 6d 3c 8a b0 dc 3d 8e e2 04 3e d9 55 3d 3d
       0.014471521 0.1077586 0.12977049 0.04622445
000170 f8 bb 1b be d9 6b 93 3d 49 ff b8 bd 69 5f 49 be
       -0.15208423 0.07198305 -0.09033067 -0.19665302
000180 2f 9f 6a 3e a0 f2 20 3e 36 e4 3a be 19 04 31 be
       0.22912286 0.15717554 -0.18251118 -0.1728672
000190 4d 74 2b be a2 65 97 3d 3b dc 4e 3e bf 01 06 3e
       -0.16743584 0.07392432 0.20201199 0.13086604
0001a0 0b 03 bd bb 14 e2 33 3e 7c 2b 30 3e 1f e5 51 be
       -0.005768185 0.1756671 0.17204088 -0.20497559
0001b0 69 33 06 be 36 e5 f4 ba da f9 c0 bd 91 6d c7 3d
       -0.13105549 -0.0018684033 -0.094226554 0.09737695
0001c0 08 3c 20 3e 3d 52 04 3e 17 80 af bd fb cf 35 3d
       0.156479 0.12921996 -0.08569353 0.0443878
0001d0 d0 f0 69 3e d6 d4 05 be 06 21 40 3d 98 9c 90 3d
       0.22845769 -0.13069472 0.046906494 0.07061118
0001e0 af 2e 84 bc aa b3 60 3e eb c2 59 3e 49 b0 37 be
       -0.016135542 0.21943536 0.21265762 -0.17938341
0001f0 98 93 4e bd 29 f5 1e be 05 59 c4 bd 72 c8 20 3d
       -0.050433725 -0.15523209 -0.09587292 0.03925366
000200 bd 54 82 3d 24 49 fc bd 2a 8f d3 3c 66 07 62 be
       0.06363819 -0.12318638 0.025825102 -0.22073135
000210 29 3f 2a be 7a d7 9c bc 8a 96 3c b9 c6 61 cf bd
       -0.16625656 -0.019145716 -0.00017985157 -0.10126071
000220 3d 57 5d 3e 96 a2 0d 3e 57 d4 14 bb a5 c0 c5 3d
       0.2161531 0.13831553 -0.0022709572 0.09655885
000230 72 54 71 3d bc cd 6d be c6 d5 fd bc 00 ea 98 bc
       0.058918424 -0.23223013 -0.030985724 -0.018666267
000240 d9 8f bd 3d 87 05 5a 3c 33 40 6e 3d a4 84 d8 3c
       0.092559524 0.013306982 0.058166694 0.026430435
000250 9b ee 09 3e ae 3d d4 bd e4 2e bf 3c 47 fa 2e bd
       0.13469927 -0.10363327 0.023337789 -0.04271915
000260 26 64 72 bb 42 b7 01 3e 20 73 3f bd 66 82 e3 3d
       -0.0036985963 0.12667564 -0.04674065 0.11108856
000270 78 be 04 3d 97 02 24 bd 0c 27 9a 3d ae fb 13 3d
       0.032408208 -0.040041532 0.07526979 0.036128692
000280 58 e8 28 be 8a 46 3e 3e 8c ca a0 3c 8a 84 4d 3e
       -0.16494882 0.18581596 0.019627832 0.20070091
000290 39 68 0b 3e 85 a8 c1 bd b7 08 4b be b8 75 46 3e
       0.13613977 -0.09455971 -0.19827543 0.19380844
0002a0 5a 8d 2d bd 80 9a 7a 3d 99 c1 95 3d 30 ce e2 3d
       -0.04237113 0.0611825 0.073123164 0.110744834
0002b0 e6 e9 70 bd 12 60 f9 3d d6 e1 3f 3e 3b de 65 bd
       -0.058816813 0.12176527 0.18738493 -0.05612014
0002c0 fa 26 06 3d 3c 4f 12 3d 21 31 11 be 4d 6b 05 3e
       0.032752015 0.035720095 -0.14178897 0.13029213
0002d0 93 c1 64 3e 7a d4 58 3e a9 8e 0c bd 67 fa c3 3d
       0.22339468 0.21174803 -0.03431574 0.09569245
0002e0 a2 07 24 be 96 c0 4e 3e 95 c3 d7 bd 73 9d 68 3e
       -0.16018537 0.20190653 -0.10535351 0.22716312
0002f0 fa 21 95 3c 30 f5 a8 bd 37 9d f8 bd 8c 38 93 3d
       0.018204678 -0.08249891 -0.12139361 0.0718852
000300 1b 86 09 3e 65 4d d8 3d 7c 18 aa 3d e1 4a 8c 3d
       0.13430063 0.10561637 0.08305451 0.068502195
000310 d9 b4 b3 3d f6 ee f8 bd 4d 43 48 be 8a b4 cc 3d
       0.08774728 -0.12154953 -0.19556923 0.099953726
000320 f5 70 1d be 36 8b 7c bb 3d b8 6d bd d7 7c 5b be
       -0.15375121 -0.0038535125 -0.05803703 -0.21434341
000330 ec 86 19 3e fe 53 da 3d 3a e7 01 3d 30 a0 9e bb
       0.14992875 0.106605515 0.031714655 -0.004840873
000340 20 90 28 3e 21 08 7d bd 6a 80 27 bc d3 df e8 bd
       0.1646123 -0.06177533 -0.010223487 -0.11370816
000350 fd d1 10 be 7a 3e 18 3e 0e 10 dc bd 64 0c 46 be
       -0.14142604 0.14867583 -0.1074525 -0.19340664
000360 a7 d9 46 bd 04 e7 a9 bd 79 59 76 bd 81 66 91 bd
       -0.048547413 -0.08296016 -0.06014392 -0.07099629
000370 2f f9 ea bc 0b 92 53 be 4c 74 e7 bc 5f 1d 12 bd
       -0.028683273 -0.2066118 -0.028253697 -0.03567254
000380 8a f9 f1 bc 60 9d 8e bd 59 46 ad 3b 47 b9 83 bc
       -0.029537935 -0.06963611 0.005287927 -0.016079558
000390 e8 86 27 be a6 0a a7 bd 3f a5 26 3d de 62 70 3e
       -0.16360056 -0.08156328 0.040684935 0.23475215
0003a0 2d d3 db 3d f1 90 0e be d5 0b 81 3d 38 f5 98 3d
       0.10733638 -0.13922478 0.06301085 0.07468647
0003b0 89 72 01 3e 4b 4c 57 bd 38 3d 32 bc f3 d5 e5 3d
       0.12641348 -0.052562993 -0.0108788535 0.11222448
0003c0 57 29 03 be 46 e2 82 3d cb ec 87 3d ee 09 50 3d
       -0.12808739 0.063908145 0.066369615 0.05079072
0003d0 09 b4 87 3d b4 c6 1a be 96 86 ac 3d 22 40 2f 3e
       0.06626136 -0.15114862 0.08424108 0.17114308
0003e0 0b 66 16 3e 91 91 85 3d a7 45 f2 bd 21 fc 06 3d
       0.14687364 0.06521905 -0.118296914 0.032955293
0003f0 08 98 98 bd f7 25 c4 3d 23 98 2f 3e e4 5f 86 bd
       -0.07450873 0.09577554 0.1714788 -0.065612584

cnn.0.bias f4 [32]
000000 b4 65 c6 bd 9c fc 18 be 1f 0f ac bd 54 9d 11 be
       -0.09687367 -0.14940113 -0.084013216 -0.14220172
000010 fe 2d 4e 3e 42 96 ce bd 9f f7 19 be 2e 0d 41 3d
       0.20134732 -0.10087253 -0.15035866 0.04713171
000020 19 99 0c 3d a6 65 bb 3d 92 64 28 be 29 4c 7c 3d
       0.034325693 0.09150247 -0.16444615 0.06159607
000030 97 5c 75 3e 3b f1 f1 3d 10 ee 9e bd bf 87 00 bd
       0.23961101 0.11813589 -0.077602506 -0.031379458
000040 e8 8d 07 be f6 ec 07 bd 67 32 1c 3e ad 8e 4f 3e
       -0.13237727 -0.033184968 0.15253602 0.2026927
000050 ba c6 82 bd 50 48 e6 bd a6 3b 96 3d 2f 49 9e 3d
       -0.0638556 -0.11244261 0.07335596 0.077288024
000060 68 3c 2d bd c1 e9 92 bd ac 77 23 be 93 74 19 be
       -0.042293936 -0.07173491 -0.1596362 -0.14985876
000070 fb 0d 88 bd 3c 85 29 be d0 a3 30 3b 4f 8e 10 be
       -0.066432916 -0.16554731 0.0026953109 -0.14116786

cnn.3.weight f4 [64, 32, 3]
000000 7c fd 05 bc 6b dc e6 bc 9b 8c 96 bc f0 10 9f bc
       -0.008178111 -0.028181275 -0.018377593 -0.019417256
000010 bf 12 6c bd 69 95 a5 bd 1b a8 c6 3d a2 08 f2 3d
       -0.057635065 -0.08085138 0.09700032 0.11818053
000020 26 97 b8 bc 59 42 4f bd 52 ac 6b bd ee e7 1a 3d
       -0.02253301 -0.050600383 -0.057537384 0.03781884
000030 5d 00 73 3d 59 fe 2e 3d b7 76 92 bd b2 0e 0d 3c
       0.05932652 0.042723034 -0.07151549 0.008609461
000040 ea f4 48 3d ff 99 7a bd 38 42 aa 3d b1 95 08 bd
       0.049061693 -0.06118202 0.083134115 -0.03334588
000050 ce 9b 0a bd 5f 72 3c bc 35 35 84 3d 10 1d 2f bc
       -0.033839993 -0.011501878 0.06455461 -0.010688081
000060 81 d3 34 3c 0d e8 b4 bc ef 54 13 3d 95 e8 22 3d
       0.011036755 -0.022083307 0.03596967 0.03977259
000070 7e 0f 7a ba a2 1f 4e bc 89 29 e0 bc 04 8b d3 3c
       -0.00095390517 -0.012580784 -0.027363556 0.025823124
000080 98 cd ae 3d b7 77 b3 bc e0 c1 59 3d 04 06 0c 3d
       0.08535308 -0.02190767 0.05316341 0.034185424
000090 a3 37 bc bd 8b c5 b4 3d f7 8f ad bd ba 94 1c bd
       -0.09190299 0.08826741 -0.08474725 -0.038227774
0000a0 2d df 41 3d 07 70 35 3d 9a 20 04 3d 8a 8b 9f bd
       0.047331978 0.04429629 0.032257654 -0.07790287
0000b0 28 e0 83 bd df ac 63 bd 65 ec cd bd 6b 88 3c bd
       -0.06439239 -0.055584785 -0.10054854 -0.046028536
0000c0 1e 20 3f 3d fb c4 9a 3d 59 ea 8c 3c f4 00 3b 3c
       0.04666149 0.07557102 0.01720159 0.011413801
0000d0 97 d1 ee bb b3 10 97 bd 03 b7 87 bb 60 f2 5c bd
       -0.0072881687 -0.07376232 -0.0041416897 -0.053942084
0000e0 18 ae 68 3c b1 85 cc bd 86 06 ab bd 6c 55 e4 bd
       0.014201663 -0.09986437 -0.083508536 -0.111491054
0000f0 03 f6 4e bd b1 86 9c 3d 6c 0a 46 bb a8 6b bd bb
       -0.050527584 0.07642878 -0.0030218614 -0.005780656
000100 40 f4 2e 3c 29 e7 58 3c 75 9f 80 3c 9f 65 be bd
       0.010678351 0.013238707 0.015701035 -0.092967264
000110 d4 4e 7e bd b9 d7 df bd c8 b5 e4 39 d8 ee 81 bd
       -0.062086895 -0.10929818 0.00043622986 -0.06344384
000120 af 3b b4 3d 93 af 10 3d bd 13 82 3d 3f 74 99 3d
       0.08800446 0.03532369 0.06351421 0.07492875
000130 cc 45 8c 3d 9f b6 52 3d d8 f2 1d bd b8 1b a6 3d
       0.0684925 0.051443692 -0.038561672 0.08110756
000140 6b ec e0 3d c6 e5 52 3d 93 d7 a6 bd 07 8b 01 3d
       0.10982593 0.05148866 -0.08146586 0.031626727
000150 c7 31 52 3c ef e5 c0 bd 7f e6 95 3d b2 43 ec 3b
       0.012829251 -0.09418856 0.07319354 0.0072102183
000160 1b 16 fa bd 83 ca 91 bd 04 67 9b bd 1c d8 e4 3b
       -0.122112475 -0.07118704 -0.07588008 0.00698377
000170 a3 0d 7a 3c 3c 30 cb bd b9 05 91 3c e6 34 87 bd
       0.01526204 -0.09921309 0.017702924 -0.066018865
000180 75 a8 bc 3d a5 52 fd bc fa 81 bc 3b 61 e3 25 3d
       0.09211818 -0.030923197 0.005752799 0.04050005
000190 cf b6 8d bb 66 46 b6 3d cd 3f c1 3a c7 94 06 3e
       -0.004324771 0.08900146 0.0014743746 0.13142692
0001a0 58 56 9d 3d 07 24 8b 3d 0a d4 a9 bd 8f ee 42 bd
       0.076824844 0.06793981 -0.08292396 -0.04759079
0001b0 1c a7 01 3d 54 83 b2 bd 95 a6 b5 bc f2 5b c9 3d
       0.03165351 -0.08716455 -0.022174159 0.0983199
0001c0 4e 43 2b 3d 2c 7c 81 bc e4 96 52 bd ac 81 8d bc
       0.041812234 -0.01580628 -0.05141343 -0.017273746
0001d0 81 6f 9c 3d 06 c5 98 3d 99 32 3a 3d be 85 35 3b
       0.07638455 0.07459454 0.04545841 0.0027698125
0001e0 8d 63 8f 3d 3a e8 ee 3b 29 b3 9c 3d 8f ff 8e 3d
       0.0700141 0.007290867 0.076513596 0.06982338
0001f0 06 45 c0 bc 49 e0 25 3c 62 13 22 3d 76 71 a0 3c
       -0.023470413 0.0101242745 0.039569266 0.019585352
000200 76 84 8c bc 04 00 60 3c 99 71 16 3c bc f4 82 3d
       -0.017153006 0.013671879 0.009182357 0.06394336
000210 b3 0a d2 3d dc 87 bf bd 45 69 57 bc 26 c9 9f b8
       0.10255947 -0.09352085 -0.013147657 -7.6191776e-05
000220 0a 79 98 bc c9 8e 5d 3d 60 8e 8d 3d aa 20 7d bd
       -0.018612403 0.05409125 0.069119215 -0.06179873
000230 5a ac 93 bb a7 d3 76 3d ec a4 80 3d b8 20 bc 3c
       -0.00450663 0.06026044 0.06281456 0.02296482
000240 af 3b 25 bd ab d0 0e bd a7 83 a0 3d 96 d5 82 3c
       -0.04034012 -0.03486697 0.07837611 0.015970986
000250 e8 5f 3b bd ce 81 15 3c 34 9f e9 3b 23 e4 3c 3d
       -0.04574576 0.009125186 0.007129574 0.046116006
000260 60 e1 99 3d ca f8 96 bd 2b 15 64 bd b5 68 d0 bd
       0.0751369 -0.073716715 -0.05568425 -0.10176221
000270 5a ca 4d 3c d1 8d c7 3c 27 fe 58 3d 18 ab 8d 3d
       0.012560451 0.024359616 0.052976754 0.06917399
000280 65 cf 47 3d b0 c2 85 3d 03 38 0a bd b1 99 3f 3d
       0.04878177 0.06531274 -0.033744823 0.04677743
000290 82 84 88 bc 83 ab a0 3d a2 50 4e bd e0 d3 95 bd
       -0.016664747 0.07845213 -0.050369866 -0.073158026
0002a0 bf 61 d8 bd 57 65 b3 bd 1c 24 b4 bd c7 ad 9b bd
       -0.105655186 -0.087595634 -0.0879595 -0.07601505
0002b0 02 23 70 3d a1 c0 cf bc b8 19 78 bd c7 0f 8b bd
       0.058627136 -0.025360407 -0.060571402 -0.06790119
0002c0 5d f6 4a 3d f4 e0 a2 bd cb bb 9d bd 72 b9 7f bd
       0.049551357 -0.07953063 -0.07701834 -0.062432714
0002d0 4d e7 83 bd 73 66 83 bd c3 02 1f 3d e0 3d b6 bd
       -0.064406015 -0.06416025 0.038820993 -0.088985205
0002e0 f5 68 b5 bd 65 ff 7b bd 5f e0 4f bd b1 96 14 3d
       -0.088579096 -0.06152286 -0.050751086 0.036276523
0002f0 ec 4e 28 bc 2c ec 57 3d f8 c2 88 3c 86 db 56 3c
       -0.010272723 0.052715465 0.01669453 0.013113862
000300 d2 20 b2 3d 22 10 41 bd 31 b4 dc bc 59 7f 8e 3c
       0.08697666 -0.047134526 -0.02694139 0.017394708
000310 35 af 39 ba a0 89 85 3d 4b 48 11 3d 38 d9 f2 bc
       -0.0007083298 0.065203905 0.035469335 -0.029644594
000320 b2 81 f6 bd 6f 2a 74 bd fd 91 0c 3d 84 81 e5 3d
       -0.12036456 -0.05961078 0.034318913 0.11206344
000330 54 32 ce 3c 57 75 a6 bd e4 cb cd 3c 6b ce 2d bd
       0.025170483 -0.081278495 0.025121637 -0.042433184
000340 ce c6 d8 3d 44 bc 1b 3c fa 82 68 3d c2 74 af 3d
       0.10584794 0.009505335 0.056765534 0.08567192
000350 d8 f1 ac 3c 30 cb d7 bc b5 7f 6c 3c 29 0e ee 3d
       0.021111414 -0.026342005 0.014434745 0.116237946
000360 46 25 1f bd c8 39 6e 3c 13 57 b7 3c 17 a8 b6 3d
       -0.038853906 0.014540143 0.022380387 0.08918779
000370 a0 08 80 3d 12 f4 8c bc f7 b6 62 3c 6c ac b1 3d
       0.06251645 -0.017206226 0.0138375675 0.08675465
000380 3f df c7 bd 59 3e 08 bd 5c c7 bf 3d 58 bc 4c 3d
       -0.09759378 -0.033262584 0.09364197 0.049984306
000390 02 63 93 3d c9 70 13 3d d2 ec 15 3d 1e 1a b7 3d
       0.071966186 0.035996232 0.036602803 0.08940528
0003a0 49 0e 9c bd ca 16 80 3d 35 d9 95 bd 68 30 5b bc
       -0.07619912 0.06254347 -0.073168196 -0.01337824
0003b0 a8 89 7b 3d 7c 7d 19 bd 7b 4c 60 bd 09 6e 5b bd
       0.061410576 -0.037473187 -0.054760437 -0.053571735
0003c0 ca 3e 6f bd a3 52 aa bd e8 fa f7 bd 6d 90 b6 bd
       -0.05840949 -0.08316543 -0.121084034 -0.08914266
0003d0 0b 80 94 bd f1 ec c0 bd 00 83 64 3d 2c d9 7b bd
       -0.07250985 -0.09420193 0.055788994 -0.061486408
0003e0 39 d1 b2 bd 97 00 f0 bc cc 3b ac bd f2 0f ca bd
       -0.08731312 -0.029297156 -0.08409843 -0.098663226
0003f0 eb 04 4d 3c cd fb 37 3d 7b 82 00 bd 8f 64 11 3d
       0.01251338 0.04491787 -0.031374436 0.03549629

cnn.3.bias f4 [64]
000000 93 ef 9c bc 38 01 a7 bd 12 cf e0 bc 39 b9 3d bd
       -0.019157207 -0.08154529 -0.027442489 -0.04631922
000010 eb 47 c1 3d 41 4b d8 3c 94 6a 02 3e 60 11 6a bd
       0.094375454 0.026403071 0.12735969 -0.057145476
000020 a2 43 03 3d 34 d8 79 3d ee 62 2d bd e1 4a e0 3d
       0.03204692 0.060997203 -0.042330675 0.10951782
000030 88 aa 86 bc ec 54 a7 bd 54 68 d7 3c 9d fa bf bd
       -0.016438738 -0.081704944 0.026294865 -0.093739726
000040 3e 0c 00 3d 9d 62 2b 3d b0 3f b1 bd 25 c0 9c 3d
       0.031261675 0.04184209 -0.086547256 0.07653836
000050 a4 8d 87 bd c0 e4 5b bd 40 fd d0 3c 48 18 0b bd
       -0.06618813 -0.05368495 0.025511384 -0.033958703
000060 58 e8 d4 3d 8c 05 6e bd 10 27 0c 3c 77 62 33 bd
       0.103958786 -0.05811076 0.008554235 -0.043795075
000070 54 f8 0a bc 46 9a b8 bd 6c 26 eb 3b a0 e7 d1 3d
       -0.008482058 -0.090138 0.007176211 0.10249257
000080 a7 43 27 3b 7d af a4 3d 27 e0 68 bd a3 ff cd bc
       0.0025522502 0.08041284 -0.056854393 -0.025146311
000090 f2 8d ab 3d a6 6a 91 3c 28 1f 54 3c 05 20 a5 3b
       0.08376683 0.01775105 0.012946881 0.0050392174
0000a0 e1 79 c7 bc f2 3c 9c bd d6 73 76 3d 8d 23 92 3d
       -0.024350109 -0.07628812 0.060169064 0.07135687
0000b0 42 9a 74 bd 59 e3 04 3d 7a 04 dd 3d d6 6c 87 bb
       -0.059717424 0.032443378 0.107918695 -0.0041328473
0000c0 94 7e 85 bd 0d 96 bc bd 0d 16 ab 3d 10 2c b3 3c
       -0.065182835 -0.092083074 0.08353815 0.021871597
0000d0 3c 99 48 bd 3e d6 e1 bc 8f 01 f5 bc 79 20 88 bd
       -0.04897426 -0.027567979 -0.02990797 -0.06646819
0000e0 60 2e 64 3d 86 bc f4 3c 39 95 b4 bc ee 65 d3 3c
       0.05570829 0.029875051 -0.022043811 0.02580544
0000f0 5c 9d 6e bd f2 bc 51 3c 91 46 96 3d 5b 5c 11 3d
       -0.05825554 0.012801396 0.07337678 0.035488468

lstm.weight_ih_l0 f4 [512, 64]
000000 a4 47 05 bd 6f 6e 07 bd a9 94 2c 3d ed b8 4c bd
       -0.032539025 -0.033064302 0.04213396 -0.049981046
000010 86 a9 2d 3d e4 a9 72 3d 34 db a5 3d c7 3a 0c 3d
       0.042398 0.05924405 0.0809845 0.034235742
000020 ad d9 35 bd e9 b1 50 3d e5 4f e0 3c 8b 67 a7 3c
       -0.044397045 0.05095092 0.027381847 0.020435115
000030 d0 71 13 bd e2 3b 02 3d 53 9b a0 3d 93 3e eb 3d
       -0.035997212 0.03179539 0.07842126 0.114865445
000040 26 11 ee bb 95 b0 ef 3c e2 09 8d bd 22 27 14 bc
       -0.007265228 0.029259006 -0.068866506 -0.009042533
000050 67 3d a1 bd 36 3e 5a 3b 31 63 a5 3d b2 19 30 bd
       -0.0787304 0.003330124 0.0807556 -0.042993255
000060 a4 f9 0e bd 7a a1 8a bc 0d 9f 00 3d 60 1e 8e 3d
       -0.034906045 -0.016922701 0.031401683 0.06939387
000070 33 93 44 3d ef ca 91 bc fd a2 83 bd 40 33 01 bd
       0.047991943 -0.017796962 -0.06427572 -0.031543016
000080 24 e6 d2 bc 3e ba 9d 3d a6 ec 4f bc 0c 06 1c bd
       -0.025744505 0.077015385 -0.012690699 -0.038091704
000090 ca 95 56 bd f5 18 bc 3d e2 d9 ae 3c 12 62 47 bc
       -0.052388944 0.09184448 0.021344129 -0.012169378
0000a0 25 6b d1 bc dc 34 09 3e 02 28 80 3d 14 33 53 bd
       -0.025563786 0.1339907 0.06257631 -0.051562384
0000b0 ef dc d2 3d b9 36 19 bd 52 30 a0 3d c9 f9 48 3d
       0.10296046 -0.037405703 0.07821716 0.04906634
0000c0 a8 7d 49 3d 6d fe 48 bd 31 d6 89 3d 10 ae e2 bb
       0.0491921 -0.049070764 0.06730307 -0.0069177225
0000d0 79 34 86 bd d8 a6 ce bc b4 c5 de 3d 3d 02 e8 bc
       -0.06552977 -0.025226042 0.10877553 -0.02832138
0000e0 3a 29 ef bb 5b 7d c6 3c 25 ea b1 3d 32 96 e7 3d
       -0.0072986158 0.024229696 0.08687238 0.11307944
0000f0 53 5d 94 bd 95 d7 b3 3d 61 d7 f8 bc 78 ec 0c bd
       -0.07244363 0.087813534 -0.030376138 -0.0344052
000100 0d d3 99 bd a5 ac 14 bd ac f1 49 3d d3 75 88 bd
       -0.07510958 -0.03629746 0.049302742 -0.06663098
000110 3e cd d4 3c 76 56 b5 3d 5c b4 06 3e 69 8e d7 3d
       0.025976773 0.08854382 0.13154739 0.105252095
000120 fc 9e e4 bc 8e 01 c9 3d 98 1d a2 3d 82 5c 30 3d
       -0.02790784 0.0981475 0.07915801 0.043056972
000130 cb df 11 bc 65 2f 0b 3d d1 12 a7 3d 56 aa bb bc
       -0.008903454 0.033980746 0.08157886 -0.022908371
000140 cf 4e 55 3d 22 80 2b bd 9b 40 04 3d e6 81 b3 3d
       0.05207711 -0.041870244 0.032288175 0.087650105
000150 3c c9 ac 3d 45 8d 4d 3d 34 c8 9a bd d3 c8 4e 3d
       0.0843682 0.050183553 -0.07557717 0.05048449
000160 88 1e 17 3d a5 23 bc 3d fb fe 88 3d 46 cd ac 3d
       0.03689435 0.09186486 0.06689259 0.0843759
000170 6d fc bb 3c bd 8d 9f 3b 96 64 57 3d 65 63 89 3a
       0.022947514 0.0048691914 0.05258616 0.0010481892
000180 75 35 1d bc 97 b7 e0 3d dd 45 2b 3d 1f 68 c4 3d
       -0.009595265 0.10972517 0.041814674 0.09590172
000190 62 b7 dc 3d 66 c6 4e 3d 92 e8 16 bd 55 d9 46 3d
       0.10777165 0.050482176 -0.03684289 0.048547108
0001a0 90 08 ab 3d ee 02 06 3d d6 8c ea 3c ca 2e bc bb
       0.083512425 0.032717638 0.028631609 -0.0057428824
0001b0 30 53 9b 3d ac eb 43 3c a2 34 08 3d 81 59 0c bd
       0.07584226 0.011958044 0.03325332 -0.034265045
0001c0 85 cc 28 3d e9 8a a8 bc fa b6 bc 3d 0c 34 54 bd
       0.04121067 -0.02057405 0.092145875 -0.05180745
0001d0 7b 93 93 3d 76 50 e0 3d 72 34 82 3c 36 56 8e 3c
       0.07205864 0.10952847 0.015894148 0.017375093
0001e0 63 7e bc 3c ad c5 87 3a ad 2f 62 3c e6 90 aa 3d
       0.023009485 0.0010358595 0.013805312 0.083284184
0001f0 ff c6 e9 3c 31 0c 01 bd 11 f4 02 bd 66 00 39 bd
       0.028537272 -0.031505767 -0.03197104 -0.045166396
000200 47 c2 84 bc 6a dd 44 bd 5b 64 31 3d 0a 79 b0 bc
       -0.01620592 -0.04806272 0.043308597 -0.02154209
000210 d6 0d 90 3d 47 62 95 3d 80 9a 3f 3c e3 26 11 3c
       0.07033889 0.072941355 0.0116945505 0.008859369
000220 bd 9a f6 bb a7 cf 52 bd 82 ce 35 3d d3 b7 c3 bc
       -0.0075257705 -0.051467564 0.044386394 -0.023891365
000230 25 a6 0b bb 9f 3a b2 3d d1 e3 ac bc 77 6e 62 bc
       -0.0021308747 0.08702587 -0.021104725 -0.013820282
000240 84 07 8a bc 60 62 d8 3d 8c ec 7c 3d bd 5c 93 3d
       -0.016849287 0.105656385 0.061749026 0.07195423
000250 4b 83 66 bc 4c d4 a8 3d a8 7c d0 bc c5 be a8 3d
       -0.014069389 0.082436174 -0.025450066 0.082395114
000260 12 62 b5 3d 58 0e 7b 3c 15 b8 3c bc e2 b7 61 bd
       0.08856596 0.015323244 -0.011518498 -0.055107005
000270 5f fa a5 3d 11 32 4e bd d5 59 94 3d 3c 19 b6 3d
       0.08104395 -0.050340716 0.072436966 0.08891532
000280 34 8e 58 bd e4 d8 fe 3d 37 2c 48 bd 3e 5f 33 3c
       -0.05286999 0.12443712 -0.04887029 0.0109480005
000290 6a 44 93 bc 84 38 b5 3d 81 1d f2 bb 42 05 e1 3d
       -0.017976958 0.0884867 -0.007388771 0.10987331
0002a0 48 cb 2e 3d ae b8 32 3d 4c d5 99 3d c7 e3 e0 3d
       0.042674333 0.043633156 0.07511386 0.10980945
0002b0 23 fd 0e 3d 3c c3 aa bb 31 7c 8b 3d 20 60 3a 3d
       0.03490938 -0.005211262 0.06810797 0.04550183
0002c0 30 a5 b3 bc 2d 71 d3 b9 b8 b9 94 bd 55 04 fa bc
       -0.021929353 -0.0004032938 -0.072619855 -0.030519644
0002d0 00 68 ae bc 58 0d e2 bb d7 7a 20 3d d5 1c 70 bc
       -0.021289825 -0.0068985634 0.03917965 -0.014655312
0002e0 e6 76 80 3d 1d ec 97 3d 27 9b f2 3c 46 09 61 3d
       0.06272678 0.07418082 0.029614998 0.054940484
0002f0 43 0c c8 bd 0b 8c 13 bd 78 5b 21 3d af d1 49 bd
       -0.09767964 -0.036022227 0.039393872 -0.049272235
000300 f7 44 ac 3d a1 c1 4f 3d b0 8c cb 3d 36 1f bd 3d
       0.084115915 0.05072177 0.099389434 0.09234469
000310 76 fc 7f 3c 2d 1d e5 3d cb f3 ba 3d f4 2d 98 3b
       0.015624156 0.111872055 0.09128531 0.00464415
000320 04 e9 34 bc 44 f5 20 bd b3 6f 25 3c 1b 54 f3 3d
       -0.011041883 -0.039296404 0.010097432 0.11881276
000330 c5 bd 08 3d ab fa 83 3d f0 53 6d 3c f0 ea 1e bd
       0.033384103 0.064442955 0.014485344 -0.038798273
000340 08 a4 2d bd 0e 68 81 3c 2e 29 1d 3d 92 49 ef 3d
       -0.04239276 0.015796687 0.03836935 0.11683954
000350 a1 9a 81 bd 0a 0c 5f 3d 90 bf a3 3b c8 a6 d8 3d
       -0.06328321 0.05445484 0.0049972013 0.10578686
000360 37 fb c7 3d ab 91 88 3d 67 ea ce 3d 1f 48 88 bd
       0.09764712 0.06668409 0.101033024 -0.06654381
000370 35 9d c9 3d ac cc 89 3b 23 0f 81 bd f7 3d 61 3d
       0.09844438 0.004205307 -0.06301715 0.054990735
000380 0f 31 d2 3d a2 2d 56 3d 5d 82 83 bd 21 af eb 3d
       0.102632634 0.052289613 -0.06421349 0.115080126
000390 88 8d f4 3d 5c 4c b8 3d be 38 c1 3c 47 66 84 3d
       0.119410574 0.089989394 0.023586627 0.0646482
0003a0 da 72 ed 3c 5c 6e 76 bb d5 b9 ed 3d ef f1 8a bb
       0.02898543 -0.00376024 0.1160771 -0.0042402665
0003b0 b8 95 10 bd a8 c2 a3 3d 37 58 97 3c 57 dd db 3c
       -0.035299033 0.07996112 0.018474681 0.026838941
0003c0 0a 36 f6 3d 1e 34 17 bd 8d 03 b4 3d 12 70 89 3d
       0.12022026 -0.036914937 0.0878974 0.06710829
0003d0 9c 18 bf bc 41 52 bb 3d 42 32 e3 3c cc b6 a7 3d
       -0.023327164 0.09146548 0.027733926 0.081891626
0003e0 cf fb 98 3c e9 f3 1e bd 5b 32 0a 3d 5c d1 09 3d
       0.01867476 -0.03880683 0.03373943 0.033646926
0003f0 62 d1 ed 3c 49 b6 bf 3d 11 18 03 3e 6a 4d c6 3d
       0.029030506 0.0936094 0.1280215 0.09682734

lstm.weight_hh_l0 f4 [512, 128]
000000 4a af 51 3d b8 6a 62 bd 0a 22 b3 bc ea 5e 80 bc
       0.05119256 -0.055277556 -0.021866817 -0.015670259
000010 bf 12 b1 3d 3a 42 68 bd d0 dc e5 3d 19 95 87 bd
       0.08646154 -0.056703784 0.11223757 -0.06620235
000020 7a de 81 bd f6 40 8c 3d f5 57 c7 bd 61 6a 88 bd
       -0.06341262 0.06848328 -0.09733573 -0.06660915
000030 65 06 8f 3d 91 e4 81 bd 25 5e 37 bc a5 56 88 3d
       0.069836415 -0.06342424 -0.011191879 0.06657151
000040 a1 d2 e5 3d d6 ba 87 bd a4 92 73 bd de b7 c0 bd
       0.11221815 -0.06627433 -0.05946602 -0.0941007
000050 d0 8c c1 bd 92 f3 a9 bd af dd fc 3c fe 89 a8 3d
       -0.09450686 -0.082984105 0.030867426 0.08229445
000060 42 eb 5b bd 43 f9 ce bd 2b 5b c9 bb 94 75 5d 3d
       -0.053691156 -0.10106137 -0.0061449013 0.05406721
000070 da c1 4f bc d2 7f 98 bb 69 9e 41 3c ee ea 8d bc
       -0.012680495 -0.0046539092 0.011817553 -0.017323937
000080 a8 99 a2 3a e6 6e 1b 3d 63 03 b1 3d 47 e0 30 bd
       0.0012405412 0.037947558 0.08643224 -0.043182638
000090 6b 42 c0 3d ff a0 38 3c 51 11 b8 bd 0f d5 0c 3d
       0.09387668 0.011268853 -0.08987678 0.034382876
0000a0 8c b0 37 3d 61 71 cd bc 21 c0 95 3d 44 fd 38 bd
       0.044846103 -0.025078477 0.07312036 -0.045163408
0000b0 41 05 ce 3c bf 81 50 bd a6 fa ae 3d 84 57 a4 3c
       0.02514899 -0.050904986 0.08543901 0.020061262
0000c0 2f 69 ee 37 e7 6f 8f 3d f3 0a a6 bd ab c6 51 bd
       2.842079e-05 0.070037656 -0.08107557 -0.051214855
0000d0 44 da b9 3d 35 13 43 3d f9 23 5a bd 48 b5 cf 3b
       0.09074834 0.04762574 -0.053256962 0.006338749
0000e0 82 9c f2 3c cf cd 6d bd 64 8c 38 bd 24 9c 27 3d
       0.029615644 -0.058057602 -0.045055762 0.04092039
0000f0 a8 7c c6 bd dc 49 91 3d b9 09 6b bd e7 f8 98 bd
       -0.09691745 0.07094166 -0.05738232 -0.07469349
000100 08 90 d0 3b 5e 79 5f 3d 67 d7 05 3c bf 0b 13 bd
       0.006364826 0.054559104 0.008169032 -0.035899874
000110 d5 f5 37 3d 10 53 32 bd 80 bf 93 bd 51 95 8a bd
       0.044912178 -0.043536246 -0.0721426 -0.06766761
000120 28 2f 37 bd e1 8a 3a 3d 27 de 99 bd a8 2a 84 bd
       -0.044722706 0.0455426 -0.07513075 -0.064534485
000130 7d 3d 9f 3d 3c 9a 0e bc 30 df 95 bc 89 42 c4 bd
       0.077754 -0.0087037645 -0.0182949 -0.09583003
000140 e2 eb 17 bd 09 09 81 bc fe 76 cb bd bd 59 67 bd
       -0.03709019 -0.015751379 -0.09934805 -0.056482065
000150 fc 33 91 bd 07 a4 1e 3d 15 ad 5a bd 9b b4 0b 3d
       -0.07089993 0.038730647 -0.05338772 0.034107786
000160 76 d2 a0 3d 65 e2 c7 3d 4c 37 c8 bc 0d e3 23 3d
       0.07852642 0.09759978 -0.02444043 0.040011454
000170 50 7f 75 bd e4 07 23 bd fd a5 ee bc 61 9b 02 bd
       -0.059935868 -0.039802447 -0.029131884 -0.031886462
000180 34 04 d8 3b 03 37 55 bd 19 c9 04 bd e3 e9 9e 3d
       0.006592298 -0.052054416 -0.032418344 0.07759454
000190 34 f8 b9 3d 2d b7 f1 3c 70 b5 e1 3c 39 29 04 3c
       0.09080544 0.02950629 0.027552336 0.008066469
0001a0 db 8a 7d 3d 8f c7 37 3c e7 88 0f bd ab 80 7e 3d
       0.0619 0.011217012 -0.03504267 0.062134426
0001b0 da 29 c8 3c 85 85 ae 3d 02 15 c5 3c 17 88 98 3c
       0.024434019 0.085215606 0.024057869 0.01861958
0001c0 3d 67 51 3b e8 db 40 bd e5 99 04 3d e8 69 3a 3b
       0.0031952404 -0.04708472 0.032373328 0.0028444473
0001d0 3f 4e fd 3c c9 b0 b8 bc c5 78 cb bc 0e 31 e5 3b
       0.0309211 -0.022545235 -0.02483786 0.006994373
0001e0 f9 7b 39 3d ef 13 b2 bd 61 ee 6f 3d 41 8b 94 3d
       0.045284245 -0.08695208 0.058576945 0.07253123
0001f0 bc 23 a8 3d bf c9 81 3d 82 05 5f bd 2b 9a 35 3d
       0.08209941 0.06337308 -0.054448612 0.04433648
000200 ff 8c 15 3d 45 fc 4f 3b c6 35 5b 3d 05 ad 5b 3d
       0.036511417 0.0031736058 0.05351808 0.0536318
000210 ca f8 d5 3d a0 db f1 ba 3f bf 23 bd 70 61 12 3d
       0.104478434 -0.0018452294 -0.03997731 0.035737455
000220 d7 d0 62 bc 3d 15 87 3d 61 0d c9 3d c5 ca f9 3a
       -0.013843737 0.06595848 0.09817005 0.0019057622
000230 08 03 1d bd 86 4a 89 bb bc a5 86 3d 8c 0c 0a be
       -0.03833297 -0.004189792 0.0657458 -0.13481349
000240 f8 61 c9 3c 68 79 87 3d 74 3f 7e 3b 2e 87 3c bd
       0.024582848 0.06614953 0.0038795145 -0.046027355
000250 33 d8 46 bd 1e 9b ab bd f6 16 2a 3c 19 77 00 3d
       -0.048546027 -0.08379196 0.010381451 0.03136358
000260 8e 7e 18 bd 61 42 89 3d 46 a3 6b 3c 4d c7 45 3d
       -0.037230067 0.06702114 0.014382189 0.04828577
000270 ab 05 18 bd 98 ba 65 3d 93 18 56 bd f4 d0 ea 3d
       -0.03711478 0.056086153 -0.05226953 0.11465636
000280 8f c6 36 bd fe a2 14 bd 7f a6 22 3b 3b 91 dc bd
       -0.044622954 -0.036288254 0.0024818478 -0.10769888
000290 68 e7 b1 3d d1 7c 5a bd 69 78 2a 3c 93 79 41 bd
       0.08686715 -0.05334169 0.010404685 -0.047235083
0002a0 62 35 e6 bd 8c 3d d7 3d b0 00 0f 3d c4 0a 09 3e
       -0.11240651 0.10509786 0.034912765 0.13383013
0002b0 7f 44 15 bd 22 ad d4 bd dd d9 bf bc ef 0d 7c bd
       -0.036442276 -0.10384585 -0.023419315 -0.061536726
0002c0 4b 92 c5 3d 35 90 31 bd 94 b1 6d bd 1a 05 1f bd
       0.09647044 -0.043350417 -0.05803068 -0.038823225
0002d0 29 eb 85 3d 08 58 36 bd 52 85 bb 3d 04 f0 85 3b
       0.06538994 -0.044517547 0.09156288 0.00408745
0002e0 73 46 cd 3d 33 f8 ad 3c 98 04 7e bd 62 20 ff bb
       0.10023203 0.021236515 -0.0620161 -0.0077858428
0002f0 b4 51 4a bd 65 f6 25 bd bc 59 04 3d 14 e6 42 bd
       -0.049394324 -0.040518183 0.03231214 -0.0475827
000300 f0 a2 a6 3c e9 59 b4 3b d5 97 68 3d 0a 45 a0 3d
       0.020341367 0.005503882 0.056785423 0.07825668
000310 fe 4e 09 3e a7 1c 54 bb 3a f5 a2 3d 5e 12 11 3d
       0.1340904 -0.003236571 0.079569295 0.035417907
000320 ed 87 36 3d 40 97 85 bd 8c bc 90 bd a3 16 b3 bd
       0.044563223 -0.06522989 -0.070672125 -0.08744552
000330 47 b8 f0 bc 80 5b 15 3b 69 52 eb 3c 45 8c 7e bd
       -0.029384745 0.0022790134 0.02872582 -0.06214549
000340 6f ce e8 3d 79 24 b7 3d ba ca e4 ba 1f 96 db 3c
       0.11367499 0.089425035 -0.0017455437 0.026804982
000350 c0 1e ca bd 79 d2 57 bc cd d2 15 bd da c5 b4 bd
       -0.09869146 -0.013172739 -0.03657799 -0.088268
000360 d1 8d de 3d 67 10 fb 3d a0 db 1d bc 1e ac 5c 3d
       0.10866893 0.12258988 -0.009634882 0.05387508
000370 08 24 cb bd b7 dc 9d bd 2a 1f 65 3b a1 70 8e bc
       -0.09918982 -0.07708114 0.0034961202 -0.01738769
000380 50 de d2 3c fb 12 9a 3d 68 cd d1 3d 8e 51 c8 bc
       0.025740772 0.075231515 0.10244256 -0.02445295
000390 2e f2 ea bd a7 bd 6f bc 40 10 f3 3d 33 8d 8c bc
       -0.11471973 -0.014632619 0.11868334 -0.017157173
0003a0 ef 4e 89 3b b1 33 e7 bc 83 b2 ef 38 0f 62 20 3d
       0.004190318 -0.02822289 0.000114296585 0.039156016
0003b0 bc 87 10 3c 5e ec ac 3d e5 99 8d 3d ce 81 1e 3b
       0.008821424 0.08443521 0.06914119 0.0024186256
0003c0 9d 0c a2 bc 10 32 d0 3d 03 cd 04 3e eb 81 17 bc
       -0.019781405 0.10165799 0.12968831 -0.009247283
0003d0 c0 6c b1 bc 71 c4 e0 3d ef f6 04 bd c5 d7 b4 3c
       -0.021658301 0.10974968 -0.032462057 0.022075543
0003e0 53 a5 e0 bd 1b 00 06 bd ae 68 93 3c de 33 57 bd
       -0.10969033 -0.032714944 0.017994251 -0.0525397
0003f0 1d 74 fc bc b7 0a c7 bd 43 00 d5 3c a3 db 4d 3d
       -0.030817086 -0.097188406 0.026001101 0.05025829

lstm.bias_ih_l0 f4 [512]
000000 e9 c4 5b ba f4 39 d8 3a 9b 17 8b 3d 63 d4 ea 3c
       -0.0008383529 0.0016496764 0.06791612 0.028665727
000010 24 23 34 bd 50 20 96 3d b3 56 a7 3b 8f 8f ff ba
       -0.043978825 0.07330382 0.005106771 -0.001949774
000020 d7 d7 a2 3d 89 43 09 bd c7 6f f1 3d 39 4d 82 bd
       0.079513244 -0.033511672 0.11788898 -0.06362385
000030 9b 03 8b bc 47 e9 34 3d a6 aa 8c 3d 80 8d c9 3c
       -0.016969493 0.044167783 0.06868486 0.024603605
000040 8c 3c 44 3d 2d 1b b8 3d 8c ac c3 3b 49 e8 2d bd
       0.047909304 0.08989558 0.005971497 -0.042457853
000050 1f 31 b3 3c 4f e5 23 bd 9e 20 bb 3d 8e ef 8b 3d
       0.021874009 -0.040013608 0.091370806 0.06832801
000060 90 16 9d 3d bf 5b d1 3b 76 a0 ca bb 43 1d 47 3d
       0.07670319 0.006389111 -0.006183679 0.04861189
000070 a3 df a0 3d ba 62 19 3d 3c 44 01 bc 01 8b 76 3c
       0.07855155 0.03744767 -0.0078898035 0.01504779
000080 d3 13 74 3c 7d 61 1b bc f9 8d 9f 3d f1 16 2a 3c
       0.014897305 -0.009483692 0.07790751 0.010381446
000090 74 fd 9f 3d eb 3f 15 bd 72 f3 52 3c 5c b2 b6 3c
       0.07812014 -0.03643791 0.012875425 0.022301845
0000a0 a1 15 bd 3d da c6 00 3d 14 63 54 3d 39 ec f7 bc
       0.09232641 0.03143964 0.0518523 -0.030264007
0000b0 44 a3 b0 3c 04 47 f3 3b 8c ea 92 bd 9c 52 1f 3d
       0.021562226 0.007424237 -0.071736425 0.03889714
0000c0 f8 c5 23 3d d8 44 81 bd 53 35 6e 3d fe 7e 01 3c
       0.03998372 -0.06311959 0.058156323 0.007903812
0000d0 d2 82 17 3d 51 fc f8 3c a9 80 fc 3a c2 35 c9 bc
       0.036989994 0.030393751 0.0019264418 -0.024561767
0000e0 e8 b2 e0 3d 4b cf 86 bd 9f 01 d2 bc bb 15 ac 3c
       0.10971624 -0.06582507 -0.025635539 0.021006456
0000f0 fd 9d dd 3d 6f 66 86 bd b5 e3 3e bc e9 af d3 3d
       0.108211495 -0.065625064 -0.011650969 0.103362866
000100 c9 9c d3 3d 55 d9 4a 3d 90 fd 1b 3d e5 09 1d 3d
       0.10332639 0.04952367 0.038083613 0.038339514
000110 de 90 40 bd e5 f0 e9 3c 28 3b 92 3d 30 ee 66 3d
       -0.047013156 0.02855725 0.071401894 0.056379497
000120 1a 1a 25 bc 23 62 a1 bd 31 a4 8c 3c b7 75 a7 3d
       -0.010077024 -0.07880046 0.017168136 0.08176749
000130 38 91 14 bd 27 ce ca 3c a7 c4 6d 3d 46 40 4d bd
       -0.036271304 0.024756504 0.05804887 -0.050110124
000140 d6 ba 27 3b ac d9 fa 39 a7 57 99 3d da 78 e9 3d
       0.002559354 0.00047845894 0.074874215 0.11400004
000150 e9 a5 ca bc 43 38 1e 3c 6f 10 46 3b c7 ca 34 bd
       -0.024737315 0.0096569685 0.0030222198 -0.044138696
000160 d4 f8 d8 3d 5b af 77 bd 4b 34 6f 3d d2 17 27 bc
       0.10594335 -0.060469966 0.05839948 -0.01019855
000170 cd fc 1c 3d 6e 4f e1 3d 31 0b df 3d cb f0 b2 3c
       0.038327027 0.11001478 0.108908065 0.021843335
000180 a1 6d df 3c 1d 52 76 3d 85 a3 55 3d 21 09 d8 3d
       0.027273955 0.060136903 0.052157898 0.10548616
000190 bb 97 96 3d 03 dc 89 3d 5f c7 f3 bc f8 68 b2 3d
       0.07353159 0.06731417 -0.029758153 0.087114275
0001a0 87 f5 b9 3d e6 8b 8a bd 25 7e 89 bb 91 24 db 3d
       0.09080034 -0.06764965 -0.004195946 0.10700334
0001b0 20 c1 84 3d 80 6a d3 3d 94 da bb 3d 77 f9 a2 3d
       0.06482148 0.10323048 0.0917255 0.07957738
0001c0 bd 2d 08 3d b1 63 12 bd 12 da cb 3d 8d 14 f9 3b
       0.033246744 -0.035739604 0.09953703 0.007601327
0001d0 b2 76 d8 3d 1b 37 b6 3d 70 8e e9 bc 3e c2 9a 3d
       0.10569514 0.08897229 -0.028510302 0.0755658
0001e0 3c bf f5 3c 8e 9f 02 bd 43 2f 5d 3c 3c 38 cb 3d
       0.029998414 -0.031890444 0.013500038 0.09922835
0001f0 cb 70 d7 bc 80 f2 a0 3d 9d 61 48 bd 8a ec a3 3d
       -0.026298901 0.07858753 -0.048921216 0.080041006
000200 0d d7 6d 3a b8 26 eb bc 9c 90 2c bd d6 33 81 3d
       0.00090728776 -0.028704986 -0.042130098 0.06308715
000210 c7 68 7e bd 56 c6 b6 3d d2 9c 47 3d 0c de 44 bd
       -0.062111642 0.08924548 0.04873354 -0.048063323
000220 52 ff 95 3b 33 de 0b 3d 22 ec 27 bd c4 fc 8d 3d
       0.0045775557 0.034147453 -0.04099668 0.06932977
000230 36 ee 27 3c a0 d3 02 3e 5b 1a f0 bc ab 1b df 3d
       0.010249665 0.12776041 -0.029309442 0.10893949
000240 52 4b d2 3d 6a 23 6f 3d d7 94 9a 3d 2f c9 c9 3d
       0.102682725 0.058383383 0.0754792 0.09852826
000250 16 8e fa bc 2d f3 30 3d 96 42 c3 3d a5 b8 a9 3d
       -0.03058533 0.04320066 0.09534185 0.08287171
000260 30 f5 a8 3d 9d dc 25 3d 78 a3 3c 3d 45 6e ae 3d
       0.08249891 0.040493596 0.046054333 0.08517126
000270 8e c6 29 bd 0c 19 de 3d ee d4 4e bd 83 d2 80 3d
       -0.041449122 0.10844621 -0.050496034 0.06290152
000280 d1 06 52 3d d3 49 a7 3b 23 5f aa bb 86 e0 8c bb
       0.051276032 0.005105236 -0.0051993295 -0.004299226
000290 e2 92 ba 3d c5 3d 7f 3d 9b ed c0 3d f1 bc cf 3d
       0.09110047 0.062314767 0.0942032 0.101434596
0002a0 fb ce 80 3d fe 1d a1 3c 72 98 98 3d de 46 2b 3d
       0.062894784 0.019667622 0.07450952 0.04181563
0002b0 ae f2 29 3d 0e 46 b5 3d 8d 60 bd 3d c1 72 57 3d
       0.041491203 0.088512525 0.09246931 0.052599672
0002c0 fb 73 39 bd d2 37 8d b9 f9 ff d1 3d 81 ed 51 3d
       -0.045276623 -0.00026935205 0.10253901 0.051251892
0002d0 63 49 6f 3d 79 d8 34 bd a6 21 62 3d df f2 37 bd
       0.058419596 -0.044151757 0.05520787 -0.044909354
0002e0 86 19 e3 3d cb 11 b9 3d 8e a1 a9 3d 90 34 cb bc
       0.110888526 0.09036597 0.08282767 -0.024805337
0002f0 f9 95 53 bb 0c 5d ab bc f0 f2 af 3d 59 2b c7 3d
       -0.0032285436 -0.020918392 0.085912585 0.09725065
000300 72 cc 0f bd 68 24 21 bd 36 ef dd 3d 4d a4 a3 3d
       -0.035107084 -0.03934136 0.108366415 0.07990322
000310 3a dc 6e bd fc 7c 03 bd fe b8 2e bd e5 ff e0 3d
       -0.058315493 -0.032101616 -0.04265689 0.10986308
000320 b0 c8 57 3b b4 e9 76 bd 97 23 a7 3d 12 9b 49 3d
       0.0032926016 -0.06028147 0.08161085 0.049220152
000330 24 f4 80 bd 21 74 2e 3d 75 8f 8f 3c ac 2d 82 3d
       -0.06296566 0.042591218 0.01752446 0.063563675
000340 e8 b0 47 3d 73 a0 bf bc 96 de 65 bd 68 20 ce 3d
       0.048752695 -0.023391938 -0.056120478 0.10064775
000350 50 fc cc 3b 65 9d 67 bd 03 5a 27 3d 1e 91 22 3d
       0.006255664 -0.056546587 0.040857326 0.039689176
000360 b1 b9 da 3d b5 7c 03 3d b1 fe e5 3a ca 86 87 bc
       0.10679949 0.03210135 0.0017547217 -0.016543765
000370 c5 11 ec 3c ae 4f b1 3c 44 b3 90 3d 4d df c9 bc
       0.028817067 0.02164444 0.07065442 -0.02464261
000380 de a9 aa 3c 22 b0 ae 3d 1a fa d4 bb 1e 03 8b bd
       0.020832952 0.085296884 -0.006499541 -0.06787704
000390 86 3f ab 3d 14 a6 36 3b bc 81 2b 3d 83 51 dc 3c
       0.083617255 0.0027869986 0.04187177 0.026894337
0003a0 ca 33 6d bd 95 aa ab 3d f9 ce 3f 3d e4 fc 46 3d
       -0.057910718 0.08382145 0.046828244 0.04858102
0003b0 ee f1 7a bd 3e 05 c0 bc 67 e1 4a bc 8b 95 63 bd
       -0.06126588 -0.02344 -0.012382842 -0.055562537
0003c0 58 82 91 3c 30 e6 0b 3c a7 29 82 3d e3 2e ca 3d
       0.017762348 0.008538768 0.06355601 0.09872224
0003d0 f5 1f 9e bb 61 66 0d 3d 34 1e e8 bc 3e 5d 39 3d
       -0.004825587 0.034521464 -0.028334714 0.04525494
0003e0 4c 15 88 3d 9f 80 60 3d 05 a7 d0 3d 11 45 e3 3d
       0.06644687 0.054810163 0.101881064 0.11097158
0003f0 96 64 29 3c e0 ab 16 3d 0c be c1 3c 74 2d e5 bc
       0.010338923 0.036785007 0.023650192 -0.027975775

lstm.bias_hh_l0 f4 [512]
000000 99 a0 61 3d 95 da 91 bc 3a cb cf 3d 75 fc aa 3d
       0.0550848 -0.017804423 0.10146184 0.083489336
000010 5c 95 e4 3c 84 b1 39 3c 37 b4 d4 3d 8f ae c5 3d
       0.027903251 0.011333827 0.10385936 0.09652435
000020 ca 2f 8a 3c 30 e0 f4 3d 2c bd 15 bd b4 74 d0 3d
       0.01686849 0.11956823 -0.03655736 0.10178509
000030 2a 65 b5 3d 25 bc 5c bc ea fb 54 bd 48 5f f7 3d
       0.08857186 -0.0134725915 -0.051998056 0.1207872
000040 15 61 ea 3c a8 01 4d 3c 8c c3 cf 3d 98 42 f7 bc
       0.028610745 0.012512602 0.101447195 -0.030183122
000050 ac da e6 3d de 1d fb bb 7c db 2d bd 88 ce 79 3d
       0.11272177 -0.0076634726 -0.042445645 0.06098798
000060 a3 e7 33 bd 38 f2 21 bd 7c b5 53 bd 93 f6 77 bd
       -0.043922078 -0.03953764 -0.05168675 -0.060537886
000070 12 37 8a bd 29 d5 dc 3c 20 f5 11 bc cc f9 5f bd
       -0.06748785 0.026957111 -0.00890854 -0.054681584
000080 4a 12 3a bd 5c aa d8 3d 8e 8f 53 3d 7a 23 81 3c
       -0.045427598 0.105793685 0.051650576 0.015763987
000090 71 0c 93 3d cc 35 22 3c 5d 8b 3a bc e3 ca ba 3d
       0.071801074 0.0099005215 -0.011385766 0.09120729
0000a0 04 f7 87 3d 01 7b d3 3d 6a f9 c4 bc ad 75 3c 3d
       0.06638911 0.103261955 -0.024044711 0.046010662
0000b0 94 10 5b 3c c5 d1 c0 3c ea 6a 57 bd fd ef 99 3d
       0.013370652 0.023537526 -0.052592196 0.07516477
0000c0 83 1a bb 3c 50 7f 2a 3d d8 c2 ac 3d ac b9 ae 3c
       0.02283979 0.04162532 0.08435601 0.02132877
0000d0 7b 8b 3f bd 9f c5 d7 bc 28 bc f3 3c f8 7f 76 bd
       -0.04676388 -0.02633935 0.029752806 -0.060180634
0000e0 1c e7 57 3d 9f 89 54 3d 9a ca e3 3d ec eb 6e bc
       0.052710637 0.05188906 0.111226276 -0.014582615
0000f0 ff eb 7b bd bd 50 90 3d 09 43 0a 3d 49 fc 68 3d
       -0.06150436 0.070466496 0.033755336 0.056881223
000100 8a d9 92 3c d0 54 50 3d d9 5f 9c bc f4 50 d8 3c
       0.017925996 0.050862134 -0.019088672 0.026405789
000110 72 c8 38 bd 20 8b c1 3b d4 f9 57 3c 3a f7 61 bd
       -0.045113035 0.0059064776 0.013182122 -0.055167414
000120 75 fc 4a bd 0d ef a1 bb 0c 32 97 bc f7 21 94 3d
       -0.049557168 -0.004941827 -0.018456481 0.07233041
000130 db 06 37 3d e7 b6 81 3c eb 60 0c bd b9 d2 6a bd
       0.044684272 0.015834285 -0.034272116 -0.057329867
000140 01 1c d9 3d 2a ea bc 3b b6 86 95 3d ef 54 a3 3d
       0.106010444 0.005765219 0.07301085 0.07975184
000150 ee 4e a0 3d 98 6d fe 3c ea 68 9d 3d e5 06 0f bc
       0.07827555 0.031058118 0.076860264 -0.008729671
000160 81 ac f4 3c a9 b8 76 bd 5c 19 e3 3d 29 79 ac 3d
       0.029867413 -0.0602347 0.11088821 0.08421547
000170 79 25 d6 bc a6 d1 93 3d 2d 37 83 3d 0b 5b a5 3c
       -0.026140915 0.07217722 0.06407008 0.020185014
000180 6f cb b0 3d 0a 7f 23 3b dc ef a5 bb d1 29 31 bd
       0.08632552 0.0024947547 -0.005063994 -0.04325277
000190 f5 6e f4 3d ac 52 58 3d ef 84 7b bb 22 f6 74 3d
       0.11935226 0.052813217 -0.0038378795 0.059805043
0001a0 65 07 ae bc 99 e4 b2 bc 54 25 92 3d df 74 81 3c
       -0.02124376 -0.02183752 0.07136026 0.015802799
0001b0 61 38 cb 3c 67 a7 76 3c 3a e3 32 3d f2 7f 1b bd
       0.024807157 0.01505456 0.04367373 -0.037963815
0001c0 2c 19 c0 3d 95 3f df 3d 3d 2a 87 3d 70 dd 95 bc
       0.09379801 0.10900799 0.06599853 -0.018294066
0001d0 49 b2 d4 3d ad 37 bb 3d 11 e3 c4 3d b9 eb a7 3d
       0.10385568 0.09141479 0.09613622 0.081992574
0001e0 54 06 c0 3d 65 18 ff 3d 8b 27 aa 3d 26 e4 0f 3d
       0.09376207 0.12455825 0.083083235 0.03512969
0001f0 c1 fb 31 bd de 19 bd 3c 83 51 c2 3d 54 99 9e 3d
       -0.04345298 0.023083623 0.094882034 0.07744089
000200 20 96 3c bd 71 3a 31 bd a0 59 4f 3d b8 31 a9 3d
       -0.046041608 -0.043268625 0.050622582 0.08261436
000210 0f f6 6c 3d db 93 d9 3c f2 91 b7 3d b2 94 02 3d
       0.057851847 0.02655976 0.08963384 0.03188009
000220 56 e3 c5 bb 45 58 50 3c ef d4 de bc 37 44 6f bd
       -0.0060390634 0.012716358 -0.027201144 -0.058414664
000230 11 2e 7b 3d 76 7c 03 bd 37 ec 7f 3d e6 80 e5 3c
       0.06132323 -0.032101117 0.06248113 0.028015565
000240 8a af 32 bd b5 9e 35 3c 7a 70 9f 3d f7 4d ab 3d
       -0.04362444 0.011085202 0.07785125 0.0836448
000250 ff dc e4 bc 5b 52 c6 bc 2a c1 be 3d 5b 37 7f 3d
       -0.02793741 -0.024209192 0.09314187 0.06230865
000260 85 b6 f5 3c f1 e7 db 3c c8 9c 37 3d 6f d0 76 bd
       0.029994259 0.026843997 0.044827253 -0.06025737
000270 5f 12 8b bd 1e e8 3d 3d a3 9d c2 3c e3 77 30 bd
       -0.067906134 0.046363942 0.023756808 -0.043083083
000280 a1 6e 79 3d 8e 1c db 3d 60 b9 e5 3d 07 d2 15 3d
       0.06089652 0.10698806 0.11216998 0.03657725
000290 85 d3 29 bd 3b 77 14 bd bb 76 d7 3d eb 5e 67 bd
       -0.041461486 -0.03624652 0.10520693 -0.056487005
0002a0 21 5b 1c bc bd e0 61 3d 20 fc 9e 3c f8 cd a4 3d
       -0.009543211 0.055145968 0.019407332 0.08047098
0002b0 d5 cd f7 3c 8f 09 ab bb 3f 12 0b 3d ae 39 db 3c
       0.030249516 -0.0052196453 0.033952948 0.026760902
0002c0 d3 e2 bd b8 91 98 04 3d bd 8e ab 3d 10 62 3f bc
       -9.0544716e-05 0.03237206 0.083768345 -0.011681095
0002d0 15 56 da 3d 2d bb 19 bd c9 b8 a9 3c bd 90 63 3d
       0.1066095 -0.03753202 0.020717995 0.055557955
0002e0 71 4f d6 bc ea 01 9f 3d 59 37 a0 3d 09 e1 a6 3d
       -0.026160927 0.07764037 0.07823057 0.08148391
0002f0 e2 eb 60 3d 94 cc 7b bc 4d 60 59 3b be 60 44 bc
       0.054912455 -0.015368599 0.0033168972 -0.011985956
000300 fa 17 67 3d 85 4d 80 bc 49 7d f2 bb d1 c3 da bc
       0.05641935 -0.015661964 -0.007400189 -0.0267047
000310 2a 20 00 bd be 03 fa bb 72 ef 98 3d f8 c4 13 3d
       -0.031280674 -0.0076298406 0.074675456 0.036076516
000320 be 28 9d 3d 86 3b 68 3d e4 c1 aa 3c c2 0f a4 bc
       0.076737866 0.05669739 0.020844407 -0.020027045
000330 6f ec 48 3c 3e d3 a9 bc be 17 d3 3d f2 01 b6 3d
       0.012263401 -0.020730611 0.10307263 0.0888709
000340 14 2e 1b bd 79 a5 7c bd 3b 49 88 3d ba e2 4c bd
       -0.03788574 -0.061681245 0.066545926 -0.05002091
000350 7e 49 5a 3a f2 69 ba 3d 19 a2 1a 3d b1 a1 d1 3d
       0.0008326991 0.09102239 0.037752245 0.10235918
000360 32 7f ad bc c2 9c 81 3d da 37 a8 3d 59 2e 1c 3d
       -0.021178816 0.06328727 0.08213778 0.038130138
000370 ec c2 80 3d df 7d 8f 3d 98 d5 c0 3d 7f 4a 7f bd
       0.062871784 0.0700643 0.0941574 -0.062326904
000380 96 13 f6 3a d6 72 bf 3d cc c8 17 3c 36 90 7a bc
       0.0018774148 0.09348075 0.009264182 -0.015293172
000390 eb 8d 48 bc fa 40 8c 3c b7 17 24 bd a3 fa ee bc
       -0.012240867 0.017120827 -0.04006168 -0.029172247
0003a0 4d 21 86 3b e8 24 3b 3c 16 42 c2 3d 04 0c 0d bd
       0.004093325 0.011422373 0.09485261 -0.034435287
0003b0 54 45 d0 3d 4e 0b 33 bd 14 02 45 3d 3d 7b 82 3d
       0.10169473 -0.043711953 0.048097685 0.06371162
0003c0 60 f0 37 3d ee 7c a0 ba 54 7a 72 bd fd 78 ca bc
       0.044906974 -0.0012244263 -0.059198692 -0.024715895
0003d0 92 b7 3a bd f6 ad 38 3c 1f 78 d7 3d 9c fd 53 bc
       -0.045585223 0.011271944 0.10520958 -0.012938883
0003e0 df aa 86 39 96 e4 15 3c 72 6d ed 3b 63 28 97 bc
       0.0002568578 0.009148737 0.007245713 -0.018451875
0003f0 d7 ba ba 3c 4e 6b cc 3d a0 84 61 3d 7b ef 08 bd
       0.02279417 0.09981404 0.05505812 -0.03343151
