models/cnn_lstm_model.pth (torch, 992486 bytes, 15 tensors)

cnn.0.weight f4 [32, 7, 3]
000000 94 17 95 3d 46 73 02 3d 06 57 06 be 0c fb 55 3d
       0.07279888 0.031848215 -0.13119134 0.05224137
000010 bc 3d 58 3d b4 ff 0d 3c 46 03 bd 3d 9d ce 21 3a
       0.05279325 0.008666921 0.0922914 0.00061724504
000020 1f 6a 3c be 86 5d 50 3e 00 d0 0a 3d 5e f0 e6 3c
       -0.18399857 0.20348176 0.03388977 0.028190788
000030 86 a4 fc bd fb 08 a9 bc e3 de 63 be 87 7e 57 be
       -0.12336068 -0.020634165 -0.22252993 -0.2104436
000040 36 8e a5 bd d9 90 03 be 3d 3f d6 bc 96 37 35 be
       -0.08083765 -0.12848224 -0.026153201 -0.17696986
000050 f3 bd 9d bc 0f 4b 36 3e b5 cd 44 be 69 c0 d1 bd
       -0.019255614 0.1780207 -0.19219096 -0.102417774
000060 7e e5 44 3d a0 be 78 bd 4a 2d 04 be e3 cf b0 3b
       0.048070423 -0.06072867 -0.12907901 0.005395876
000070 6f 4e 1c be fe 6d 1a be 74 a6 9e 3d 91 93 52 be
       -0.15264295 -0.15081021 0.07746592 -0.20564105
000080 69 b7 c6 bd 04 96 5b 3e f2 55 08 be 3f 37 17 3e
       -0.097029515 0.21443945 -0.13314036 0.14767168
000090 70 e3 e8 3a c1 ee b1 bd d5 fa f2 bb da 32 c4 bd
       0.0017767977 -0.08688117 -0.0074151554 -0.09580012
0000a0 5e 0f 3a 3e 76 96 36 3e 7c 7b ae bd 15 d7 54 bd
       0.18169925 0.17830834 -0.085196465 -0.05196293
0000b0 9a b5 f2 3d 14 49 20 3e 0c ee 54 bd 43 00 c2 3d
       0.11851044 0.15652877 -0.05198483 0.09472706
0000c0 10 49 d7 bd 55 c7 da ba d4 97 12 be 34 b6 10 be
       -0.105119824 -0.0016691486 -0.1431573 -0.14132005
0000d0 df 9b 0c 3e 86 64 bc bd aa fc 13 3e 40 3c b3 bd
       0.13731335 -0.09198861 0.14451852 -0.08751726
0000e0 55 f2 8b 3d 1a 0f e1 3d f5 9c a6 3d da 4c 54 be
       0.068333305 0.109892085 0.08135406 -0.20732442
0000f0 f6 ad 86 be 75 b8 01 3d 22 d9 96 bc 14 93 1d 3e
       -0.26304597 0.031670053 -0.018414084 0.15388137
000100 99 59 bb 3d 3d 1a 48 3e 45 6c e8 3b 48 31 43 bd
       0.09147949 0.19541259 0.007092985 -0.04765442
000110 87 fc 10 be 58 7b 48 3e 45 08 cb 3d b8 15 13 be
       -0.14158832 0.19578302 0.09913687 -0.14363754
000120 a9 9a 7a 3e 64 90 31 bb b9 8d ef 3c b7 c7 fb 3d
       0.2447306 -0.002709412 0.029242383 0.12293952
000130 ee 5b 43 3e 18 94 2c 3e 33 4a 5e 3d 37 71 4e be
       0.19078037 0.16853368 0.05426998 -0.20160376
000140 38 84 b9 bb 06 cb 4b be 88 71 08 38 55 7f a5 3d
       -0.0056615137 -0.19901666 3.253066e-05 0.08080927
000150 62 ae 11 3e 37 58 1e be 8d 54 d6 3d f9 29 fa bc
       0.14226678 -0.15463339 0.104653455 -0.030537592
000160 8e c5 23 be 91 4d 03 3e df 79 9b bc f6 f6 00 3e
       -0.1599333 0.12822558 -0.018979011 0.12594208
000170 b9 b6 22 3c 85 9d b7 3d 75 d4 10 be 86 25 c2 bc
       0.00993126 0.08965591 -0.14143546 -0.023699533
000180 87 28 20 be 96 40 00 be d6 84 2e be 99 47 0d be
       -0.1564046 -0.12524638 -0.1704286 -0.13796844
000190 a3 94 9f 3c 31 16 16 3e ba 01 6f bd b0 4e 5c 3e
       0.019480055 0.14656903 -0.058351256 0.21514392
0001a0 33 74 9f 3d 99 b2 a2 bd df 8d 3a be 55 1b 26 be
       0.07785835 -0.07944221 -0.18218182 -0.16221364
0001b0 38 64 1b 3e 16 f1 9e 3d 1f 19 42 bd 65 2d 2d 3e
       0.15174949 0.07760827 -0.04738724 0.16911848
0001c0 7b 2a 58 3e 22 ff c5 3d 13 fd 2e 3d 6f a5 69 be
       0.21109955 0.09667803 0.04272182 -0.22817014
0001d0 8f 6a 27 be f4 4c f3 3d 7b 14 2b bd 21 c8 e7 bd
       -0.16349243 0.11879912 -0.04176758 -0.113174684
0001e0 c6 15 e2 3c 75 ee 66 be a7 54 10 3e 4e 6d ee bd
       0.027598273 -0.22551902 0.14094792 -0.11641942
0001f0 1f 48 57 bd 75 dc 4b be 13 ac 6a bd ad f6 bb 3d
       -0.052559014 -0.19908316 -0.05729301 0.09177909
000200 41 6d 3e be ec bb 19 3d 8b 24 14 bb 01 34 50 3d
       -0.18596365 0.037532732 -0.002260479 0.050830845
000210 eb dc 82 bc 53 f4 95 bd 4b 3b 6b bc 78 ae ec 3d
       -0.015974483 -0.07321992 -0.014357398 0.11556715
000220 2e d3 4b 3d 09 53 34 3e 83 01 48 3e 29 1b 36 be
       0.049761944 0.176098 0.19531827 -0.17783798
000230 3a 33 c3 bd 21 94 14 3e 57 4c 10 3e 6c 29 53 bd
       -0.09531255 0.14509632 0.14091621 -0.051553175
000240 31 8e be bc ba e4 05 3e 0a b5 9d bd c1 32 18 3e
       -0.023261162 0.13075534 -0.07700546 0.14863111
000250 11 25 19 be c2 d3 1e 3e a6 0f b8 bd e1 0f b9 3d
       -0.14955546 0.15510467 -0.0898736 0.09036232
000260 7d 78 20 be 35 2f 55 be 28 67 52 be a6 b0 8b 3c
       -0.15670963 -0.2081879 -0.20547163 0.017052006
000270 94 13 3c be d9 27 10 be 26 ee 30 bd 25 ce 8c 3e
       -0.18366843 -0.140777 -0.043195866 0.27501026
000280 29 19 71 3e 15 53 ac 3d 1c 30 25 3d 57 d9 98 3d
       0.23544754 0.08414284 0.040329084 0.07463329
000290 52 2b 41 3e dd 84 31 bd f9 23 5b 3d ff 2f 1f be
       0.18864182 -0.0433396 0.053501103 -0.15545653
0002a0 a4 92 1a be 74 8c d2 bc 0b 3c 4a 3e 71 a6 a9 bc
       -0.15095001 -0.025701739 0.19749467 -0.020709248
0002b0 33 4d 81 3d 44 59 94 3d e1 3c a5 bd a2 9e a0 3c
       0.06313553 0.072435886 -0.08068252 0.019606892
0002c0 40 94 5a 3d 4a 7f 2f be 28 c3 9c 3b 75 38 a4 bd
       0.05336404 -0.171384 0.0047840066 -0.08018581
0002d0 f0 07 b2 bd 83 03 e7 3d 37 9b 8e 3d c5 18 0e 3d
       -0.0869292 0.11279967 0.06963199 0.03469159
0002e0 1e c0 c1 3d 22 79 dd 3d 7e 4e dd 3c 98 ec 77 be
       0.094604716 0.1081412 0.027014967 -0.24211347
0002f0 e2 ee 87 be 0b e2 53 bd bd 7e 68 be 55 21 de 3d
       -0.2654944 -0.051729243 -0.22704597 0.10846201
000300 69 48 45 be 8d b9 48 be 8c 73 e4 3d 72 6b 2a bd
       -0.19265904 -0.19602032 0.11154851 -0.041606374
000310 3f 98 4d bd 39 53 ba bc 30 94 31 be 6f 4e 1d be
       -0.05019402 -0.022744762 -0.17341685 -0.15361951
000320 b5 d1 5d be 3b 2e 3b 3e 84 88 fd bd 1c bc 35 be
       -0.21662028 0.18279354 -0.12379554 -0.1774754
000330 a4 44 6b 3e 33 76 c4 bd 67 5f ba bc 03 df 24 3d
       0.22975403 -0.09592857 -0.02275057 0.040251743
000340 90 53 0d be 5b 4a 62 3d 57 8f d1 bd 0a cd 9f 3d
       -0.13801408 0.055246692 -0.10232418 0.0780278
000350 c9 51 2a be 3a c3 c6 3c 24 18 ab bc 81 33 94 3c
       -0.16632761 0.024263013 -0.020885535 0.018090965
000360 98 ed 1c be cd 92 3b be b1 47 1d be 23 a8 7e 3c
       -0.1532501 -0.18317719 -0.1535938 0.015543017
000370 6f 4b 77 bd 25 66 07 be c6 f9 45 3e 75 87 d4 3d
       -0.060374673 -0.13222559 0.19333562 0.10377399
000380 53 5b 58 3e 26 95 75 bd ca 27 eb bd b1 09 b8 3d
       0.21128587 -0.059956692 -0.114821985 0.089862235
000390 c4 17 66 bd f7 25 23 3e a7 d7 f4 3d 40 88 b5 bc
       -0.05617501 0.15932451 0.11955195 -0.022159696
0003a0 05 d2 58 3e 83 e8 2b 3d cc a7 0d be a5 4a 3b 3e
       0.21173866 0.041969787 -0.1383354 0.18290193
0003b0 d2 34 58 3e bc b7 62 bd 85 96 1d be 74 3e 4f be
       0.211139 -0.055351004 -0.1538945 -0.20238668
0003c0 68 79 b0 3d 0d 2e 34 bd d0 ea 7f 3d a8 ad 18 3d
       0.086169064 -0.04398923 0.062479794 0.037274987
0003d0 27 c7 99 bd a1 73 2a 3e c3 c3 53 3e 99 5d b8 bd
       -0.075086884 0.16645671 0.20680146 -0.09002227
0003e0 62 05 24 3e 8e eb d7 3c 79 ee e3 bd d2 e7 86 3d
       0.16017678 0.026357438 -0.111294694 0.06587185
0003f0 95 44 a9 3d 5e 64 31 3e 56 61 61 bd 17 b9 0b 3e
       0.08265034 0.17323443 -0.055024467 0.13644825

cnn.0.bias f4 [32]
000000 dd 72 e6 bd 93 4c 30 be 67 14 f1 3c 0b 3b 63 bd
       -0.11252377 -0.17216711 0.029428674 -0.05547623
000010 9e 96 9a bd 4b c0 52 bd 3c 24 14 3e 16 aa 0d bc
       -0.07548259 -0.051452916 0.14466947 -0.008646509
000020 cd 39 c2 3c f4 3e 80 bd 9c a4 c1 ba 17 2b 75 be
       0.023709202 -0.06262007 -0.0014773789 -0.23942219
000030 23 02 70 bd 43 5a 0a 3e 02 4a db bd 88 20 3f 3e
       -0.058595788 0.13510995 -0.10707475 0.18664753
000040 72 f5 84 3d d5 27 32 3e f1 ea f4 bd 52 93 89 bd
       0.064921275 0.17398007 -0.11958874 -0.06717552
000050 bf db 01 bd 11 9c 40 3e fe ea c0 3d ef 90 5c 3e
       -0.031703707 0.18809535 0.09419821 0.21539663
000060 e5 a5 2a be 64 9a 50 be 4a e0 30 3e 35 85 78 3d
       -0.16664846 -0.20371395 0.1727306 0.06067391
000070 37 c6 55 3e ac fe 30 bd 34 6b 85 3e 09 25 09 3e
       0.20876394 -0.043211624 0.26058352 0.13393034

cnn.3.weight f4 [64, 32, 3]
000000 6b 98 39 bd 5c 4c 93 bc 8b 7e b7 bc 97 32 9c bd
       -0.045311373 -0.017980747 -0.022399208 -0.07626837
000010 67 2c b9 bd 42 3d d6 3d af c5 8e bd 6a dd 47 3d
       -0.09041672 0.10460903 -0.06971299 0.04879514
000020 f1 5c be bc 41 57 9f 3d 61 21 70 3a 7d 1e 43 3d
       -0.023237677 0.07780314 0.0009160247 0.047636498
000030 09 97 cc 3c a0 cd 44 3d 3e 80 cd bb 5f bb b3 3d
       0.024974363 0.04804766 -0.006271391 0.087759726
000040 bd e4 10 3d be e6 bf bc 8b 18 00 bc c9 8d 2f 3d
       0.03537439 -0.023425456 -0.0078183515 0.042859826
000050 8b e1 59 3d 3b ba a1 bd a1 e5 7d 3d 6f ff 91 bc
       0.05319361 -0.07896849 0.06198657 -0.017821996
000060 fd c8 f1 3d d5 ee 23 bd 38 f1 96 bd dd ba 6d bc
       0.118059136 -0.04002269 -0.073702276 -0.014509884
000070 7a 9f 55 3d 7b ae ed 3a df a2 08 3a f8 25 ed 3c
       0.05215404 0.0018133664 0.0005212258 0.028948769
000080 62 5e 1e bb b1 3c 09 bd ab 7b 96 bc f1 7d 2e 3d
       -0.0024165143 -0.033505145 -0.018369516 0.042600576
000090 a3 ff 8d 3d ce 0b 7d bd 25 1b b5 3d 41 58 5f 3d
       0.069335245 -0.061778836 0.08843068 0.054527525
0000a0 45 18 d2 3d 70 9d 06 3d f1 71 ca 3c 6d 84 85 3d
       0.10258535 0.032864988 0.024712535 0.06519399
0000b0 5b 2f 37 3d b6 a6 96 3b ac 92 c7 3d e2 8e cd 3d
       0.044722896 0.00459751 0.09744772 0.10037018
0000c0 64 77 ab 3d 43 f6 68 bd 69 cd df bc a6 24 82 bd
       0.08372381 -0.05687548 -0.027319627 -0.063546464
0000d0 30 a8 27 bd 76 9c 61 3d 61 8e a0 bd 13 f9 87 bd
       -0.04093188 0.055080853 -0.078396566 -0.06639304
0000e0 54 24 e3 3d 2a 9a 81 bd 73 80 1e 3d 70 19 5a 3d
       0.110909134 -0.063282326 0.038696717 0.053246915
0000f0 ec 96 ac 3d 8e 9d 79 bd dc dd 5b 3d 4c de da bc
       0.084272236 -0.06094127 0.05367838 -0.026717328
000100 fa 56 d5 3c 51 70 91 bd f5 c7 51 3d 03 3c c3 bd
       0.02604245 -0.07101501 0.051216085 -0.09532931
000110 88 b2 a3 bd 1d a5 91 3d d6 fe 67 3d d4 15 e0 bc
       -0.079930365 0.07111571 0.056639515 -0.027354158
000120 b4 74 a9 3d 1e a1 8c bd 7b 95 24 3c 48 5a af 3d
       0.082742125 -0.06866668 0.010045405 0.08562142
000130 b0 80 e8 3d 30 4b a7 3c 38 02 a2 bd 63 98 21 3d
       0.1135267 0.020421594 -0.079105794 0.039451968
000140 70 28 a1 bc 4c 37 83 3d d6 3f dc 3d 93 85 bc bd
       -0.019672602 0.064070314 0.10754363 -0.09205165
000150 f8 08 c5 3d fd 91 93 bc 82 df 3b 3d 4a 51 ae bd
       0.09620851 -0.018013949 0.04586745 -0.085115984
000160 c1 b4 6c bd 03 2b 34 bd 5a 21 a8 bd e1 d3 cb bd
       -0.057789568 -0.04398633 -0.08209486 -0.09952522
000170 1a a5 a4 bc df bc c6 3d 1c 57 74 3d 40 58 40 3d
       -0.020098258 0.09703993 0.059653386 0.04695916
000180 7b ba ad bd c4 d0 be bd 3e eb 8e 3d 80 e8 b3 3a
       -0.08482834 -0.09317163 0.06978463 0.0013725907
000190 f0 9f c9 bd 1e 06 03 bd 3c e9 1d bd 48 25 66 3c
       -0.09844959 -0.031988256 -0.038552508 0.0140469745
0001a0 dc 33 c6 bc 30 83 b3 3b 30 3c 76 bc 16 ca 89 3d
       -0.02419465 0.0054782853 -0.015028998 0.06727998
0001b0 00 63 4d bc 1c b2 a7 bc 90 2e 5d bc 08 c7 30 3d
       -0.0125358105 -0.020470671 -0.013499871 0.04315856
0001c0 2a 47 a1 bd 14 fc 0f bd 40 ca 86 3c 02 3c a7 3d
       -0.078749016 -0.03515251 0.016453862 0.081657425
0001d0 4e 3f a8 bd 7e 3b 94 3d 87 f8 99 bd c0 d4 58 bb
       -0.082151994 0.0723791 -0.07518106 -0.0033085793
0001e0 48 5d b0 3d fa 3d aa 3d 30 14 da bb d2 3e 98 3d
       0.08611542 0.08312602 -0.0066552386 0.07433857
0001f0 3c 0e 94 3c a6 fe b4 3d 69 a3 bf bd 0c 4f c9 bd
       0.018073194 0.08837633 -0.0935734 -0.0982953
000200 30 5d c7 bd 1f fe 45 bd 20 eb 50 3d 72 37 bd bd
       -0.09734571 -0.048338052 0.051005483 -0.09239091
000210 f8 03 bf 3c 90 fb c3 bb 54 f3 bc bd 00 cc 3e bc
       0.023317322 -0.0059809163 -0.09226099 -0.011645317
000220 70 3d 33 bd e4 3b cb bd 8a dd c6 bd b4 46 21 bd
       -0.043759763 -0.099235326 -0.09710224 -0.03937407
000230 1e cc 47 bd 86 f5 97 bd e0 35 20 bd 20 4a 33 3d
       -0.048778646 -0.07419877 -0.03911388 0.043771863
000240 78 ca 2e 3d cc be 9f bc 36 6d 99 bd cc 27 a9 bc
       0.042673558 -0.019500159 -0.074915335 -0.02064886
000250 fe 66 a5 bd b8 02 94 bd 0f 94 87 bd ee 8a 86 3d
       -0.08076285 -0.07227081 -0.06620037 0.065694675
000260 a0 8b 11 bb 2a f7 ac bd 88 0e d8 bc 5a 2d 92 3d
       -0.0022208467 -0.0844558 -0.026374117 0.071375564
000270 00 cf 86 bd 80 40 10 bb c0 d1 a3 3d 04 af 96 3d
       -0.06582451 -0.0022011101 0.07998991 0.073576
000280 41 48 50 bd 5f b7 3a bd c8 e9 44 3d 36 03 c5 bd
       -0.050850157 -0.045585033 0.048074514 -0.09619753
000290 f0 3c ad bc 0c 27 ac 3c a3 02 a1 bd b8 76 be 3c
       -0.021147221 0.021014713 -0.07861831 0.023249969
0002a0 20 29 8c bb 34 89 13 3d c0 39 49 bb 40 31 12 3d
       -0.0042773634 0.03601952 -0.0030704588 0.0356915
0002b0 44 4d 6e 3d 0c b0 a8 3c 85 c9 c9 bd 48 4a f4 3c
       0.058179155 0.020591758 -0.0985289 0.029820576
0002c0 20 79 9b bb a8 d2 79 bc 54 3c b6 3d 34 0c 70 bd
       -0.004744664 -0.015247978 0.088982254 -0.058605388
0002d0 4e d5 26 bd 23 6a c7 bd 12 f1 c0 bd 30 f0 87 3c
       -0.040730767 -0.09737041 -0.094209805 0.016594023
0002e0 60 89 30 3d 9a 87 0e bd 08 02 62 3d bc 04 de bc
       0.04309976 -0.03479729 0.05517772 -0.027101867
0002f0 f0 1e 2d bd bc fa 8e bd ec b5 8e bd d8 f6 39 bd
       -0.042265832 -0.069814175 -0.069682926 -0.045401424
000300 84 3f 5d b9 e8 ce 7a 3c 47 55 91 bd 20 bb eb 3c
       -0.00021099864 0.015308119 -0.070963435 0.028775752
000310 31 61 67 3c 5a cd f4 3c 96 19 8b bd 0d 11 e4 3d
       0.014122293 0.029883076 -0.067919895 0.11136065
000320 2e cd df b7 ad 28 29 bd d1 ac aa bd 9e c8 b6 3d
       -2.6679216e-05 -0.041298557 -0.08333743 0.089249834
000330 3f 7b b2 bd d6 8d 14 3c 2d af d7 bd ac bd c4 3c
       -0.087149136 0.009067019 -0.10531459 0.024016224
000340 d9 1b 7a 3d c7 c9 b1 bc f7 09 bf 3d 8a af 3a 3d
       0.061061714 -0.02170266 0.093280725 0.045577563
000350 01 7f f9 bb 3d 74 9b bc e4 6b f7 bc d4 77 86 bd
       -0.007614017 -0.018976325 -0.030202813 -0.06565824
000360 ec cd fe bc 82 c2 e3 3d 56 16 4f bd f0 30 33 3d
       -0.03110405 0.11121084 -0.05055841 0.043747842
000370 1b 1d bb 3c 5b 8a b4 bd e0 ed d2 bc 26 7f 8d 3c
       0.022841027 -0.08815452 -0.025748193 0.017272543
000380 a8 84 8b bc c8 3c 07 3d 71 16 cd bc 14 41 af bb
       -0.017031029 0.03301695 -0.025035115 -0.005348334
000390 46 05 44 bd 84 8b c8 bd 92 e6 0a bd a5 d0 2c bd
       -0.04785659 -0.097922355 -0.033911295 -0.042191166
0003a0 8d 1d e6 3d f8 33 4d bb b2 58 97 3d b4 2a 5a bc
       0.11236105 -0.0031311493 0.07389964 -0.013315845
0003b0 15 8a 86 3d 45 b0 81 bd 82 df ab ba cc bd 0e bd
       0.06569306 -0.06332449 -0.0013112875 -0.034848973
0003c0 2b 7d a7 bc 54 ea 2f 3c 63 95 9e bd 9b ca 1b 3d
       -0.020445427 0.0107370205 -0.07743337 0.038035017
0003d0 8f 43 96 bc 0b b4 9a 3c cb 1d 67 bc 2e af 7c bd
       -0.018342761 0.01888468 -0.014106224 -0.061690502
0003e0 0d 8f b2 3c a3 97 17 bd 7a 26 6c 3d c1 0f 43 bd
       0.021796728 -0.037009846 0.05765388 -0.047622446
0003f0 3c 5d aa bd e8 4a 05 3d a3 70 e7 bc 7f 72 85 3d
       -0.08318564 0.03254214 -0.028251952 0.06515979

cnn.3.bias f4 [64]
000000 91 1a bf bd 40 a2 ab bb f3 16 c0 bc 1c 25 d5 3d
       -0.09331239 -0.0052378476 -0.023448443 0.10407469
000010 3f 2d e2 3d b7 39 59 bd e3 4f cd 3c 25 4e 77 3c
       0.11043786 -0.053033557 0.025062507 0.015094315
000020 6f 5a b7 bd 5b a7 d9 3d d9 b7 30 3c fa f3 91 bd
       -0.08952796 0.10627624 0.01078602 -0.07126613
000030 1d d2 40 bd 79 18 3b 3d 2d 52 49 bd 67 c3 69 bd
       -0.04707538 0.045677636 -0.049150635 -0.057071116
000040 9d fa c4 b9 f8 0a 37 3d 8d 24 81 3b 25 f5 9e bc
       -0.00037570755 0.044688195 0.003941125 -0.019404003
000050 ca 22 8f 3d 26 a3 e0 3c 44 94 16 bd 3a 06 32 3d
       0.06989057 0.027421545 -0.03676249 0.04346297
000060 6c 80 8b 3d 0b 03 2b bd 72 1b c5 3d 65 16 34 3c
       0.06811604 -0.04175095 0.096243754 0.010991667
000070 9b ea 4c bd 37 dd f4 bc d3 b4 0a bc 18 bc 5a bc
       -0.050028425 -0.02989064 -0.008465963 -0.013350509
000080 95 8d 2a bd 0a ed 00 3d fa 3e d4 bc ba 70 49 3d
       -0.04163893 0.031476058 -0.025908936 0.04917977
000090 d0 d5 de 3d 99 82 8a 3a 1a 17 a5 3d 80 dd de bd
       0.10880625 0.0010567486 0.08061047 -0.108820915
0000a0 55 96 85 3a aa 5e 26 3c 60 84 af 3d 12 4a 3a 3d
       0.0010191897 0.010154406 0.085701704 0.045480795
0000b0 1b 30 61 3d 99 81 22 3c 59 c9 bd bd 5c 9b 76 3d
       0.054977518 0.009918594 -0.0926692 0.060206756
0000c0 30 fb 81 3d 1c 2c 13 3c 32 8c 77 bc 52 f4 51 bc
       0.06346738 0.008982684 -0.015109109 -0.012814598
0000d0 db 4e 4a 3d c9 71 74 3d 99 2a 7b bd 8c 2c e4 3c
       0.04939161 0.059678826 -0.06131992 0.027853273
0000e0 3c 4d f8 bc e3 6c ca 3d 56 b8 08 bc 89 19 93 3d
       -0.030310266 0.0988405 -0.00834473 0.07182605
0000f0 c7 7a d8 3d 47 52 1e 3d dc f7 5a bc dc 27 a3 3d
       0.10570293 0.038652685 -0.013364758 0.07966587

lstm.weight_ih_l0 f4 [512, 64]
000000 39 33 ec 3d 8a 3e 3a 3d d0 66 83 3c 06 23 5b 3d
       0.115332074 0.0454698 0.016040236 0.053500198
000010 d0 71 1a bc 23 0e 8f 3c 3a 4b cc 3d 5a 67 0d 3e
       -0.009426549 0.017462796 0.09975286 0.13808957
000020 93 64 e8 3c 9a 92 73 bb 14 2e 73 3d 01 59 a4 3d
       0.02836827 -0.0037166239 0.059370115 0.08024789
000030 2c 12 76 3d 79 a2 87 bd b8 8c 45 bc 71 d0 0f bd
       0.060075924 -0.06622786 -0.012057476 -0.035110895
000040 ca ce 93 3d 47 60 d8 3c be b8 a0 3d 63 14 c5 3d
       0.07217176 0.026413096 0.07847737 0.09623029
000050 65 a3 49 3d a1 32 2e 3d 12 e1 a6 bc 5f a3 96 bd
       0.04922809 0.042528752 -0.020370994 -0.07355379
000060 e6 80 fe 3d cd 0e ef 3d a2 f5 12 3d 90 a1 65 bd
       0.12426929 0.11672745 0.035878785 -0.05606228
000070 aa 47 83 3d 74 bf 42 3d f3 ee e4 3d ed 04 4a bc
       0.06410153 0.047545865 0.111783884 -0.012330276
000080 4e a3 fa 3d e5 03 8e 3d 32 b5 8f 3d d7 59 f0 bc
       0.12238179 0.069343366 0.07016982 -0.029339714
000090 5f 45 e7 3c a7 ca 07 3e 69 43 86 3c 89 2c f9 bc
       0.02823132 0.132609 0.016389566 -0.030416744
0000a0 87 98 03 bd 9d 7f d9 3d 6b a5 5e bc b4 e7 bb ba
       -0.032127883 0.106200434 -0.013589243 -0.0014336021
0000b0 57 90 0d 3e e9 5a 8b 3d 6f 2b b3 bd 07 67 db 3c
       0.13824593 0.06804449 -0.08748519 0.026782526
0000c0 e3 51 1e 3d 32 66 24 3d 69 c0 81 3c 5d 49 99 bd
       0.038652312 0.040136524 0.015838819 -0.07484696
0000d0 4c eb e7 3d 8d 60 41 bd b7 fc 4b 3d 5c 44 cd 3d
       0.11324176 -0.04721122 0.049801555 0.10022804
0000e0 ab 2d 85 3d cb fc 09 3e e2 fa ea 3c f4 92 22 bc
       0.06502851 0.13475339 0.028684083 -0.009922732
0000f0 3b de 82 3c cf fc d4 3d 5c 4a a8 3d dc 49 38 3d
       0.015975108 0.10399782 0.08217308 0.044992313
000100 22 6e fd 3d 1c 5f 34 bd 55 87 65 3d cb e2 b7 3c
       0.12374522 -0.044036016 0.056037266 0.02244701
000110 eb 9e 52 bb be 9a e1 3c ec 0f da 3c f7 bb ba 3c
       -0.003213818 0.027539607 0.02661892 0.022794707
000120 52 7c ea 3c 76 75 73 3d c3 5d c4 bd 4e fc fc 3d
       0.028623734 0.05943819 -0.09588196 0.12352811
000130 2e a7 20 3d 04 42 00 3d 77 03 05 3d 49 2f 94 3b
       0.039221935 0.031312957 0.032474007 0.0045222384
000140 22 2d 80 bd 7b d8 b7 bd fc 39 72 3c dc 21 89 bd
       -0.062586084 -0.08976837 0.014784332 -0.06695911
000150 03 7a d4 3d 69 61 52 3b 77 8a 5f 3c d4 1c 45 bd
       0.103748344 0.0032101518 0.013643852 -0.048123196
000160 ed 79 55 bd af 0b 09 3b 3d e8 b3 3d fc fe 5c bc
       -0.05211823 0.0020911505 0.0878453 -0.013488527
000170 16 cc b2 3d 15 cf d0 3b df 5c 69 bd da b0 02 3c
       0.087303326 0.0063723424 -0.056973334 0.007976735
000180 1d 38 47 3d 82 e4 e7 3d 07 95 4f bd c9 20 87 3d
       0.0486375 0.11322881 -0.050679233 0.0659805
000190 7b 04 1e 3d 28 d6 31 3c 5b 7b b9 bd 8b 7b de bc
       0.03857849 0.0108542815 -0.09056731 -0.02715852
0001a0 ba 58 aa 3d 1c ea db 3d a8 36 d5 3d 75 a8 2d 3d
       0.083177045 0.10738012 0.104108155 0.04239698
0001b0 e7 9b c7 3d 70 5e c9 3d a6 58 09 3d 1c 86 9c 3d
       0.09746533 0.09832466 0.033531807 0.07642767
0001c0 77 58 b9 3d 34 52 a2 3d 31 f5 33 bd c6 83 c1 3c
       0.090500765 0.07925835 -0.043935005 0.023622405
0001d0 e5 4a a0 3d 86 3f d1 bc 62 22 1a bd 0d b9 8f bc
       0.07826785 -0.025542986 -0.037630446 -0.017544294
0001e0 03 c4 0a bd aa 05 11 3d 62 e3 b6 3c df c0 0f 3d
       -0.033878338 0.035405792 0.022325221 0.035096046
0001f0 2a 1f 41 bd b1 e7 67 3c df 03 22 3e d7 a7 87 bc
       -0.04714886 0.014154361 0.15821789 -0.016559524
000200 7d ce 39 bd 9c 69 d0 3c 02 f8 eb 3d d7 97 03 3d
       -0.04536294 0.025440983 0.11521913 0.032127228
000210 53 f2 4a bd 26 ff 40 3c 41 d0 ad bd e6 36 b6 bd
       -0.049547505 0.011779582 -0.08486987 -0.0889719
000220 56 ea 1c 3e 1f 74 83 bc db 96 27 3d 1c 68 cb bb
       0.15323767 -0.016046582 0.04091535 -0.006207479
000230 1b 54 11 3e 9e 03 6a bd c6 e3 1f bc cc 37 d8 bc
       0.1419224 -0.057132356 -0.009758895 -0.026393794
000240 90 eb 19 bd b2 78 04 3d c6 59 1e bd 00 50 30 3c
       -0.037578166 0.032341667 -0.038659833 0.010761261
000250 a0 5f 0f bc 4b 57 57 bd 17 d8 98 bd 76 c7 e8 3c
       -0.008750826 -0.052573483 -0.07463091 0.028415423
000260 59 bf 9f bb 0f 59 ea bc 67 7a a1 3d f8 51 d8 bd
       -0.0048751053 -0.02860692 0.078846745 -0.10562509
000270 7b 14 84 bc 23 b3 4d bd 46 9d 82 bd 61 66 7d bd
       -0.016123047 -0.050219666 -0.06377654 -0.061865214
000280 b6 03 5f 39 13 6f 24 bc 8c 1a 54 3d ee b9 cc 3d
       0.0002126832 -0.010036248 0.05178313 0.09996401
000290 14 f1 0e 3d ad 60 d6 3d 70 93 87 bc 77 6e b5 bd
       0.03489788 0.10467658 -0.016549796 -0.0885896
0002a0 dd f6 a9 b9 4a 7f ee 3c 33 21 8d 3d ef 84 23 bd
       -0.0003241812 0.02911343 0.06891098 -0.039921697
0002b0 79 31 ad 3d 60 05 47 3d 29 1d 8b 3d 1c 9a d9 bc
       0.08456702 0.04858911 0.06792671 -0.026562743
0002c0 21 ba fc bc 52 f7 36 bc 9c fb 2c 3d 1f ea 41 3d
       -0.030850472 -0.011167364 0.04223214 0.047342416
0002d0 10 8f 06 bd c0 8e 7f bb 3a 73 5a bc e0 7e ca 3c
       -0.03285128 -0.0038994998 -0.013333136 0.024718702
0002e0 7b 56 8e 3d 53 d5 87 3b a0 a5 e4 bc 0d 26 3c bd
       0.069500886 0.0041453033 -0.027911007 -0.045934726
0002f0 27 2f 4e bc 93 dc 99 3d 78 03 16 3e 05 4f b1 bb
       -0.012584484 0.07512774 0.1464976 -0.005411031
000300 79 0b 00 bd 60 38 82 3b 31 9c 72 bd 79 ea 04 3e
       -0.03126094 0.0039740056 -0.059230987 0.12980069
000310 4b 61 11 bd 32 15 e2 3c 2b ab 4e 3d ec 9b 57 bc
       -0.035493176 0.027597997 0.050456207 -0.013159733
000320 04 50 5c bb f1 bf 1f 3d 16 09 57 3d f1 d7 54 bd
       -0.003361703 0.03900141 0.0524989 -0.05196375
000330 eb b8 54 3d 59 f4 18 3e b0 a9 af 3c 64 37 2f 3d
       0.051934164 0.14936961 0.021443218 0.042777434
000340 8d 06 d1 3d b2 9a 78 bc 1b 73 00 3e 6a dd c5 3d
       0.102063276 -0.015173601 0.12543909 0.09661372
000350 b2 8f cd 3d 39 fd 8f 3d 01 1f c3 3d 88 43 8e 3d
       0.10037173 0.0703072 0.09527398 0.06946474
000360 f8 dc 17 3d 23 d3 31 3d ea 40 6b 3d 7a fd 5c 3d
       0.037075967 0.043414246 0.057434954 0.05395267
000370 1b 27 aa 3d 7d 39 10 3e 8d d9 51 bd 5f e9 92 3c
       0.0830824 0.1408443 -0.051232863 0.017933546
000380 20 82 2b 3d 56 4b 47 bd a6 aa 2c 3d a4 90 49 bd
       0.041872144 -0.04865583 0.04215493 -0.049210206
000390 b6 f6 b5 3d fb 23 a0 bd 9d 80 f0 3d 0a c8 76 bc
       0.08884947 -0.07819363 0.11743281 -0.0150623415
0003a0 43 69 df 3d 70 60 57 3d b2 03 d3 3c ee 95 e3 3d
       0.10908749 0.052582204 0.025758598 0.11112581
0003b0 c1 d0 8f 3d e3 2d d5 3c 31 15 a8 3d 94 99 cf 3b
       0.070222385 0.026022857 0.08207167 0.0063354466
0003c0 a8 1e 55 3d 04 6a 0a 3e 7e fa ec bc bb c4 fe 3c
       0.05203119 0.13517004 -0.028928038 0.031099668
0003d0 c7 e8 02 3e ec 90 2f 3d b1 15 8e bd f6 03 74 3d
       0.1278411 0.042862818 -0.06937731 0.05957409
0003e0 90 48 03 3e be ba 8b 3d 28 a4 d8 3d be 3d 1e 3d
       0.12820649 0.068227276 0.10578185 0.0386331
0003f0 bb 9c 21 bd 2e 0d bb 3c 84 df 96 bd ec 9d b7 3d
       -0.03945611 0.022833433 -0.07366851 0.08965668

lstm.weight_hh_l0 f4 [512, 128]
000000 64 7e 8f bd 1f be 14 3d 33 c7 32 be 43 49 b3 3d
       -0.07006529 0.036314126 -0.17458801 0.08754208
000010 d0 c4 08 bc 60 a9 74 bc be aa ba 3c 84 42 70 bc
       -0.008347705 -0.01493296 0.022786494 -0.014664296
000020 02 1d 6a bd 15 14 1a 3e 45 09 74 3d 43 d9 34 be
       -0.05715657 0.15046723 0.059579153 -0.17661004
000030 9f d6 61 3d ba 1c f5 bc cf 19 cb 3d ec ff c4 bc
       0.05513632 -0.029920924 0.09917032 -0.024047814
000040 3c fa d6 3c 0a 7f a6 bc 57 8a 30 b9 a6 be 82 3d
       0.026242368 -0.020324249 -0.00016836204 0.063840196
000050 02 d6 75 bb b9 d0 97 3d 10 8a 15 be 9c 35 08 be
       -0.0037511592 0.074128576 -0.14603448 -0.133017
000060 ef 97 98 bc f4 69 0e 3c 5e a7 d6 bd f9 51 12 bd
       -0.018627135 0.008692253 -0.104811415 -0.035722706
000070 f6 aa 95 3d 1f 2e 0d be 71 42 b5 3d ff b1 89 bc
       0.07307999 -0.13787125 0.08850563 -0.016808508
000080 6a ec 03 3e 6d c2 80 bd 91 d4 4b 3d 71 f3 fc 3c
       0.12883154 -0.06287084 0.049763266 0.0308778
000090 69 b9 f6 bd 35 32 f2 3d 2e 54 06 3d 93 bb 2f be
       -0.12047083 0.118259825 0.032795124 -0.17161398
0000a0 94 4f 7f bd 3b a9 5d bd 03 b9 1e be c2 61 e3 3c
       -0.06233175 -0.05411647 -0.15500264 0.027756575
0000b0 f9 09 90 3c 51 7e 18 b9 ab b3 eb 3d c7 cf 9c bc
       0.01758288 -0.00014542906 0.11508878 -0.019142045
0000c0 27 6e f1 bd c3 48 7a bd 93 c7 38 3d 31 53 14 be
       -0.11788588 -0.061104547 0.045112204 -0.1448486
0000d0 94 88 91 bc 9c 71 ce 3c 67 af f1 bb 7a fd 37 3d
       -0.01776532 0.025200658 -0.007375646 0.04491947
0000e0 6a 15 1a be 65 1e 15 3e c1 5b a7 3d f3 6e 00 be
       -0.15047231 0.14562376 0.081717975 -0.12542324
0000f0 43 df 90 3d 48 54 80 bd 0b e3 5b bc a4 bd 98 bb
       0.07073834 -0.062660754 -0.0134208305 -0.004661279
000100 f9 78 a2 bd 95 ae 31 3e 26 02 4c bd 1b ba 63 3d
       -0.0793323 0.17351754 -0.049806736 0.055597406
000110 dd 20 d4 3c f7 70 ea 3d bb d9 18 be 94 1d 22 3e
       0.025894577 0.114473276 -0.14926808 0.15831596
000120 20 9d 44 bd 70 c7 b8 bc 02 e4 bd 3b 81 d7 d5 bd
       -0.04800141 -0.022556037 0.005795003 -0.10441495
000130 0a b6 23 bc e4 00 90 bd 1c 13 25 bc 04 0b 18 be
       -0.009992132 -0.0703142 -0.010075357 -0.14847952
000140 dd 34 38 3d b4 0c 05 be b5 75 54 b9 4c c3 f6 bc
       0.04497229 -0.12993127 -0.00020261745 -0.030122422
000150 45 1f cc 3b 52 5c c9 3d 1d 7b 15 3e 9c 99 72 3a
       0.0062293136 0.09832062 0.14597745 0.0009254457
000160 5a 96 93 bc 93 2b 18 bd b9 46 8b 3d 86 a6 db bd
       -0.01801603 -0.03715093 0.06800599 -0.10725121
000170 bc 63 87 3d dc b9 71 3c a0 df 9d bc 66 1a 01 be
       0.0661082 0.014753785 -0.019271672 -0.12607726
000180 78 71 3c bd 4f 67 33 3e 84 a7 1b bd 65 2b 14 be
       -0.04600665 0.17519878 -0.038001552 -0.14469679
000190 b9 60 e5 3b 2c 40 b0 3c ce 97 16 bd be c8 ef bd
       0.0070000556 0.021514975 -0.036765866 -0.117082104
0001a0 9d 25 53 3d 7b 44 b0 bd 4a 40 23 be 5f 87 1b 3e
       0.051549543 -0.086068116 -0.15942493 0.15188359
0001b0 0a 92 c0 bc 9d 50 07 3e 62 60 b6 3d 67 9d 92 3d
       -0.023507137 0.13214345 0.08905102 0.07158928
0001c0 96 ef 94 3d 8e c1 b3 3d f3 ab 59 bd 04 f2 05 be
       0.0727226 0.08777152 -0.0531425 -0.13080603
0001d0 ef 4f a1 3c 18 e5 ab 3b af 4b e8 3c f3 38 62 bc
       0.019691436 0.005245816 0.028356401 -0.013807523
0001e0 6d 0a c5 3d 64 46 f4 3d 3d 4f 46 bd a1 8c c6 bd
       0.09621129 0.119274884 -0.04841541 -0.096947916
0001f0 dd 0e c9 3d 29 6e b5 bd 8e d9 93 3d ea a8 1a 3b
       0.09817288 -0.08858902 0.0721923 0.0023599216
000200 4f ae a7 bd 34 b3 24 bd f0 9f a9 bb ad 1b 95 bd
       -0.081875436 -0.040209964 -0.0051765367 -0.07280669
000210 87 10 07 3e 38 7f c3 3c 83 2d 2b 3d d4 2a 04 3d
       0.13189898 0.023864374 0.04179145 0.032267407
000220 e7 1e 1e bd 42 96 97 3d 8a 53 a7 3c 0f dc 34 3c
       -0.03860369 0.07401706 0.020425577 0.011038794
000230 f5 c6 f9 3d a0 9b bf bc 5f f6 ae 3d 8d 55 a0 3c
       0.12196151 -0.023389637 0.08543085 0.019572044
000240 0d 0e b0 bb 62 5c 31 3d 4e 73 71 bd 75 d0 8a 3d
       -0.0053727687 0.043300994 -0.058947854 0.06778041
000250 c1 a5 6a 3c d6 74 a5 3d 43 00 a0 bd 3c 11 a8 bd
       0.014321745 0.08078925 -0.0781255 -0.08206412
000260 d5 1d 18 bc 6b 99 57 3d 54 70 d1 bd c3 5d 6e 3d
       -0.009284456 0.052636545 -0.10226503 0.058194887
000270 3c c7 de 3d b7 5c ee bd f8 fb 02 bd 24 0f 0d 3d
       0.10877845 -0.11638778 -0.031978577 0.034438267
000280 09 ef 9e bd d1 85 1b 3d c5 f6 27 3d bc 7b 44 bd
       -0.07760436 0.037969414 0.041006822 -0.047969565
000290 17 b8 7c bd 78 1a 83 3d cd 51 e2 bc 27 33 97 bd
       -0.061699 0.06401533 -0.027626896 -0.073828034
0002a0 8d 46 b8 bd f6 7e c9 3d 7b 3b 80 bd 37 d2 ff bc
       -0.089978315 0.09838669 -0.06261345 -0.031228168
0002b0 97 a8 bf 3d 07 b5 fe 3d 97 15 9c 3d c0 86 f9 bb
       0.09358328 0.12436872 0.076213054 -0.0076149404
0002c0 c0 53 9e bd e0 4f 9b 3d 60 bd c2 bd cc 78 1b bd
       -0.07730818 0.07583594 -0.09508777 -0.037956998
0002d0 6d e2 60 3d 89 3f 77 bc 34 95 14 3b 08 60 3a bd
       0.054903436 -0.015090832 0.002267194 -0.04550174
0002e0 85 af 10 bd 63 40 ef 3d 5f 56 b9 3d 60 25 f8 3c
       -0.03532364 0.11682203 0.09049677 0.03029126
0002f0 db ba 5b 3d 80 6e 3c bd 40 67 73 3d 64 82 2f bb
       0.053644996 -0.04600382 0.05942464 -0.00267806
000300 80 da a0 3c 7c 58 1f 3d a9 e1 cc bd f2 6c c1 bb
       0.019635439 0.038902745 -0.10003979 -0.00590288
000310 f8 31 cf bc a7 41 05 3e ee da b8 bd ea 47 c9 3d
       -0.025292382 0.13013326 -0.090261325 0.0982817
000320 6c 25 a1 bc 0a 2b 74 bd ee 33 0d bd ba 64 49 3c
       -0.019671164 -0.059611358 -0.034473352 0.0122920815
000330 b4 51 f1 bc 36 d8 a2 bc f1 e0 0f 3d 9b 50 f2 bc
       -0.029457904 -0.019878488 0.03512663 -0.029579451
000340 30 77 9a bd 93 34 45 3d 30 0d 90 3d 54 a8 50 bd
       -0.075422645 0.04814584 0.07033765 -0.05094178
000350 f8 d7 43 3d 84 3d ef 3d 0d 8e 07 3d cc e3 bf bd
       0.047813386 0.11681655 0.033094455 -0.09369621
000360 6b 99 30 bd 9b 35 51 3d 30 40 0a bb 7c fb 32 bc
       -0.04311506 0.051076513 -0.0021095388 -0.010924216
000370 cb a2 01 3e 9f 7c 3a 3d d2 04 b3 bc 99 76 0f bd
       0.12659757 0.045529004 -0.021852884 -0.035025213
000380 46 73 de bd bc 67 88 3c aa fd 4d 3c 8a 3c c0 3c
       -0.108618304 0.016651027 0.012572685 0.023466367
000390 db 3a 56 bd c4 f2 11 3d 18 31 fe bd 84 07 da bc
       -0.052302223 0.03563191 -0.12411708 -0.026614912
0003a0 a8 d3 94 ba 76 73 f4 bd 00 91 eb bd ed 2e 50 3d
       -0.0011354582 -0.11936085 -0.11502266 0.050826002
0003b0 31 c5 92 bd cb 62 41 3d 21 fa 91 3d e1 28 06 3d
       -0.071665175 0.047213357 0.071277864 0.03275383
0003c0 25 64 df bc 25 68 ed 3d 9f 5c 0e 3d 5e 9e c7 bd
       -0.027269432 0.115921296 0.0347563 -0.09747003
0003d0 89 76 19 bd 14 c1 9a bd d0 48 d9 3b 9a bf ba bd
       -0.03746656 -0.07556358 0.0066309944 -0.09118576
0003e0 e4 73 15 3d a2 29 86 3d ef 50 af bd 5a 22 05 be
       0.036487475 0.065509096 -0.08560359 -0.13001385
0003f0 3d d5 24 3b 50 5c 0d 3d 7e 9b 0f bd 2a 21 56 bd
       0.0025151514 0.034511864 -0.0350604 -0.05227772

lstm.bias_ih_l0 f4 [512]
000000 ff bc eb 3d be 7b 3c 3c 1a f3 25 3c b6 00 7b 3d
       0.115106575 0.011504112 0.010128761 0.061279975
000010 5d a4 c5 3d de 68 4d bd 59 aa 50 bc 0c 19 a3 bc
       0.096504904 -0.050148837 -0.012735927 -0.019909404
000020 47 e8 b8 3d ad b4 8f 3d 0f 45 3c bd af 7f ab 3d
       0.090286784 0.07016883 -0.045964297 0.08373963
000030 36 3d 89 bc 13 47 ce 3d 3f 3b 7d 3d 1d 9d c7 3d
       -0.01675282 0.1007215 0.06182408 0.09746764
000040 47 4d 3f 3d 30 bf 7a 3d c6 f7 15 bd fa a0 bd 3d
       0.046704557 0.061217487 -0.03661325 0.092592195
000050 f4 d2 56 bc f1 61 3f 3e cd 1a a6 3d 45 73 e1 3c
       -0.013111819 0.18689705 0.081105806 0.027520785
000060 02 c3 3e 3d 9b 57 9a 3b ac 07 89 3d 07 1e c6 3b
       0.046572693 0.0047101504 0.066909164 0.00604606
000070 19 d0 1c 3d 0d 74 cd 3d 86 3d 07 bd a7 14 6d 3d
       0.038284395 0.100319006 -0.033017658 0.057881024
000080 fe bb 09 bc 36 ba b8 3d b1 a9 51 bc 18 ef 06 3d
       -0.008406637 0.09019892 -0.012796805 0.03294286
000090 eb f5 eb 3c 79 7b 24 bd f0 9c f5 3d a0 9a 5b bd
       0.028803786 -0.040156815 0.11992824 -0.05361426
0000a0 a6 e9 fd bb 71 e1 a1 bc 77 9e b1 bc 3e 1a 2b 3d
       -0.0077488003 -0.01976082 -0.021682007 0.041773073
0000b0 38 e7 04 3d b8 10 5a bd a4 b0 fa 3d 2b 42 7e 3d
       0.03244707 -0.0532386 0.12240723 0.06207482
0000c0 a2 7f ce 3c 4f 38 10 bc 97 ce b3 3d 17 f2 0f bd
       0.025207344 -0.0088024875 0.08779638 -0.035142984
0000d0 8a 72 8e 3d 56 ed 91 bc c2 15 c1 3d ef c4 ad bc
       0.0695544 -0.017813366 0.09427978 -0.02121207
0000e0 c2 1b 98 3d df 3d b5 bc 8c ce ce 3d 43 20 d5 3d
       0.074271694 -0.022124229 0.100979894 0.10406544
0000f0 f8 eb 22 bc 9c 96 cb 3d 9b 50 00 3e d1 e0 33 bd
       -0.009943955 0.09940836 0.12530749 -0.043915574
000100 b3 3f 9a 3d 0a b0 a7 3d 02 72 77 3c 9e f2 13 bd
       0.07531681 0.08187874 0.015102865 -0.03612005
000110 0a e6 1a bd 7a ca 0c bd e8 37 b2 bc 28 4d cd 3d
       -0.03781704 -0.034372784 -0.021755174 0.10024482
000120 1a ae 9d 3d 2d 68 4f bb 2a 29 6d 3c 46 7d e3 3d
       0.07699223 -0.0031647787 0.014475146 0.111078784
000130 10 b8 23 3e 55 ed 07 3b d6 0b 6b 3d 2c 13 e4 bc
       0.15988183 0.0020740826 0.057384335 -0.027841173
000140 1f da 08 3d 64 7e da 3d 49 b2 93 3d 5d 02 22 3c
       0.03341114 0.10668638 0.072117396 0.009888259
000150 55 86 e0 3d 62 15 f8 3c cb 9d bc 3d b6 af 4d bc
       0.10963122 0.030283634 0.09209784 -0.0125541
000160 c8 65 0e 3e 08 e1 e2 3d 6a 98 45 bc 79 7b ce 3d
       0.13906014 0.110780776 -0.012060264 0.10082144
000170 7e 9b 7e 3d 32 de ea bb b5 85 75 3d 84 b1 e0 3d
       0.062160008 -0.007167601 0.059941966 0.109713584
000180 87 66 03 3e e0 6b aa 3d 4c 17 f5 3d 7e dd f1 3d
       0.1283208 0.08321357 0.11967334 0.118098244
000190 38 f9 8e 3d c9 d2 87 3d 79 5a 8d 3d a5 3f 17 3d
       0.069811285 0.06632001 0.06902022 0.03692593
0001a0 ad 02 08 3d f9 50 92 bc 10 b2 bd bc 97 97 2c bd
       0.033205677 -0.017860876 -0.023156196 -0.042136755
0001b0 aa a2 bf bc 34 95 d4 bb 4a 80 93 3d 74 39 b4 3d
       -0.023392994 -0.006487513 0.072022036 0.08800021
0001c0 15 de d6 3d 4c d0 57 bd b0 46 cd bc 8d 13 7c 3d
       0.104915775 -0.05268888 -0.02505812 0.061542083
0001d0 a8 72 74 3d 48 59 f9 3d 1a 96 aa 3d d9 3b 8e 3d
       0.059679657 0.12175232 0.08329411 0.06945009
0001e0 9c 99 4d bc 42 bc da 3d 45 8a fa 3d 90 4e 12 3d
       -0.01254883 0.106804386 0.12233404 0.035719454
0001f0 51 25 b4 3d a7 99 00 bd 35 e8 5a bc ad f0 21 3e
       0.0879618 -0.031396534 -0.0133610265 0.15814467
000200 97 45 b2 3d 95 dc 82 3d ab 84 88 3d 85 fc d1 3d
       0.087046795 0.06389729 0.066659294 0.102532424
000210 4f ae 8d bd e8 da 8d 3d 27 92 28 bd 81 f6 37 3d
       -0.06918012 0.06926519 -0.041155007 0.04491282
000220 f2 51 c5 3d d7 98 c7 bc b1 e6 92 3c 28 35 1c 3c
       0.096347705 -0.024364872 0.017932268 0.009534158
000230 aa 3d a9 3c 8f d2 48 3d 15 2d 22 bd 39 7c 6b 3c
       0.020659287 0.04902893 -0.039593775 0.014372879
000240 aa 0c cf 3d a7 54 05 3e c5 25 0e 3d 76 cf 5d 3d
       0.10109837 0.13020574 0.03470399 0.05415293
000250 92 cf e5 3c 7f bb 9d 3c 8b c0 44 bd 38 5d c1 3d
       0.028053079 0.019254444 -0.048035186 0.09441608
000260 73 e9 25 bd c1 2a d1 3d 1f 0b b5 3d ca 34 06 bd
       -0.040505838 0.10213233 0.08840012 -0.032765187
000270 1b 13 83 3c a4 20 30 bd a4 eb 8f 3d 74 ef b6 3d
       0.016000321 -0.04299988 0.07027367 0.08932391
000280 44 54 ae 3d bd 54 cd bb 97 01 93 bd c8 b9 8a 3d
       0.08512166 -0.006266205 -0.071780376 0.06773716
000290 7f 23 c1 3d 05 0f d7 3d cf bb aa 3d 20 25 36 bd
       0.094305985 0.105009116 0.08336603 -0.044469
0002a0 4a 96 a8 3c 19 26 a8 39 0d d2 d9 bc ae 9f 3b 3c
       0.020579476 0.00032071842 -0.026589418 0.011451645
0002b0 92 9a 9a 3c 49 02 74 3d 5f d3 0d bb 82 8f 48 bc
       0.018872533 0.05957249 -0.002164088 -0.012241246
0002c0 68 7a 35 bd c1 0d 50 3c 44 3d 1a 3e 67 1d 51 3b
       -0.04430619 0.012698592 0.15062433 0.0031908394
0002d0 cf d2 d6 bb 45 de 12 3d 15 0b 96 bd 50 c6 75 3d
       -0.006555892 0.035856504 -0.073263325 0.06000358
0002e0 bb 0a 16 bd 55 f0 03 3c 88 74 93 3d 6f 12 98 3d
       -0.036631327 0.008052905 0.07199961 0.07425391
0002f0 40 69 dd 3d dc 66 3a bd 0e 83 c4 3b 84 dd a8 3d
       0.108110905 -0.04550825 0.0059970682 0.08245376
000300 8d 2f 1a 3d 38 88 65 3c f4 d3 ad 3c 55 c5 20 3d
       0.037643004 0.014009528 0.021219231 0.03925069
000310 76 e2 dc 3d 28 58 b7 3d 7d d5 10 bc b9 cd a9 3d
       0.107853815 0.08952361 -0.008839962 0.082911916
000320 db f9 a4 3d aa 9f 03 3d bc 5f b1 3d 0d 7c fd 3d
       0.08055469 0.03213469 0.08660838 0.123771764
000330 87 a1 15 3e 37 4d 59 3d 23 89 24 b9 1b d2 03 3d
       0.14612399 0.053052153 -0.00015691346 0.032182794
000340 8f f7 be 3d 23 05 40 bd 10 fe 6b bd 97 f1 03 3d
       0.09324562 -0.0468799 -0.05761534 0.03221282
000350 ad c5 a2 3d 73 0d 59 bd 01 27 27 3d 5b e0 31 3c
       0.0794786 -0.05299134 0.04080868 0.010856713
000360 ba 16 a2 3d 4c 42 a8 3d 62 6b 42 bb e9 f3 66 3d
       0.07914491 0.0821577 -0.0029666056 0.056384955
000370 6e 42 75 bd c1 fd 83 3c 0e 8c a1 3d 9e 77 60 bb
       -0.059877805 0.01611221 0.078880414 -0.0034250985
000380 fb 8d e8 3d 9b 93 cf 3d 7a df 3c 3c de 47 cb 3d
       0.113552056 0.101355754 0.01152789 0.09925817
000390 87 35 40 bc 4b 45 2f bd 9f d1 75 bd b5 16 fb bc
       -0.011731512 -0.042790692 -0.060014363 -0.030650476
0003a0 76 bf 81 3d c0 4a eb 3c 1d fc 0d 3d 3e 9d 22 bd
       0.063353464 0.028722167 0.034664262 -0.03970074
0003b0 d7 d0 8d bc ab 31 bd 3d 81 c4 be 3c 4b 9b a6 3d
       -0.017311497 0.09237989 0.02328706 0.081350885
0003c0 31 35 25 3c 69 39 83 3d d4 10 9a 3d fe d1 86 3d
       0.010083483 0.064074345 0.07522741 0.065830216
0003d0 8a f6 60 3d e9 b9 bd 3d 8a e9 d3 3c b1 72 af 3d
       0.054922618 0.09263975 0.025868196 0.085667975
0003e0 11 a1 13 bd c2 26 42 bd 91 3f a3 3d f0 9b c8 3d
       -0.036042277 -0.047400244 0.07971109 0.09795368
0003f0 ca 08 d6 bc 42 88 8a bc 6d 96 64 3d 99 37 19 bb
       -0.026127238 -0.016910676 0.05580752 -0.0023379086

lstm.bias_hh_l0 f4 [512]
000000 93 45 05 3e 30 b5 c1 3d 97 35 df 3d 20 89 9b 3d
       0.13014822 0.09458387 0.10898893 0.07594514
000010 d7 d9 6b 3a 37 fa 8d 3d d4 e7 db bb 89 10 33 bd
       0.0008996999 0.0693249 -0.0067109857 -0.04371694
000020 a1 38 e0 3d bd 66 84 bc 66 d6 f9 3c 09 18 19 bd
       0.10948301 -0.01616227 0.030497741 -0.037376437
000030 27 48 77 3d 9a a5 0c 3e f8 9d 1e 3d b5 b7 bd 3d
       0.060371544 0.13735047 0.03872487 0.09263555
000040 33 3a 24 3c e2 81 62 3d cc 27 4f bd 02 34 55 3d
       0.010023641 0.055299647 -0.050575063 0.05205155
000050 87 3a a9 bb 68 f5 ec 3c 67 42 ab 3d 87 8a d8 3d
       -0.0051644477 0.028925613 0.083622746 0.10573297
000060 d8 79 1f bd 15 da fe 3d 5c bc e8 bc 3d f1 0e 3e
       -0.03893456 0.124439396 -0.02841013 0.13959213
000070 47 c8 8b 3d 1c dc 4e bc ae 9b c2 3c 1f 91 ef 3d
       0.06825309 -0.01262572 0.023755874 0.116976015
000080 8f c1 3a bc c1 d6 a9 3d 99 f3 89 3d 93 4e c0 bc
       -0.011398687 0.08292914 0.06735916 -0.023474967
000090 dc 5f 60 3d 6c b3 aa 3d 7b a8 86 3d ff 11 34 3d
       0.05477892 0.08335003 0.06575104 0.043962475
0000a0 ab 28 94 3d 3a 46 b8 3c ac 1e bf 3c 37 e2 2e 3c
       0.07234319 0.022494424 0.023330055 0.010674051
0000b0 20 24 d3 3d 45 e0 51 3c aa 9f a7 3d cb e9 b9 3c
       0.10309625 0.012809818 0.081847504 0.022694489
0000c0 14 0e 52 3b 66 27 a6 3d 1c 72 59 3d 02 3e ea 3d
       0.0032051848 0.081129834 0.05308734 0.11437608
0000d0 be 8b 66 bb 8d 09 cc 3d 7d fe 9b bc ad 4f 63 3c
       -0.0035178508 0.09962759 -0.019042248 0.013873977
0000e0 b3 76 ce 3d 66 62 5e bd 83 e5 cc 3c 3f 2a 46 3d
       0.10081234 -0.05429306 0.025011783 0.048380133
0000f0 8c e5 41 3d ff 4d cd 3d 7a d2 9c 3d 37 a2 a4 3c
       0.047338054 0.10024642 0.07657333 0.020096881
000100 e0 7c 08 3d 6d d1 b9 3d fa 22 dd 3a 12 81 d5 3d
       0.033322215 0.09073148 0.0016871386 0.10425009
000110 f2 cb 23 3c b2 73 0d 3d e4 02 02 bd fb f2 6e bd
       0.009997355 0.034534164 -0.031741038 -0.058337193
000120 bc b3 d5 3d 34 77 78 3c 3a 74 d5 3d 51 6a fe 3c
       0.10434672 0.015165139 0.10422559 0.031056555
000130 b8 9c 9b 3d 08 a6 e7 3d cf 89 e7 3d e7 6f 76 3d
       0.07598251 0.11310965 0.11305582 0.060165312
000140 9b d5 b5 3d 90 82 1d 3d 4a 93 33 3d db a0 d0 bb
       0.08878633 0.038454592 0.043841638 -0.0063668317
000150 57 53 54 bc 36 e1 8f 3d 67 5f 62 3d 11 8f be 3d
       -0.012959323 0.070253775 0.055266764 0.093046315
000160 bf 62 2a bc 10 2d 06 3c 31 2e aa 3d ba cb 57 3d
       -0.0103995195 0.008189455 0.083095916 0.052684523
000170 ed 4a 7d 3c a4 11 f5 3c a5 79 ba 3d 76 ec 08 bd
       0.015459758 0.029915638 0.09105233 -0.03342863
000180 de b8 04 3d c3 83 32 3c 11 58 fb 39 23 d2 63 ba
       0.032402866 0.010895672 0.00047940065 -0.00086906756
000190 20 55 e9 bc 37 ee 98 3d 8b a3 0f bd f2 81 d9 3d
       -0.028482974 0.07467311 -0.035068076 0.10620488
0001a0 79 5e b8 b8 62 0e 5b 3d b8 33 11 3d 2e 6e c4 3d
       -8.7914006e-05 0.053480513 0.035449713 0.095913276
0001b0 7a 33 3b b9 93 a5 29 3d ee cc bc bc 07 9e b3 3d
       -0.00017852886 0.04141767 -0.023046937 0.08770376
0001c0 35 73 fc 3d dc fb 81 bd 72 a9 fe 3c 3c 1c a0 bb
       0.123266615 -0.063468665 0.031086657 -0.0048861783
0001d0 87 12 e2 3d 99 5c 7c 3d c2 16 76 3d 58 fc ab 3b
       0.1103869 0.061611746 0.060080297 0.0052485876
0001e0 d5 93 38 bd b0 ec 04 bd 1d 12 8f 3d 13 77 c8 3d
       -0.04506286 -0.032452285 0.06985877 0.097883366
0001f0 c3 ff ea 3d 29 13 db 3d 66 f3 7e 3d f5 5d 33 3c
       0.11474564 0.10697014 0.06224384 0.010947694
000200 b5 76 c7 bc 11 15 5b ba d5 d5 3a bd ea 10 43 bd
       -0.024348596 -0.0008357326 -0.045614082 -0.047623552
000210 48 8b 45 3d bb aa bb 3d 1d a8 80 bd c9 80 29 bd
       0.048228532 0.09163424 -0.06282065 -0.041382585
000220 da f3 47 3c c9 45 cb 3c 73 f6 b6 3d a1 50 61 bd
       0.012204135 0.02481355 0.08933725 -0.055008534
000230 a9 dd eb 39 fa 86 53 bd c8 cd 44 3d c4 b5 61 bd
       0.00044987843 -0.051642396 0.04804781 -0.055104986
000240 9e a2 65 3d 15 5f fb 3d 26 3c f9 3c 01 84 90 3d
       0.056063287 0.12273995 0.030424189 0.07056428
000250 1d 85 0d 3e e0 98 0f 3e fb ba dc bb 21 bd 34 3d
       0.1382031 0.14023161 -0.006736157 0.04412568
000260 a1 f7 cf 3d 63 40 af 3d bd d7 2e bd 0d 76 c1 3d
       0.10154653 0.08557203 -0.042686213 0.094463445
000270 fa 5a ac 3b 57 ff e1 3d 22 23 87 bb a8 27 1c 3e
       0.0052598687 0.1103503 -0.004124061 0.15249503
000280 96 85 13 3e 6f 50 c4 3d 41 4a 9f bb 9c 29 ae 3d
       0.14406428 0.09585654 -0.0048611467 0.0850403
000290 c6 8f a2 3c ed f3 dd 3c 56 a7 03 3d 94 88 ac 3d
       0.019843947 0.027093852 0.032142006 0.08424488
0002a0 8d 77 ee 3c 64 2e 1b bc cf 2d 42 bd 34 e3 79 bc
       0.02910974 -0.00947151 -0.047406968 -0.015251923
0002b0 7a 69 ac 3d 81 60 9b 3d 3f 10 d7 bc b6 0e 2c bd
       0.084185556 0.07586766 -0.026252864 -0.042006217
0002c0 2b d1 d7 bb 0b 49 a2 3c 35 16 e0 3d 87 65 40 3d
       -0.006586214 0.01981022 0.10941736 0.046971824
0002d0 06 de 13 bd ee 77 93 3d 4b d7 fd 3c 45 c8 bb 3d
       -0.03610041 0.07200609 0.030986449 0.09169058
0002e0 f9 dc af 3d 7e a8 9b 3d 9e e8 9e 3d de 84 78 3d
       0.08587069 0.07600497 0.07759212 0.060673587
0002f0 8a 0e 7b 3d ce 2b 92 3c 21 80 9d 3d d5 92 87 bc
       0.061293162 0.017843153 0.07690454 -0.016549507
000300 b5 93 69 bd 89 48 c1 3d eb 5a 70 bc 8e 83 d3 bc
       -0.05702563 0.09437663 -0.014670114 -0.025819566
000310 9d d2 98 3d 35 83 49 3c b3 0f d1 bc 9b bc 3c bd
       0.07462046 0.012299349 -0.025520181 -0.046078306
000320 12 8a c0 bc e6 52 ce bc e2 62 d2 3d 18 19 a9 3c
       -0.023503337 -0.025186013 0.10272767 0.020641848
000330 df e5 22 3e 57 6b 87 bd cd dd 05 3d 6c 76 bd 3d
       0.15908001 -0.0661227 0.03268223 0.09251103
000340 45 e9 b0 3d 59 f9 ac 3d af c5 2a bc c6 31 98 3c
       0.08638243 0.08445997 -0.010423108 0.018578421
000350 e8 4a be 3d c2 18 62 3d a1 12 21 bd 23 44 d5 3d
       0.09291631 0.055199392 -0.039324407 0.10413387
000360 2e e6 c7 3c d6 68 0d bd 0b 73 3a bd 99 07 2a bd
       0.02440175 -0.034523807 -0.04551987 -0.041511152
000370 67 ab dd 3a a2 f4 eb 3d f3 29 6d 3d e0 99 1c bd
       0.0016912044 0.115212694 0.057901334 -0.038232684
000380 b4 b3 88 3c a7 9c 92 3b fa 2c 3a 3d 52 2d 0f 3e
       0.016687252 0.004474241 0.04545305 0.13982132
000390 79 78 58 bd 1d a2 21 3d 23 41 aa 3d 1c 0a d3 3d
       -0.052849267 0.039461244 0.08313205 0.103046626
0003a0 c3 83 f6 bc f4 78 dc 3d d7 85 23 3d 68 23 d0 3d
       -0.030092126 0.107652575 0.03992256 0.10163003
0003b0 a6 44 b8 3b 39 dd fa 3c 20 9b 46 3d 4d 65 d6 bb
       0.005623418 0.030623065 0.048487782 -0.0065428377
0003c0 48 e6 f3 3d c5 d3 25 3d 7f 11 b2 3d aa ed bd 3d
       0.11909157 0.040485162 0.08694743 0.092738464
0003d0 63 b4 f2 3d 79 15 11 3e a7 07 f3 bc 03 e1 eb 3c
       0.11850812 0.14168347 -0.029666735 0.028793817
0003e0 92 32 d2 3d 4e 0d 6c 3d 86 bd 2e 3d 12 d1 d0 3d
       0.10263552 0.057629876 0.042661212 0.10196127
0003f0 dc 33 18 bc 07 6a d7 3d d3 d5 e0 3d 9a 95 b1 3d
       -0.009289708 0.1051827 0.10978284 0.08671112
