models/cnn_lstm_model.pth (torch, 992486 bytes, 15 tensors)

cnn.0.weight f4 [32, 7, 3]
00000000: 957d 56be 17a0 2e3e c07e 3bbe 33fe 143c
00000010: 4806 54be e585 3e3e 553e 2bbe 026c 50be
00000020: 16bf 3fbe 95cb 96bc 643c 623e c274 023e
00000030: c614 c43d 258a dfbd d4c6 d6bd aa12 b33d
00000040: f241 dcbd 645e 0e3e 02f3 02be a36d 5abe
00000050: 4f60 283e 920e 0cbe 5477 c13d c222 543e
00000060: 30b0 7d3d c93f 43bd fac8 4abc 009f 28bd
00000070: f06d e1bc d5cb 033a 96fa acbc 89fe 7abd
00000080: 7423 e1bd 3ba5 55be 6781 303d 3860 45be
00000090: 025e cabd 5315 f03d 8053 32bd e171 45be
000000a0: dc3d 2e3e 0efe 793d 5626 a53d 80fd db3d
000000b0: a99a d93d 3877 f7bd 19b7 d73c 92f3 b2bd
000000c0: cca6 f83d 8dc2 543e a860 c63d ea6c 793d
000000d0: 4b7d 173d 5d9a b1bd 95bc 473e 1c26 fb3d
000000e0: 2ce0 37be f3df 87bb f680 453e dbdf 213b
000000f0: edbc bc3c 568d 15be b048 85be 1ec9 48bd
00000100: 677c d73d 4ea7 04be dec9 cd3c e471 72bd
00000110: 97f3 36bd 8a18 27bd 069b 173e 9377 cd3d
00000120: 7758 4bbe 6c03 87be 8bb6 32bd 3d13 f8bd
00000130: 5129 883d 7c06 f13c 34a1 80bc bc25 62be
00000140: c231 d33c 934e f3bd 3c6c 7cbe 8c2d 0abe
00000150: f85b 1b3e 4b2c f8bd b7df 05be 5a2c e13d
00000160: 8600 643e c40f bbbd 8b78 d03d fbed 423e
00000170: 5d49 433d 4b66 4a3e 9b3e 0b3e 0942 853e
00000180: 7c29 eabd 33f1 083e a3e6 ae3d ff3d a9bd
00000190: 5162 ccbd 6db8 6dbd f0bc 8c3d 775a 653e
000001a0: 6360 18be a328 27be b19c 80bd d6b2 7abd
000001b0: c54c 4b3b 69d3 e13c e08e 44be e5ba 653e
000001c0: f549 5a3c 28bc c1bd d3ab 6a3e fb8a 49be
000001d0: d282 ee3d 28a2 103d 53ad a9bd ef49 94bd
000001e0: 9d08 09be 239b 0abd b891 02be d843 383e
000001f0: a73d c0bb 06c0 5dbd b340 23bd 4690 4f3d
00000200: 1e67 abbd 4849 223e 426e 4b3e 4cd8 4dbe
00000210: 7748 183e 60cb 4ebe d310 a2bc 8591 f53d
00000220: ed43 09bd f9e7 b2bd 3a8a 423e 6ded 3bbe
00000230: eef7 563e f096 5ebe 17c8 be3d 0d89 d5bd
00000240: fa40 003e 73ac 0a3d 6330 c8bc 7377 dbbd
00000250: b8c3 b6bd ac33 55bd 94b2 d0bd aea4 fd3a
00000260: 0ed2 463d 76dc 8abd be44 8abd b3a2 2ebe
00000270: ad71 36be 1bda 98bc 17a9 773e 27d6 49be
00000280: 7d9d 8fbb 63e8 edbd d386 5c3d 24ca a5bd
00000290: 3ca3 113d aca2 e5bd cc5f 7cbe 78bc 07be
000002a0: e17a 39be 2faa 53be c5cb 863c e32e 0dbd
000002b0: d758 f63d 3005 50be de38 f8bd 7ccd f2bd
000002c0: 07b1 063d 64a7 563e feff 333e 5cee 453e
000002d0: 19f9 b8bd 7c54 293e 0226 163e cd67 ff3d
000002e0: 46ec 383e 5c55 0e3e b379 223e 30e8 3abb
000002f0: 9a63 7a3e d796 a9bd fc2c de3c 9300 26be
00000300: d782 d33d d1e1 0dbe 46f7 9c3d 3342 3bbe
00000310: 745c e53c b812 5d3e 9e89 31be 68ce 623e
00000320: a9af 18be 1a11 483e 16e4 d03d 1d8f ee3c
00000330: 0c42 dd3d 2e8b e83d 2df6 0e3e 883b fb3c
00000340: 5089 ba3d 7ca9 4f3e 9edb 59bd 22f0 8abe
00000350: d497 b6bd c155 88be 0717 82be 08ab 28be
00000360: eb0d 88be 25fa a53d 60bb a5bd b117 0cbe
00000370: c667 76be 2876 ec3c e437 7fbc c8d8 c13d
00000380: 1264 163e 2568 71be 646f 0f3e 30a4 b83d
00000390: 5bd4 2abe 679e a7bc a629 be3d 8c89 15be
000003a0: 32ad 17be dc29 203e c90d b63c a7d7 2b3c
000003b0: b6a2 30be bf77 353e 2530 3bbe cd2e 46be
000003c0: 3c9d 44be 40c2 61be 8c6b debc 3a10 03be
000003d0: db9e d73d fcc2 413e f664 87bc 712e 303e
000003e0: dfa0 8c3d 86bc f03d 12aa 36be 6e53 5cbe
000003f0: 530c 47be 9d7d 223e e927 cabd f87b 5d3d
-0.20946343 0.17053257 -0.1831007 0.009093809 -0.20705521 0.18605764 -0.16722997 -0.20353702
-0.18725237 -0.018407622 0.2209335 0.12739852 0.09574275 -0.10915021 -0.10487142 0.08743794
-0.107547656 0.13903195 -0.12788013 -0.21330886 0.16442989 -0.13677433 0.09446588 0.20716384
0.061935604 -0.047668252 -0.012377018 -0.04116726 -0.027518243 0.0005027627 -0.021115582 -0.0612779
-0.1099309 -0.20863812 0.043092158 -0.19274986 -0.09881212 0.11722817 -0.043536663 -0.19281723
0.17015785 0.0610333 0.080639526 0.10741711 0.10625202 -0.12083286 0.026332425 -0.087378636
0.12141189 0.2077734 0.096864045 0.060894884 0.036984723 -0.086720206 0.19505532 0.12263128
-0.17956609 -0.00414657 0.19287476 0.0024700079 0.023039306 -0.14604697 -0.2603202 -0.049019925
0.10521775 -0.12954447 0.025120672 -0.059190646 -0.0446659 -0.040794887 0.1480523 0.100325726
-0.19857965 -0.26369798 -0.043631118 -0.121130444 0.066485055 0.029422037 -0.015701868 -0.22084707
0.025780562 -0.11880221 -0.24650663 -0.13493937 0.15171802 -0.12117823 -0.13073622 0.109947875
0.22265825 -0.091338664 0.10179242 0.19036095 0.047677387 0.19765584 0.13598101 0.26026943
-0.11433694 0.1337326 0.08540084 -0.08263778 -0.0997969 -0.05803721 0.068719745 0.22397791
-0.14880519 -0.16324095 -0.062798865 -0.061205707 0.00310211 0.027566629 -0.19195127 0.22434576
0.013323297 -0.09459716 0.22917108 -0.19681923 0.11646046 0.035310894 -0.08285012 -0.07240664
-0.13382192 -0.033839356 -0.127509 0.1799463 -0.0058667245 -0.054138206 -0.039856624 0.0506747
-0.083692774 0.15848267 0.19866279 -0.20102042 0.14871393 -0.20194769 -0.019783413 0.11990646
-0.033512045 -0.087356515 0.18998042 -0.1835229 0.20993015 -0.21737266 0.09315508 -0.10426531
0.12524787 0.033855867 -0.024437135 -0.107161425 -0.08924049 -0.05205123 -0.10190311 0.0019351447
0.048540168 -0.06780331 -0.06751393 -0.17054252 -0.17816801 -0.018658688 0.24185596 -0.19710599
-0.0043827877 -0.1161659 0.053839516 -0.08095196 0.035556063 -0.11212668 -0.24645919 -0.13255489
-0.18113281 -0.20670389 0.016454587 -0.034468543 0.120286636 -0.20314479 -0.121202216 -0.11855599
0.03288367 0.20962292 0.17578122 0.19329208 -0.090318866 0.16536134 0.14662936 0.1247097
0.18058881 0.1389975 0.15866737 -0.0028519742 0.24452057 -0.082807235 0.02712106 -0.16211157
0.1032769 -0.13855673 0.07664351 -0.18286972 0.027998187 0.21589172 -0.17337653 0.2214905
-0.14910759 0.19537774 0.10199754 0.029120976 0.10803613 0.113546714 0.13961096 0.030668035
0.091082215 0.20279497 -0.05318796 -0.27136332 -0.08915678 -0.26627925 -0.25408193 -0.16471493
-0.2657312 0.08104352 -0.080923796 -0.13680913 -0.24063024 0.028864935 -0.01557729 0.09465176
0.14686611 -0.23574884 0.14007336 0.09015691 -0.1668257 -0.020461274 0.092852876 -0.14603251
-0.14812163 0.15640968 0.02222337 0.010488427 -0.1724957 0.17721461 -0.18280084 -0.1935379
-0.19200605 -0.22046757 -0.027150892 -0.12799159 0.10528346 0.18922037 -0.016527634 0.17205216
0.06866621 0.11754708 -0.17838314 -0.21516201 -0.19438295 0.1586823 -0.098708935 0.054073304

cnn.0.bias f4 [32]
00000000: 39a6 ab3c 4138 623d 178d e3bc 6e62 ed3d
00000010: f9ac 8bbd acab 383e 5281 7d3e 466d f2bc
00000020: dd8d 1d3e bb16 063e e53f 2ebe 684e 093d
00000030: 34d5 6a3d ccac 4d3d 0b70 e53d c6aa ca3d
00000040: 6d55 5e3d 9517 0d3d abbb 79bd 5133 e4bd
00000050: 6919 eb3c 24ac 0f3e 26ec f13d 632e 4bbe
00000060: 24ae 2b3e 63f3 b6bc b22f 9e3c 3ede 5a3e
00000070: 5b7b 33bd 7278 013e b12d 40be 4a37 f8bd
0.020953285 0.05522943 -0.027777238 0.115910396 -0.06820101 0.18034238 0.24756363 -0.029593121
0.15386148 0.13094608 -0.17016561 0.03352204 0.057332233 0.05021362 0.11203011 0.09895854
0.054280687 0.034446318 -0.06096999 -0.111426 0.02869864 0.1403051 0.1181262 -0.19841914
0.16765648 -0.022332853 0.019309852 0.21373841 -0.043818813 0.12643602 -0.1876743 -0.121199206

cnn.3.weight f4 [64, 32, 3]
00000000: 87a1 253d 9e1b 30bd 4e6e 84bc c375 563d
00000010: 776e 12bd c486 b2bd df01 c4bc 5c3a 213c
00000020: c9fc 183d 4202 963d 41c6 b1bc 908b 4fbd
00000030: 8bbc 6e3d dc0c ac3d f33a 353d d2bf 443d
00000040: 0501 583d c04e c3bd c968 073d 6958 08bd
00000050: 80e4 c33d eca9 a53d 5f5c 0abd 208a 69bd
00000060: 6eaa 31bb 0d7b a9bd 41f0 ffba 818a 633d
00000070: ec64 be3b c330 603d 76ca 113d a846 b7bd
00000080: be8d 07bd a637 efbc dd36 473d cb13 a83d
00000090: 01fb 613d 85d7 d63d 41bc 2d3d b2c7 a1bd
000000a0: 1f02 96bd 76f0 17bd ebab 163d 3334 48bd
000000b0: 2239 25bd 68dc 55bd 35cd 983d 9c94 383d
000000c0: 004b df3d 83d2 8b3c 14ea 34bd ac22 d8bd
000000d0: 3d19 a03d 017a f13c 2c4a 7fba e2a9 793d
000000e0: 0b1f cdbc 401b 7d3d 4938 cdbc b4ce 053d
000000f0: 4fb5 4cbc 5aac aa3c 4b3d 5bbd 22e8 833d
00000100: 7ec8 c6bd e458 843d 018d 7ebd e159 043d
00000110: ab90 213d c4cc 923c 2fc6 a9bd 17fa a9bd
00000120: f5e8 b9bc ebbb d2bc 09c4 5b3c bfab 9ebc
00000130: ec07 303d 187c 8a3c 3092 a23d fa4e 98bd
00000140: f6be 9d3d 5567 43bd ebe6 9e3b 70cb a6bc
00000150: 8846 853d 5d79 94bd 342e bfbd 9673 c2bd
00000160: 47db 123c 0baf 29be 1dbc 85bd 9c5d 6c3d
00000170: 8007 003d f7e6 133d b32f e2bc 7907 ccbd
00000180: e16b c63d 2bc5 81bd 9f0c b0bd 73ad b5bc
00000190: e182 14bc 61c6 6cbd fd05 9fbc ae54 9e3d
000001a0: 1ee8 32bd 24b8 2f3d 599a cb3d 8707 57bd
000001b0: 4f65 89bb 4a64 3bbd ae40 80bd 1324 9ebd
000001c0: 576f db3d fd39 013e d87d 9f3d a68f 09bd
000001d0: 0481 e13d 57d7 9bbd f222 673d 109a 90bd
000001e0: 9a81 debc 195a 9e3d 9c7b c53c 777c 94bd
000001f0: eb92 853c ecb1 a4bd c1fa d0bd faba 93bd
00000200: 451c 05bc 3f04 773d f5ff 803d 263a 833d
00000210: 3d02 97bd e5b1 9a3c 1b1b 7d3d 6bf7 0abd
00000220: 3377 5abd 4f30 b73d a17c a53d 6752 ea3c
00000230: 36ca d03d 9228 bebd 9225 133d ce67 e5bd
00000240: a520 3c3b 52db 06bd 2553 f33c 3074 c7bd
00000250: 9408 1fbd 6ffb 94bd 5af1 793d 88d5 37bd
00000260: c53d f73c 1f6b 1e3c 96e0 9c3d 8f2c 2cbd
00000270: ac71 84ba ce5d d23d 73d3 fcbc 5317 883d
00000280: c6c2 153d 552d 64bd 6d6e b63d 86b8 eb3d
00000290: ae80 7b3b 99a5 953d b05e 903d a2e0 53bd
000002a0: 3de6 e3bc 480b 393c 4d57 95bd caad 3a3d
000002b0: a41c 9f3d eb56 7cbd 1d2f 4bbc b428 a7bd
000002c0: 30c0 c0bd ab87 6dbd 3f6a a9bd 8afc 283d
000002d0: a382 b6bb aaf0 8b3c 1f15 5fbc 83fc bf3d
000002e0: 43a8 3bbd 5128 cd3d 73ef b5bc 76c4 96bd
000002f0: 45e9 92bc 0247 633d e1e3 493c d017 733d
00000300: 0a20 afbd 539b 983d 1ae5 ba3d f870 70bd
00000310: 8a90 c43d e214 d63d bbbd 11bd 2455 8d3d
00000320: 94de f83c c7e5 a8bc 452f a63d 341b e63c
00000330: fc55 a9bd c21a a73c c2a8 9cbc 7a51 05bd
00000340: d404 a0bc f990 1cbd 5f34 af3d ed71 903d
00000350: 72ef b13d c468 c9bc df0e 2abd 29d0 fbbc
00000360: 1907 d73d 631b 9ebd e481 7c3d 485b 20bc
00000370: 32cb 893d 8a07 8dbd 7b3e ae3d ea1e 033d
00000380: 55b4 3ebd 37c1 ecbc 84cb b03d d602 973d
00000390: 36a7 c2bd 678e be3c 4f39 dbbd 9bcd 9d3b
000003a0: c716 b0bd 1d24 98bd 66b3 ba3d fbd0 e6bc
000003b0: d7d8 91bc 839e 8b3d e398 f3bd 267b 0abe
000003c0: ba4b d43b 9826 81bd c76c f43d ada0 cfbd
000003d0: 1528 9b3d 6935 babd 1bfc 29be 5336 fb3c
000003e0: 2804 a4bd 9145 ebbd b248 eebc 5950 02be
000003f0: f357 e53c e8bc 2ebd 3add 04bd 1dc0 8a3d
0.040437248 -0.042995088 -0.016165879 0.0523584 -0.03574988 -0.08717111 -0.023926673 0.009840574
0.03735045 0.073246494 -0.02170098 -0.050670207 0.058285277 0.0840089 0.04424567 0.048034497
0.052735347 -0.09536505 0.033058915 -0.03328744 0.09565067 0.08089051 -0.0337795 -0.057016492
-0.002710964 -0.08275423 -0.0019526557 0.05555201 0.0058103707 0.054734003 0.035593472 -0.089490235
-0.03309416 -0.02920134 0.048636306 0.082069 0.055171017 0.10490326 0.04241586 -0.07899417
-0.07324623 -0.037094556 0.036785048 -0.048877906 -0.04033769 -0.05221215 0.07461015 0.0450636
0.10902977 0.017068153 -0.044168547 -0.10553488 0.07817314 0.029477121 -0.00097385305 0.06095303
-0.025039217 0.061793566 -0.025051253 0.03266783 -0.012494399 0.020834137 -0.05352525 0.0644076
-0.097062096 0.06462267 -0.06214619 0.032312278 0.039444607 0.017919905 -0.08289754 -0.08299654
-0.02269409 -0.025724372 0.013413438 -0.019369004 0.042976305 0.016904876 0.07938039 -0.074369386
0.077024385 -0.047705967 0.004849305 -0.020360678 0.065075934 -0.07249711 -0.093349844 -0.094947025
0.008963413 -0.1657068 -0.065300204 0.05770646 0.031257153 0.036108937 -0.027610635 -0.09962363
0.09688545 -0.06336435 -0.08596157 -0.022177434 -0.009064407 -0.057806376 -0.019412035 0.07730995
-0.043678395 0.04290022 0.09941549 -0.052497413 -0.004192985 -0.04574994 -0.06262337 -0.07721724
0.10714596 0.12619777 0.07787675 -0.03358426 0.11010936 -0.07609432 0.05642981 -0.07060635
-0.027161408 0.077320285 0.024106793 -0.07250302 0.016305408 -0.080417484 -0.102040775 -0.07213397
-0.008124416 0.060306784 0.0629882 0.06407575 -0.07373474 0.018883655 0.061793428 -0.033927362
-0.053336333 0.08944761 0.08080412 0.028603746 0.10194819 -0.09285082 0.0359245 -0.1120144
0.002870598 -0.032924004 0.029702732 -0.09738958 -0.03882654 -0.0727452 0.061021186 -0.044881374
0.030180821 0.009669094 0.07660024 -0.042034682 -0.0010104678 0.10271798 -0.030862546 0.06645074
0.036562704 -0.055707294 0.08907781 0.115098044 0.003837626 0.07306976 0.0704931 -0.0517279
-0.027819747 0.011294194 -0.07292042 0.045575894 0.07769135 -0.06160633 -0.012401369 -0.081620604
-0.09411657 -0.05799071 -0.08272218 0.041256465 -0.0055697723 0.017082531 -0.0136158755 0.09374335
-0.045814764 0.10017455 -0.022208905 -0.07361691 -0.017933497 0.05548764 0.012322397 0.05934888
-0.08551033 0.07451501 0.09125729 -0.058701485 0.09597881 0.10453202 -0.03558133 0.06901005
0.030379571 -0.020617379 0.08114485 0.028089143 -0.08268353 0.020398501 -0.019123439 -0.032548405
-0.019533552 -0.038224194 0.08554911 0.070529796 0.08688249 -0.024586089 -0.04151809 -0.030738907
0.10499401 -0.07720067 0.06164731 -0.009787388 0.067282096 -0.068862036 0.08508011 0.032011904
-0.046558697 -0.028900726 0.086325675 0.07373588 -0.09504549 0.023261262 -0.1070429 0.00481577
-0.085980944 -0.07428763 0.09116249 -0.028175822 -0.017803593 0.06817343 -0.11894395 -0.1352354
0.006478754 -0.06306189 0.1193481 -0.10138068 0.075760044 -0.090922184 -0.16600077 0.030665552
-0.08008605 -0.11487878 -0.029087398 -0.12725963 0.027996039 -0.042660624 -0.03243754 0.06774924

cnn.3.bias f4 [64]
00000000: ccb8 773d 8c7c 6e3d 6fe2 1a3d f635 513d
00000010: d32a e3bd a09c 963c 3170 bf3d 95a3 8d3d
00000020: 18a8 7b3d 6524 cf3d 4938 d3bd 4f1f 4c3d
00000030: 673b dc3d f753 9d3d a12e 63bc ead7 c23d
00000040: de0f 70bd 77dc 02be d8b6 2b3d 9275 463d
00000050: 255c 753c 657f de3d ee4b ec3d 8abf 4fbd
00000060: bbab ac3d 9153 0f3e 079d 3cbd 96f0 7b3d
00000070: 805f f03d 9e36 aabc 4dbc 1e3c fcc9 74bd
00000080: bcbe 4f3b ed66 00bc 2261 8e3d 4e9d 933d
00000090: eb25 9cbd b32a b7bd 8939 223d 7654 013e
000000a0: 9faf bb3d 5b37 1d3b c291 9bbc e7e1 5c3c
000000b0: 6a85 d13d 2c2b 023c 0175 c8bd 50b3 953d
000000c0: 0f70 11bd a4cb c23d 0ea7 d63c 6a68 013d
000000d0: 7047 0c3d ab25 473d ba51 2c39 99ab cfbb
000000e0: 478f 763d fe85 2d3d 2ebc 3d3d a5f3 963d
000000f0: ac54 8cbd ec2a a93a e2a9 9dbd 1f86 c4bc
0.06047897 0.058224246 0.0378136 0.05107685 -0.110921524 0.018385231 0.09347571 0.069159664
0.061439604 0.101143636 -0.1031347 0.049834546 0.107535176 0.07682031 -0.013866098 0.095138386
-0.058608882 -0.12779413 0.04192242 0.048451968 0.014975582 0.10864142 0.1153792 -0.050719775
0.084311925 0.13996722 -0.04604819 0.061508738 0.11736965 -0.020777997 0.009688449 -0.05976294
0.003169938 -0.007837039 0.0695212 0.07207738 -0.0762442 -0.08943691 0.03960565 0.12629876
0.091643564 0.0023989293 -0.018990401 0.013481594 0.10230525 0.007944863 -0.09787942 0.07309592
-0.035507258 0.095114976 0.026202705 0.031593718 0.034247816 0.048619907 0.00016433644 -0.0063375947
0.060195234 0.042364113 0.04632204 0.0737069 -0.068520874 0.0012906468 -0.07698418 -0.023989735

lstm.weight_ih_l0 f4 [512, 64]
00000000: 4445 c5bb c3d8 c9bc c2fb 32bd 7bad f4bb
00000010: 798b 163c 968b 08bd 20a1 54bd 0eb7 d4bc
00000020: 82cd c83c a689 853d e84a eebc 3355 ad3d
00000030: 81e6 143c 769e 4a3d 76b7 ab3d 46d1 7bbc
00000040: fdb8 b3ba 455f a33d 3762 c53d 407e 2abd
00000050: 177d 013e b370 883c b000 ad3d d781 1dbd
00000060: 7006 263d 2d4d 5b3d 23f3 903d 2269 9f3d
00000070: 5a03 b03d 10ad 1f3d e6d1 113d ab65 013e
00000080: 40de 423d c01b ac3d 063a 183c c0e2 fabc
00000090: eab2 003d d017 ebbc 1436 b33d 297a 143b
000000a0: cf9e 7e3d d457 7fbc a15b c43d 163a e1ba
000000b0: 677a 6c3c af97 b73c 335b 093d e425 ae3c
000000c0: e11c 62bd 5a87 933d b70b 6f3d 0c7c ffb9
000000d0: 2553 683d 1d7c bb3d f47c b6bc 797c 9bbd
000000e0: 873c 593d 5a92 cdb9 9c23 ce3d c3ce 5f3a
000000f0: f820 6e3d 6a27 62bd 293f a93d f2bf 193a
00000100: 802b 0ebd 7cad b03d 02ba 013e c3d8 4b3c
00000110: b9a3 ccbb 85c9 8d3c be4a 1dbb d8a6 373b
00000120: 79b9 443b ba92 013c aba4 5abc 9b32 40bd
00000130: 2401 b23c 7176 113c da51 c23d 7560 a83c
00000140: 2733 7cbc 257c 133e 665e 6bbd f2b5 41bc
00000150: 4edb 833d 8963 743c 4325 12bd 8225 103c
00000160: dd7b ad3c 422b 7fbd e4ed b03d 31ce 963c
00000170: 163d d73c 8253 6f3c f156 043e 96b4 123d
00000180: bea7 ca3d 8757 973d 0853 c13d faf4 a33d
00000190: c185 033e 66a1 2d3d df59 21bd 683f 53bc
000001a0: 0073 763a 2bb8 223d 9573 8f3d ad86 af3d
000001b0: f956 d93d a0ab 3c3d bb4f 103d 555e 83bd
000001c0: 1cb2 ea3d 370e b13d e3fb a73c d625 f23d
000001d0: 56d8 ecbb af64 fc3d caad 833c 316a b13d
000001e0: 994f 763c 3489 163e 84f3 adbc e326 94bb
000001f0: edc2 a9bc 00ea 2b3c 6146 1bbc 92da f93d
00000200: ba8c f2bc 7dba 0d3e 6833 c83d 8e92 b83d
00000210: e3c5 bf3c 3667 a63d 57e0 283e 932a ba3d
00000220: 22f6 e7bc e930 a6bc 5f9d b6bc 487d bc3d
00000230: a018 b83d 58b7 573d 2217 123d 882c 463b
00000240: b7dc 013e c91f 39bd e940 e63d e7b2 053d
00000250: a2a3 1c3e ea1f 16bd 092a 11bc ce89 b63d
00000260: beb2 023e 5def 7ebd 3e2f 08bc 3064 923d
00000270: 537c 203e 2afe 32bc b340 aa3d 333c 4d3d
00000280: 410f 9f3d 3cf0 9b3d 7d5e 3a3d d53f 253d
00000290: 3cc1 173d 8a2e 023d 05be 273e 787a 5c3c
000002a0: a843 b0bc b6f1 0b3e 02de febc 84ca 033e
000002b0: 8a88 2b3d dfb3 b63d e800 d13d 73c3 c63d
000002c0: 220d 393d 6b76 813d 916e e43d 0cd8 38bc
000002d0: 7fc3 e43d 2258 913d a9b5 b23d 9fc2 8fba
000002e0: 810e e73c f3bc 653d c526 b63d b8db 103e
000002f0: e766 033c 1203 b53d f209 623d 76b9 b93d
00000300: ec99 a63d 8c98 c83d 162b 8dbd bebe 22bc
00000310: 49fd 083b 1b3a 873c 1782 de3b d018 303d
00000320: f6c2 aa3d ee69 b33d 87e0 183d df59 993d
00000330: 8fcf d1bc dfb0 003d 2a11 adbd 2f59 e83a
00000340: 2403 d83c 8402 dabd 8373 323c 28e8 463d
00000350: 3bde dc3d d333 c43d 1411 40bc 92e7 083c
00000360: dbbd 953d 294a 36bd 0da1 71bd e314 703d
00000370: 9a15 1cbd 2579 87bd 4b29 2abd 78a8 893d
00000380: db44 443d 882c 35bd b3b1 ab3c a1a8 94bc
00000390: 6621 103c 34e7 d7bc 21fa dc3d 18b0 bc3d
000003a0: 9bfd 8e3c 8343 acbc 039f e5bc fca6 583c
000003b0: 67c5 5b3d cfee a43d 36d0 083e 6f03 76bd
000003c0: 8341 2fbd 096c 0e3d 5939 8bbd 8ced 3b3b
000003d0: 7a02 a53d 8e11 f53b 6c1c 893d 993e c4bd
000003e0: cdef 343e 3bd0 fcbc c405 8dbd a6b2 8c3d
000003f0: 7b68 ebbd b75a 623c 6463 8e3a 154b 303e
-0.00602022 -0.024639493 -0.043697126 -0.0074669695 0.009188526 -0.033336245 -0.051911473 -0.025966194
0.024512056 0.06520395 -0.029088452 0.08463516 0.00908816 0.049467526 0.08384602 -0.015369719
-0.0013711747 0.079771556 0.096378736 -0.041624308 0.12645374 0.016655302 0.08447397 -0.038453903
0.040533483 0.053540397 0.07077625 0.07783724 0.08594389 0.038983405 0.035600565 0.1263644
0.047575235 0.084037304 0.009291178 -0.030625701 0.031420626 -0.028697878 0.08750549 0.002265582
0.06216317 -0.015584905 0.09587789 -0.0017183449 0.01443348 0.022411196 0.03353424 0.021258302
-0.055203322 0.07203551 0.05836078 -0.00048729812 0.056719918 0.09154532 -0.02227638 -0.07592101
0.05303624 -0.00039209687 0.10065386 0.0008537585 0.05813691 -0.05521337 0.08264 0.0005865089
-0.034709454 0.086268395 0.12668613 0.012441817 -0.006245103 0.017308006 -0.0024000849 0.002802303
0.0030017777 0.0079085175 -0.013344924 -0.04692326 0.02172906 0.008878336 0.09488268 0.020553807
-0.015393055 0.14402826 -0.057463072 -0.011823164 0.064383134 0.014916309 -0.035680067 0.008798005
0.021177227 -0.062297113 0.08639124 0.018408867 0.026274245 0.014607312 0.1292379 0.03581675
0.098952755 0.073897414 0.09439665 0.0800571 0.12843992 0.04239025 -0.03939235 -0.012893535
0.00094012916 0.039726418 0.070044674 0.08570609 0.10612292 0.04606211 0.035232287 -0.06414477
0.11459753 0.086452894 0.020505851 0.11823623 -0.0072279377 0.12323891 0.01607408 0.086628325
0.015033626 0.14700776 -0.021234281 -0.004521237 -0.02072283 0.010492802 -0.009477229 0.12199892
-0.02960812 0.13840671 0.0977543 0.09012328 0.02340979 0.08125155 0.16491829 0.09090152
-0.028315607 -0.020286994 -0.022291837 0.09203583 0.08989072 0.052665085 0.035666592 0.0030238945
0.12681852 -0.04519633 0.112428494 0.032641318 0.15296796 -0.03665153 -0.00886012 0.08913003
0.12763497 -0.062239993 -0.008312045 0.071480155 0.15672426 -0.010924855 0.08313122 0.05010624
0.07766581 0.076141804 0.045500267 0.040344078 0.037049517 0.031782664 0.1638108 0.013456933
-0.021516636 0.13666424 -0.031111721 0.12870222 0.04187826 0.089210264 0.10205251 0.09705248
0.04517854 0.063214146 0.11153901 -0.011281978 0.111701004 0.07096888 0.08726055 -0.0010968036
0.028205158 0.0560884 0.088941135 0.14146316 0.008020139 0.08838476 0.055185266 0.09068577
0.08134827 0.09794721 -0.068929836 -0.009933172 0.0020902923 0.016507199 0.0067904103 0.042992413
0.08337967 0.08760439 0.0373235 0.07487845 -0.025611667 0.031418677 -0.084505394 0.0017726774
0.026368685 -0.10645011 0.010891798 0.048561245 0.107845746 0.09580197 -0.011722822 0.008355992
0.07311603 -0.04450432 -0.05899148 0.05861367 -0.03810654 -0.06614903 -0.041543286 0.06721586
0.04791723 -0.04423192 0.020958757 -0.018146815 0.008797025 -0.026355363 0.10789896 0.09213275
0.017454913 -0.021028286 -0.028029924 0.013223406 0.053655054 0.080533616 0.13360676 -0.06006187
-0.042787086 0.034771 -0.067980476 0.0028675525 0.08057113 0.0074788993 0.06694874 -0.09582252
0.17669602 -0.03086101 -0.06885865 0.06870012 -0.114945374 0.013815573 0.0010863361 0.17216142

lstm.weight_hh_l0 f4 [512, 128]
00000000: f20c 08be 9c41 89bd b2a2 df3a 40e4 0abd
00000010: d65a 833d ec08 eabd e5d1 253d 18ec b73d
00000020: 8df3 863d bf29 cf3c 4069 163c c5df 103c
00000030: ad0a 8abd 514c b83c 1d30 81bc 638c 37bd
00000040: 382c 01be 00a6 8e3d 9b57 b9bd 25e9 8d3c
00000050: cd17 d5bd cade 253d eef5 a6bb da09 e2bc
00000060: f876 c93d f9dd 093d 54f8 d6bc 16ef c5bc
00000070: 85ac c53d dc6d 5b3d b9f9 be3d 6b2b 503c
00000080: 752e b5bd 8467 aebb caa9 333d c23a 0f3d
00000090: 8c51 d4bc c6e0 733d 27c4 b33d bc4e be3d
000000a0: 2fda c53d 2147 f43d 9723 10be 47fc 793c
000000b0: f261 c73c 4b8b 47bd 5041 8dbd 8499 6abd
000000c0: d4e6 c8bd 3e84 743c a2de 82bc eab5 d0bd
000000d0: 6d11 c03d 698e 92bd 95e8 8e3d dcd7 b5bd
000000e0: 9d08 bebd a52e c03d 5107 1c3d 4bb2 d1bd
000000f0: 7c8e 66bd 6445 3c3c 3590 4abd a137 a3bc
00000100: a43b 9f3d 750f 5cbd 878a 43bd 5721 313c
00000110: f131 d9bd 0726 a5bd 64f5 0fbe 6d60 d9bd
00000120: 240b 1e3d ea0e 133e d57d fb3d 0bef 3c3c
00000130: 76ad a9bd 16f9 7ebd e98b 603c 25fe e73c
00000140: 26df f7bc eefd dfbc ef9a 3dbc b1eb 02bd
00000150: 57b7 3e3c 3419 533d c1e7 373b ff2c e2bc
00000160: d2ca cbbc e171 e13d 1762 a93c 8b1a 3d3d
00000170: 52e0 e93b fb7a a1bd ac00 9f3d 03c6 103d
00000180: c40d 0abe ef9f 69bb 2df6 1bbd 03fa 3a3c
00000190: edcb b6bc 154e d8bc 37b6 cf3c 2ade 8f3c
000001a0: 7362 7c3d 5a52 b53d 4ac1 c9bd 846b d73c
000001b0: 8755 e83c ad90 8b3d f4b8 d8bd 7a70 113e
000001c0: 1c7c 843d 1c63 613c c11e c63d aae8 033d
000001d0: 707a 543d 6ab5 7b3d f84c 3b3c 6693 063e
000001e0: 93cb 263d 597f 8cbc afe4 bc3c 5769 86bd
000001f0: b110 353d 1da4 fdbd 6a38 fc3d 1794 4eba
00000200: 4656 e0bd 7138 82bd 5284 e43d a5a3 98bd
00000210: 15b5 d83d b977 b23c 2c0b e13c 109e 0abd
00000220: 1972 e93d 69cc 8abd 4c2e ab3c 1058 08be
00000230: 1d3f 113d cc92 e83d b209 1c3c 3d9d 943d
00000240: 82af e6bd 738b a03d 4b8b d73c a29e c1bc
00000250: a0df 923a 0581 9ebd 59b7 0f3c 70db 6cbb
00000260: 09f3 703d d2d3 00be 71c8 bb3b 9b7d 2f3d
00000270: ca25 c13c 3d25 9c3d 5d90 1dbd 4cd9 cc3d
00000280: b60f 3abd f651 b4bd 82ff 1bbd 7bee 78bd
00000290: 77c4 ad3c f333 7ebd 5878 253d 27e9 973d
000002a0: 7443 f43b 9a77 d13d 2a89 cabd c54a ccbc
000002b0: 0c86 af3d c24d adbc 1820 d83d 821a 953c
000002c0: fb5b c3bb 1226 01bd 7daa 5abd af1f 333d
000002d0: e67d d6bc ab68 323d 52a5 b83d d423 d7bc
000002e0: 56c2 ae3d f701 133d 05a0 2bbb e62d fbbd
000002f0: 2b3a a6bc d4fd e4bb 96e9 343d c392 9c3d
00000300: 04ae c93d 71ad 333d 1ab0 463c 0fb6 08bd
00000310: 8243 bcbd 7aac 15b9 6378 babd 88bd 18bb
00000320: 7548 8c3d 40ab e43c 30ba dd3c 652c 11be
00000330: d043 113b 3f64 5fbd 9889 7bbd 6168 c4bb
00000340: d530 b63b 8acf 6aba 76f3 8fbd e8c3 6cbd
00000350: 10dc c7bd f59b 4e3d 22d1 1fbd 0f62 65bd
00000360: b381 443d f56e 1cba 0379 a9bd ea8e a1bc
00000370: 4dfe 093c c6c4 9dbd dd9a c73d be37 d83d
00000380: d173 8fbd e475 773c 167a da3d 4020 9dbc
00000390: cf84 0ebd 3870 723d 1af2 bd3c 1dd1 9e3c
000003a0: 5a96 943b 674f cb3c 6614 29bc e19d 0fbc
000003b0: 67a8 923c de20 063e 2976 d7bd e1c6 b43c
000003c0: 290c 0fbd 7a73 fdbd 1c96 85bd 5767 47bd
000003d0: 5c5d 0a3d f1ff babc f066 16bd ceb1 0b3d
000003e0: 8f1b 3abc 0d97 2e3d a50e 11bd 0b96 0ebd
000003f0: d6c4 de3d 9fc1 b1bd 0d29 0dbd 15d2 c3bc
-0.13286188 -0.06701967 0.0017062037 -0.033909082 0.0641381 -0.11427483 0.040483374 0.08980578
0.065894224 0.02528846 0.009180367 0.008842413 -0.067403175 0.022497328 -0.015770013 -0.044811618
-0.12614524 0.06965256 -0.090499125 0.017323086 -0.1040493 0.04049567 -0.005095235 -0.027592588
0.098371446 0.033658955 -0.026241459 -0.024161857 0.09652046 0.053571567 0.093249746 0.012705664
-0.088467516 -0.0053223986 0.043863095 0.034968145 -0.02591779 0.059540533 0.087776475 0.09292361
0.09660756 0.11927629 -0.14076076 0.0152579015 0.024338696 -0.048716825 -0.06897223 -0.05727531
-0.09809652 0.014924107 -0.0159753 -0.10190947 0.09378324 -0.07156069 0.06977955 -0.088790625
-0.092789866 0.09383897 0.038092915 -0.10239085 -0.056288227 0.011491153 -0.049453933 -0.019923987
0.077750474 -0.05372568 -0.04773953 0.0108111715 -0.10605229 -0.08063894 -0.14058453 -0.10614095
0.038584843 0.14361158 0.1227986 0.011531602 -0.08285038 -0.062249266 0.013705232 0.028319428
-0.030257773 -0.027342763 -0.011572584 -0.031963054 0.011640391 0.051537707 0.002806172 -0.027609346
-0.024876986 0.11008049 0.020676656 0.04616789 0.007137337 -0.07884785 0.077638 0.03534509
-0.13481814 -0.0035648306 -0.03807657 0.0114121465 -0.022314036 -0.02640442 0.025355441 0.01756199
0.061617326 0.08853598 -0.0985132 0.026296385 0.028361095 0.06814704 -0.10582152 0.14203063
0.064689845 0.01375654 0.096738346 0.032204308 0.051874578 0.061452307 0.011431925 0.13142166
0.040721487 -0.017150568 0.023058264 -0.06563061 0.04420537 -0.12384818 0.12315448 -0.00078803435
-0.10953955 -0.063584216 0.111580506 -0.07453088 0.10581414 0.021785604 0.027471147 -0.033842146
0.113987155 -0.067772694 0.0208961 -0.13314843 0.03546058 0.11356124 0.009523796 0.07256553
-0.11263944 0.07839098 0.026311537 -0.023635212 0.0011205561 -0.07739452 0.008771741 -0.0036141537
0.058825526 -0.12580803 0.0057306816 0.042844396 0.02357759 0.0762429 -0.038467754 0.100023836
-0.04542514 -0.08804695 -0.038085468 -0.060774308 0.021211846 -0.06206126 0.040397972 0.07417517
0.00745433 0.1022789 -0.09889443 -0.024937997 0.08570489 -0.021155242 0.105529964 0.018201116
-0.0059618927 -0.031530447 -0.053385247 0.043731388 -0.02618308 0.04355685 0.09015907 -0.026262201
0.085331604 0.035890546 -0.0026187908 -0.12264614 -0.020291409 -0.0069882665 0.044168077 0.0764518
0.09847644 0.04386658 0.012126947 -0.03337675 -0.091925636 -0.00014274 -0.09104993 -0.0023306329
0.068497576 0.02791369 0.02706632 -0.14177091 0.0022165664 -0.05453896 -0.061410517 -0.0059938882
0.0055600205 -0.00089573173 -0.07028858 -0.05780402 -0.097587705 0.0504417 -0.039017804 -0.05600172
0.047975253 -0.00059674616 -0.08275034 -0.019721467 0.008422446 -0.07703547 0.09746335 0.10557507
-0.07004512 0.015103791 0.10667817 -0.019180417 -0.034794625 0.05918905 0.023186732 0.019386822
0.004534525 0.024818135 -0.010319805 -0.008765669 0.017902566 0.13098475 -0.10520584 0.02206749
-0.034923706 -0.12375541 -0.06522772 -0.048682537 0.03378044 -0.02282712 -0.036719263 0.034105115
-0.01135911 0.042624522 -0.035414357 -0.03481106 0.10877387 -0.086795084 -0.034462977 -0.023903886

lstm.bias_ih_l0 f4 [512]
00000000: e378 54bd 9832 9e3c 7dc5 67bc 158f 02bd
00000010: 5c7a fe3c 0c88 643d e0c2 cd3d a1b9 b53c
00000020: ee4c b83d 6242 c5bc bdff 2a3c 9d45 923d
00000030: d9dc de3d a212 7bbc b5ff a43c 54dd 4d3d
00000040: 696b 45bb 4c09 c13d a595 d9bc ca8d 943c
00000050: 90a6 38bc e5c3 933c 9493 fb3a 1d53 b33d
00000060: 2437 8abc 91c2 693d c43c 9bbc 13f5 c73c
00000070: a6c8 c73c d6fc 203d 77c6 303d b1a8 1b3e
00000080: 6077 963d 59a4 60bc 97dd 57bb ff44 d5bc
00000090: 606d 903d 297d 7bbb 9025 1d3d eb23 62bc
000000a0: 3586 903d 395f a33c 8ac1 c9bb e7dc 8e3d
000000b0: 0e26 bfbb b5d6 b73d 33be 043e 3417 c13d
000000c0: cf2d 87bc f570 acbb de44 843d 8428 9f3b
000000d0: 80f1 ce3d ac9c 65bd a694 4c3c 6612 debb
000000e0: fb9a 2b3d 9b36 d23d 4186 d23d f552 9e3d
000000f0: 3f3f ff3b 6479 f63c c5d5 a4bb 754e 01bd
00000100: d8f2 e83d c086 a23d 618a 40bc f27d a93d
00000110: 5c61 a0bc 9f81 e13d 623c 21bc 3b8b ce3d
00000120: 5566 e03d 5abf bd3d f02a e53d 8fbd d2bc
00000130: 101c 10bd 8744 0ebc f7fd a13d 4e38 b43d
00000140: d35e f33c 715e 6c3d 6128 093e 9186 42bd
00000150: 9654 5dbd 37ea 813d 2efe f53c ac0b bdbc
00000160: b11c b9bc ee57 dc3d fd10 11bc 48e1 5b3d
00000170: dba6 dd3d 81e5 fb3c 2028 543d 074b 4c3d
00000180: 1c21 4e3d 8171 173c 0f71 b93b 8452 7cbd
00000190: 8dfc e83d 7903 503d 1743 d93d 8f53 ae3d
000001a0: 7373 4cbd 33ce 233c 00d3 a83d 4ef0 933d
000001b0: 6809 563d e8b0 0e3d 0f01 abbc ff95 be3d
000001c0: 87c5 0c3e 4ac9 333d f43e e63c 67eb 06bd
000001d0: 2b6e fd3d 64a6 983d 977f aa3d e810 2fbd
000001e0: d327 683d 8b70 bbbc 5caf ab3d d1f0 b53d
000001f0: 4953 a43d 2a04 0ebd 913e f2bb 033f 863b
00000200: 978c a03d 5166 67bd 720e 0a3d da7f fdbc
00000210: ab5f 60bd 24c2 863d fc33 aa3d a848 e4bb
00000220: cbdc 923d dd46 c93d c198 333d 358c 79bd
00000230: 6776 b03d a4f1 833d 267b c73d dfbe 883d
00000240: 0b1e a3bc 6b48 353d 9720 863d eb89 4dbd
00000250: 99ca 073e 8bdb e5bc a91f 953d 0ae3 b73d
00000260: d170 973b 74a0 df3d 6660 40bd f096 00bd
00000270: 9cf4 83bd b0d5 fcbb b26c 5abb c548 f9bc
00000280: 3a16 103d 6319 6cbd e427 e73d d3d9 663d
00000290: fd99 9fbc c74c d33d eb56 c73d e6fc bf3d
000002a0: 3f0e d93d 1e75 36bd 173b 0d3d 3a95 c93c
000002b0: 622c 083c ecb0 703b 8d40 443d c588 973d
000002c0: ec23 ea3c 4ce8 54bd 7b9f a93c b667 093d
000002d0: d243 9f3c 2960 1dbc f4c5 443d b1db 7dbc
000002e0: 2e42 8d3c 6927 cb3d 4267 5e3c 503a 58bd
000002f0: f76c 453c b5ef 3f3c d357 1fbd 17e1 683d
00000300: 4d37 da3d c084 813d 249a b03c bd20 533d
00000310: 48a4 a43d aac2 cc3d 75e0 38bd c426 953d
00000320: 0d51 3fbc 60d5 02bd ae7b 563d 9d15 833d
00000330: 810f b63d 9fdb ca3c ebbc 15bd 57db c43c
00000340: 5fe5 ba3d 3f77 843d fb3f 883d f04b a5bc
00000350: 7d4e 993b 325b 723b 4232 87bd ff1d b63d
00000360: 0c3d efbc c275 3a3d 3cb5 34bd 3016 f43d
00000370: b45f e73b 6a16 853d 11df a73d b623 77bd
00000380: 8fc4 d3bb 0009 33bd 8c30 dc3c 4082 d23b
00000390: e969 4a3d fa6a ec3d 1661 7bbd 37f8 df3d
000003a0: 0114 c6bc 3654 64bd f180 eabc b5ea ab3c
000003b0: 567f a73d 57ae c23d 3c95 f3bb aa56 29bd
000003c0: 6a9a 76b9 2e1b ca3d 4659 b8bc c710 f6bc
000003d0: 6404 fd3d f671 a73d b13a a33b e8ed 25bb
000003e0: 8f0a 2cbd 18c9 db3d f553 f13c 5929 563d
000003f0: 541a d33d 9d49 f23b d7e7 4b3d 36ff 763d
-0.0518731 0.019311234 -0.014146206 -0.031874735 0.031064205 0.055793807 0.10046935 0.022183241
0.08999048 -0.024079505 0.010436949 0.07142184 0.10881967 -0.015324267 0.020141462 0.050259903
-0.0030123836 0.09425601 -0.026560614 0.018134017 -0.01127018 0.018037746 0.0019193762 0.08756087
-0.016871996 0.05707032 -0.018949874 0.024408853 0.024387669 0.039303623 0.04315802 0.1520107
0.07346988 -0.013711059 -0.0032938474 -0.026033876 0.070521116 -0.0038374162 0.0383659 -0.013802509
0.07056848 0.019942867 -0.006157105 0.069757275 -0.005833394 0.08976499 0.1296318 0.09428254
-0.016501335 -0.005262489 0.06458448 0.0048571248 0.10104656 -0.056057617 0.012486612 -0.0067770956
0.041895848 0.102643214 0.10279513 0.077306665 0.007789522 0.03008718 -0.005030366 -0.031568963
0.11374444 0.07935858 -0.011751742 0.08275975 -0.019577675 0.110110514 -0.009841057 0.1008515
0.10957018 0.09265013 0.1118983 -0.025725154 -0.035183012 -0.00868333 0.07909768 0.08799802
0.029708302 0.057707254 0.1339431 -0.047491614 -0.054035746 0.06343501 0.030028429 -0.023076855
-0.022596689 0.10758959 -0.008854148 0.05368164 0.10822841 0.030749084 0.05179608 0.04987624
0.050324544 0.00924337 0.0056592296 -0.06160213 0.11376295 0.05078456 0.106084995 0.08512031
-0.04991479 0.009997892 0.0824337 0.07223569 0.052255064 0.03483668 -0.020874528 0.09305953
0.13747226 0.043893136 0.02810619 -0.03293934 0.123745285 0.074536115 0.08325117 -0.042740732
0.056678604 -0.022880813 0.083830565 0.08883823 0.08023698 -0.03467194 -0.0073927124 0.004096867
0.078393154 -0.05649406 0.033705182 -0.030944753 -0.054778736 0.06579998 0.083106965 -0.006966669
0.07171019 0.09827969 0.04384685 -0.060924727 0.086163335 0.06442574 0.097402856 0.06677031
-0.019911787 0.044258516 0.06549185 -0.050180357 0.13260879 -0.028058788 0.07281429 0.08978851
0.004621603 0.10919276 -0.046966933 -0.031393945 -0.0644314 -0.007715903 -0.0033328948 -0.030430207
0.035177447 -0.0576414 0.112869054 0.056360077 -0.019482607 0.103173785 0.09733375 0.093744084
0.1059842 -0.044545285 0.03448018 0.02460729 0.008311363 0.0036726547 0.047913123 0.073991336
0.028581582 -0.051979348 0.020705929 0.033546172 0.019441519 -0.009605446 0.048040345 -0.015494273
0.017243471 0.09919626 0.013574423 -0.052789986 0.012049905 0.011714865 -0.038902115 0.056855287
0.10655079 0.06324148 0.021557875 0.051544894 0.08039147 0.09998067 -0.045135934 0.072827846
-0.011677039 -0.03194177 0.052364044 0.06400607 0.08889676 0.024762927 -0.03655712 0.02403037
0.0912578 0.06468057 0.06652828 -0.020177811 0.004678546 0.0036980626 -0.06601383 0.0889244
-0.029203914 0.04552246 -0.04411815 0.119182944 0.0070609692 0.06498416 0.081968434 -0.06033679
-0.0064626406 -0.043709755 0.026878618 0.0064242184 0.04941741 0.11543842 -0.061371885 0.10936015
-0.02417946 -0.055744372 -0.028625937 0.02098594 0.08178584 0.09505909 -0.0074335616 -0.041342415
-0.00023517912 0.09868465 -0.022503506 -0.030037297 0.12354353 0.08176033 0.004981362 -0.0025318805
-0.042002257 0.10731715 0.02945898 0.052285526 0.10307756 0.0073940293 0.049781647 0.060301982

lstm.bias_hh_l0 f4 [512]
00000000: 8152 f13d 6d21 8c3d f090 f93d 1d4f 08bd
00000010: 1f55 e83d cd66 cb3d 4f32 b33d 404e bf3b
00000020: 4a97 90bc f5f9 e53d a3c5 d13d b705 af3d
00000030: 4719 b83d 56f7 29bd baf9 ae3d 907f 2f3d
00000040: 42fa 2a3d 1355 f73d aa44 453c 7d9e 703c
00000050: b495 0c3e dfc6 af3d 5cca 283e c40e 5d3d
00000060: 2772 b33d 57b0 09bd d64a ce3d 181a 763c
00000070: 3c53 d83d c26d 6dbc 25c2 ea3d 9314 b73d
00000080: 8d6e c53d b103 42bc a8ce 4fbc fc94 f13d
00000090: 9da8 a5bb 3d5d bbbc f4f5 34bd 53ee 043e
000000a0: 0278 7ebc ea9e de3d 8e72 3e3d f430 3ebc
000000b0: 46a0 e53b 6421 62bd 1ad2 083e 5cfd 853d
000000c0: 9d41 35bd b674 28bb 542e 593c cdf1 91bc
000000d0: ed93 7c3b 7b2b 87bb cef1 f63d f3fd 4abd
000000e0: 34c8 ff3d ce67 de3d 13c3 533d face 8bbc
000000f0: 791b 8e3c 2147 e4bc 595d fabc 3f6b 623c
00000100: 3d8f 903d c4b2 21bd 959f b53d bdab 573d
00000110: 8c1e c8bc c6de f3bc cd03 613d 83e4 b2bb
00000120: 7436 ee3c 69a9 14bb 1b86 29bd 0191 cdbc
00000130: 4d87 d5bc 14cf 813d a0b3 0b3d 6674 bb3d
00000140: f9aa d33d 0d5b 973d cc0c 083d 943d 61bd
00000150: 01f3 d23d ac9a 523d be71 ac3d fc63 313d
00000160: eff1 363d f0d9 8a3d 8c91 f33d 2811 d73d
00000170: dab3 84bc 1024 183e d129 b93c ce6f ea39
00000180: 83f4 0abd 8460 28bd 7527 bf3c dfee dbbc
00000190: e031 0eba 9443 4b3d f3e9 e13d 00e3 5d3c
000001a0: b13f 98bc 0bc6 b8bb d19e 953a df84 b13c
000001b0: 3f55 b73d d527 9f3d 6b88 32bd 4ea2 1dbc
000001c0: 1e2e c33b 763a 6fbd 4155 643d 9dbd da3c
000001d0: 9699 223c ca07 d73c e850 bf3c 1446 a33d
000001e0: 5504 043e 2313 15bd 597c d03b 698e 643d
000001f0: b68b cd3d c1dc cc3b 4a8c 283c 3cd2 48bd
00000200: 5d1d 643d f49e 123d 7fe9 ab3d ab6b a43c
00000210: 4300 523d 09af b43d 87dc a53d 7c38 6cbd
00000220: 5df7 8b3c 19b3 873d 5325 d73d 2d6f 0fbd
00000230: f5fd 373d 5379 d93d e78e 973d 2ad8 893a
00000240: 7841 953d ce15 ed3d 9a9c bc3d d5aa d83d
00000250: 7451 bc3d 3773 013c b9ca 563c ceef a23d
00000260: c825 e83d 67f8 8abc 0f32 66bd 1247 3d3d
00000270: 5f35 c93d a3ca bc3c 7f6b 913d 7f4a eb3c
00000280: 5d63 5fbc 623a 39bd e414 3f3d 570d 493d
00000290: 44e4 d33d 4490 293d a5a8 dd3c 6cbe 3fbc
000002a0: c371 51bc 16ef 8d3d 4916 8fbc cb21 903d
000002b0: 6ca9 79bd cd3d 7dbd 300b 62bd 2bc3 89bc
000002c0: a61b 1d3c ecc7 813d 4449 873d 0750 163b
000002d0: 2e5c 1d3e 1fec b23d db05 ab3d e61d 6f3d
000002e0: bb8d 933d 2ac6 7c3d f53e c13d ea0c 973d
000002f0: a249 e13d df3d ca3d 3fe1 b2bd f162 8a3d
00000300: 462b 33bd 98f2 453d ca2c 44bc b11e cc3d
00000310: b44f 1fbd 2f76 ad3d 28ee 863c 23a6 4cbd
00000320: 4110 873d 65b9 4fbd 4b3f d7bc bab5 563d
00000330: e7ca 6a3d c14f b23d 6d11 08bb 112e 0a3e
00000340: 28a0 85bd e0a3 b73d fddb c8bc 3f3a cd3c
00000350: 2622 16bd 094b 4e3d c094 d63b 1e0d 41b9
00000360: fd72 5fbd 2cb6 b43d 8f78 303c cdcb 053d
00000370: ff65 d33d 808c 263d dd57 c23d eaeb 693d
00000380: 2d28 eabc 1a00 923d 5111 873d 36b8 963d
00000390: 15e8 13bd 0218 083e 7ff4 41bd 9de1 09bd
000003a0: d8a9 92bd fe47 7a3d 5dee b3bc 4651 743d
000003b0: b0b3 22bd 72b8 bd3d e211 3c3d 6c70 4c3c
000003c0: 3287 de3c 80bd ba3c 2587 133c 5475 0fbd
000003d0: 19d4 053e 38bf 853d a1a2 c33d 9c09 0a3d
000003e0: 7f5e 3ebd b958 403d 31ed ae3d ad55 ad3d
000003f0: d831 823d 46bf 57bb 8b29 cc3d 91c3 b3bc
0.117833145 0.06842313 0.12185848 -0.033278573 0.113443606 0.09931717 0.0874983 0.0058381855
-0.017650265 0.11229316 0.10242774 0.08546012 0.08989196 -0.041495644 0.08543725 0.042846262
0.04174257 0.120767735 0.012040297 0.014686224 0.13728982 0.085828535 0.16483444 0.05396916
0.08762007 -0.033615436 0.100728676 0.01502087 0.10562751 -0.0144915 0.114628114 0.08939471
0.096402265 -0.0118417 -0.012683548 0.11795995 -0.0050555007 -0.022871608 -0.04417987 0.12981538
-0.015531542 0.10870154 0.046495967 -0.011608351 0.0070076315 -0.055207625 0.13361397 0.06542465
-0.044252027 -0.002570433 0.013255674 -0.017815495 0.003854032 -0.0041250563 0.12057839 -0.04955859
0.124893576 0.10859643 0.05169971 -0.017066468 0.017347084 -0.027865948 -0.03056209 0.013819515
0.070585705 -0.039477125 0.088683285 0.052654017 -0.024428628 -0.029769313 0.054935265 -0.0054593696
0.0290787 -0.0022683984 -0.04138766 -0.025093557 -0.026065493 0.06338325 0.03410685 0.091530606
0.10335345 0.073904134 0.03321533 -0.054990366 0.103002556 0.051417038 0.08420132 0.043308243
0.04466432 0.067798495 0.11892995 0.10501319 -0.016199041 0.14857507 0.022602947 0.0004471526
-0.03392459 -0.04110767 0.023334244 -0.026847301 -0.0005424302 0.049624994 0.110309504 0.013542891
-0.018585058 -0.005638843 0.0011415129 0.021669803 0.08951806 0.07771269 -0.04358713 -0.009621216
0.0059564253 -0.058405362 0.055745367 0.026701743 0.009924313 0.026248831 0.023354009 0.07972351
0.12892278 -0.036395203 0.0063624796 0.055799875 0.10036413 0.006251902 0.010287354 -0.04902862
0.055692066 0.03579612 0.08394145 0.020070871 0.05126978 0.08822448 0.08098703 -0.057671055
0.017085725 0.06625957 0.10505166 -0.035018135 0.044919927 0.10618844 0.07400303 0.0010516692
0.07287878 0.115764245 0.09209557 0.105794586 0.091952235 0.0079010045 0.013109856 0.07955895
0.11335331 -0.01696415 -0.056200083 0.046210356 0.09824633 0.023045843 0.071005814 0.028722046
-0.01363453 -0.045221694 0.046650782 0.049084987 0.103462726 0.041397348 0.027057955 -0.011703115
-0.012783471 0.06930368 -0.017466681 0.070376955 -0.06095259 -0.061826516 -0.05518645 -0.016816696
0.009589111 0.0633696 0.06605771 0.0022935884 0.15367195 0.08736443 0.08350726 0.058378123
0.07204767 0.06171242 0.09435836 0.0737551 0.110003725 0.09875082 -0.087343685 0.06757153
-0.04374244 0.04832706 -0.011973569 0.099667914 -0.03889437 0.08469807 0.016470984 -0.049963128
0.06594897 -0.050713915 -0.026275298 0.0524194 0.05732241 0.08706618 -0.002076234 0.13494135
-0.06524688 0.089668036 -0.024518961 0.025052188 -0.03665366 0.050364528 0.006548494 -0.00018410801
-0.05455302 0.08823809 0.010770931 0.032665063 0.103221886 0.040661335 0.09489415 0.05710975
-0.02858361 0.071289256 0.065951 0.07359354 -0.036110003 0.13290408 -0.04735231 -0.033662427
-0.071613014 0.061103813 -0.021964246 0.05964782 -0.039722145 0.09263696 0.045915492 0.012477975
0.027164076 0.022795439 0.009004389 -0.035024002 0.1306919 0.06530613 0.095525034 0.03370057
-0.046476837 0.046959613 0.085413344 0.08463607 0.06357163 -0.0032920404 0.09968861 -0.02194384

lstm.weight_ih_l1 f4 [512, 128]
00000000: 4051 773d 8260 cabd 8a1e 073d 1c2f 19bd
00000010: eb4c bd3c d35a 44bd b6f0 44bc c682 0ebd
00000020: 564e 153d d9e4 aebd 269f 7e3d b5ed 8e3c
00000030: 25e4 93bc 12fd ee3c 2499 3c3d 5ef4 eeba
00000040: b012 88bd b67a da3c 5fdf 4fbd 6862 a83d
00000050: 12fe b6bd 9d62 773d dfc7 253c baa6 82bc
00000060: 36a7 6c3d 55f0 cabc b17e 2f3d db2c da3d
00000070: c33f 93bc 5cc5 ad3c 5ac3 49ba 1c93 39bd
00000080: 501f 1a3d a91f dfbd 6a0e b53d a471 2f3c
00000090: feab b1bc 054f 12bc bb7e 0ebc 346d b13d
000000a0: caa5 ccbb cafd 63bc 0e9c 023d 2c1f f5bc
000000b0: 2c86 e33d cb27 8ebd 9ec7 883d 3de6 d03c
000000c0: 36ca 03bd 78b2 1ebd cf49 4abd e748 78bc
000000d0: 6cac 5cbd 7753 7cbd 6aff 753d 24b3 c539
000000e0: 4cc4 8cbb 31fc b1bc aeb8 87bd d81a 42bd
000000f0: 65c1 5d3d 1f51 853d eb1f 31bd 16ca f0bc
00000100: f391 f7bb a7d9 4d3c 356a 35bd f13c b6bd
00000110: 70d0 123c 4323 593d 5029 a6bc af82 583d
00000120: cf3a 493c 37c5 873d e486 603c 6f7d eabd
00000130: fd91 813c 7777 833d f501 99bd 227f 8f3c
00000140: 1865 26bd 6e0a c3bd 379f 743d a49b bf3c
00000150: aa7e 77bc c0a9 b9bd b304 0fbd dfbb acbc
00000160: 4ef2 9d3d 4672 7d3d 010f 9fbd f03e 83bd
00000170: f61f ee3d 9256 833c e65d c63d 4cdd 95bd
00000180: c838 97bd 6594 653c f2a3 86bd 743e 56bd
00000190: 4898 abbd 277f 433d fbe6 483d 6ab3 cc38
000001a0: f652 47bd fb78 233c 3649 4bb9 0cbf 133e
000001b0: ba63 7d3c c654 f63c cb6f 8c3d b4bb 06bd
000001c0: f910 813d 2808 a6bd 336b 893d f1a1 63bd
000001d0: 7118 0f3d f12b c53c 7073 83bd 56ed 07bd
000001e0: eca6 e2bb 0fce 84bc 9fb1 abbd fb3f 703d
000001f0: 3cd0 393d 89ec c93c aa96 013e 4fda 873d
00000200: af4d 15bc 2b25 803d d621 823c 65ea d6bd
00000210: 453e a63d c948 e8bc e3ad ad3c b2d6 16bc
00000220: 4e8a a53d 27f6 34bd 7094 45bd a677 38bd
00000230: 6ae7 b3bd 3e90 91bd c08f c53c df01 a9bb
00000240: 94ee 97bd a9e7 53bc 6d72 01be 293e 1d3d
00000250: 5ea6 dcbc ad33 77ba 1f74 f7bd 8220 00bd
00000260: eec8 8a3d 01a5 ccbd 1972 313b 8e26 01be
00000270: 93a4 f63d 1985 183d 5557 df3d 79d7 8cbd
00000280: 83cf 953d 889c 8abd 59c5 8a3c 8e51 c4bd
00000290: 81c5 7f3d 7803 b3bd 580f d4bd 1b93 ca3d
000002a0: c032 073e 45a4 ef3d 029d e5bd 347d 78bc
000002b0: 909d 013e cf07 0fbd 83ee 1abd 598f dbbd
000002c0: b314 febc 2c94 883d 7da0 823d b44a 78bd
000002d0: 2e90 823d 7f94 0fbd b9bc 82bd 294b 583d
000002e0: 5277 ce3d 32c1 053e afad 0abe ab27 ebbd
000002f0: cbee edbd 9fe8 0b3d 2a79 eabb 5895 9fbc
00000300: 2221 0d3b a9bf fcbd 7e70 a9bd f4e3 5a3d
00000310: 2218 aabb 2ff0 b83d 4e7e 86bd 6278 afbd
00000320: e278 2cbd a13c 8f3d 766f 4abd 65f0 20bb
00000330: 2553 b6bd a651 22bd d140 b6bb f106 913d
00000340: f7cc aebc 657d ebbc 0093 373d 3440 9e3d
00000350: 5ec4 b0bd 51c3 583d 4569 c5bc 577d a8bc
00000360: 688e f73c 7247 f83c 3348 813c 657b 3a3a
00000370: 80b8 a3bd 02c6 a13d 199f 5b3d f92b 83bd
00000380: 118c 70bd 649b 40bd c3e2 183b fc9f 53bd
00000390: cdb9 6c3d 8e73 1cbd 809b d0bc e041 9ebc
000003a0: 9780 c63d 54e7 223e 99f7 f2bd b4fb 2cbd
000003b0: 76e9 583c e47c 023e 1674 873c db51 78bb
000003c0: 8af2 b73c 9904 40bc d50f e33c a986 343c
000003d0: 82c0 183e f47b ad3c 6a78 f0bc 1199 153d
000003e0: 14e5 003e af8b 05be cc12 b0bd 256f ab3c
000003f0: 208a 8d3d f906 ecbd e439 f8bb 320a ce3d
0.06038022 -0.09881689 0.03298811 -0.037398443 0.023107966 -0.04793818 -0.012020281 -0.034792684
0.03645166 -0.08539743 0.062163495 0.017447332 -0.018053124 0.029173408 0.046044484 -0.0018230786
-0.06644189 0.026669841 -0.050750133 0.082218945 -0.08935179 0.06039678 0.010118454 -0.015948642
0.057776652 -0.024772802 0.04284543 0.10653087 -0.01797474 0.021212272 -0.0007696651 -0.04530631
0.03762752 -0.108947106 0.0884064 0.010708246 -0.021688458 -0.008929973 -0.008697207 0.08663407
-0.0062453495 -0.0139154885 0.031887107 -0.02992209 0.11109576 -0.06941184 0.06678699 0.025500411
-0.032175265 -0.03874442 -0.049386796 -0.0151541 -0.05387537 -0.061603036 0.060058035 0.00037708238
-0.0042958613 -0.0217267 -0.06627022 -0.04738888 0.054139514 0.06509613 -0.04324333 -0.029393237
-0.0075552403 0.012564099 -0.04429074 -0.088983424 0.008960828 0.053012144 -0.020283371 0.052859005
0.0122820875 0.066294126 0.013704035 -0.11449706 0.015816683 0.064192705 -0.074710764 0.017516676
-0.040623754 -0.09523474 0.05972215 0.023389645 -0.015105883 -0.0906558 -0.03491659 -0.021085678
0.077122316 0.061876558 -0.07766534 -0.06408489 0.1162719 0.01603249 0.096858785 -0.073176
-0.07383877 0.014012431 -0.06574239 -0.052305654 -0.08378655 0.047728684 0.049048405 9.7608965e-05
-0.048663102 0.009977574 -0.00019386862 0.14428347 0.015465671 0.03006972 0.0685726 -0.03289385
0.063020654 -0.081070244 0.067099 -0.05557436 0.03493542 0.024068804 -0.06418502 -0.033185326
-0.0069168713 -0.016211538 -0.08383488 0.058654767 0.045364603 0.024648922 0.1265513 0.06633436
-0.0091127595 0.06257089 0.015885275 -0.10493926 0.08117346 -0.02835502 0.02120108 -0.009206461
0.0808302 -0.04418006 -0.048237264 -0.04503598 -0.08784373 -0.0710759 0.024116397 -0.0051576938
-0.07418552 -0.01293365 -0.12641306 0.03838936 -0.026934799 -0.00094300025 -0.12082695 -0.031281002
0.067766055 -0.099924095 0.0027076064 -0.12612364 0.12043109 0.037236307 0.10905329 -0.06877036
0.0731497 -0.06768137 0.016939806 -0.09585868 0.062444214 -0.08740896 -0.10354489 0.098913394
0.13202953 0.11701254 -0.112115875 -0.0151665695 0.12657762 -0.034919556 -0.03782512 -0.10720701
-0.03101573 0.066688865 0.06378267 -0.060618117 0.06375156 -0.035053726 -0.06383652 0.052806053
0.10081352 0.1306198 -0.13542818 -0.114821754 -0.11617812 0.03415739 -0.007155557 -0.019480392
0.0021534641 -0.12341244 -0.08273409 0.05344005 -0.005190865 0.090301864 -0.065670595 -0.08567883
-0.04210747 0.06993986 -0.049422704 -0.0024557349 -0.08902577 -0.039628647 -0.005561926 0.07081402
-0.02133797 -0.028746316 0.044817924 0.077270895 -0.08631204 0.052920643 -0.024098048 -0.02056758
0.030219272 0.030307505 0.015781498 0.0007113724 -0.07994175 0.07899095 0.053618524 -0.064048715
-0.058727328 -0.047023192 0.002332852 -0.051666245 0.05779438 -0.03819614 -0.025464773 -0.019318521
0.09692495 0.15908557 -0.11863632 -0.04223223 0.013239255 0.12742954 0.016534846 -0.0037890587
0.022454519 -0.011719846 0.02771751 0.011018434 0.14917186 0.02117727 -0.029354293 0.03652293
0.12587386 -0.13041566 -0.08597335 0.020927021 0.06911111 -0.115247674 -0.0075752605 0.10060538
