models/cnn_lstm_model.pth (torch, 992486 bytes, 15 tensors)

cnn.0.weight f4 [32, 7, 3]
-0.17420739 0.14572176 0.18034449 -0.13441928 -0.004805746 0.10566076 0.031202398 0.08664006
0.039201614 0.09255467 -0.096256234 -0.21477674 0.012360076 0.049354076 0.045379754 0.22185662
0.19369832 -0.017431475 -0.14174965 0.17839737 -0.08302562 0.21400592 0.11056347 -0.036495347
0.20719258 0.122676045 0.16416442 -0.09633285 0.19141836 -0.1256279 0.16781823 -0.15139756
0.12292535 0.13443983 -0.1806203 0.050195087 0.18272728 0.18381165 -0.1420352 0.038456015
-0.16150992 -0.20272052 -0.13334148 -0.1527664 -0.2344697 -0.044787865 -0.13019396 -0.048999015
0.1049797 0.041132838 0.14419714 -0.10325062 0.07495445 -0.20308144 -0.00869035 -0.18679965
-0.24720141 0.081004076 0.18700148 0.10309508 0.1280506 0.13644005 0.08202758 0.13808268
0.13870473 -0.09387878 0.11640708 0.084386714 -0.20277195 0.15517321 0.03883677 -0.018405678
0.0083516175 -0.17805679 0.17570597 -0.094882116 0.104692474 0.08159159 0.07034175 0.17351674
-0.026413884 -0.08920124 0.10166836 -0.1425205 -0.17751147 0.09374693 0.115228646 -0.20404202
0.07387722 0.20995282 0.118890904 -0.14440838 0.14765596 -0.0763365 5.2802643e-05 0.19331683
0.016640032 -0.13931184 -0.1964995 0.13888292 -0.16880262 -0.009208844 0.07605822 -0.1700565
-0.11594405 0.013466742 0.05810821 0.12636088 0.16721392 -0.10809834 -0.0034004413 -0.20835598
0.12905413 0.091732234 0.055228554 -0.028341787 -0.13897671 0.18990518 0.13382614 0.0103907315
-0.075033054 0.13403837 0.21102737 -0.045208868 0.079346016 -0.12590683 -0.05194225 0.09749086
-0.22964203 -0.028610164 -0.03977209 0.045982994 0.037614454 -0.13546361 -0.08415015 -0.04277807
0.10133075 -0.14042218 0.105508916 -0.042719863 0.24223347 0.15511152 0.07998458 -0.16410711
0.082537435 -0.19363028 -0.008428076 0.1814632 -0.007400131 0.015585246 -0.06999684 -0.007055662
0.19058822 -0.10844224 0.06315442 0.20415531 -0.025787575 0.18338157 0.08215739 0.08517276
0.20008457 0.26770508 0.21013755 0.04863541 -0.045624968 -0.03968305 0.13122135 0.18950336
-0.18487424 0.20925865 0.2190103 -0.010996457 0.18545792 -0.069636784 0.06894993 0.23721579
-0.15998143 0.1521192 -0.104915634 0.24071938 0.06524786 0.079103105 0.0004219262 0.030531026
0.081078954 -0.1273977 -0.09179526 0.0667254 -0.2152586 0.06729921 -0.19866748 0.15559463
-0.16890697 -0.09994757 -0.23302591 -0.08296889 -0.11783596 -0.038216267 -0.07997141 0.03778084
-0.036944598 -0.17500196 0.1267218 0.016920853 -0.18573941 0.09105867 0.12774897 -0.15833528
0.019115426 0.043499507 -0.0014411068 0.119148284 0.02111583 0.13533339 -0.2166603 0.16390413
-0.07238515 0.15483022 0.17985213 -0.08320118 0.2386099 -0.20953314 -0.1095318 -0.09478538
0.10868903 0.071151495 -0.04238001 -0.14087228 0.1373542 0.087755315 -0.044157278 0.1778249
0.1291692 -0.10139149 -0.10445188 0.09937618 0.12535533 -0.20106362 0.0064789057 0.005391857
0.16632213 0.006175167 -0.0139785865 -0.081062675 -0.1809245 -0.07426246 0.22454366 0.04391331
0.17251074 0.20519182 -0.08886129 -0.12862736 0.18578385 -0.016510418 -0.14941078 0.002902038
00000000: 6c63 32be 1638 153e 3aac 383e 35a5 09be
00000010: 8579 9dbb ab64 d83d 2c9c ff3c 5870 b13d
00000020: df91 203d 4e8d bd3d fd21 c5bd 6fee 5bbe
00000030: eb81 4a3c 8027 4a3d 1fe0 393d 622e 633e
00000040: da58 463e 74cc 8ebc d226 11be cdad 363e
00000050: 5609 aabd 5e24 5b3e 1a6f e23d 257c 15bd
00000060: 4b2a 543e 943d fb3d b81a 283e 284a c5bd
00000070: 2d03 443e 9aa4 00be 8bd8 2b3e f607 1bbe
00000080: 49c0 fb3d 98aa 093e 87f4 38be 5d99 4d3d
00000090: dc1c 3b3e 1f39 3c3e ad71 11be 0e84 1d3d
000000a0: db62 25be f895 4fbe ab8a 08be cc6e 1cbe
000000b0: d318 70be 7b73 37bd 9151 05be 31b3 48bd
000000c0: 99ff d63d e87a 283d 6aa8 133e 1075 d3bd
000000d0: b881 993d 95f4 4fbe f861 0ebc 6848 3fbe
000000e0: 5e22 7dbe 77e5 a53d 517d 3f3e 8323 d33d
000000f0: b21f 033e f1b6 0b3e 13fe a73d 8c65 0d3e
00000100: 9d08 0e3e 8543 c0bd d666 ee3d f1d2 ac3d
00000110: 73a3 4fbe bae5 1e3e 4e13 1f3d 81c7 96bc
00000120: 39d5 083c 8554 36be 44ec 333e 8e51 c2bd
00000130: 0269 d63d 7e19 a73d 560f 903d 5fae 313e
00000140: ee61 d8bc 24af b6bd 8037 d03d e5f0 11be
00000150: 91c5 35be 64fe bf3d fffc eb3d 64f0 50be
00000160: f14c 973d dffd 563e 137d f33d cadf 13be
00000170: 2033 173e 5056 9cbd 6878 5d38 d9f4 453e
00000180: ad50 883c c3a7 0ebe 2a37 49be 5337 0e3e
00000190: 98da 2cbe b1e0 16bc 69c4 9b3d 4b23 2ebe
000001a0: 1374 edbd 9ca3 5c3c e002 6e3d bf64 013e
000001b0: 203a 2b3e aa62 ddbd f0d9 5ebb 455b 55be
000001c0: c426 043e 1cde bb3d 5637 623d 092d e8bc
000001d0: e94f 0ebe 8176 423e b809 093e e33d 2a3c
000001e0: eeaa 99bd 5b41 093e 8f17 583e ef2c 39bd
000001f0: 2a80 a23d b8ed 00be 66c1 54bd 4aa9 c73d
00000200: 4827 6bbe dd5f eabc 0fe8 22bd aa58 3c3d
00000210: 9d11 1a3d f9b6 0abe ea56 acbd 0f38 2fbd
00000220: 7f86 cf3d d5ca 0fbe 0f15 d83d 06fb 2ebd
00000230: 0d0c 783e 8ed5 1e3e f5ce a33d b20b 28be
00000240: 6309 a93d 0447 46be ea15 0abc 7dd1 393e
00000250: cc7c f2bb 4259 7f3c 815a 8fbd 2f33 e7bb
00000260: 8f29 433e f716 debd 1b57 813d 170e 513e
00000270: 7740 d3bc 61c8 3b3e 2242 a83d 0e6f ae3d
00000280: f8e2 4c3e a410 893e 4c2e 573e ec35 473d
00000290: 3fe1 3abd b28a 22bd e45e 063e 2b0d 423e
000002a0: ac4f 3dbe e647 563e 3c44 603e 7c2a 34bc
000002b0: aee8 3d3e bb9d 8ebd 9f35 8d3d b2e8 723e
000002c0: 2cd2 23be 23c5 1b3e 02de d6bd 247f 763e
000002d0: aca0 853d cf00 a23d fa35 dd39 341c fa3c
000002e0: b90c a63d 8b74 02be 27ff bbbd 54a7 883d
000002f0: c06c 5cbe 2bd4 893d 7d6f 4bbe 3354 1f3e
00000300: f3f5 2cbe 50b1 ccbd 589e 6ebe 98eb a9bd
00000310: fb53 f1bd a988 1cbd 0dc8 a3bd 15c0 1a3d
00000320: 3853 17bd b733 33be 5cc3 013e 9a9d 8a3c
00000330: 7932 3ebe f87c ba3d a0d0 023e a522 22be
00000340: f497 9c3c 8a2c 323d 85e3 bcba 0404 f43d
00000350: 1bfb ac3c d694 0a3e 33dc 5dbe 7cd6 273e
00000360: aa3e 94bd d08b 1e3e 282b 383e 6165 aabd
00000370: 2756 743e db8f 56be 3552 e0bd d61e c2bd
00000380: 5b98 de3d e0b7 913d a996 2dbd d340 10be
00000390: 94a6 0c3e 0fb9 b33d 43de 34bd bb17 363e
000003a0: ee44 043e 57a6 cfbd deea d5bd bd85 cb3d
000003b0: 265d 003e 9fe3 4dbe 004d d43b 2dae b03b
000003c0: 5950 2a3e 0e59 ca3b 7106 65bc 3004 a6bd
000003d0: 4644 39be eb16 98bd c6ee 653e 71de 333d
000003e0: a8a6 303e ce1d 523e e8fc b5bd e4b6 03be
000003f0: 1f3e 3e3e db40 87bc 24ff 18be 1e30 3e3b

cnn.0.bias f4 [32]
0.21524778 -0.11230094 0.18810612 -0.06780139 0.20370851 -0.14688957 0.1295733 0.014989218
0.13543639 -0.058376182 0.17559707 0.09083458 0.11310394 -0.098089635 0.12701596 0.07880852
0.098481864 0.17467083 0.1945471 -0.0867448 -0.1509378 -0.17791253 0.245316 0.1518191
0.19649215 -0.07674392 -0.19371061 0.043000363 -0.14321952 0.15989082 0.16093853 -0.04282756
00000000: ea69 5c3e 09fe e5bd e49e 403e 75db 8abd
00000010: f798 503e 386a 16be ddae 043e 5695 753c
00000020: d6af 0a3e dd1b 6fbd b8cf 333e 7b07 ba3d
00000030: 0aa3 e73d 38e3 c8bd 7910 023e 5d66 a13d
00000040: dcb0 c93d e9dc 323e 5b37 473e 42a7 b1bd
00000050: 708f 1abe b42e 36be 1e34 7b3e 7776 1b3e
00000060: 3d35 493e eb2b 9dbd 135c 46be 2621 303d
00000070: 23a8 12be 6bba 233e 12cd 243e f46b 2fbd

cnn.3.weight f4 [64, 32, 3]
0.06156923 0.06643326 0.09788931 0.09933045 0.06709666 0.06330222 0.08274044 0.009330879
0.049096014 -0.017346906 -0.020599274 -0.030583141 0.039129898 0.06670511 -0.066479184 0.09310801
-0.055597823 0.03045479 0.08876415 0.081848525 0.024630522 0.07389736 0.0003814064 -0.08323023
-0.003925704 0.053900365 0.09334629 -0.09227488 -0.07193136 0.025177162 -0.0118307 -0.030171882
-7.0727074e-05 0.07343692 -0.0853206 0.10471756 0.09022566 0.104036026 0.07695069 -0.020096855
-0.09747212 0.08323048 0.105809346 -0.06017069 0.058652688 0.061683744 -0.01623306 0.054606345
0.10588802 0.08479843 -0.07275665 -0.04861093 0.057856835 -0.082346536 0.0069744163 -0.078854926
-0.005494655 -0.110085525 -0.046299852 0.05220815 -0.09108423 -0.09202188 0.0072949976 -0.07184552
-0.093241334 0.048481133 -0.009444604 -0.07898916 0.068465255 0.025567804 0.071095996 -0.076078296
-0.07430632 -0.08105385 0.011229968 -0.018148348 0.04367218 0.02304664 -0.093124546 -0.05021999
0.050288342 0.04525528 -0.00705116 0.06558209 0.06843624 0.11464038 -0.06189251 0.10709297
0.019287776 0.093775764 0.07354745 -0.0757858 0.02932724 -0.087519854 -0.076188885 -0.01098189
-0.016037418 -0.05951298 -0.060284626 0.019787198 -0.070486836 0.041066635 -0.013419077 -0.024556957
0.0046709497 -0.0560799 -0.045835204 -0.12661308 0.017956851 -0.0466156 0.07276838 0.10682813
-0.019330481 -0.10283409 -0.056987915 0.09614256 -0.003241684 -0.07008198 -0.019494096 0.050780423
0.038285196 -0.013033752 -0.08216558 -0.04388207 -0.015327775 0.010921569 -0.059442014 -0.098562375
0.019221727 0.10420319 0.09595719 -0.009872651 -0.11733668 -0.058742497 0.058805946 -0.12476816
0.096879646 -0.10743387 -0.10251497 0.007329867 -0.043616753 -0.0731602 0.0623018 -0.027843911
0.06912801 -0.056399062 0.048258435 -0.009630496 -0.070042126 0.019689089 0.057286114 -0.10030385
0.053120665 0.04046744 -0.0062954463 -0.01907476 -0.024043234 -0.10175016 0.03517153 -0.03993982
0.0025321315 0.05595042 0.038016085 0.05115202 -0.04444589 0.025061354 -0.07358305 0.03409853
-0.08860786 0.0038757678 0.028703246 -0.11455098 0.036386013 -0.082684286 0.017223852 0.044729434
-0.047848023 0.09149611 0.11273252 0.06453952 0.052177075 -0.12364437 -0.030646784 0.0018337705
-0.030211922 -0.08339263 -0.066272825 0.06957844 0.015337025 -0.005717186 0.042638138 0.062722236
-0.055311933 -0.0749452 -0.033673152 -0.09624747 0.04484543 0.0015930383 0.006114495 -0.03985705
-0.051923566 -0.11368274 -0.019923368 0.08486129 -0.06345158 0.06034363 -0.027995948 -0.056220546
-0.034592554 0.013331315 0.10016668 -0.037590753 0.079799175 -0.079321556 -0.09730278 -0.05896318
-0.047434293 -0.0117347045 -0.086447366 0.025991885 0.07684449 0.0674999 -0.06175218 0.008931758
0.03217929 0.09080463 0.026183171 -0.00385679 -0.0250505 -0.09074484 0.003341307 -0.08943969
-0.0649629 0.04555329 -0.12326302 0.06246953 0.020983433 0.0032478448 -0.048975836 0.09883757
0.044760283 -0.08502971 0.046828583 0.0071568713 0.03707746 0.10640779 -0.027731886 0.050662402
-0.0610851 0.12079776 -0.013514539 -0.03458773 -0.0050569233 -0.09344495 0.06237166 0.03902407
00000000: 0430 7c3d 290e 883d 317a c83d c36d cb3d
00000010: f969 893d 98a4 813d d273 a93d 8be0 183c
00000020: e718 493d 191b 8ebc cfbf a8bc 7f89 fabc
00000030: ac46 203d b09c 883d 3d26 88bd 6aaf be3d
00000040: 8bba 63bd 537c f93c fbc9 b53d 33a0 a73d
00000050: f3c5 c93c 8057 973d 80f7 c739 9c74 aabd
00000060: 31a3 80bb a1c6 5c3d 572c bf3d 9dfa bcbd
00000070: c050 93bd 5640 ce3c 8dd5 41bc 062b f7bc
00000080: 4f53 94b8 1966 963d 91bc aebd 2976 d63d
00000090: 3bc8 b83d d710 d53d 5398 9d3d 29a2 a4bc
000000a0: 769f c7bd be74 aa3d 92b2 d83d 8b75 76bd
000000b0: cd3d 703d 18a8 7c3d 32fb 84bc e7aa 5f3d
000000c0: d1db d83d cdaa ad3d 7001 95bd 411c 47bd
000000d0: 4afb 6c3d 4da5 a8bd a589 e43b b17e a1bd
000000e0: 820c b4bb 8574 e1bd eaa4 3dbd 37d8 553d
000000f0: 5e8a babd f875 bcbd e00a ef3b be23 93bd
00000100: 50f5 bebd 2794 463d 8abd 1abc 12c5 a1bd
00000110: 8337 8c3d 9273 d13c c79a 913d f0ce 9bbd
00000120: e92d 98bd 90ff a5bd e6fd 373c d8ab 94bc
00000130: 9ae1 323d 4fcc bc3c 15b8 bebd 7ab3 4dbd
00000140: 26fb 4d3d 9a5d 393d 6b0d e7bb e74f 863d
00000150: 4d28 8c3d 93c8 ea3d 0083 7dbd 8f53 db3d
00000160: 6601 9e3c 820d c03d 0ca0 963d 9635 9bbd
00000170: ae3f f03c 9c3d b3bd eb08 9cbd 63ed 33bc
00000180: e760 83bc e2c3 73bd 03ed 76bd c318 a23c
00000190: 675b 90bd 7d35 283d b0db 5bbc ac2b c9bc
000001a0: c40e 993b 0ab4 65bd b2bd 3bbd dca6 01be
000001b0: 3f1a 933c 00f0 3ebd 9707 953d b5c8 da3d
000001c0: f55a 9ebc ae9a d2bd 296c 69bd 64e6 c43d
000001d0: 6f72 54bb 2487 8fbd 15b2 9fbc 22ff 4f3d
000001e0: f0d0 1c3d 858b 55bc 6d46 a8bd afbd 33bd
000001f0: 5921 7bbc 61f0 323c 7879 73bd 12db c9bd
00000200: e276 9d3c 7b68 d53d 3485 c43d e6c0 21bc
00000210: 374e f0bd f99b 70bd 81de 703d 7386 ffbd
00000220: d668 c63d 4a06 dcbd 5ef3 d1bd 622f f03b
00000230: 7ba7 32bd 04d5 95bd 2c30 7f3d ea18 e4bc
00000240: fc92 8d3d b402 67bd a3aa 453d 3ac9 1dbc
00000250: 3f72 8fbd 034b a13c d8a4 6a3d 1b6c cdbd
00000260: 0e95 593d 30c1 253d 084a cebb ac42 9cbc
00000270: 51f6 c4bc 6362 d0bd 0610 103d f097 23bd
00000280: 1ef2 253b 452c 653d c1b6 1b3d c884 513d
00000290: e50c 36bd 784d cd3c b6b2 96bd e6aa 0b3d
000002a0: 0a78 b5bd 9800 7e3b 1223 eb3c b499 eabd
000002b0: 8009 153d 6156 a9bd 0919 8d3c 3636 373d
000002c0: 4afc 43bd 5062 bb3d 4fe0 e63d 4c2d 843d
000002d0: a1b7 553d 4239 fdbd f70e fbbc 215b f03a
000002e0: fe7e f7bc c1c9 aabd 0cba 87bd 247f 8e3d
000002f0: 2548 7b3c 3b57 bbbb 54a5 2e3d 8474 803d
00000300: c48e 62bd de7c 99bd dcec 09bd 651d c5bd
00000310: d7af 373d 7fcd d03a 1a5c c83b 2541 23bd
00000320: cead 54bd 7fd2 e8bd 5536 a3bc c2cb ad3d
00000330: e7f2 81bd e22a 773d c257 e5bc 8447 66bd
00000340: ecb0 0dbd 966b 5a3c 3024 cd3d c3f8 19bd
00000350: c06d a33d 5773 a2bd ae46 c7bd 6083 71bd
00000360: 764a 42bd eb42 40bc 510b b1bd efec d43c
00000370: a560 9d3d 633d 8a3d dbef 7cbd 8256 123c
00000380: 6ece 033d c7f7 b93d 177e d63c 33c2 7cbb
00000390: b536 cdbc 6ed8 b9bd d4f9 5a3b 282c b7bd
000003a0: 450b 85bd 1696 3a3d 5271 fcbd 0de0 7f3d
000003b0: 73e5 ab3c cbd9 543b e39a 48bd 5a6b ca3d
000003c0: 8f56 373d 0e24 aebd 54cf 3f3d 3084 ea3b
000003d0: 89de 173d 54ec d93d fb2d e3bc 6183 4f3d
000003e0: 5f34 7abd d164 f73d 166c 5dbc ddab 0dbd
000003f0: 8cb4 a5bb 1160 bfbd 6d79 7f3d b4d7 1f3d

cnn.3.bias f4 [64]
-0.027046978 -0.03063257 0.05490569 0.03586571 0.017308539 -0.03310762 -0.04453491 -0.03260615
0.0023386453 0.033747893 0.04485666 0.087775715 -0.04841031 -0.02888218 0.12526567 -0.04467752
-0.02981179 0.08454287 0.05674791 0.041074418 0.11130093 0.040491235 0.08727728 -0.08325951
-0.0024792757 0.09564599 0.034894984 0.112856396 -0.10106224 0.038280558 0.016680144 -0.020667734
0.03283095 -0.029808037 0.002258242 0.057489164 0.08812865 -0.021772124 0.057386443 -0.03655839
0.03577624 -0.048937384 0.008594758 -0.050828926 0.094095886 0.09257266 -0.03464743 0.0012537752
-0.07353653 -0.004926136 -0.08489414 -0.047776125 -0.081802174 0.10327283 0.051835254 0.03151867
0.045576345 0.059175115 0.0215867 -0.026770297 0.06653633 0.01878985 0.01727448 0.03774643
00000000: a091 ddbc 28f1 fabc cae4 603d ece7 123d
00000010: a3ca 8d3c db9b 07bd 3d6a 36bd 078e 05bd
00000020: f543 193b 3b3b 0a3d 9ebb 373d c1c3 b33d
00000030: e449 46bd 529a ecbc a545 003e c6ff 36bd
00000040: db37 f4bc d024 ad3d 7f70 683d a63d 283d
00000050: bef1 e33d 23da 253d 6ebe b23d f683 aabd
00000060: 587b 22bb 0be2 c33d 0bee 0e3d 4121 e73d
00000070: b8f9 cebd 13cc 1c3d cca4 883c 614f a9bc
00000080: bf79 063d fc2f f4bc 04ff 133b c279 6b3d
00000090: cb7c b43d 745b b2bc 0c0e 6b3d 40be 15bd
000000a0: 1b8a 123d 9172 48bd 07d1 0c3c fe31 50bd
000000b0: 58b5 c03d bc96 bd3d 77ea 0dbd b755 a43a
000000c0: 529a 96bd 6d6b a1bb fbdc adbd e6b0 43bd
000000d0: e687 a7bd b580 d33d 3451 543d b919 013d
000000e0: 43ae 3a3d 9b61 723d 97d6 b03c 624d dbbc
000000f0: 3344 883d 2ced 993c 3683 8d3c 009c 1a3d

lstm.weight_ih_l0 f4 [512, 64]
-0.07959052 0.025041034 0.12334418 0.12337733 0.05695435 -0.025400966 -0.051924966 0.12031941
-0.036266115 0.11307671 0.062126484 0.12265544 0.08700457 0.009093889 0.08736059 -0.024604252
0.073018506 -0.041653004 -0.06842621 0.058484808 0.060121816 -0.008899219 -0.033207096 -0.020333512
0.067667276 0.049591225 0.05877515 -0.04244348 0.020512616 0.05304051 0.08277815 -0.025764296
0.03791707 0.09639648 0.070114024 0.03139562 -0.05620867 0.14259788 -0.09295046 0.06333074
0.1076626 -0.10956094 0.007797007 -0.04029664 0.0771055 -0.12800807 -0.031911045 0.043512873
0.08031333 0.04093599 0.073218934 -0.058800504 0.06007744 0.07899875 0.06476994 0.057896808
0.0072807902 -0.03407186 0.015826188 0.07146162 0.040770553 -0.034980174 0.022381755 0.00073326024
-0.02731164 0.06585145 0.030424006 -0.017021967 0.014989023 -0.06963455 -0.0009859457 -0.047789454
-0.021876574 -0.010729808 -0.049121015 -0.0120205935 -0.074195705 -0.07403878 0.032582212 0.006710042
-0.0331029 -0.03252608 0.013016903 0.088162534 -0.016295344 -0.035507083 -0.033070996 0.021776196
0.02030169 -0.06367988 -0.058654692 0.034552183 -0.0581297 -0.088586 0.043934237 -0.097590916
0.083826534 -0.014406379 -0.039515916 -0.010783472 0.050294813 0.015392704 0.09340336 -0.054742076
-0.01588736 -0.045342587 -0.048632056 0.0056286673 -0.014259788 0.054111246 0.08222621 0.012319033
0.06832105 -0.048208855 0.07022489 0.023137305 0.023779267 0.08135271 0.11163396 0.039912894
-0.008923464 0.013557084 0.02350048 0.027943823 -0.06634651 -0.04248537 0.0076490277 0.039107915
-0.063333966 -0.024837699 -0.017731048 -0.012910365 -0.058950048 0.016923066 0.0831186 0.019977264
0.13008907 0.05294873 -0.09709736 -0.01466878 -0.014714905 -0.023523344 0.067277186 -0.024262426
0.033505004 0.06877454 0.050211024 -0.021916555 0.04907367 0.058187596 0.079068564 0.004504962
0.034642037 -0.05116774 -0.02274705 -0.043456454 0.08053658 -0.09153362 0.01491002 -0.093794644
0.016258549 0.038608566 0.067189224 0.021169113 0.034248292 -0.03161804 0.027579723 0.04843751
0.018748447 0.04298061 -0.022521684 -0.06845243 -0.011957163 0.0195792 0.07354346 -0.039231725
-0.06296254 0.07513993 -0.060896568 -0.059634518 -0.062375005 0.074289925 0.083693095 0.028381782
0.0752531 0.022929039 0.09639613 0.059656095 -0.034017242 -0.015239118 0.07800711 0.110783905
0.04059099 0.11570197 0.006049876 -0.0034913071 0.073485315 -0.072287954 0.003783132 0.113955684
0.10555107 0.07934089 0.0047919294 0.12167809 -0.039384887 -0.011774124 -0.024257861 0.074530564
0.0695809 -0.004822084 -0.010251072 0.019590808 -0.010086314 0.058834746 0.021334581 -0.052686345
-0.07017956 0.024582157 0.013803818 -0.03408252 0.041030433 0.056756992 -0.006872911 0.09216484
-0.028553465 0.0110241175 -0.018654391 -0.03751148 0.044685397 -0.0021274928 -0.034765787 0.005342304
-0.0034512705 0.003978877 0.019590544 -0.009069075 0.003952943 -0.048026968 -0.04874089 0.081383936
0.03928475 0.08118684 0.046540573 -0.08951167 0.010913347 0.031620372 0.11573724 0.071259715
-0.024035405 0.060730986 -0.0037487096 0.021276537 -0.063404895 0.10265258 0.011862245 0.0083027715
00000000: 5b00 a3bd db22 cd3c e09b fc3d 41ad fc3d
00000010: f748 693d b015 d0bc 46af 54bd 066a f63d
00000020: c78b 14bd c394 e73d 5778 7e3d c632 fb3d
00000030: 742f b23d 89fe 143c 1cea b23d db8e c9bc
00000040: ba8a 953d 579c 2abd 0a23 8cbd c48d 6f3d
00000050: 4b42 763d 08ce 11bc 2a04 08bd 7792 a6bc
00000060: 2495 8a3d 2b20 4b3d 36be 703d 37d9 2dbd
00000070: 130a a83c 0141 593d 9787 a93d a50f d3bc
00000080: ee4e 1b3d 856b c53d f197 8f3d b298 003d
00000090: 103b 66bd 2e05 123e d05c bebd 8cb3 813d
000000a0: 367e dc3d 7c61 e0bd 097e ff3b 170e 25bd
000000b0: 7de9 9d3d 8c14 03be 28b5 02bd 8e3a 323d
000000c0: 517b a43d 7fac 273d cff3 953d ccd8 70bd
000000d0: c313 763d 19ca a13d 1aa6 843d 3425 6d3d
000000e0: b293 ee3b ef8e 0bbd eca5 813c 785a 923d
000000f0: 06ff 263d 5f47 0fbd f159 b73c 4338 403a
00000100: a9bc dfbc 20dd 863d c43b f93c a771 8bbc
00000110: 8594 753c 8f9c 8ebd d93a 81ba e0be 43bd
00000120: 8036 b3bc 14cc 2fbc 1e33 49bd 06f2 44bc
00000130: ebf3 97bd a5a1 97bd ed74 053d e9df db3b
00000140: e896 07bd 113a 05bd d944 553c 8f8e b43d
00000150: d07d 85bc e06f 11bd 7475 07bd fe63 b23c
00000160: bb4f a63c 996a 82bd e73f 70bd 9786 0d3d
00000170: 6919 6ebd 946c b5bd 63f4 333d bfdd c7bd
00000180: 3fad ab3d bc08 6cbc 71db 21bd 29ad 30bc
00000190: ef01 4e3d ae31 7c3c 434a bf3d 3a39 60bd
000001a0: 3526 82bc 26b9 39bd 6832 47bd af70 b83b
000001b0: e3a1 69bc c1a3 5d3d 3766 a83d c5d5 493c
000001c0: e8eb 8b3d a676 45bd 11d2 8f3d 728a bd3c
000001d0: bdcc c23c 409c a63d 58a0 e43d b47b 233d
000001e0: b933 12bc 881e 5e3c 1484 c03c 72ea e43c
000001f0: aee0 87bd 2405 2ebd b2a4 fa3b 9f2f 203d
00000200: 3db5 81bd 6e78 cbbc b440 91bc ff85 53bc
00000210: 9b75 71bd 3ea2 8a3c 163a aa3d 5ca7 a33c
00000220: 1236 053e c4e0 583d fbda c6bd 5355 70bc
00000230: c916 71bc 07b4 c0bc 9fc8 893d ffc1 c6bc
00000240: 8b3c 093d abd9 8c3d 13aa 4d3d 598a b3bc
00000250: 7901 493d 1e56 6e3d b3ee a13d 5c9e 933b
00000260: cfe4 0d3d 4495 51bd 0558 babc 65ff 31bd
00000270: 5df0 a43d fb75 bbbd 2849 743c 6817 c0bd
00000280: a630 853c 0424 1e3d 819a 893d d96a ad3c
00000290: f047 0c3d eb81 01bd dfee e13c 6966 463d
000002a0: 5896 993c 700c 303d 657f b8bc ca30 8cbd
000002b0: fae7 43bc 8f64 a03c f49d 963d 72b1 20bd
000002c0: 81f2 80bd f7e2 993d ae6e 79bd 5343 74bd
000002d0: ef7c 7fbd 5125 983d 4967 ab3d e980 e83c
000002e0: 4c1e 9a3d aed5 bb3c 566b c53d f359 743d
000002f0: aa55 0bbd 7ead 79bc 31c2 9f3d ace2 e23d
00000300: bd42 263d 28f5 ec3d 0a3e c63b 6ace 64bb
00000310: 787f 963d b50b 94bd 6cee 773b 9961 e93d
00000320: 292b d83d 7a7d a23d 9e05 9d3b 5d32 f93d
00000330: 0c52 21bd 41e8 40bc 6cb8 c6bc 7ba3 983d
00000340: 6e80 8e3d 9302 9ebb 1df4 27bc e77c a03c
00000350: 1141 25bc b4fc 703d dcc5 ae3c a3cd 57bd
00000360: 4dba 8fbd 8560 c93c 6929 623c 1d9a 0bbd
00000370: 870f 283d 057a 683d 2836 e1bb ebc0 bc3d
00000380: f5e8 e9bc 809e 343c 18d1 98bc a3a5 19bd
00000390: 0908 373d 686d 0bbb 9266 0ebd 7e0e af3b
000003a0: b62e 62bb 3d61 823b 597c a03c 7596 14bc
000003b0: b087 813b edb7 44bd 87a4 47bd 9fac a63d
000003c0: 0ce9 203d 4945 a63d 54a1 3e3d e551 b7bd
000003d0: e5cd 323c 5d84 013d a507 ed3d 9df0 913d
000003e0: e6e5 c4bc 0ec1 783d e9ac 75bb 224c ae3c
000003f0: 6dda 81bd 843b d23d dd59 423c 5908 083c

lstm.weight_hh_l0 f4 [512, 128]
0.017572057 -0.02842064 -0.06346494 0.0692856 -0.030724838 0.09270407 0.02235239 -0.024345348
-0.0931468 0.020240683 -0.053014174 0.01895651 0.055101417 0.051540807 9.8176315e-06 0.09307192
0.008443144 -0.070636265 0.022597114 -0.006822818 0.084191754 0.032677777 0.01896869 -0.030334517
0.054784104 0.03632525 0.004500239 -0.059656456 -0.07271673 -0.07903512 -0.08500382 -0.045307916
-0.050152894 0.08234919 0.018648744 -0.09883562 -0.066250555 -0.010122895 -0.013610652 0.047260113
0.06844836 0.041879848 -0.012407859 -0.016140422 0.10394127 -0.0137721235 -0.043786626 -0.04234919
0.01872536 0.1265041 0.009669958 -0.061946277 0.0020861086 0.050255544 0.028125051 -0.09247006
0.028713584 0.07398294 -0.0028837442 -0.06505322 -0.10428911 -0.011292383 0.0010020707 -0.10496742
0.03610966 0.07339539 -0.07985778 -0.030317575 -0.011799454 -0.04652393 0.0056392136 -0.05083355
-0.0120504815 -0.057157584 0.020051356 0.047936797 0.011805232 0.0010663867 0.08568685 0.010594982
0.005571238 -0.024713079 0.12078305 0.009071287 0.04151734 0.030614568 -0.1071046 -0.05080759
0.113114774 -0.028696863 0.0007602583 0.031735335 0.031219259 0.032236215 -0.051666066 0.04443419
-0.06788394 0.01233242 -0.052780885 -0.0155992145 0.020186659 0.00052722817 0.06337991 0.042144507
-0.008281138 0.054987676 0.04237089 -0.08505141 0.05775013 -0.047552902 0.030461008 0.06632454
-0.074498415 -0.11336405 0.023359273 0.049082577 0.058133274 -0.070831336 -0.0121269645 -0.12852752
0.033879545 -0.048774157 0.0056957114 0.055243585 0.10241297 -0.08130116 -0.035122372 0.11459382
0.038977228 -0.062231436 0.04098669 -0.07574932 -0.02567643 0.0038667505 -0.052983657 -0.047747552
-0.099257104 0.06430286 0.016528143 0.012853331 0.017297635 -0.032171994 0.014739673 0.0053792377
0.058444742 0.021086996 -0.06597837 0.08790796 -0.046277665 0.011295658 0.025222242 0.09894308
0.048306536 -0.013365063 0.0782182 -0.023905123 -0.008538146 -0.07838778 -0.058681406 0.087914415
0.090754725 -0.0067748483 0.06269214 -0.06804327 -0.011216875 -0.003589693 0.017320363 -0.028795538
-0.028698098 -0.028618103 0.06875651 0.032504708 0.07076958 0.024641005 0.002726416 -0.059875544
0.051489037 -0.051077925 0.0115998 -0.09778223 -0.029430047 -0.073259376 -0.06053375 0.090733446
0.027521137 0.0123970825 -0.012436929 0.09688237 0.04433782 -0.0012346302 -0.09261976 -0.0014479819
0.025697341 -0.069201946 -0.038612347 -0.08007125 0.03968175 -0.024965886 -0.016103623 -0.038571518
-0.011171765 -0.013823449 -0.05655674 0.047367685 0.0019824004 -0.08904564 0.03695806 -0.04617381
-0.030986952 -0.027691158 0.04709167 0.04662227 0.012849888 -0.08020693 0.08404855 -0.09849706
-0.07824677 -0.026913531 -0.025089592 -0.057920918 0.069014855 -0.04946491 -0.039212238 0.0030076304
-0.096289776 -0.038719278 -0.043963633 -0.020262005 -0.031797696 -0.088087104 -0.065421715 -0.057172626
0.10478208 0.045305356 -0.095895715 -0.08977143 0.019602707 0.08508685 -0.00010610439 0.062525764
-0.10022957 -0.0748028 0.04475974 0.051685356 0.056333993 -0.07163982 -0.037585523 0.09968678
0.0086931195 0.029628789 -0.039293345 0.06224092 0.10362715 0.05781643 -0.04852065 0.04673401
00000000: 46f3 8f3c 67d2 e8bc e8f9 81bd 9ce5 8d3d
00000010: a8b2 fbbc a2db bd3d 5c1c b73c e56f c7bc
00000020: c0c3 bebd cacf a53c 6425 59bd af4a 9b3c
00000030: 06b2 613d 741c 533d 68b6 2437 7e9c be3d
00000040: 1d55 0a3c bfa9 90bd 951d b93c f291 dfbb
00000050: ba6c ac3d 22d9 053d 3a64 9b3c 1880 f8bc
00000060: 4c65 603d c9c9 143d be76 933b 545a 74bd
00000070: 82ec 94bd 2add a1bd 7c16 aebd cb94 39bd
00000080: 1f6d 4dbd b1a6 a83d 40c5 983c 546a cabd
00000090: 5fae 87bd 80da 25bc 36ff 5ebc d293 413d
000000a0: a72e 8c3d 348a 2b3d 554a 4bbc eb38 84bc
000000b0: 29df d43d 79a4 61bc 9b59 33bd 5876 2dbd
000000c0: ed65 993c 4a8a 013e be6e 1e3c 61bb 7dbd
000000d0: 18b7 083b c2d8 4d3d 8266 e63c f160 bdbd
000000e0: c038 eb3c 5e84 973d 33fd 3cbb 9f3a 85bd
000000f0: 8795 d5bd b003 39bc ea57 833a 29f9 d6bd
00000100: b9e7 133d 5250 963d 7a8c a3bd 905c f8bc
00000110: 7f52 41bc e08f 3ebd 27c9 b83b d736 50bd
00000120: 626f 45bc 121e 6abd be42 a43c 6059 443d
00000130: bb6a 413c 00c6 8b3a 967c af3d 9396 2d3c
00000140: ef8e b63b 1573 cabc 1b5d f73d bc9f 143c
00000150: 160e 2a3d 67cb fa3c a859 dbbd 9f1b 50bd
00000160: b8a8 e73d af15 ebbc 124c 473a e9fc 013d
00000170: 88bf ff3c 1f0a 043d cc9f 53bd a000 363d
00000180: bc06 8bbd eb0d 4a3c c530 58bd d993 7fbc
00000190: 7e5e a53c af35 0a3a 54cd 813d b89f 2c3d
000001a0: 9cad 07bc c23a 613d 198d 2d3d 6f2f aebd
000001b0: 668b 6c3d d5c6 42bd 5d89 f93c 29d5 873d
000001c0: a092 98bd 692b e8bd f25b bf3c d00a 493d
000001d0: 281d 6e3d 0510 91bd 2db0 46bc b89c 03be
000001e0: 47c5 0a3d 69c7 47bd 17a3 ba3b 1947 623d
000001f0: e4bd d13d 3981 a6bd 7adc 0fbd 2ab0 ea3d
00000200: 96a6 1f3d 64e6 7ebd a9e1 273d 7622 9bbd
00000210: 6057 d2bc 4f69 7d3b 6405 59bd f092 43bd
00000220: 4f47 cbbd 38b1 833d 0766 873c c796 523c
00000230: c5b3 8d3c c8c6 03bd ab7e 713c 5144 b03b
00000240: c163 6f3d a3be ac3c ab1f 87bd 1709 b43d
00000250: a68d 3dbd 6c11 393c e09e ce3c aba2 ca3d
00000260: 13dd 453d 23f9 5abc dd30 a03d add4 c3bc
00000270: 94e3 0bbc c689 a0bd ea5b 70bd 790c b43d
00000280: 9ddd b93d 8cff ddbb bd64 803d 455a 8bbd
00000290: fcc6 37bc 0e41 6bbb 6fe3 8d3c 9fe4 ebbc
000002a0: 4618 ebbc 8370 eabc 37d0 8c3d a823 053d
000002b0: a4ef 903d efdb c93c acad 323b 0f40 75bd
000002c0: 2be6 523d 1637 51bd 160d 3e3c 0d42 c8bd
000002d0: 4817 f1bc 0309 96bd 3df2 77bd 75d2 b93d
000002e0: 0274 e13c 221d 4b3c 43c4 4bbc 446a c63d
000002f0: 939b 353d 51d3 a1ba 6eaf bdbd 36ca bdba
00000300: 3b83 d23c c0b9 8dbd fb27 1ebd 65fc a3bd
00000310: 5589 223d 4285 ccbc bfeb 83bc 2bfd 1dbd
00000320: c709 37bc bf7b 62bc 0aa8 67bd 9e04 423d
00000330: 29eb 013b 8f5d b6bd 5661 173d c020 3dbd
00000340: 59d8 fdbc 91d8 e2bc 32e3 403d fef6 3e3d
00000350: 5688 523c 8843 a4bd a521 ac3d d4b8 c9bd
00000360: d83f a0bd c479 dcbc b088 cdbc 7c3e 6dbd
00000370: a957 8d3d b89b 4abd 039d 20bd aa1b 453b
00000380: 9333 c5bd 1b98 1ebd 3613 34bd 81fc a5bc
00000390: 4d3e 02bd 0367 b4bd d2fb 85bd d82d 6abd
000003a0: fd97 d63d 1c92 393d f964 c4bd 15da b7bd
000003b0: db95 a03c 0442 ae3d 5c84 deb8 820d 803d
000003c0: 2945 cdbd 3632 99bd fd55 373d 06b4 533d
000003d0: 79be 663d e6b7 92bd 47f3 19bd 9528 cc3d
000003e0: 966d 0e3c 13b8 f23c 0ff2 20bd 56f0 7e3d
000003f0: 793a d43d ecd0 6c3d 97bd 46bd 296c 3f3d

lstm.bias_ih_l0 f4 [512]
-0.057572227 0.066869244 -0.047089696 0.098342665 0.055153243 0.09508752 -0.048283815 -0.05598677
0.09203332 0.07304685 0.028087508 0.0629685 -0.06263741 0.0022304542 -0.0025961166 -0.026850842
0.012406715 0.06251441 0.10432202 0.10707616 0.017083248 -0.04220585 -0.067578726 0.02802489
0.012270492 0.026293077 -0.017333366 -0.056966066 0.11179627 0.023995051 0.019888256 0.046457123
-0.006269275 0.10443939 0.06650422 0.01324662 -0.004246679 0.057250127 0.04943705 -0.005719194
0.023823354 -0.066444494 0.09479025 -0.019882925 0.032426268 0.0142087545 0.059355818 -0.049138177
0.017205589 0.10371813 0.013722983 -0.024841717 0.040166814 0.09141394 0.07912345 0.11644551
0.101391256 0.12684874 -0.034172628 -0.010379606 -0.03901622 0.035578113 -0.033213355 -0.0076947315
0.045161005 0.08502659 -0.032699127 0.05969392 -0.03508917 0.074784495 -0.00540564 0.09251655
-0.052553512 0.06608781 -0.03286397 -0.018314308 0.020991407 0.076942965 0.077982865 -0.053838238
0.12700817 0.0824214 0.008550973 -0.046051472 0.00022459443 0.091688566 0.11461462 0.017479673
-0.061879136 0.072805226 0.091933385 0.03917721 0.0005661221 0.023620745 0.062760256 0.02373759
0.11337114 0.0036084335 0.028534472 -0.048306476 0.09646614 0.008672304 0.06850078 -0.036951687
0.015758697 0.058071174 0.023443885 -0.009007859 0.08275248 -0.06209673 0.0018937757 0.030651974
0.09611745 -0.04397448 0.10487295 -0.042866677 -0.036423296 -0.0006122795 0.107531704 0.059318576
-0.0014284219 0.06774406 0.010734171 0.03556277 -0.0034779573 0.08167039 0.10164768 0.04596438
0.056868102 -0.019025492 0.0014396026 0.019786334 0.008262889 0.062101487 0.008117841 0.023808576
-0.0617855 -0.029062161 -0.0005586128 0.09093108 0.09860203 0.0045992383 0.061033536 0.07830895
-0.028993614 -0.02644707 -0.028273925 -0.019091073 0.046176847 -0.010077033 -0.007951445 0.07253119
0.09601172 0.110104986 0.074754335 0.08657283 0.041286778 -0.068982065 0.037181377 -0.022607869
-0.040625304 0.09882494 -0.023494843 0.027004998 -0.0572537 -0.011424907 -0.0012759502 0.0360527
-0.021658532 0.016277451 0.10219495 -0.04497501 0.011622474 0.09299106 -0.029882662 0.0350603
-0.009418721 0.08147353 0.0866795 -0.019978955 -0.047170404 0.033071186 -0.01986549 0.0628414
0.08195639 0.090297475 -0.053191107 0.030908547 0.09162462 0.015147348 0.02630956 0.07805751
0.011465601 0.05563014 -0.0032927713 -0.00807203 0.026022436 -0.0046498696 -0.0407775 -0.060337603
-0.012851248 -0.014340621 0.02332021 0.10924659 -0.045069173 0.06246401 0.019399885 0.008506913
0.0969899 -0.028954232 -0.01501202 -0.04986901 -0.06353317 0.055659063 0.108918585 -0.0091800485
-0.028254587 0.051327795 0.1193123 0.050542053 -0.037891626 0.046768777 -0.019421125 0.057066355
-0.058489863 -0.008196089 -0.037094135 -0.03263755 -0.024415307 0.049697127 -0.04082936 0.026441265
0.09244679 -0.0016455434 -0.03241277 0.04301278 0.06412684 0.06752408 0.0891203 0.03305477
-0.02095652 0.061371244 0.0004961654 0.10027992 0.05490931 0.033404566 0.03858348 0.07689389
0.042138338 -0.03683086 -0.053552493 0.075969204 -0.045887392 0.041488223 0.04009169 -0.047424074
00000000: dbd0 6bbd bef2 883d 20e1 40bd e167 c93d
00000010: 5ee8 613d 3fbd c23d 40c5 45bd 6252 65bd
00000020: f77b bc3d 9699 953d c617 e63c a1f5 803d
00000030: 0b48 80bd d02c 123b 9c23 2abb 4cf6 dbbc
00000040: 8945 4b3c 8e07 803d c9a6 d53d bf4a db3d
00000050: 2bf2 8b3c 0be0 2cbd b766 8abd 7494 e53c
00000060: 2c0a 493c 9464 d73c b4fe 8dbc 4055 69bd
00000070: 71f5 e43d 4591 c43c b2ec a23c d349 3e3d
00000080: 7e6e cdbb 52e4 d53d 5d33 883d 5a08 593c
00000090: ba27 8bbb 1c7f 6a3d 817e 4a3d 1468 bbbb
000000a0: 3229 c33c 0d14 88bd 6421 c23d 84e1 a2bc
000000b0: 68d1 043d d6cb 683c 161f 733d 1d45 49bd
000000c0: bcf2 8c3c 2c6a d43d 5dd6 603c db80 cbbc
000000d0: f585 243d 3b37 bb3d 7a0b a23d fc7a ee3d
000000e0: 38a6 cf3d a3e4 013e 99f8 0bbd 390f 2abc
000000f0: 79cf 1fbd 5bba 113d ba0a 08bd 1624 fcbb
00000100: bffa 383d 6c22 ae3d 85ef 05bd 9d81 743d
00000110: a9b9 0fbd 9d28 993d cc21 b1bb 5179 bd3d
00000120: 5a42 57bd 0c59 873d 5f9c 06bd e307 96bc
00000130: 2cf6 ab3c 4694 9d3d 7bb5 9f3d 7c85 5cbd
00000140: 6e0e 023e 8dcc a83d 6119 0c3c 78a0 3cbd
00000150: 1c81 6b39 37c7 bb3d 12bb ea3d 8831 8f3c
00000160: fa74 7dbd e81a 953d 9247 bc3d 4878 203d
00000170: d067 143a 4b80 c13c 7388 803d 5675 c23c
00000180: 212f e83d 787b 6c3b 20c1 e93c 03dd 45bd
00000190: 0a90 c53d 4816 0e3c 234a 8c3d a75a 17bd
000001a0: 6218 813c 0adc 6d3d 640d c03c b395 13bc
000001b0: 227a a93d 2459 7ebd 9138 f83a d919 fb3c
000001c0: 3ad9 c43d 961e 34bd a1c7 d63d f894 2fbd
000001d0: 9830 15bd 6281 20ba 9539 dc3d 09f8 723d
000001e0: e339 bbba 66bd 8a3d 60de 2f3c 44aa 113d
000001f0: 71ee 63bb ce42 a73d a92c d03d 2545 3c3d
00000200: 87ee 683d 59db 9bbc 0cb1 bc3a f316 a23c
00000210: 1261 073c 215e 7e3d b100 053c 340a c33c
00000220: cb12 7dbd c513 eebc df6f 12ba 133a ba3d
00000230: dcef c93d 35b5 963b 4dfe 793d 7160 a03d
00000240: 0484 edbc 87a7 d8bc b89e e7bc e264 9cbc
00000250: ef23 3d3d 241a 25bc c746 02bc 3c8b 943d
00000260: cba1 c43d b97e e13d cd18 993d 194d b13d
00000270: 531c 293d 7846 8dbd 804b 183d 2334 b9bc
00000280: b866 26bd bb64 ca3d 4278 c0bc 9639 dd3c
00000290: db82 6abd 882f 3bbc c93d a7ba ffab 133d
000002a0: 3c6d b1bc 4a58 853c 964b d13d b737 38bd
000002b0: 306c 3e3c 1972 be3d 7ccc f4bc 649b 0f3d
000002c0: fb50 1abc 98db a63d 0685 b13d e8aa a3bc
000002d0: c135 41bd a775 073d f4bc a2bc feb2 803d
000002e0: c0d8 a73d e2ed b83d ebde 59bd ec33 fd3c
000002f0: b0a5 bb3d 952c 783c 2587 d73c 9edc 9f3d
00000300: 37da 3b3c 6edc 633d 89cb 57bb 8c40 04bc
00000310: 012d d53c ef5d 98bb 4f06 27bd 9024 77bd
00000320: 0a8e 52bc edf4 6abc 060a bf3c adbc df3d
00000330: 749a 38bd 43da 7f3d 82ec 9e3c 9460 0b3c
00000340: a4a2 c63d 6d31 edbc faf4 75bc 7243 4cbd
00000350: ae1d 82bd c2fa 633d b510 df3d ea67 16bc
00000360: 2a76 e7bc 183d 523d 025a f43d 2f05 4f3d
00000370: 4034 1bbd 9e90 3f3d 0d19 9fbc 69be 693d
00000380: 1193 6fbd e448 06bc 05f0 17bd f4ae 05bd
00000390: 9c02 c8bc 378f 4b3d b03c 27bd 5a9b d83c
000003a0: be54 bd3d 46af d7ba 41c3 04bd 2b2e 303d
000003b0: ef54 833d 114a 8a3d b484 b63d 7064 073d
000003c0: 02ad abbc 6a60 7b3d 1911 023a 8f5f cd3d
000003d0: 96e8 603d 3ad3 083d b609 1e3d 8b7a 9d3d
000003e0: 4099 2c3d f5db 16bd dc59 5bbd be95 9b3d
000003f0: 6bf4 3bbd 8eef 293d 2f37 243d bf3f 42bd

lstm.bias_hh_l0 f4 [512]
-0.043077134 -0.029721888 0.0914705 0.04608412 0.019668153 0.052237462 0.032225095 0.09161001
0.062050845 0.017128704 0.023683509 -0.049381837 0.0067525227 -0.03675866 0.026506169 0.023920458
0.0380582 0.024719281 0.03553856 -0.040831093 0.023137528 0.053036887 0.03848279 0.035729058
-0.016333658 0.11567126 0.08852957 -0.038358722 0.107656345 -0.03762788 0.061565187 -0.047584943
-0.024780417 -0.006859439 -0.02871198 0.050860237 0.07562301 -0.05143148 -0.014649362 0.08769526
0.08932088 -0.028497921 0.13030995 0.11022873 0.017474877 -0.00057455973 0.0885944 0.048099305
-0.017315147 -0.026311282 -0.003880049 0.030181313 0.09788541 -0.019142788 0.08681197 0.048109256
-0.011001608 0.12214633 0.050499324 0.0055738557 0.08953833 -0.026074663 0.1023563 0.100869074
-0.017646458 -0.046240825 0.10930968 0.029325726 0.08978615 0.053372953 0.09411313 0.03747865
-0.06516758 0.07021168 -0.044897493 0.02905093 0.088077575 0.032267623 -0.0037385111 0.036847576
-0.026444774 -0.046074577 0.06606987 -0.048589543 -0.045348544 -0.06885665 0.01573309 0.004313729
0.08208767 0.036794085 -0.016518127 -0.042393684 0.057722732 0.04890672 0.040540602 -0.064475074
-0.020286622 0.07431702 -0.0377402 0.027766043 0.057846803 -0.015112213 0.09406354 0.041840132
-0.0018704969 0.10035984 0.0067784865 0.05273996 -0.0343382 -0.06816825 0.025317427 0.047819506
-0.009019806 0.09068286 -0.0051212152 0.00028983998 -0.047079332 -0.060113907 0.04919288 -0.02316714
0.06594759 -0.06134609 0.046442207 0.0525228 0.063695826 0.031738255 -0.019975504 -0.046655063
0.055417847 -0.058531757 0.09366022 0.028994463 0.07546409 0.004694718 0.06904162 -0.06775421
0.01630507 0.033431675 -0.024850992 -0.016459718 0.054395825 -0.041284557 -0.032387633 0.014303068
0.03989345 0.11728822 -0.01575637 0.04368564 0.0044185333 -0.047545202 -0.04425108 -0.023652647
0.032362193 0.124287315 0.07776862 -0.023313764 -0.046945117 0.07278389 -0.03364592 -0.03903506
0.052242897 0.038610797 0.07198917 0.03266386 -0.019662764 0.016724423 0.0771168 0.12487089
-0.016421393 0.06254521 0.012908978 0.10135223 -0.024994247 -0.043693002 0.0128909685 0.0449702
-0.019177295 -0.06364298 0.05148292 -0.036994036 -0.019120393 0.006477718 0.056949954 -0.020866321
0.09164353 0.11229449 0.03888028 -0.06963736 0.022374399 -0.05812853 0.060126137 -0.042662382
0.04068603 0.06060566 0.083533004 0.011958337 0.028968137 -0.023213113 0.017075537 0.06934377
0.06971451 -0.06444786 -0.050984353 0.09847697 0.021104174 0.042768974 0.016531732 -0.02574605
0.10802386 0.046981256 -0.020311022 0.10487423 0.040061682 -0.014080548 0.049847722 0.07869925
0.011936407 0.073348306 0.10178313 -0.033298373 0.08300031 -0.010406233 -0.013935101 -0.05050763
0.052572567 0.04436522 -0.024704413 -0.054556973 -0.030849392 0.10345915 0.022117063 0.084228545
-0.0016760805 0.11863128 0.079418994 0.062216025 -0.03741577 -0.013939335 -0.041679308 0.034972496
-0.0033478113 0.09660704 -0.05460587 -0.015900766 0.08907761 -0.025097158 0.050019395 0.08089528
-0.0678947 0.023281032 -0.05477426 0.09249433 0.010448886 0.058607485 -0.027056444 0.04183527
00000000: a671 30bd 517b f3bc e354 bb3d b4c2 3c3d
00000010: 1b1f a13c f3f6 553d 76fe 033d 079e bb3d
00000020: 0729 7e3d 7f51 8c3c eb03 c23c 9c44 4abd
00000030: 4444 dd3b 4090 16bd 7723 d93c d6f4 c33c
00000040: eae2 1b3d 1780 ca3c e290 113d 813e 27bd
00000050: ea8a bd3c 353d 593d 21a0 1d3d a258 123d
00000060: 2ace 85bc 0ee5 ec3d fe4e b53d 091e 1dbd
00000070: ee7a dc3d b11f 1abd c72b 7c3d 6ee8 42bd
00000080: 4d00 cbbc 25c5 e0bb 6335 ebbc d352 503d
00000090: 3de0 9a3d d1a9 52bd e103 70bc 9399 b33d
000000a0: deed b63d 7974 e9bc f96f 053e 9abf e13d
000000b0: 7927 8f3c 0d9e 16ba fb70 b53d c703 453d
000000c0: 7fd8 8dbc c28a d7bc 6c48 7ebb cd3e f73c
000000d0: 2578 c83d 56d1 9cbc 79ca b13d 360e 453d
000000e0: 1740 34bc db27 fa3d 61d8 4e3d e4a4 b63b
000000f0: df5f b73d 889a d5bc 2ea0 d13d 7294 ce3d
00000100: 4e8f 90bc 0567 3dbd c1dd df3d 813c f03c
00000110: cde1 b73d 999d 5a3d 62be c03d 3783 193d
00000120: 9576 85bd 24cb 8f3d 6fe6 37bd 37fc ed3c
00000130: 0462 b43d 0e2b 043d cf01 75bb 7ced 163d
00000140: b6a2 d8bc b2b8 3cbd a44f 873d d405 47bd
00000150: 65bf 39bd b704 8dbd aee2 803c 2e5a 8d3b
00000160: 951d a83d 65b5 163d 0651 87bc 00a5 2dbd
00000170: ac6e 6c3d 6a52 483d e70d 263d 820b 84bd
00000180: 2130 a6bc 8633 983d 7895 1abd 9d75 e33c
00000190: c5f0 6c3d 3799 77bc 63a4 c03d 8f60 2b3d
000001a0: 762b f5ba 7689 cd3d 111e de3b db05 583d
000001b0: 36a6 0cbd cc9b 8bbd 7e66 cf3c 63de 433d
000001c0: cfc7 13bc efb7 b93d decf a7bb aaf5 9739
000001d0: 42d6 40bd 003a 76bd 797e 493d 04c9 bdbc
000001e0: 880f 873d 0a46 7bbd 2f3a 3e3d 2622 573d
000001f0: f572 823d f9ff 013d aba3 a3bc 6119 3fbd
00000200: d3fd 623d ffbe 6fbd eed0 bf3d cc85 ed3c
00000210: eb8c 9a3d 26d6 993b b165 8d3d b8c2 8abd
00000220: 3692 853c a7ef 083d 4f94 cbbc 88d6 86bc
00000230: 28ce 5e3d ff19 29bd e5a8 04bd 6a57 6a3c
00000240: 5067 233d ce34 f03d 8113 81bc b7ef 323d
00000250: 58c9 903b c2be 42bd 9f40 35bd 32c3 c1bc
00000260: 388e 043d 598a fe3d 2745 9f3d 82fc bebc
00000270: 8649 40bd b80f 953d 4ed0 09bd 3ae3 1fbd
00000280: a6fc 553d 5b26 1e3d 0f6f 933d 8aca 053d
00000290: ce13 a1bc a801 893c 6aef 9d3d 4fbc ff3d
000002a0: 2886 86bc b417 803d 2e80 533c c291 cf3d
000002b0: bcc0 ccbc 6ff7 32bd a434 533c ac32 383d
000002c0: b419 9dbc 4057 82bd c1df 523d 0f87 17bd
000002d0: 5fa2 9cbc 0943 d43b 5b44 693d d9ef aabc
000002e0: 9aaf bb3d a7fa e53d ee40 1f3d 089e 8ebd
000002f0: 844a b73c 2e18 6ebd d346 763d c0be 2ebd
00000300: 65a6 263d a43d 783d 5a13 ab3d e7ec 433c
00000310: 964e ed3c 6d29 bebc ffe1 8b3c 1b04 8e3d
00000320: 7bc6 8e3d 3dfd 83bd f8d4 50bd 4bae c93d
00000330: a9e2 ac3c 852e 2f3d 8e6d 873c 61e9 d2bc
00000340: 9d3b dd3d 6b6f 403d 4d63 a6bc 4dc8 d63d
00000350: b817 243d 19b2 66bc 202d 4c3d 132d a13d
00000360: eb90 433c a337 963d ac73 d03d e063 08bd
00000370: 11fc a93d e87e 2abc 0d50 64bc 17e1 4ebd
00000380: 5556 573d 4eb8 353d e960 cabc 2277 5fbd
00000390: ddb7 fcbc 64e2 d33d d82e b53c 0480 ac3d
000003a0: eeaf dbba f5f4 f23d 6da6 a23d 3bd6 7e3d
000003b0: 4741 19bd cf61 64bc ecb7 2abd 523f 0f3d
000003c0: f466 5bbb e9d9 c53d 68aa 5fbd 5342 82bc
000003d0: 526e b63d 8e98 cdbc 23e1 4c3d 6dac a53d
000003e0: 600c 8bbd ddb7 be3c f95a 60bd ab6d bd3d
000003f0: ce31 2b3c 670e 703d 7aa5 ddbc 765b 2b3d

lstm.weight_ih_l1 f4 [512, 128]
0.063041925 0.053869277 0.018690167 0.03972248 0.042569317 0.024184475 -0.067435995 -0.023949327
-0.022808785 -0.03418284 -0.05028109 -0.018534437 -0.07499189 0.0985462 -0.012253028 -0.078856796
-0.07058324 -0.033179745 0.014952677 -0.017174687 -0.09860081 -0.039086048 -0.07780337 -0.016394876
0.047187485 0.10002244 0.084058 -0.06607907 -0.101849146 -0.10054711 -0.015789285 0.09510734
0.04167993 0.06522159 -0.048345696 0.0567861 0.078449965 -0.06241185 0.040385388 0.06657791
0.0414636 -0.00030018663 0.034167405 -0.040286466 0.07356483 0.092024654 -0.056658693 0.00017594427
-0.003653942 0.00603641 0.013352772 -0.060303766 -0.045757502 0.00343106 0.019621167 0.0612331
-0.017387342 -0.087321185 -0.02229999 0.07919316 -0.1040329 -0.10463166 0.044354238 -0.027744833
0.045797594 0.0064419205 0.060602892 -0.036145203 0.017046288 0.04608779 -0.1154306 0.0450802
0.08138594 0.017398695 0.10553623 -0.03764215 -0.10776391 -0.06345728 0.080985054 -0.019735975
-0.09368584 -0.021769695 0.06358652 0.046196014 0.017439209 -0.047328338 -0.037338782 0.059114996
-0.040207006 -0.013393297 -0.039406944 0.053830426 0.09275157 -0.04911472 0.032188386 -0.07901534
0.032919325 0.051601004 0.12076058 0.06631483 0.028267698 -0.022793975 0.08886708 -0.09447748
0.07718439 0.11073557 0.03636059 -0.07807767 0.002656534 0.017272452 -0.05780537 -0.04058904
-0.0021246034 -0.0796231 -0.090453364 0.07132689 0.08990684 0.029269971 0.028646471 0.043506302
-0.10617518 0.0388841 0.017876562 0.059716962 0.01075014 -0.10072932 -0.017219065 -0.053729545
-0.013005804 0.0065940525 0.11891195 0.060470745 0.05568281 -0.07394042 -0.039798792 -0.042588916
-0.1010769 -0.05518558 -0.064125486 0.10465918 0.06462483 -0.021176517 -0.04581177 0.122218505
0.036116533 0.05900193 -0.02481778 0.06275619 -0.047166 -0.061912663 -0.045689758 0.047729306
0.09677882 0.103085086 0.09665977 -0.013506552 0.03726317 -0.006878302 -0.04906618 0.028263565
0.037883 0.012534235 0.033632647 -0.025554828 0.06645578 -0.051142655 0.019793663 0.056586906
0.042495105 -0.017169407 0.0038752726 0.011801051 -0.0017171011 0.09205347 -0.03253539 -0.06888346
0.09806003 0.111284494 -0.017032692 -0.10233757 -0.020978503 -0.038951416 -0.09131077 -0.05874491
-0.017565927 0.07492605 -0.13903975 -0.08160903 -0.03554887 -0.125727 -0.07335604 -0.09144764
-0.09057541 -0.031125624 0.003835377 -0.11160898 -0.046796203 -0.0016975262 -0.105319485 -0.07829591
-0.033065833 0.032706585 -0.05124824 -0.06812021 0.009093669 0.023548152 0.09030006 -0.062389642
0.06576097 -0.065015174 0.038634375 0.0436541 -0.08130443 0.047437575 -0.06262671 0.012444204
-0.022783743 0.027513243 -0.009168206 -0.05411323 0.030167298 -0.020811021 0.04051847 0.04757079
0.02071808 0.077126086 -0.064045735 -0.0779472 -0.056514915 -0.011691149 0.030213626 0.06372573
0.07331516 0.11548942 0.052205764 -0.1182427 0.02837284 0.022907874 -0.055614162 -0.0030134588
-0.019912861 -0.043843318 -0.095449805 -0.0045331297 0.042011693 -0.030778432 0.061889794 0.025102053
0.030324018 -0.03880199 -0.07839497 0.08160906 0.12372304 -0.03031914 -0.057317723 0.09909513
00000000: 201c 813d 08a6 5c3d 1f1c 993c 0ab4 223d
00000010: 2a5d 2e3d 851e c63c e21b 8abd 6131 c4bc
00000020: 7dd9 babc 4e03 0cbd 8bf3 4dbd 88d5 97bc
00000030: 5995 99bd 97d2 c93d edc0 48bc ac7f a1bd
00000040: f28d 90bd 7ce7 07bd 13fc 743c eeb1 8cbc
00000050: 39ef c9bd b118 20bd 6057 9fbd 8c4e 86bc
00000060: aa47 413d 91d8 cc3d 9a26 ac3d 7754 87bd
00000070: 4996 d0bd a5eb cdbd 8858 81bc a3c7 c23d
00000080: 93b8 2a3d e692 853d 2306 46bd 8b98 683d
00000090: 60aa a03d 91a3 7fbd 266b 253d 005a 883d
000000a0: bcd5 293d 5e62 9db9 1ff3 0b3d 6c03 25bd
000000b0: 28a9 963d 6c77 bc3d f212 68bd ae7d 3839
000000c0: f976 6fbb 14cd c53b 96c5 5a3c 1501 77bd
000000d0: 386c 3bbd a2db 603b 92bc a03c 8fcf 7a3d
000000e0: e66f 8ebc 73d5 b2bd 78ae b6bc 0630 a23d
000000f0: 330f d5bd 2049 d6bd caac 353d 2249 e3bc
00000100: 4296 3b3d bf16 d33b bd3a 783d fe0c 14bd
00000110: a8a4 8b3c 8dc6 3c3d e166 ecbd 04a6 383d
00000120: acad a63d b587 8e3c 6123 d83d a82e 1abd
00000130: 53b3 dcbd e4f5 81bd 7edb a53d 57ad a1bc
00000140: 5dde bfbd 5c56 b2bc a639 823d 0838 3d3d
00000150: acdc 8e3c 5cdb 41bd 8df0 18bd 9122 723d
00000160: 1ab0 24bd 8f6f 5bbc 2d69 21bd 4b7d 5c3d
00000170: 89f4 bd3d 842c 49bd f8d7 033d cbd2 a1bd
00000180: 6ad6 063d 935b 533d 5351 f73d 12d0 873d
00000190: a991 e73c 6eba babc f2ff b53d 697d c1bd
000001a0: d912 9e3d 55c9 e23d d8ee 143d 2fe7 9fbd
000001b0: 3f19 2e3b f57e 8d3c 53c5 6cbd b140 26bd
000001c0: ee3c 0bbb 7011 a3bd 9d3f b9bd d513 923d
000001d0: 1421 b83d 94c7 ef3c 01ac ea3c aa33 323d
000001e0: 5f72 d9bd ef44 1f3d de71 923c c699 743d
000001f0: 5b21 303c 2c4b cebd ff0e 8dbc 8313 5cbd
00000200: 4c16 55bc ec12 d83b 1c88 f33d 2cb0 773d
00000210: a813 643d 136e 97bd 0f04 23bd b771 2ebd
00000220: 6801 cfbd 460a 62bd 3954 83bd 8d57 d63d
00000230: 065a 843d 607a adbc 1fa5 3bbd b24d fa3d
00000240: eeee 133d 02ac 713d a84e cbbc 5186 803d
00000250: 2331 41bd 2298 7dbd 2f25 3bbd ce7f 433d
00000260: f933 c63d 461e d33d 8ff5 c53d 964a 5dbc
00000270: 44a1 183d 6163 e1bb 9ef9 48bd fe88 e73c
00000280: 342b 1b3d 645c 4d3c 63c2 093d 5c58 d1bc
00000290: f819 883d f67a 51bd 5226 a23c acc7 673d
000002a0: 590f 2e3d dba6 8cbc 49f8 7d3b 3259 413c
000002b0: 5a10 e1ba 8886 bc3d d443 05bd c512 8dbd
000002c0: b2d3 c83d 20e9 e33d 2588 8bbc 5c96 d1bd
000002d0: 1cdb abbc 858b 1fbd 2401 bbbd 819e 70bd
000002e0: 6be6 8fbc d472 993d 7060 0ebe a322 a7bd
000002f0: b19b 11bd 94be 00be b13b 96bd e648 bbbd
00000300: 9a7f b9bd 2afb febc f35a 7b3b 4093 e4bd
00000310: 60ad 3fbd 877f deba beb1 d7bd 9b59 a0bd
00000320: 0a70 07bd 57f7 053d ade9 51bd 9c82 8bbd
00000330: 9dfd 143c 0ee8 c03c 3def b83d 488c 7fbd
00000340: b0ad 863d ad26 85bd 143f 1e3d a4ce 323d
00000350: f082 a6bd e74d 423d 6f42 80bd c6e2 4b3c
00000360: f9a4 babc 7463 e13c 3e36 16bc d6a5 5dbd
00000370: 6921 f73c e07b aabc b2f6 253d 97d9 423d
00000380: f7b8 a93c 48f4 9d3d 692a 83bd c8a2 9fbd
00000390: 2f7c 67bd 3c8c 3fbc 9182 f73c a382 823d
000003a0: 4226 963d b885 ec3d b6d5 553d 3b29 f2bd
000003b0: 286e e83c 4ba9 bb3c adcb 63bd 737d 45bb
000003c0: 4c20 a3bc 0d95 33bd 307b c3bd a68a 94bb
000003d0: 7414 2c3d 0d23 fcbc 2780 7d3d d2a2 cd3c
000003e0: 136a f83c d6ee 1ebd 8b8d a0bd a722 a73d
000003f0: 8162 fd3d d85f f8bc fdc5 6abd 63f2 ca3d
