models/cnn_lstm_model.pth (torch, 992486 bytes, 15 tensors)

cnn.0.weight f4 [32, 7, 3]
0.15542924 -0.18592806 -0.02640408 -0.1441497 0.07658683 -0.15034078 0.1607074 -0.042227704
-0.08376129 -0.12998912 0.12287332 0.11075397 0.1297067 -0.011856138 -0.23669605 -0.03580656
-0.08893817 -0.26110277 0.16464466 -0.20488536 0.1325702 0.022036538 -0.051679756 -0.058233075
0.00085261 0.013593102 0.115203455 0.047650006 0.20578974 0.19216426 0.0121100275 0.029055605
-0.046357624 0.08804977 -0.21698931 -0.24211517 -0.13269645 -0.18253165 -0.010245275 -0.056265708
-0.17111343 0.13861823 0.13142945 0.12407353 -0.16553542 -0.074475 -0.13499916 0.15402476
-0.19899444 -0.053878948 0.16551994 0.1245067 0.123567805 0.07821504 -0.24309978 -0.22099294
-0.27843502 -0.036851656 -0.0067976075 0.11616497 -0.20296222 -0.16602066 0.015756795 -0.15341938
0.15092759 0.059635602 -0.03728762 -0.11322658 0.13755828 -0.15032782 0.1496865 0.083504975
-0.11126026 -0.11219653 0.11356409 -0.1378524 -0.06627664 -0.124864295 0.15854517 0.07628099
0.07094674 -0.13422678 0.0070357006 -0.071523786 -0.09621573 -0.087646045 -0.03038854 0.033781886
0.05526164 -0.196738 0.02407289 0.083110824 0.0013625093 0.0065257354 -0.18631108 -0.17567019
-0.099827014 0.21344952 0.06607458 0.03252141 -0.07033213 -0.061726604 0.19395053 0.028002582
0.01612423 0.076185636 0.065324105 -0.09149284 -0.12697135 -0.2071118 0.15090707 -0.040205933
-0.025494106 0.07710883 -0.20689525 0.048514035 -0.0794725 -0.13755882 -0.21521133 0.13005073
0.054018095 0.08265431 0.077518135 0.105223 0.22734484 0.10694301 0.072743915 0.16729678
0.08382777 0.14384252 0.023976492 -0.066926405 -0.000619287 -0.043167036 0.19512591 0.14277995
-0.012055206 0.1902728 -0.19128978 -0.064949825 -0.09596836 0.19654423 -0.1542912 -0.05920069
0.054441776 -0.18877433 0.21227132 -0.22453457 -0.11977897 -0.111466676 0.025497753 -0.22479518
-0.1505673 -0.18768221 -0.081218176 0.036786616 -0.22047286 -0.12339565 -0.04389062 0.08949426
0.21815468 -0.008146632 0.22105765 -0.0223525 -0.13492148 -0.099440865 0.21908396 -0.06163076
-0.21506706 -0.22207393 -0.18974277 0.040568057 -0.0096416725 0.040365268 0.008983383 -0.2125637
-0.022782711 -0.15614705 -0.00037000774 -0.07145964 -0.10863429 0.0667604 0.074290805 -0.08039563
0.02464711 0.09552904 0.15222754 -0.19497287 -0.112641975 -0.031930264 -0.13217533 0.115280814
0.0710049 0.1237187 -0.19880405 0.03581342 0.033224482 0.04256019 0.14792116 0.20657426
-0.18143131 -0.0798122 -0.023785438 0.17339061 0.059182495 0.10679001 -0.08262352 0.27886242
0.28110957 -0.15860343 0.24144945 0.055618245 -0.09395792 0.21633767 -0.1554516 -0.16982587
0.20594761 -0.04950757 -0.04744695 -0.057306085 -0.03892362 -0.05267338 0.007030111 0.246637
0.2107257 0.006727188 -0.20410267 -0.11427166 0.20164758 0.2123837 0.053021032 -0.16787893
0.114956535 0.016855335 -0.09420835 -0.095662676 0.092437334 0.1291898 0.13592137 -0.083648644
0.017407265 0.14785405 0.049830534 0.17536424 -0.12629192 0.008468847 0.016215745 -0.004973126
0.11115836 0.18514358 0.16221365 -0.014884584 -0.03355032 -0.1061969 0.19291878 0.10964585
00000000: d828 1f3e ed63 3ebe 5f4d d8bc fb9b 13be
00000010: 8ed9 9c3d eff2 19be 7b90 243e f5f6 2cbd
00000020: 0a8b abbd de1b 05be 02a5 fb3d fad2 e23d
00000030: d5d1 043e 3f40 42bc 7360 72be e6a9 12bd
00000040: 3725 b6bd 43af 85be 9c98 283e 78cd 51be
00000050: 7cc0 073e f885 b43c 27ae 53bd ce85 6ebd
00000060: b081 5f3a 9ab5 5e3c caef eb3d a72c 433d
00000070: 8cba 523e b5c6 443e 2369 463c 0506 ee3c
00000080: 7ee1 3dbd 7053 b43d 7232 5ebe 0aed 77be
00000090: 94e1 07be 94e9 3abe ccdb 27bc df76 66bd
000000a0: 5c38 2fbe f0f1 0d3e 7195 063e 431a fe3d
000000b0: 1e82 29be 5986 98bd 383d 0abe abb8 1d3e
000000c0: 33c5 4bbe 2cb0 5cbd 0f7e 293e 5efd fe3d
000000d0: 1e11 fd3d 352f a03d 26ef 78be f94b 62be
000000e0: 098f 8ebe c3f1 16bd 77be debb e6e7 ed3d
000000f0: 54d5 4fbe 5201 2abe 6514 813c f819 1dbe
00000100: c38c 1a3e 7644 743d e7ba 18bd 56e3 e7bd
00000110: 14dc 0c3e 89ef 19be 6b47 193e a804 ab3d
00000120: 6bdc e3bd 4bc7 e5bd 4a94 e83d 2e29 0dbe
00000130: 0cbc 87bd dab8 ffbd aa59 223e 3539 9c3d
00000140: 864c 913d bf72 09be bc8b e63b 107b 92bd
00000150: c10c c5bd c57f b3bd 63f1 f8bc e05e 0a3d
00000160: 085a 623d b075 49be 8234 c53c 0236 aa3d
00000170: 3a96 b23a d6d5 d53b 55c8 3ebe e3e2 33be
00000180: 1b72 ccbd 8392 5a3e 1c52 873d 2c35 053d
00000190: 4b0a 90bd 09d5 7cbd f89a 463e ac65 e53c
000001a0: f616 843c 3707 9c3d a5c8 853d 9960 bbbd
000001b0: c704 02be 1e15 54be 6287 1a3e faae 24bd
000001c0: 04d9 d0bc 3ceb 9d3d 59dc 53be a7b6 463d
000001d0: 7ac2 a2bd 38dc 0cbe 5c60 5cbe 052c 053e
000001e0: 1442 5d3d aa46 a93d d4c1 9e3d 287f d73d
000001f0: 16cd 683e f004 db3d c3fa 943d d94f 2b3e
00000200: e5ad ab3d 744b 133e 596a c43c b610 89bd
00000210: a657 22ba ebcf 30bd 16cf 473e e834 123e
00000220: 3383 45bc dfd6 423e 78e1 43be 6a04 85bd
00000230: 0f8b c4bd e442 493e 83fe 1dbe 6c7c 72bd
00000240: 57fe 5e3d 0f4e 41be a75d 593e 64ec 65be
00000250: ad4e f5bd a448 e4bd aae0 d03c b530 66be
00000260: 502e 1abe c42f 40be b755 a6bd 90ad 163d
00000270: a3c3 61be dcb6 fcbd a7c6 33bd c448 b73d
00000280: f163 5f3e 7479 05bc f05c 623e 971c b7bc
00000290: db28 0abe a7a7 cbbd 8c57 603e 8970 7cbd
000002a0: 8a3a 5cbe 5967 63be ee4b 42be b12a 263d
000002b0: 1bf8 1dbc 0d56 253d 0a2f 133c 4caa 59be
000002c0: cfa2 babc 03e5 1fbe 99fd c1b9 6f59 92bd
000002d0: a87b debd adb9 883d c725 983d 77a6 a4bd
000002e0: bce8 c93c bba4 c33d 89e1 1b3e f8a6 47be
000002f0: d6b0 e6bd 4fc9 02bd f858 07be 5918 ec3d
00000300: 046b 913d 3b60 fd3d 4a93 4bbe 18b1 123d
00000310: 6516 083d 9853 2e3d a578 173e 3488 533e
00000320: 21c9 39be 9474 a3bd aed9 c2bc 4f8d 313e
00000330: 5869 723d b9b4 da3d 8536 a9bd 0ec7 8e3e
00000340: 98ed 8f3e f068 22be 863e 773e f5cf 633d
00000350: 036d c0bd 9f87 5d3e b42e 1fbe d5e6 2dbe
00000360: eee3 523e 73c8 4abd bc57 42bd c9b9 6abd
00000370: 606e 1fbd 0bc0 57bd d85c e63b 698e 7c3e
00000380: 7ac8 573e be6f dc3b 4a00 51be 4307 eabd
00000390: b47c 4e3e 1d7b 593e 952c 593d 74e8 2bbe
000003a0: 556e eb3d 3314 8a3c 4ff0 c0bd cbea c3bd
000003b0: c94f bd3d 554a 043e f92e 0b3e fb4f abbd
000003c0: ae99 8e3c 0d67 173e 1a1b 4c3d af92 333e
000003d0: ab52 01be ebc0 0a3c e2d6 843c 9bf5 a2bb
000003e0: ffa6 e33d 4796 3d3e 561b 263e 78de 73bc
000003f0: 0f6c 09bd c37d d9bd 808c 453e 018e e03d

cnn.0.bias f4 [32]
0.024524895 0.0029891378 0.08930938 0.11393569 0.04443845 0.18961772 -0.12263641 0.014835639
-0.15805177 -0.066544905 -0.15457454 -0.13284533 -0.07954631 0.13374867 0.20663644 -0.049006265
0.029461686 0.11644481 0.10757499 0.16586775 -0.14178707 0.19552206 0.08185236 -0.20927414
-0.1923817 -0.15650417 0.18809831 0.051467676 0.015760344 -0.16310969 -0.19827148 -0.069640234
00000000: 6fe8 c83c 69e5 433b d6e7 b63d 1d57 e93d
00000010: 1805 363d 262b 423e cc28 fbbd 2e11 733c
00000020: 53d8 21be b248 88bd ca48 1ebe 9b08 08be
00000030: 2de9 a2bd 69f5 083e 8198 533e cbba 48bd
00000040: a259 f13c 9e7a ee3d 4750 dc3d 3cd9 293e
00000050: a130 11be ef36 483e 36a2 a73d f64b 56be
00000060: b5ff 44be a142 20be d89c 403e c5cf 523d
00000070: d61b 813c 3a06 27be ae07 4bbe 8a9f 8ebd

cnn.3.weight f4 [64, 32, 3]
0.068940006 -0.056541648 0.019888321 0.05816095 -0.027342904 -0.051763576 -0.037201602 0.053967025
-0.09426324 -0.03652693 -0.080557644 0.055558726 -0.046768717 -0.043939795 -0.082900435 -0.034507852
-0.0063395174 0.063440606 0.024572195 0.100184396 0.030307468 -0.098528646 0.0959769 0.022638336
0.09386697 -0.061318085 0.100075945 -0.037726536 -0.012349553 -0.025363356 -0.049145672 -0.031212648
-0.003247719 -0.008819869 -0.028051296 0.014681033 -0.04091691 -0.09212852 0.073619135 0.09669094
0.09243094 0.10670271 0.006177704 -0.06179352 -0.021464387 -0.049235627 -0.07778428 0.0885133
0.0986626 0.07365379 -0.054357927 -0.07767756 0.022724286 0.029652165 -0.05385139 0.09445427
-0.030053362 0.0037537545 -0.08682461 0.029542826 -0.005814506 0.08363223 -0.0017214372 0.05654471
0.0829891 0.08750267 -0.093802564 0.050283268 -0.007825391 0.04721793 0.11015602 0.06123165
0.05865517 0.051556665 0.021074438 0.08101205 -0.037788045 0.030216647 -0.04424387 0.0008299445
-0.008032074 -0.05768894 -0.06137742 0.019404145 0.02685227 0.0061252164 0.011772154 0.013121529
-0.037849993 0.012701604 -0.051829316 -0.07838684 -0.036218144 0.111893326 0.11350303 0.08311889
0.05940958 -0.056908194 -0.0040607504 0.026506957 -0.114763744 -0.116844594 -0.0017620667 0.08417165
0.044477023 -0.014488734 0.10700357 0.11383381 -0.04099114 -0.07328411 0.00763994 0.11669406
0.050090764 0.0707473 -0.11532657 -0.018414732 0.016139558 -0.076436654 0.03620093 -0.0047309515
-0.053162485 0.059727225 0.020076845 0.0600831 -0.031479772 -0.06473932 0.0055626123 0.090720855
-0.08634753 -0.045834627 -0.061143965 -0.03000598 0.022539115 0.086923644 0.049520932 0.1357191
0.096548624 0.015425522 -0.012892373 -0.046902943 -0.05010544 0.11180442 0.10076083 -0.023574743
-0.08679243 -0.11451756 0.03236016 0.13321017 -0.025681144 0.13169844 0.047823012 -0.1501527
-0.15789174 0.02088504 0.0841275 -0.033587713 -0.04243118 -0.05803866 -0.021714048 0.057111282
-0.106655955 -0.019748785 0.013111053 -0.046263274 -0.07955365 -0.10116294 -0.08100408 -0.092555046
0.025550855 -0.11532574 0.07014028 0.025658116 -0.0019814917 0.0017601269 -0.079610944 -0.019608213
-0.054886684 0.0718393 -0.039363932 0.03117676 0.068180054 0.11262018 -0.06468476 -0.09169758
0.004967859 -0.09946204 0.07395054 0.083836496 -0.0145702455 0.09742354 -0.053522117 0.08063081
-0.005985551 0.086876646 -0.03894446 0.046689373 0.056988236 0.0799829 -0.12412131 0.005030719
-0.0526329 0.018866753 0.093594186 0.0081734415 0.10285686 -0.041605633 0.0020581281 0.105226114
0.04214717 -0.08428991 -0.09054643 -0.15120488 -0.015082493 -0.046137482 -0.026886364 -0.08396428
-0.0030052792 0.021529999 0.049300354 0.053422146 0.06083357 -0.015438399 0.082325585 0.024535783
0.018880853 -0.0009316527 0.004841617 -0.035193264 0.014785973 -0.10786991 -0.016331816 -0.067956366
-0.07896768 -0.050920866 0.08027839 -0.04560868 -0.0698587 -0.014084901 0.07924342 -0.0227883
0.045380324 0.095987245 0.09172668 -0.0052781506 0.05242858 -0.0344496 -0.061692733 -0.07911344
-0.03860905 -0.06414044 -0.08952566 0.06634644 0.037547715 0.017299002 0.0033966713 -0.07912566
00000000: 6b30 8d3d 3798 67bd d5ec a23c 2d3a 6e3d
00000010: 3afe dfbc 0b06 54bd b560 18bd 870c 5d3d
00000020: 160d c1bd 439d 15bd 68fb a4bd 8c91 633d
00000030: 8e90 3fbd 37fa 33bd b4c7 a9bd 1b58 0dbd
00000040: babb cfbb 26ed 813d a14b c93c 7a2d cd3d
00000050: 5e47 f83c 63c9 c9bd 898f c43d 0874 b93c
00000060: 533d c03d ac28 7bbd 9ef4 cc3d 2487 1abd
00000070: c855 4abc d0c6 cfbc f94c 49bd abb1 ffbc
00000080: afd7 54bb 3681 10bc d5cb e5bc b788 703c
00000090: 7d98 27bd e1ad bcbd a1c5 963d e605 c63d
000000a0: 6f4c bd3d f386 da3d 566e ca3b 341b 7dbd
000000b0: 15d6 afbc 4cab 49bd 5d4d 9fbd 7646 b53d
000000c0: 9e0f ca3d ccd7 963d 6ba6 5ebd 6a15 9fbd
000000d0: 4828 ba3c 19e9 f23c 4693 5cbd 3e71 c13d
000000e0: 7832 f6bc 8d01 763b 1ad1 b1bd cc03 f23c
000000f0: 9d87 bebb 6047 ab3d d9a1 e1ba 6d9b 673d
00000100: 30f6 a93d 9a34 b33d 8f1b c0bd d4f5 4d3d
00000110: 1236 00bc 9767 413d 7b99 e13d 0ace 7a3d
00000120: 6740 703d 152d 533d 4da4 ac3c a5e9 a53d
00000130: a3c7 1abd e788 f73c 0f39 35bd a290 593a
00000140: f698 03bc 3d4b 6cbd e466 7bbd 71f5 9e3c
00000150: 4bf9 db3c 0ab6 c83b fedf 403c aefb 563c
00000160: 9808 1bbd 631a 503c fa4a 54bd 4889 a0bd
00000170: 7a59 14bd 5428 e53d 4774 e83d 3d3a aa3d
00000180: 7657 733d 9118 69bd 0b10 85bb 1e25 d93c
00000190: 4109 ebbd 384c efbd 26f5 e6ba 3062 ac3d
000001a0: 8a2d 363d 2862 6dbc b024 db3d b321 e93d
000001b0: 53e6 27bd fb15 96bd 7658 fa3b 4cfd ee3d
000001c0: f92b 4d3d f6e3 903d 5630 ecbd 7eda 96bc
000001d0: 1b37 843c d28a 9cbd 6d47 143d 1906 9bbb
000001e0: e8c0 59bd 89a4 743d 3278 a43c b219 763d
000001f0: eff0 00bd 0c96 84bd 9346 b63b dbcb b93d
00000200: f9d6 b0bd 17bd 3bbd 1872 7abd 1acf f5bc
00000210: f3a3 b83c 0605 b23d 76d6 4a3d f3f9 0a3e
00000220: 49bb c53d 54bb 7c3c 883a 53bc 4d1d 40bd
00000230: 5d3b 4dbd b7f9 e43d b25b ce3d d21f c1bc
00000240: 3bc0 b1bd 2f88 eabd 168c 043d 3f68 083e
00000250: 4361 d2bc f5db 063e 10e2 433d a1c1 19be
00000260: 5fae 21be 1a17 ab3c 0a4b ac3d 4593 09bd
00000270: 51cc 2dbd f2b9 6dbd a9e1 b1bc 85ed 693d
00000280: 706e dabd 34c8 a1bc becf 563c 8f7e 3dbd
00000290: 06ed a2bd 842e cfbd 78e5 a5bd 808d bdbd
000002a0: 0750 d13c e72f ecbd b5a5 8f3d f830 d23c
000002b0: eadb 01bb 0fb4 e63a 100b a3bd 67a1 a0bc
000002c0: dcd0 60bd 7c20 933d 133c 21bd 6866 ff3c
000002d0: fca1 8b3d 69a5 e63d 7279 84bd f1cb bbbd
000002e0: 6cc9 a23b c1b2 cbbd 6173 973d 78b2 ab3d
000002f0: 0ab8 6ebc fe85 c73d 023a 5bbd c421 a53d
00000300: 7122 c4bb 62ec b13d 3a84 1fbd 5b3d 3f3d
00000310: 7f6c 693d 13ce a33d 5033 febd bbd8 a43b
00000320: 9995 57bd 738e 9a3c 4fae bf3d e6e9 053c
00000330: 9ea6 d23d ab6a 2abd a9e1 063b ca80 d73d
00000340: 83a2 2c3d 30a0 acbd 6870 b9bd 74d5 1abe
00000350: 901c 77bc a8fa 3cbd cb40 dcbc 77f5 abbd
00000360: 38f4 44bb ae5f b03c 2bef 493d 2ed1 5a3d
00000370: 9f2c 793d 57f1 7cbc 519a a83d 44ff c83c
00000380: 05ac 9a3c 283a 74ba 6da6 9e3b d026 10bd
00000390: de40 723c e6ea dcbd 4dca 85bc b52c 8bbd
000003a0: cfb9 a1bd 6692 50bd ff68 a43d 2bd0 3abd
000003b0: 1412 8fbd 5bc4 66bc 604a a23d 87ae babc
000003c0: b8e0 393d f694 c43d 33db bb3d 56f4 acbb
000003d0: 5abf 563d 061b 0dbd 85b1 7cbd 3a06 a2bd
000003e0: 8624 1ebd 105c 83bd 3b59 b7bd a4e0 873d
000003f0: a2cb 193d a3b6 8d3c b09a 5e3b a20c a2bd

cnn.3.bias f4 [64]
-0.011960465 0.10703501 -0.0068914685 -0.0046780705 0.09901776 -0.0048230668 -0.06173136 -0.101296514
-0.015512229 0.10509269 -0.09165378 -0.02108519 -0.068217196 0.06629855 0.11537848 -0.020337442
-0.046521947 -0.039451648 -0.087129936 0.02838168 0.08702397 0.04288849 0.06333807 0.07208707
0.056706984 -0.09859027 -0.064967684 -0.02550855 -0.056105282 0.06567152 -0.083102725 -0.049378168
1.34684515e-05 0.039338455 0.0028428736 -0.00325596 -0.015833389 -0.029843582 0.009673645 -0.040509712
0.1048456 -0.068491586 -0.06946299 0.07302787 0.07304546 -0.077217735 -0.0023813972 0.09805519
0.108790874 0.0067225615 0.0463199 -0.042992264 -0.023830092 0.063721694 -0.08354784 0.05488052
0.1294496 -0.026705943 0.06369403 0.06402435 -0.04611532 -0.03975897 -0.036475312 0.074937664
00000000: d4f5 43bc 2c35 db3d d4d1 e1bb 804a 99bb
00000010: d3c9 ca3d d10a 9ebb 06da 7cbd 8c74 cfbd
00000020: 0127 7ebc d63a d73d fab4 bbbd d9ba acbc
00000030: 75b5 8bbd 89c7 873d 8d4b ec3d b59a a6bc
00000040: cc8d 3ebd 0d98 21bd 2e71 b2bd b280 e83c
00000050: a039 b23d d7ab 2f3d 64b7 813d 63a2 933d
00000060: 9545 683d b2e9 c9bd c70d 85bd 4ff7 d0bc
00000070: a7ce 65bd ca7e 863d c331 aabd c340 4abd
00000080: 8ff6 6137 5c21 213d 814f 3a3b f261 55bb
00000090: 06b5 81bc 877a f4bc 357e 1e3c 83ed 25bd
000000a0: 4ab9 d63d 5145 8cbd 9d42 8ebd a38f 953d
000000b0: dc98 953d 5524 9ebd 3711 1cbb 29d1 c83d
000000c0: c0cd de3d ef48 dc3b efb9 3d3d a818 30bd
000000d0: 5337 c3bc 8580 823d 211b abbd 65ca 603d
000000e0: 708e 043e 6cc6 dabc 0472 823d 331f 833d
000000f0: 6be3 3cbd 4dda 22bd 2367 15bd eb78 993d

lstm.weight_ih_l0 f4 [512, 64]
-0.039519537 0.10342459 -0.009443402 -0.027001694 0.12051819 0.022447383 0.07609374 0.001613646
0.04997124 -0.013786075 0.10443147 0.06278587 -0.040911824 0.12929507 0.1274322 0.071428776
-0.02196421 0.0603392 0.006183997 0.11279936 0.058721032 0.13334092 -0.034851126 -0.03526817
-0.0035718058 0.06481012 0.101316735 0.015240182 0.08327989 0.03484784 -0.0013452142 -0.055139925
0.10242631 0.052460432 0.037366565 -0.007254943 -0.008635672 0.009459303 0.099108525 0.1277671
-0.0031548957 0.025868049 -0.053164773 0.01860111 0.05787607 0.012068807 0.022141622 0.09107447
0.13169087 -0.014326646 -0.023000924 0.049608313 -0.035073865 0.03354938 0.050418455 0.06533546
0.041741934 0.06712352 0.09216857 0.043379344 0.066565245 0.012127863 0.010573344 0.08211091
-0.042686038 -0.044011597 -0.006243288 0.08479886 0.0063658133 0.049535677 -0.0058142743 0.043079473
-0.022620438 -0.032708798 0.019370152 0.0022083702 0.10487088 0.08364849 -0.03300366 0.037293293
0.016978243 0.012448929 -0.053038448 0.010131381 0.0522205 0.039086115 0.016816393 0.09933755
0.008529023 0.014239194 -0.016608069 0.13906558 0.08079177 0.0684429 0.12210884 -0.024769237
-0.0709029 0.026040839 0.00830834 0.007900598 0.073481716 0.022265552 -0.040183056 0.09894758
0.098161876 -0.003376129 0.06901338 -0.05199538 0.038848013 0.045441374 0.00872479 0.027962457
0.0077724233 0.06701177 -0.09240501 0.023496721 -0.014028848 -0.052305337 -0.05519577 0.07481013
0.040694445 0.050512742 0.08197307 -0.011629233 -0.0604637 0.06473442 0.10783158 0.014622185
-0.093535386 0.052760825 0.015806265 0.02597139 0.06428262 0.019453835 -0.073226064 0.100924045
-0.051055986 0.009803354 -0.029284213 -0.008685414 0.10250548 0.04325184 0.092818074 -0.06710861
0.032840956 0.11623999 -0.009368919 -0.0066074375 -0.011369106 -0.018804954 -0.073516265 -0.026727477
-0.0116094295 -0.022978134 0.061799932 0.00217807 0.09912403 -0.009347125 0.108337544 0.016445657
-0.062870935 0.03462074 -0.0058396687 0.082518406 -0.02236828 -0.004838648 0.026752919 0.06596771
0.04657902 -0.0057502873 -0.04616912 0.065099664 -5.407291e-05 0.01904447 -0.05189269 -0.014054146
-0.021594584 -0.0536437 -0.05689044 -0.008787096 0.0668975 0.099307805 0.012933343 -0.05277174
0.052454 -0.011050258 -0.055827007 0.08881414 -0.082931325 0.085918985 -0.031776126 0.0377695
0.100585155 0.07969712 0.08778344 0.022494156 0.013597899 0.10475339 -0.02803424 -0.009680094
0.033114254 0.107261606 0.10064951 0.12857877 -0.0033320487 -0.0042861174 0.08791005 0.033015527
-0.11025635 -0.08937659 0.0858173 -0.008637246 0.050520316 0.10232372 0.06448538 0.067498885
0.0037547424 0.0053341365 0.02738321 0.023434993 0.050496068 0.010156846 -0.044580616 0.006106417
0.11888916 0.11094608 0.05511406 -0.012310315 0.10762175 -0.031391717 0.016614806 0.0805131
-0.06660654 0.09975186 0.032525387 0.011518331 0.08034475 0.1151052 0.04094581 -0.041616425
0.08971139 0.0020289288 0.047627192 0.09576781 0.00711992 0.07809155 0.071629025 -0.006577408
0.06418798 0.0852112 -0.028356543 0.035149828 0.1437329 0.12913065 0.013714849 -0.010912858
00000000: 3ddf 21bd 45d0 d33d 80b8 1abc a832 ddbc
00000010: 3ed2 f63d 93e3 b73c 09d7 9b3d fa80 d33a
00000020: a5ae 4c3d fdde 61bc 2be0 d53d e195 803d
00000030: 2893 27bd ed65 043e 967d 023e 4049 923d
00000040: 49ee b3bc 3d26 773d 20a3 ca3b 5a03 e73d
00000050: 7785 703d 868a 083e 0ec0 0ebd 5b75 10bd
00000060: f514 6abb 2bbb 843d 267f cf3d f5b1 793c
00000070: a68e aa3d 9cbc 0e3d e651 b0ba 67da 61bd
00000080: e3c4 d13d c0e0 563d af0d 193d dfba edbb
00000090: a27c 0dbc 31fb 1a3c 69f9 ca3d 61d5 023e
000000a0: 5ec2 4ebb 3be9 d33c 4ec3 59bd 5b61 983c
000000b0: 750f 6d3d 3fbc 453c 5962 b53c 4085 ba3d
000000c0: f9d9 063e 4fba 6abc 6f6c bcbc 1632 4b3d
000000d0: 9da9 0fbd 136b 093d 9583 4e3d 99ce 853d
000000e0: 97f9 2a3d 0e78 893d e0c2 bc3d 8aae 313d
000000f0: 5c53 883d f2b3 463c d23b 2d3c c429 a83d
00000100: 8ed7 2ebd 8145 34bd 7f94 ccbb 06ab ad3d
00000110: 5098 d03b ece5 4a3d ab85 bebb 1a74 303d
00000120: 7f4e b9bc a9f9 05bd 27ae 9e3c 4eba 103b
00000130: 8bc6 d63d e64f ab3d d92e 07bd dac0 183d
00000140: f515 8b3c 98f6 4b3c d83e 59bd 18fe 253c
00000150: 2ae5 553d c318 203d 88c2 893c 7c71 cb3d
00000160: 51bd 0b3c 824b 693c a50d 88bc 3567 0e3e
00000170: 2876 a53d cb2b 8c3d 3314 fa3d dbe8 cabc
00000180: 8a35 91bd 9953 d53c b41f 083c 8371 013c
00000190: 957d 963d 3f66 b63c fd96 24bd 07a5 ca3d
000001a0: 1809 c93d 0c42 5dbb e356 8d3d 1cf9 54bd
000001b0: 181f 1f3d bc20 3a3d 6cf2 0e3c 8611 e53c
000001c0: d0af fe3b 783d 893d d63e bdbd 327c c03c
000001d0: 41d9 65bc 1f3e 56bd f614 62bd 0e36 993d
000001e0: 38af 263d 73e6 4e3d 7fe1 a73d 8a88 3ebc
000001f0: c9a8 77bd 7b93 843d ced6 dc3d e491 6f3c
00000200: 7b8f bfbd bc1b 583d 247c 813c f4c1 d43c
00000210: 9ba6 833d a65d 9f3c 8cf7 95bd 44b1 ce3d
00000220: 1520 51bd 3f9e 203c 72e5 efbc 444d 0ebc
00000230: 65ee d13d d728 313d 6717 be3d 3d70 89bd
00000240: 3d84 063d 3b0f ee3d 1880 19bc 3483 d8bb
00000250: 7d45 3abc d90c 9abc b28f 96bd 95f3 dabc
00000260: 7a35 3ebc a43c bcbc ed21 7d3d f3bd 0e3b
00000270: 8a01 cb3d af24 19bc 13e0 dd3d 0bb9 863c
00000280: 7ac2 80bd 7ace 0d3d b15a bfbb 69ff a83d
00000290: af3d b7bc 858d 9ebb f028 db3c 141a 873d
000002a0: a4c9 3e3d e86c bcbb d51b 3dbd f952 853d
000002b0: 58cc 62b8 2603 9c3c 6e8d 54bd 5c43 66bc
000002c0: 20e7 b0bc 7fb9 5bbd f305 69bd c0f7 0fbc
000002d0: 8e01 893d e461 cb3d 5fe6 533c 2e27 58bd
000002e0: 01da 563d 240c 35bc dcaa 64bd 30e4 b53d
000002f0: e6d7 a9bd 4bf6 af3d af27 02bd 31b4 1a3d
00000300: 97ff cd3d 3e38 a33d cec7 b33d aa45 b83c
00000310: b9c9 5e3c f288 d63d 10a8 e5bc 4299 1ebc
00000320: d0a2 073d f9ab db3d 5521 ce3d 27aa 033e
00000330: 805e 5abb 8f72 8cbb 2f0a b43d 4a3b 073d
00000340: 15ce e1bd 130b b7bd fbc0 af3d 3c83 0dbc
00000350: 64ee 4e3d 198f d13d e910 843d db3c 8a3d
00000360: 2012 763b fbc9 ae3b c152 e03c befa bf3c
00000370: f7d4 4e3d e668 263c 2a9a 36bd 5718 c83b
00000380: 297c f33d b337 e33d 48bf 613d 34b1 49bc
00000390: cb68 dc3d 9a94 00bd c61b 883c 0de4 a43d
000003a0: 0269 88bd b44a cc3d 5739 053d 62b7 3c3c
000003b0: ca8b a43d 46bc eb3d cbb6 273d fc75 2abd
000003c0: 9bba b73d c7f7 043b bb14 433d ea21 c43d
000003d0: 384e e93b 76ee 9f3d 3db2 923d 4c87 d7bb
000003e0: fd74 833d 3683 ae3d fb4b e8bc 44f9 0f3d
000003f0: b82e 133e d33a 043e 3fb4 603c d8cb 32bc

lstm.weight_hh_l0 f4 [512, 128]
0.0530609 0.012033394 0.089140296 -0.013132451 -0.03535447 0.002494494 0.092559025 -0.086391225
0.014271865 -0.06396948 -0.018058604 -0.10303778 -0.013043643 -0.06386564 0.0598467 0.00056371844
0.016897168 0.16980119 0.10801256 -0.065966785 0.061326437 0.031198025 0.019300774 -0.030433353
0.088910334 0.111766785 -0.05234399 0.038672354 -0.024534391 0.06676677 0.031983595 0.12809609
0.032617226 -0.12585579 -0.029793674 0.013943631 0.114464924 0.06901393 0.031325266 0.046873733
0.034422185 -0.11389636 -0.05529062 0.0052410387 -0.06718167 -0.02241046 -0.001441922 -0.01117946
0.008774457 -0.014402124 -0.021369647 0.047069527 0.010086144 -0.09625677 0.04880793 -0.05764279
0.12976003 -0.04429824 0.066968784 0.020315655 -0.04138565 -0.082406044 0.03339445 0.030644387
-0.035366863 -0.01660469 0.06594231 0.08777184 1.0710618e-05 -0.0062481393 0.021083139 0.029828891
0.12000734 -0.022752166 -0.040220357 -0.03955944 0.08967025 -0.04021439 0.038664255 0.036317293
0.0814474 0.0010943916 -0.032500528 0.0020396872 -0.032765206 0.032745413 -0.04685529 0.10532849
0.016341152 0.026215589 0.09439332 0.10857934 0.03696828 -0.016607054 -0.036604352 -0.107761264
-0.11705981 0.10863463 -0.035919197 -0.02727406 0.011406144 0.11430494 -0.094108805 0.024996458
-0.035747755 -0.095472455 -0.081291445 -0.04751691 0.055724967 0.093491495 0.122169815 0.034208074
-0.030795643 -0.030583788 -0.01594075 0.08862609 -0.041306436 0.010144074 0.14082623 0.07700187
0.03642326 0.0023765515 -0.0050229835 0.005218206 -0.053033814 -0.05475877 -0.03219978 -0.043230884
0.124488614 -0.106769376 0.058184918 -0.12387507 -0.12279855 0.05817709 0.09123097 -0.030325849
0.07192546 -0.06610009 -0.09440508 -0.016872268 -0.0434897 0.03342381 0.0019679095 0.09899185
-0.095370576 -0.01715499 0.07772604 -0.08346051 -0.050955284 0.057790484 0.07162077 0.017721212
-0.012950822 -0.032675434 -0.07595755 0.028040763 0.026257357 -0.024693845 -0.09450303 0.11224911
-0.028288951 -0.005128165 -0.0109468615 -0.06080647 -0.03130375 -0.03848661 -0.028735079 0.022345582
-0.012760547 -0.12353798 0.027684767 0.03518938 -0.14472923 -0.087811254 -0.028975008 -0.10456161
0.10977411 0.02381682 -0.0022547303 0.11323504 -0.06032024 0.039080627 -0.012282104 0.038175795
0.077676274 -0.053877138 0.06868389 -0.10082506 -0.12249222 -0.0035417194 -0.101051 0.1331141
-0.02139028 0.11307616 0.039792273 -0.015315423 -0.039328214 0.07906514 -0.07390284 0.047028966
0.09310317 -0.047010053 -0.024333356 -0.09393229 0.120654054 -0.027243743 -0.020835703 0.01881052
0.03018356 -0.078796804 0.046155922 0.06698628 0.037182897 -0.04736611 -0.04204376 0.028116232
-0.10864885 0.12036899 0.0069620507 0.06927278 -0.099650525 -0.02475529 0.037002962 0.026658386
0.0354647 0.05307923 0.02582711 -0.013493715 0.04372647 0.04569143 -0.015604974 0.030961193
0.12785557 0.012211787 0.112647384 0.01662898 -0.09485734 0.13411482 0.028191105 -0.011284593
0.008719856 0.12139332 0.06831047 0.09515192 -0.009426767 -0.08312154 0.05371205 0.11646447
-0.097912304 -0.14494407 0.14965254 0.027907018 -0.023760216 -0.11980376 -0.016346952 -0.06986475
00000000: 6356 593d b627 453c 308f b63d 7e29 57bc
00000010: d9cf 10bd aa7a 233b 968f bd3d e2ed b0bd
00000020: 8ad4 693c 6e02 83bd a3ef 93bc 7905 d3bd
00000030: 01b5 55bc fdcb 82bd d021 753d 81c6 133a
00000040: ee6b 8a3c 5de0 2d3e b035 dd3d 9819 87bd
00000050: 6e31 7b3d 0093 ff3c a81c 9e3c 5e4f f9bc
00000060: 9f16 b63d fce5 e43d a766 56bd e766 1e3d
00000070: 59fc c8bc 04bd 883d 3b01 033d 9f2b 033e
00000080: a499 053d 57e0 00be dd11 f4bc d473 643c
00000090: 966c ea3d 2d57 8d3d ec4e 003d acfe 3f3d
000000a0: 47fe 0c3d 7f42 e9bd 6b78 62bd 05bd ab3b
000000b0: 8b96 89bd 2496 b7bc e0fe bcba 0e2a 37bc
000000c0: bdc2 0f3c e3f6 6bbc 660f afbc facb 403d
000000d0: 5b40 253c 4522 c5bd d3ea 473d d91a 6cbd
000000e0: d0df 043e 1272 35bd ee26 893d 046d a63c
000000f0: 0084 29bd 80c4 a8bd 9ec8 083d f009 fb3c
00000100: d8dc 10bd 8f06 88bc c30c 873d b9c1 b33d
00000110: c1b1 3337 31bd ccbb 8cb6 ac3c b85b f43c
00000120: 69c6 f53d c062 babc 1abe 24bd 1409 22bd
00000130: 09a5 b73d d8b7 24bd 695e 1e3d 71c1 143d
00000140: e5cd a63d b071 8f3a 461f 05bd 46ac 053b
00000150: cf34 06bd 0e20 063d 55eb 3fbd 77b6 d73d
00000160: e1dd 853c 13c2 d63c 4951 c13d d85e de3d
00000170: 0d6c 173d 840b 88bc 72ee 15bd f0b1 dcbd
00000180: 0ebd efbd d57b de3d 0220 13bd d96d dfbc
00000190: d6e0 3a3c b518 ea3d 1ebc c0bd 5fc5 cc3c
000001a0: 3d6c 12bd 1087 c3bd 217c a6bd 17a1 42bd
000001b0: dd3f 643d 7878 bf3d 2b34 fa3d c41d 0c3d
000001c0: 2547 fcbc da8a fabc 2d96 82bc 9881 b53d
000001d0: f030 29bd 5533 263c c034 103e 28b3 9d3d
000001e0: 8e30 153d ebbf 1b3b d797 a4bb 7cfd aa3b
000001f0: fc39 59bd bb4a 60bd ebe3 03bd de12 31bd
00000200: e3f3 fe3d e7a9 dabd 4f53 6e3d 36b2 fdbd
00000210: ce7d fbbd 1a4b 6e3d 4ed7 ba3d ea6d f8bc
00000220: a84d 933d 7c5f 87bd 7357 c1bd b637 8abc
00000230: 4122 32bd 68e7 083d 0bf8 003b 3dbc ca3d
00000240: a651 c3bd 9f88 8cbc d42e 9f3d 58ed aabd
00000250: 7db6 50bd b7b5 6c3d e9ad 923d 132c 913c
00000260: af2f 54bc add6 05bd a28f 9bbd beb5 e53c
00000270: ab19 d73c bf4a cabc ce8a c1bd dde2 e53d
00000280: 3bbe e7bc 2a0a a8bb 775a 33bc 3510 79bd
00000290: 5c38 00bd 23a4 1dbd d465 ebbc 150e b73c
000002a0: 9d11 51bc 7b01 fdbd 2acb e23c bd22 103d
000002b0: e633 14be 63d6 b3bd ff5c edbc 6624 d6bd
000002c0: 40d1 e03d 7e1b c33c 19c4 13bb c6e7 e73d
000002d0: 5b12 77bd 0213 203d e13a 49bc 395e 1c3d
000002e0: bd14 9f3d 46ae 5cbd 24aa 8c3d 5e7d cebd
000002f0: 33dd fabd 311c 68bb d4f3 cebd 104f 083e
00000300: ab3a afbc 7994 e73d 39fd 223d 8aed 7abc
00000310: 9f16 21bd e7ec a13d 5f5a 97bd 72a1 403d
00000320: e0ac be3d 9d8d 40bd bf56 c7bc 935f c0bd
00000330: 7919 f73d 452e dfbc a3af aabc 8518 9a3c
00000340: 8343 f73c 3860 a1bd fe0d 3d3d 1a30 893d
00000350: 184d 183d f702 42bd 1436 2cbd 0354 e63c
00000360: 4a83 debd 0484 f63d ea21 e43b e3de 8d3d
00000370: 9315 ccbd 9bcb cabc 6b90 173d b062 da3c
00000380: 6f43 113d 9b69 593d 6093 d33c be14 5dbc
00000390: 871a 333d f026 3b3d 01ac 7fbc 54a2 fd3c
000003a0: 92ec 023e f213 483c acb3 e63d 8039 883c
000003b0: 9144 c2bd 6555 093e 08f1 e63c 03e3 38bc
000003c0: badd 0e3c 109d f83d 5ce6 8b3d 03df c23d
000003d0: ba72 1abc a03b aabd 2b01 5c3d ed84 ee3d
000003e0: 3f86 c8bd 386c 14be 843e 193e 429d e43c
000003f0: c9a4 c2bc ac5b f5bd 0bea 85bc 4015 8fbd

lstm.bias_ih_l0 f4 [512]
-0.047464896 0.064207524 0.03563218 0.03592178 -0.0031102612 0.10821001 0.064367175 0.10000263
0.07258151 0.048896547 0.007921722 0.001306412 0.020823438 0.09180114 -0.034726318 0.08325652
0.023043003 -0.010341666 -0.01425496 0.08063322 0.07255138 0.0030406478 0.049745955 -0.056009095
0.05278775 0.1361481 0.022445986 0.122099824 -0.036329687 -0.006796371 0.0327099 -0.018951539
0.0051197708 0.101409115 0.10234406 0.067287214 0.118252456 -0.05030358 0.056915633 -0.035166632
0.040623143 -0.000729946 0.08605801 -0.06360625 0.106476806 0.049249016 -0.036770616 0.07843371
0.0028193758 0.02505279 0.0025766804 0.034520283 -0.026750969 0.00069004815 0.06440776 -0.0011787014
0.07471847 -0.0017075761 0.092110574 -0.006225748 0.11625827 0.008878329 -0.008561651 0.025005378
-0.038951844 0.112485856 -0.0016648773 -0.01607178 0.055874478 0.091383636 0.026763158 0.0026174802
0.021820484 0.0420952 -0.016227063 0.0020120332 -0.014336286 0.1093681 -0.024081694 0.04580153
0.05785839 0.083734624 0.08169481 0.04075602 0.09231973 0.048362304 0.03644988 0.12954575
0.049720164 0.0857439 -0.0180744 0.06326369 0.023236034 0.03330401 -0.010085025 0.011733943
0.05384303 0.08256186 0.07101917 -0.032408852 0.111009136 -0.010129451 0.08609166 -0.0034079882
-0.038903862 0.09795363 -0.0007889244 0.042265892 0.028988235 0.023794988 -0.0093772 0.08571815
0.008903265 0.108990654 0.030091176 0.040408336 0.11538931 0.044570442 0.12733342 -0.053314783
0.042447206 0.004243853 0.03394873 0.03323693 0.05249705 -0.039547924 0.005186865 0.026099091
-0.048498362 0.0678627 0.0859572 -0.001861937 0.028218843 0.061904553 -0.01235659 0.05904588
-0.013248164 -0.011201905 -0.0044371234 0.0868029 0.0624132 -0.023183173 0.090624295 0.092605546
-0.04314994 -0.024934484 0.04413715 -0.012361905 0.07580138 0.01743914 0.10109202 -0.012966274
0.054697633 0.08588003 0.08481767 0.08483951 0.027704503 0.072285034 0.11940292 0.04441211
-0.04791118 0.039901525 0.084501594 0.0049562785 -0.010460402 0.02364753 -0.066911675 0.06069561
0.015383342 0.015247285 0.10081041 -0.010363042 0.038235288 0.09945829 -0.041118916 0.08352165
0.07015362 -0.045876343 0.10786173 0.046402544 0.102156505 0.04749111 0.044601843 -0.017352227
-0.017040974 0.04075159 0.09972401 0.034509934 0.063145064 0.13668372 -0.050062325 -0.034222428
0.008342573 0.051728703 -0.037183274 -0.014657713 0.09829681 0.06371033 -0.03757105 0.059282113
0.08947965 0.082408026 0.036391992 0.05152538 -0.02072297 -0.03117731 -0.045080133 0.09308583
0.067485586 0.03384839 0.014038688 0.030867534 -0.014885731 0.06727798 0.02541189 0.11122251
0.12031472 -0.030593826 -0.056190774 0.052478805 0.09318082 0.055555347 -0.067451745 0.0672918
-0.003577499 0.073355064 -0.06681221 0.024467885 0.10898977 0.046474572 0.04601636 -0.04740649
0.020907536 0.014164911 -0.0319939 -0.0032057778 -0.025556339 0.01469575 -0.04217716 0.0774559
0.0502094 -0.032276176 0.06141802 -0.04929329 0.06002859 0.10037606 0.06880156 -0.03424121
0.04075916 -0.05546338 0.026803361 -0.031680394 0.10285027 -0.04405491 0.15324573 0.06983651
00000000: 8d6a 42bd 3c7f 833d 0cf3 113d b722 133d
00000010: 86d5 4bbb 369d dd3d f0d2 833d 2ece cc3d
00000020: 9da5 943d bf47 483d 1cca 013c ea3b ab3a
00000030: ea95 aa3c 3c02 bc3d 2f3d 0ebd 6582 aa3d
00000040: aec4 bc3c 1770 29bc a38d 69bc 0823 a53d
00000050: d195 943d 9b45 473b 6ac2 4b3d cb69 65bd
00000060: f837 583d 686a 0b3e a5e0 b73c 790f fa3d
00000070: 70ce 14bd 18b4 debb d1fa 053d 4240 9bbc
00000080: c0c3 a73b 95af cf3d c399 d13d e1cd 893d
00000090: 582e f23d 200b 4ebd 5e20 693d e30a 10bd
000000a0: 7464 263d d959 3fba 2f3f b03d fe43 82bd
000000b0: 8310 da3d 56b9 493d c99c 16bd daa1 a03d
000000c0: 47c5 383b 823b cd3c 86dd 283b 2465 0d3d
000000d0: d924 dbbc 59e4 343a 37e8 833d a87e 9aba
000000e0: ff05 993d bfd0 dfba 78a4 bc3d 5c01 ccbb
000000f0: d118 ee3d 6976 113c 2b46 0cbc 14d8 cc3c
00000100: f88b 1fbd fc5e e63d 0338 daba f7a8 83bc
00000110: a3dc 643d 5827 bb3d 693e db3c 088a 2b3b
00000120: dfc0 b23c 046c 2c3d 9eee 84bc 51dc 033b
00000130: bee2 6abc 62fc df3d f946 c5bc 639a 3b3d
00000140: ebfc 6c3d 0f7d ab3d 9c4f a73d c9ef 263d
00000150: 2012 bd3d 8d17 463d 784c 153d a4a7 043e
00000160: 5fa7 4b3d 7f9a af3d c410 94bc 6590 813d
00000170: 7f59 be3c c969 083d a93b 25bc b93f 403c
00000180: 828a 5c3d 3116 a93d 8072 913d 25bf 04bd
00000190: c258 e33d fff5 25bc d350 b03d 8e58 5fbb
000001a0: a859 1fbd ea9b c83d d2cf 4eba 001f 2d3d
000001b0: bc78 ed3c b5ed c23c d4a2 19bc ff8c af3d
000001c0: 00df 113c 7e36 df3d c581 f63c 3683 253d
000001d0: 3b51 ec3d 7f8f 363d b163 023e 9a60 5abd
000001e0: 1fdd 2d3d 0510 8b3b d30d 0b3d 7223 083d
000001f0: 2607 573d 01fd 21bd 94f6 a93b c3cd d53c
00000200: 38a6 46bd 99fb 8a3d 540a b03d 3d0c f4ba
00000210: 342b e73c a18f 7d3d 4b73 4abc 18da 713d
00000220: d40e 59bc 3288 37bc 4a65 91bb b8c5 b13d
00000230: fca4 7f3d a3ea bdbc 3b99 b93d faa7 bd3d
00000240: febd 30bd 6743 ccbc 28c9 343d 9689 4abc
00000250: c13d 9b3d 87dc 8e3c 5509 cf3d 7f70 54bc
00000260: a00a 603d dfe1 af3d e3b4 ad3d 56c0 ad3d
00000270: 8ef4 e23c 2d0a 943d 8589 f43d 79e9 353d
00000280: 833e 44bd c86f 233d 2c0f ad3d 4768 a23b
00000290: 1b62 2bbc 77b8 c13c fd08 89bd f69b 783d
000002a0: 6a0a 7c3c c0cf 793c b075 ce3d c0c9 29bc
000002b0: 9b9c 1c3d cab0 cb3d 4f6c 28bd 660d ab3d
000002c0: b3ac 8f3d d5e8 3bbd 9ce6 dc3d 9810 3e3d
000002d0: 6e37 d13d 0a86 423d 6cb0 363d 4226 8ebc
000002e0: 8399 8bbc 24eb 263d 1a3c cc3d 4a5a 0d3d
000002f0: 3352 813d d1f6 0b3e 270e 4dbd d12c 0cbd
00000300: 4aaf 083c 7ae1 533d 7d4d 18bd e726 70bc
00000310: d74f c93d 907a 823d 1ae4 19bd cdd1 723d
00000320: 1b41 b73d 8ac5 a83d c50f 153d 470c 533d
00000330: 38c3 a9bc 8f67 ffbc f2a5 38bd c9a3 be3d
00000340: e235 8a3d 9ca4 0a3d 8602 663c e9dd fc3c
00000350: 48e3 73bc 0ac9 893d 992c d03c a1c8 e33d
00000360: 9067 f63d e79f fabc 4c28 66bd 04f4 563d
00000370: 96d5 be3d 018e 633d 2424 8abd 49d0 893d
00000380: 7974 6abb 2e3b 963d d7d4 88bd e070 c83c
00000390: 0736 df3d 1f5c 3e3d a77b 3c3d 4f2d 42bd
000003a0: 4846 ab3c f113 683c 090c 03bd 0718 52bb
000003b0: 875b d1bc 71c6 703c f5c1 2cbd 33a1 9e3d
000003c0: 5fa8 4d3d 0634 04bd 7691 7b3d c3e7 49bd
000003d0: 8ae0 753d f791 cd3d d5e7 8c3d 8340 0cbd
000003e0: 14f3 263d 922d 63bd b992 db3c 4dc3 01bd
000003f0: 2aa3 d23d ec72 34bd 73ec 1c3e 7206 8f3d

lstm.bias_hh_l0 f4 [512]
0.12200349 -0.043920718 0.0014016227 -0.030265586 0.024097018 0.0025694384 -0.018536905 0.1509783
0.095084995 0.030128121 0.036057398 -0.059413698 -0.04195278 0.112894416 -0.014058427 0.020988448
0.0030646739 0.07792456 0.06776018 0.048028875 0.0049569523 0.0073934495 0.08681101 -0.050961338
0.03596156 0.09189857 0.08412371 -0.036384482 0.06902368 -0.06508778 -0.012389074 0.1325632
-0.04136591 0.036542777 0.05530047 0.113044 -0.042858537 0.060709015 0.05013677 0.051386498
0.12925135 0.11153653 0.12318493 -0.052604984 0.042723976 0.01751933 0.094099544 0.0006807972
0.10221441 0.08512801 0.091482244 0.09068267 0.06596324 0.031017633 -0.031245193 0.08259374
0.10319058 -0.018111587 0.090734646 -0.028697731 0.114125006 0.12911357 0.0006204145 0.101793505
0.048471548 0.040368397 0.05580477 0.11659147 -0.057583585 0.008930965 -0.03358085 0.08051327
0.034676295 0.10307999 0.043001413 -0.009025681 -0.036004093 0.05669303 0.11620132 0.08574613
0.122383974 0.00473758 0.0341677 0.031796817 0.06035958 0.082522355 0.10644263 0.11579807
0.048461292 0.012448344 0.124573864 -0.026418235 0.09103112 0.021999324 -0.02522734 0.043172453
0.025174562 -0.04067791 0.09758117 0.056169372 0.073221184 0.08903763 0.085753076 -0.0049771597
0.100534044 -0.02855648 0.09686603 -0.0031372414 0.059857897 -0.0050996854 0.12114083 0.09576833
0.11935469 0.07683984 0.07021748 -0.017215144 0.018228803 0.06834587 0.14517136 0.023684816
0.111840665 -0.028443212 0.14699493 -0.061412714 0.039076444 0.08868741 0.14389668 0.12180568
0.029544521 0.042826086 0.09706699 -0.014606512 0.048190206 -0.015368123 -0.022130234 -0.017223181
0.07845037 0.042298127 -0.031791892 0.006868208 0.04527016 -0.04932761 -0.0014607265 0.0123384185
0.12227316 -0.02550061 0.05350907 0.0021233761 0.06711808 -0.048777085 0.10844124 0.040378597
-0.050029937 0.08923591 0.02958112 0.031218218 0.10773699 0.016624382 -0.01939424 0.048896313
0.026201278 0.0058620754 0.0031424852 0.08175898 -0.057805087 0.09538698 -0.0635476 0.057763357
0.002872182 0.09440414 0.13181235 0.08205378 0.08051869 0.027465217 0.039750997 0.09941308
0.056525204 0.019479424 -0.049200602 -0.06296015 0.06453352 -0.04223976 0.046243448 0.05309643
0.04021586 -0.046153657 -0.05497851 0.0922408 0.0005089342 -0.0002723842 0.05407727 0.1078421
0.03346865 -0.025090734 -0.03286556 0.08661462 -0.02039995 0.1092841 -4.5063374e-05 0.041142564
0.054240163 -0.044261854 0.049105935 0.001455674 0.10375808 0.0719047 0.054201182 0.09237472
0.11101964 -0.035870202 0.009884587 -0.023165254 0.093504 -0.030265164 0.024732592 0.041219875
0.037773382 0.01868946 0.010602167 0.07642222 0.06537339 0.090111665 0.0041851285 0.023615394
0.04966913 0.062386494 -0.018341986 0.023799967 0.03481605 0.050511286 0.052841064 0.07090086
-0.04698079 -0.020401228 0.0798396 0.01362131 -0.033428904 -0.054578584 0.094731845 0.12459333
0.07678083 0.018238824 0.0006879746 0.06333203 0.097682774 0.09927369 0.12465879 0.021251969
0.03141296 -0.05720956 0.040988937 0.024467448 0.10524459 0.08924051 0.014662509 -0.01940115
00000000: f7dc f93d 36e6 33bd a7b6 b73a 89ef f7bc
00000010: 1c67 c53c 0664 283b b5da 97bc 0e9a 1a3e
00000020: ecbb c23d 40cf f63c ecb0 133d c75b 73bd
00000030: aed6 2bbd 3035 e73d 5155 66bc f7ef ab3c
00000040: b2d8 483b e996 9f3d d9c5 8a3d edb9 443d
00000050: ee6d a23b c044 f23b f9c9 b13d d6bc 50bd
00000060: 6e4c 133d 5135 bc3d 0d49 ac3d e507 15bd
00000070: 4a5c 8d3d be4c 85bd 8bfb 4abc a6be 073e
00000080: 4d6f 29bd e1ad 153d bf82 623d 9d83 e73d
00000090: 6f8c 2fbd 04aa 783d 375c 4d3d a67a 523d
000000a0: 775a 043e 446d e43d 6148 fc3d 5378 57bd
000000b0: 56ff 2e3d b384 8f3c 43b7 c03d 8777 323a
000000c0: ca55 d13d 9857 ae3d 0b5b bb3d d6b7 b93d
000000d0: bc17 873d b118 fe3c ebf5 ffbc e826 a93d
000000e0: 9555 d33d c05e 94bc 16d3 b93d 8117 ebbc
000000f0: 5fba e93d 5936 043e 50a3 223a 1d79 d03d
00000100: 1a8a 463d 5559 253d 8b93 643d 82c7 ee3d
00000110: c4dc 6bbd 2f53 123c 138c 09bd 24e4 a43d
00000120: bb08 0e3d 9a1b d33d 4022 303d 73e0 13bc
00000130: 0779 13bd f336 683d f5fa ed3d ab9b af3d
00000140: 73a4 fa3d b43d 9b3b 6ef3 0b3d 613d 023d
00000150: 9b3b 773d 7b01 a93d 98fe d93d 8a27 ed3d
00000160: 597f 463d 24f4 4b3c 9520 ff3d 0e6b d8bc
00000170: 866e ba3d ed37 b43c 91a9 cebc 99d5 303d
00000180: e23a ce3c e19d 26bd a3d8 c73d db11 663d
00000190: fdf4 953d 5c59 b63d 4f9f af3d 7117 a3bb
000001a0: cbe4 cd3d 47ef e9bc b261 c63d 2d9a 4dbb
000001b0: 8e2d 753d 431b a7bb af18 f83d 3022 c43d
000001c0: 3b70 f43d 355e 9d3d 2fce 8f3d c606 8dbc
000001d0: 9254 953c ebf8 8b3d cda7 143e a906 c23c
000001e0: b80c e53d bd01 e9bc d785 163e e68b 7bbd
000001f0: 9f0e 203d bfa1 b53d a759 133e 4275 f93d
00000200: 5a07 f23c 686a 2f3d 0fcb c63d 2750 6fbc
00000210: 1863 453d 94ca 7bbc 774a b5bc a117 8dbc
00000220: 96aa a03d cd40 2d3d 3738 02bd b40e e13b
00000230: 346d 393d bf0b 4abd d975 bfba 1427 4a3c
00000240: 5a6a fa3d a8e6 d0bc 542c 5b3d 5728 0b3b
00000250: 3475 893d 7bca 47bd 7116 de3d 0764 253d
00000260: 31ec 4cbd 51c1 b63d 1b54 f23c 59bd ff3c
00000270: 36a5 dc3d db2f 883c abe0 9ebc 8047 483d
00000280: 10a4 d63c a716 c03b 27f2 4d3b 4171 a73d
00000290: 07c5 6cbd 405a c33d 3e25 82bd 4599 6c3d
000002a0: 383b 3c3b f556 c13d d1f9 063e d00b a83d
000002b0: fce6 a43d bcfe e03c f1d1 223d 1699 cb3d
000002c0: f986 673d 5093 9f3c 9286 49bd 40f1 80bd
000002d0: 262a 843d 9903 2dbd c569 3d3d a47b 593d
000002e0: 63b9 243d 9e0b 3dbd 2531 61bd bfe8 bc3d
000002f0: ff69 053a cace 8eb9 2180 5d3d 52dc dc3d
00000300: 6c16 093d 158b cdbc 0a9e 06bd 0263 b13d
00000310: cc1d a7bc 58d0 df3d 6e02 3db8 1b85 283d
00000320: ef2a 5e3d eb4b 35bd 4e23 493d 50cc be3a
00000330: 1e7f d43d c542 933d 0f02 5e3d f52e bd3d
00000340: 445e e33d a2ec 12bd f6f2 213c 0fc5 bdbc
00000350: 067f bf3d a6ee f7bc 019c ca3c 2cd6 283d
00000360: 43b8 1a3d a31a 993c b6b4 2d3c 4183 9c3d
00000370: 7ce2 853d 778c b83d 6723 893b 1275 c13c
00000380: dc71 4b3d fb88 7f3d ef41 96bc 26f8 c23c
00000390: 469b 0e3d ece4 4e3d df6f 583d 7834 913d
000003a0: ee6e 40bd 7a20 a7bc f282 a33d ea2b 5f3c
000003b0: bfec 08bd cb8d 5fbd c502 c23d ca2a ff3d
000003c0: 453f 9d3d 9669 953c 3259 343a 39b4 813d
000003d0: e80d c83d 0150 cb3d 1c4d ff3d 9c18 ae3c
000003e0: e0aa 003d 9254 6abd 04e4 273d f56f c83c
000003f0: 7a8a d73d bac3 b63d 053b 703c 29ef 9ebc

lstm.weight_ih_l1 f4 [512, 128]
0.105561376 -0.13429454 0.106404625 -0.03076308 -0.04597601 0.011712492 -0.0036166382 -0.03720903
-0.0068510985 -0.06285581 -0.10727352 -0.02950442 0.05861043 -0.044110343 0.13155481 0.06435388
0.09971403 -0.009725617 0.07454723 -0.04172232 0.09009694 0.14176308 0.032586616 0.016558753
0.088807985 0.105722465 0.034391966 -0.11737186 -0.05527088 -0.074817576 -0.0847207 0.0002202634
0.068273515 -0.077672794 0.024695901 -0.10392983 0.14874971 0.088771656 -0.022227488 -0.026378823
0.019604405 -0.081689395 -0.029192455 0.06910364 0.02296509 0.039397027 0.1313447 0.0069194264
-0.014391206 0.042344965 0.08599744 0.09247542 0.0052646925 -0.0030802018 -0.0060753846 -0.012234309
0.10839705 -0.10931165 0.02057591 -0.13999654 0.008610057 0.027562246 -0.015748044 0.07805258
-0.029640393 0.01941811 -0.02224163 0.07197959 0.0065907687 -0.022985676 0.013903109 -0.041858822
-0.001058381 -0.062366266 0.088354036 -0.070607334 -0.030657897 -0.0724885 0.06676182 -0.01465961
0.06973557 -0.02816132 -0.00763888 0.06500841 -0.020227233 0.151694 0.09268239 0.061520502
-0.13676995 0.05481942 -0.043494757 0.05623999 -0.05256638 -0.07698454 -0.044878412 -0.09042614
-0.12508485 0.02661101 -0.07872585 0.084952675 0.07804133 0.015817698 0.06333874 -0.012911998
0.046074286 0.080093354 0.008212498 0.027165076 -0.051763248 0.13970642 0.0049699484 0.09841483
0.0946586 0.071135074 0.044174496 0.110710464 0.050342955 -0.12643924 0.016148452 0.12089149
-0.11432359 -0.09413998 0.10865447 0.026852474 -0.05905492 -0.08369392 0.04012878 -0.14889905
0.13392524 -0.118906386 0.13500822 -0.12667489 0.005398229 -0.09630384 -0.014550661 0.019578284
0.14424345 -0.062476635 -0.04592983 -0.07457371 0.051904798 -0.09382652 -0.005446658 0.089579515
0.048503328 0.08404708 -0.04797334 0.0293707 -0.06473521 0.085797995 0.15560442 -0.05808451
-0.023125488 0.018776882 0.05560191 -0.089892805 -0.12930703 -0.098105356 -0.078761905 0.13927151
0.0011665295 0.03376236 -0.062319342 -0.038579136 0.010491095 0.08982715 0.07628017 0.032128654
-0.001124216 -0.08887614 -0.05381193 0.06838481 -0.017401109 -0.056781154 0.114995636 -0.09326381
0.031467628 -0.024810312 -0.0064947978 0.05159476 -0.09624594 -0.01949644 -0.008116809 -0.040369768
0.10958035 -0.110510156 0.018793663 -0.059825618 0.015841983 -0.018337207 -0.08887805 0.009673786
-0.052699063 0.010131209 0.0831604 0.11088992 0.018891187 0.07578825 -0.084717505 -0.06692932
0.10639558 -0.07066956 0.11651831 -0.12969212 0.026239742 -0.033611845 0.015505575 -0.027838128
-0.008853441 -0.08400167 0.15047672 0.09634552 0.111158825 -0.017661449 0.13246371 0.09379301
0.003721234 0.01844491 -0.018136734 0.08754481 -0.06957693 -0.1165133 -0.08996392 -0.08899566
-0.011879706 0.10309018 0.030582994 0.008474166 0.002217513 0.07426006 0.00052568177 0.06432068
-0.02460374 -0.061269417 0.03675242 -0.10005006 -0.13023463 0.057839908 0.025124323 -0.016784465
0.105168425 0.013153566 0.01811744 0.12186926 -0.0004611652 0.00096242526 -0.019847976 0.004226455
-0.0873157 -0.0736273 -0.019391153 0.002081607 -0.034026485 -0.087124795 -0.11045979 -0.06685446
00000000: 9030 d83d 8284 09be abea d93d db02 fcbc
00000010: 5751 3cbd c1e5 3f3c 1f05 6dbb 7f68 18bd
00000020: 2e7f e0bb 8cba 80bd 38b2 dbbd 41b3 f1bc
00000030: 7e11 703d 0cad 34bd 4eb6 063e f8cb 833d
00000040: df36 cc3d 3258 1fbc 38ac 983d 06e5 2abd
00000050: bf84 b83d 572a 113e 8b79 053d 39a6 873c
00000060: f6e0 b53d 0585 d83d 97de 0c3d a860 f0bd
00000070: b863 62bd f539 99bd 0c82 adbd 82f6 6639
00000080: fcd2 8b3d ea12 9fbd 0f4f ca3c 2ad9 d4bd
00000090: d851 183e eacd b53d 6c16 b6bc 6718 d8bc
000000a0: 6b99 a03c c54c a7bd 0425 efbc 3686 8d3d
000000b0: 4921 bc3c c75e 213d 3a7f 063e 5bbc e23b
000000c0: 18c9 6bbc ea71 2d3d 6d1f b03d c163 bd3d
000000d0: 7183 ac3b 36dd 49bb 0514 c7bb 6972 48bc
000000e0: 46ff dd3d c9de dfbd d08e a83c 415b 0fbe
000000f0: 3211 0d3c 38ca e13c 0b02 81bc 08da 9f3d
00000100: 69d0 f2bc ba12 9f3c 1434 b6bc 096a 933d
00000110: 60f7 d73b 754c bcbc dec9 633c 2874 2bbd
00000120: 60b9 8aba c573 7fbd f6f2 b43d 949a 90bd
00000130: 4526 fbbc da74 94bd 6cba 883d dc2e 70bc
00000140: 86d1 8e3d 92b2 e6bc 924f fabb 2123 853d
00000150: 95b3 a5bc ac55 1b3e 44d0 bd3d ecfc 7b3d
00000160: 6c0d 0cbe 548a 603d 8f27 32bd e75b 663d
00000170: d84f 57bd 12aa 9dbd 6dd2 37bd 5731 b9bd
00000180: 3e16 00be 55ff d93c 053b a1bd abfb ad3d
00000190: 22d4 9f3d 1e94 813c beb7 813d d88c 53bc
000001a0: 64b8 3c3d fc07 a43d b78d 063c 4b89 de3c
000001b0: b305 54bd 330f 0f3e f3da a23b b78d c93d
000001c0: 5edc c13d 44af 913d 51f0 343d 2bbc e23d
000001d0: 6a34 4e3d 4a79 01be c249 843c f595 f73d
000001e0: 7d22 eabd 76cc c0bd 3c86 de3d b8f9 db3c
000001f0: 92e3 71bd b867 abbd 135e 243d fe78 18be
00000200: b323 093e 3185 f3bd 983f 0a3e 10b7 01be
00000210: a1e3 b03b f33a c5bd e565 6ebc a362 a03c
00000220: 8eb4 133e 80e7 7fbd eb20 3cbd 1aba 98bd
00000230: 209a 543d 1e28 c0bd e179 b2bb 7775 b73d
00000240: 6dab 463d e020 ac3d b17f 44bd d29a f03c
00000250: e593 84bd dcb6 af3d c456 1f3e 06ea 6dbd
00000260: aa71 bdbc fad1 993c d4be 633d b819 b8bd
00000270: 1069 04be 76eb c8bd ec4d a1bd 319d 0e3e
00000280: 3ce6 983a 674a 0a3d 9142 7fbd 2805 1ebd
00000290: d7e2 2b3c 4cf7 b73d c738 9c3d 5699 033d
000002a0: 6e5a 93ba b204 b6bd e669 5cbd 560d 8c3d
000002b0: c58c 8ebc 5b93 68bd d582 eb3d 1901 bfbd
000002c0: 33e4 003d ff3e cbbc 50d2 d4bb 0755 533d
000002d0: 971c c5bd 00b7 9fbc 5dfc 04bc c55a 25bd
000002e0: aa6b e03d 2653 e2bd 2bf5 993c b50b 75bd
000002f0: 0cc7 813c e937 96bc b205 b6bd cd7e 1e3c
00000300: f9da 57bd 5ffd 253c 0050 aa3d 411a e33d
00000310: b1c1 9a3c df36 9b3d 5f80 adbd 3d12 89bd
00000320: ede5 d93d 34bb 90bd 27a1 ee3d 03ce 04be
00000330: baf4 d63c 93ac 09bd 180b 7e3c c90c e4bc
00000340: 060e 11bc 1109 acbd 9216 1a3e cd50 c53d
00000350: 3da7 e33d beae 90bc 91a4 073e 8d16 c03d
00000360: f2df 733b c819 973c 7d93 94bc b14a b33d
00000370: 597e 8ebd 869e eebd 013f b8bd 5b43 b6bd
00000380: 19a3 42bc f220 d33d 3089 fa3c 3ad7 0a3c
00000390: b253 113b a915 983d e8cd 093a 90ba 833d
000003a0: c88d c9bc a4f5 7abd b589 163d 0ce7 ccbd
000003b0: 3a5c 05be 8ae9 6c3d 86d1 cd3c 937f 89bc
000003c0: 8b62 d73d 0e82 573c 076b 943c 9796 f93d
000003d0: 8cc8 f1b9 444b 7c3a 3998 a2bc 137e 8a3b
000003e0: 93d2 b2bd e9c9 96bd 32da 9ebc 926b 083b
000003f0: 5b5f 0bbd 7c6e b2bd be38 e2bd feea 88bd
