models/cnn_lstm_model.pth (torch, 992486 bytes, 15 tensors)

cnn.0.weight f4 [32, 7, 3]
000000 20 a2 d0 bc 4b 29 eb 3d db 5d c1 bd 86 d5 77 3d
       -0.025467932 0.114824854 -0.0944173 0.060506366
000010 cb fe cc 3c 4f 0f 6d 3e 2c 13 04 3e b4 0b 04 3e
       0.025023839 0.23150371 0.12897938 0.1289509
000020 76 33 0d 3e 56 34 42 3c b2 3e 15 bd 98 e6 e4 3c
       0.13789162 0.011853298 -0.036436744 0.027941987
000030 46 b7 cf 3d 6a a6 6f 3e 2d 6d 24 3e d0 3f df bd
       0.101423785 0.23403326 0.16057272 -0.10900843
000040 2d da 59 3e a6 e6 63 3e 68 a7 43 be d1 9c 7e bd
       0.21274634 0.22255954 -0.19106829 -0.06216127
000050 6b d4 45 be 38 e9 00 3a 4d eb 3e be 3a 33 5d 3e
       -0.19319312 0.0004917565 -0.18644448 0.21601573
000060 2b c3 44 3e fa 15 3a 3e 7c ff 9d 3d 7e 70 1a 3d
       0.19215076 0.18172446 0.077147454 0.037704937
000070 0a 30 01 be 55 cc aa bd a8 9c 09 bd f6 01 80 bd
       -0.12615982 -0.083397545 -0.033596665 -0.06250374
000080 f8 27 a2 bd 62 1f 60 be aa f5 74 3d ec b5 09 be
       -0.0791778 -0.21886972 0.059804596 -0.13448304
000090 0f 3f 07 be 28 60 0d be d4 43 3e 3e e1 47 5b be
       -0.13207649 -0.13806212 0.18580562 -0.21414138
0000a0 10 33 27 3e 68 ab 88 3d 80 73 b7 3c 17 77 14 bc
       0.16328073 0.06673318 0.022393942 -0.009061596
0000b0 24 b5 f4 bd 87 40 87 bd 62 b8 88 3d d6 ad cd 3d
       -0.11948612 -0.066041045 0.06675793 0.10042922
0000c0 4a 70 1e be 17 03 2d be 09 d5 63 3e 89 68 1d 3e
       -0.15472522 -0.1689571 0.22249235 0.15371908
0000d0 7b ec f0 3d 73 ff 6d 3e 4e 20 42 3e ac fe 6e 3e
       0.11763855 0.23241977 0.18957636 0.23339337
0000e0 ab 6a 97 3d da 77 0a bd bc 94 37 be 7d b4 ef bd
       0.07393392 -0.033805706 -0.17927831 -0.11704347
0000f0 28 42 6c 3d d5 5a 23 3d c4 98 bb bd 6b 82 0f 3e
       0.05768028 0.039881546 -0.09159997 0.14014594
000100 ae 76 10 be 11 cf ef 3c cb 09 2f be 38 ba 81 bd
       -0.14107773 0.029273542 -0.1709358 -0.063343465
000110 54 78 10 be a7 f5 92 bc b6 80 4f 3e 82 ce 5b bd
       -0.14108402 -0.017939402 0.20263943 -0.053663738
000120 61 0b b2 bd 62 36 41 be ea 63 80 be eb 3c 41 3e
       -0.086935766 -0.18868402 -0.25076228 0.18870895
000130 00 de 2f be 4b 40 3a be ad 2f e5 3d fe d6 66 3e
       -0.1717453 -0.18188588 0.11190734 0.2254295
000140 dc da 02 3e 37 35 24 3d c5 cd e3 3d aa 4a bb bc
       0.127788 0.040089812 0.11123232 -0.022862751
000150 02 00 62 bd 68 ee 57 3e 39 7e 98 3d a4 b2 bf 3c
       -0.05517579 0.21087039 0.0744595 0.023400612
000160 9c 22 7a bd 66 1e 6f 3d ec 75 df bd 7d 20 df 3d
       -0.061068162 0.0583786 -0.10911164 0.108948685
000170 21 30 54 be bc d4 b6 3d 43 66 4c bd 16 52 57 3d
       -0.20721485 0.089272946 -0.049902212 0.052568518
000180 7f c5 16 3e 34 6b 53 3d c1 af 91 bd 1b 1a 75 3c
       0.14723776 0.05161591 -0.071136005 0.014959837
000190 55 cf ed bc 51 7d 4d 3e 93 58 05 be 35 1c 7b 3e
       -0.029029528 0.20067336 -0.1302207 0.24522479
0001a0 18 43 fa bc f3 27 0a be ec 4d 42 3e 84 cc 16 be
       -0.03054957 -0.13491802 0.18975037 -0.14726454
0001b0 54 a0 40 bc 8f 2e 94 3c 16 ca 2e 3e c9 71 34 be
       -0.011756975 0.018088607 0.17069277 -0.1762153
0001c0 75 4b 6e 3d dd e2 0f 3e f7 eb d1 3d 9a 8a d2 bd
       0.05817743 0.14051385 0.10250085 -0.102803424
0001d0 34 40 02 3d 81 68 63 bc 00 38 4a 3e 1b c3 50 be
       0.03179951 -0.013879896 0.19747925 -0.20386927
0001e0 d1 f6 05 3e fd 02 19 3e 43 2a cb bd a9 aa 2e 3e
       0.13082434 0.14942546 -0.0992017 0.17057289
0001f0 3a bf a6 3d 79 89 22 be 5c ee 12 3e 72 82 98 3c
       0.08141942 -0.15872754 0.1434874 0.018616889
000200 1f fc 7e be 55 fc 7c be eb b0 53 3a 2b 3e 16 be
       -0.24900864 -0.24705632 0.0008075374 -0.14672153
000210 9c c3 6a be 25 19 0a bd aa 80 9e bd 67 a0 e2 bc
       -0.22926182 -0.033715386 -0.077393845 -0.027664376
000220 2b 97 f3 3d 3b 2b 22 be 0c 34 b0 3d a6 2b 42 be
       0.118940674 -0.15836804 0.08603677 -0.18961963
000230 82 c3 23 be 7b 7b 10 bd 07 31 5f be 85 b9 99 bc
       -0.15992549 -0.03527401 -0.21796046 -0.01876522
000240 41 d3 05 be 3b 85 3e 3e af 89 98 3d 8d eb 6a 3d
       -0.13068868 0.18605511 0.07448136 0.057353545
000250 7c da f1 bd 07 17 14 be b8 be 31 3e 61 cf e4 3d
       -0.11809251 -0.14461909 0.1735791 0.11172367
000260 22 a4 51 3e b5 e9 31 be 34 5d 40 3d da d3 0c be
       0.20472768 -0.17374308 0.046963885 -0.1375269
000270 3e 44 ea bd a9 cb 16 3e a6 02 a4 3d 6e e5 fd 3d
       -0.114387974 0.14726128 0.08008318 0.12397276
000280 dd 65 16 be 90 a6 7a bc b2 1c 5b 3e ea 87 8f bc
       -0.14687295 -0.015298501 0.21397665 -0.017520864
000290 11 77 15 3d aa a4 20 3e c4 9e e8 3d 95 79 f1 bd
       0.036490504 0.15687814 0.11358407 -0.11790768
0002a0 ba 0d 12 3e 40 e4 2d be a4 af 93 bc 0c 08 df 3d
       0.14263049 -0.16981602 -0.018028088 0.10890207
0002b0 b1 f9 f4 3d c8 ac 57 be a1 c3 30 3c f7 eb ca 3d
       0.11961687 -0.21062005 0.010788829 0.09908288
0002c0 a7 12 5a bd 99 84 e1 3d 66 c1 46 3e f6 69 59 3e
       -0.053240445 0.11011619 0.19409713 0.21231827
0002d0 11 4b 57 3e 00 01 3a 3e 7f 11 94 3c 55 48 1b 3d
       0.2102473 0.18164444 0.018074749 0.037910778
0002e0 28 cc 2f be 6d b9 fa 3b fc ce 25 3e e4 b3 20 3d
       -0.17167723 0.007651499 0.1619224 0.039234057
0002f0 79 f1 58 3e ed e3 80 3d 5c 3a 33 bd 64 f8 47 3e
       0.21185865 0.062934734 -0.043756828 0.19528347
000300 7a e4 96 bd 8b 32 11 be 3d 72 58 bd 5d d4 0a be
       -0.07367797 -0.14179437 -0.05284332 -0.13557573
000310 b6 97 2e be 6e bf b7 3d 58 7c 23 be d2 30 6c be
       -0.1705006 0.08972059 -0.15965402 -0.23065498
000320 b1 86 e5 bd 91 3f 09 be fd 0f 3b 3e 3e a6 20 be
       -0.11207331 -0.13403155 0.18267818 -0.15688416
000330 e5 9b b7 bc 41 3c df 3d 85 42 ea 3d b5 a7 0c be
       -0.022413203 0.109001644 0.11438469 -0.1373585
000340 d4 2e 90 3b f0 6f 94 bc 23 bb 3b 3e eb a4 45 3e
       0.0044001136 -0.018119782 0.18333106 0.19301192
000350 6c 3e 2e 3e 43 69 fd bc 22 be 0e be 9b 3f 96 bc
       0.17016 -0.030933982 -0.13939717 -0.018340876
000360 b2 d0 be bc fe 1e 8b bd f2 44 87 3d e6 83 ac bd
       -0.023292873 -0.06793021 0.06604947 -0.08423595
000370 42 76 81 bd a6 0b 6d 3e 26 2a 2c 3d 43 76 ab 3d
       -0.06321384 0.23148975 0.042032383 0.08372166
000380 b5 b0 02 3d 42 43 0e be 63 e8 e1 3d fd fd 08 3e
       0.031906802 -0.13892844 0.110306524 0.13378139
000390 ce 6e 72 be c0 77 2f bd 14 d7 0b 3e 7b 19 98 bd
       -0.23675081 -0.042838812 0.13656265 -0.07426735
0003a0 61 ce f7 bd c1 07 54 be 4e 23 e6 bd 6b 81 c4 3d
       -0.120999105 -0.20706083 -0.112372026 0.09594997
0003b0 23 32 a6 bd d6 e3 5e 3d 89 f4 04 be 26 f6 c8 bd
       -0.081150316 0.0544165 -0.12983908 -0.09812574
0003c0 2e 35 44 3e 16 7d 15 be 08 9c ef bd 96 c3 10 3e
       0.19160911 -0.14598498 -0.116996825 0.1413711
0003d0 9d 3a aa 3d 12 7f 4a 3e 44 c1 ef bd ac ee 02 be
       0.08311961 0.19775036 -0.11706784 -0.12786359
0003e0 4b c0 12 be d2 a3 32 be 63 b4 9d bd 8a 69 a8 bd
       -0.14331166 -0.17445305 -0.07700422 -0.08223255
0003f0 47 f8 e9 3c 46 7b 32 3d d9 e6 13 3e 46 3a f3 bb
       0.02856077 0.043574594 0.1444353 -0.007422718

cnn.0.bias f4 [32]
000000 ae 45 60 3e 30 3c 23 3e 67 74 25 be a7 f4 a8 3d
       0.2190158 0.15940928 -0.16157685 0.08249789
000010 26 33 9d 3d 6c 9c 3b be 11 4a 75 3e e0 b4 0c 3e
       0.076757714 -0.18321389 0.23954035 0.13740873
000020 5e d0 25 3e c3 27 68 be d3 93 a4 3c e1 b2 7f bc
       0.16192767 -0.22671418 0.02009002 -0.015606613
000030 9b c2 0f 3e bf ef ff 3d c0 d6 6b 3e 61 48 17 3e
       0.1403908 0.124969 0.2303114 0.14773704
000040 0b f9 95 3d 21 a0 59 3e 07 95 00 be a3 cf 46 bd
       0.07322892 0.2125249 -0.1255685 -0.04853786
000050 cf 23 26 be c2 34 8f bd 74 06 c0 bd 5a e4 ba bd
       -0.16224597 -0.06992485 -0.09376231 -0.09125586
000060 b1 45 c7 3d 52 f1 dd bd 04 bc 99 bc e8 4e 37 3e
       0.097300895 -0.10837044 -0.01876641 0.17901194
000070 34 46 c0 bd 6c c8 2a 3e 72 93 39 be 92 a8 3f 3e
       -0.0938839 0.16678017 -0.18122652 0.18716648

cnn.3.weight f4 [64, 32, 3]
000000 fe 9e 47 bd 41 b9 dc 3d 55 00 73 3d c5 f1 94 3d
       -0.04873561 0.10777522 0.05932649 0.072726764
000010 74 cf 7b bc be 71 f7 bd 90 d1 18 3c 70 96 88 bd
       -0.015369285 -0.120822415 0.009327307 -0.06669319
000020 1e c0 8f 3d 50 e0 b9 3d 69 9d aa 3c 8f c8 d7 bc
       0.07019065 0.09075987 0.020827012 -0.026340751
000030 ce d7 74 3d 00 9f 45 3d 19 e3 68 3d ff 97 34 3d
       0.05977612 0.048247337 0.056857202 0.044090267
000040 05 05 ba bd 48 55 89 bb b3 be 7f 3d bf f5 8e 3d
       -0.09082989 -0.0041910745 0.062437724 0.06980466
000050 b7 51 70 bd e1 29 f5 3b 61 85 47 bd 10 80 d2 bb
       -0.05867168 0.007481799 -0.048711184 -0.0064239576
000060 a6 af 61 3d 21 31 81 3d fe 5d af 3d f9 9f a6 3d
       0.055099152 0.06308199 0.085628495 0.08135981
000070 b3 a3 17 bd 11 f7 87 3c a4 81 97 3d 75 06 17 3c
       -0.03702135 0.016597303 0.07397774 0.009217848
000080 fa a8 3a bd 90 9b 6f bd c6 2d 09 be 7a 92 2f 3d
       -0.045571305 -0.058497965 -0.13396367 0.0428643
000090 c2 a0 9d 3d 42 fd dc 3c 75 25 ff 3b bc 69 d7 3a
       0.07696678 0.026976231 0.0077864476 0.001643471
0000a0 10 8f 3e bd dd f4 e4 3d ab bc 38 3d b8 c4 88 bd
       -0.046523154 0.111795165 0.045101803 -0.06678146
0000b0 f6 63 ae bd c0 db 05 bd 3a f0 ac bd 3f 99 1e 3d
       -0.0851516 -0.032680273 -0.08444257 0.038720366
0000c0 b2 1a 7e 3d 63 9f 17 3d b6 7a 2d 3d 2d 18 ba bd
       0.062037177 0.037017237 0.042353354 -0.090866424
0000d0 5f 59 39 bd 63 68 7f 3b 67 d8 15 bd 28 2e 04 bd
       -0.045251247 0.0038972131 -0.03658333 -0.03227058
0000e0 51 7c d1 bb aa 87 98 bc 3c 76 6a bc 20 14 ae 3a
       -0.0063929935 -0.018619377 -0.014310416 0.0013281144
0000f0 0b 6b 80 bd 99 79 b1 bd bf 12 5b 3d d9 fa 48 3d
       -0.06270417 -0.08665771 0.053484675 0.049067352
000100 a2 fa b3 bd 55 92 d0 bd 75 2f f2 3c d8 13 c2 3d
       -0.08788039 -0.101841606 0.029563645 0.09476441
000110 18 79 cf bd e3 8e bf 3d 4d a9 97 bd d0 0c 54 3d
       -0.10130519 0.09353425 -0.074053384 0.05177003
000120 91 42 d3 bd d3 1f c9 bd 08 a0 71 3d 8c 8d 10 3d
       -0.10315431 -0.09820523 0.05899051 0.03529124
000130 a7 73 a4 bd 12 30 f1 3c 80 e3 9c 3d 98 a5 78 bd
       -0.080298714 0.029441867 0.0766058 -0.060704798
000140 f2 73 0e bd 89 ab a3 bd 7e 43 18 3b 6d 04 ea bd
       -0.034778543 -0.07991702 0.0023233588 -0.114266254
000150 49 fb 70 bd 32 a3 c4 bd 36 00 8f bc 6e 45 d2 bd
       -0.058833394 -0.096014395 -0.017456155 -0.10267149
000160 68 f9 87 bd 0a b7 fb bd a8 1c 15 bd 6e 67 ac 3d
       -0.06639367 -0.12290771 -0.03640428 0.08418165
000170 bd 23 96 bc 6b 4f f1 bc 23 a6 da 3c e0 fa 68 bd
       -0.018327588 -0.029456815 0.026690548 -0.056879878
000180 5f 47 ad bd 8d 2a bd bd ff 1e 0e bd b6 d0 31 bd
       -0.084608786 -0.092366315 -0.03469753 -0.043411933
000190 43 e1 e3 3d fa 8c 6f bd 1a 3c 59 3d 81 69 e0 3d
       0.1112695 -0.058484055 0.053035833 0.10957623
0001a0 55 38 07 bd 70 0d 9a 3d 38 b7 bf bd 64 12 b0 3b
       -0.033012707 0.07522094 -0.09361118 0.005373286
0001b0 16 36 a2 bd 54 cd 52 bd 9d 8d 8e bd cf bd 4c 3d
       -0.07920472 -0.051465347 -0.06960604 0.049985703
0001c0 14 13 e2 bc 37 9b 96 3d 3d 9c 2b 3d 12 1e 74 3d
       -0.027596988 0.07353824 0.041897047 0.05959899
0001d0 e9 f5 26 bd c6 02 75 bd 53 bd 81 3d 57 72 76 3d
       -0.040761862 -0.059817098 0.06334939 0.060167637
0001e0 f1 15 b7 bb 23 c9 cd 3d 38 c7 95 3c 75 8a 4e bd
       -0.0055873324 0.100481294 0.018283471 -0.05042501
0001f0 64 ec f5 bc fc de 85 bd fb 58 04 3d 1f 0d 27 3d
       -0.030019946 -0.065366715 0.03231142 0.040783998
000200 1f fb ae 3d dd 1b 8d bc 3b 69 08 3d 71 59 88 3d
       0.08543991 -0.0172252 0.03330348 0.066576846
000210 76 5d e1 3d 83 9f 7a bd b7 b1 ad bd 7f 41 9f 3d
       0.110041544 -0.06118728 -0.08481162 0.07776164
000220 c2 97 48 3d 06 9e 3c bd 49 ee 97 bd 7d bb 1c bb
       0.048972853 -0.04604914 -0.07418496 -0.0023915463
000230 5e 60 88 bd 0b 0c 1a bd c7 8e 6c bd 15 61 93 bd
       -0.066590056 -0.03760914 -0.05775335 -0.07196251
000240 18 5b 28 bd 7d 46 f2 bc 58 87 23 bd 06 0b 9a 3d
       -0.0411025 -0.029574627 -0.039923996 0.07521634
000250 32 9c bc bd ad 6e 2f bd 6b c7 73 3d ab a3 14 3e
       -0.092094794 -0.042830158 0.05951635 0.1451556
000260 f1 8b 87 bc 53 5d c4 bc 03 ee 1d bd d3 27 5a 3d
       -0.016546221 -0.023970282 -0.038557064 0.053260636
000270 05 36 08 be 10 bd 36 3d 0f 6a 62 3d 76 ba 0d 3d
       -0.13301857 0.044613898 0.055276927 0.03460165
000280 19 26 c1 bc d7 2c de 3d 7d c7 db 3d 69 90 a4 3c
       -0.023577737 0.10848396 0.10731409 0.020088391
000290 75 06 b4 bd da 27 a2 3d 49 f6 e4 3b 5f 98 9b bd
       -0.08790294 0.07917757 0.0069873673 -0.07597422
0002a0 49 1c 07 3d 87 5f b7 bd 7a f3 c7 3d 72 54 d7 3d
       0.03298596 -0.08953767 0.09763236 0.105141535
0002b0 f9 86 78 3d dd d1 04 3c d1 cb c6 3d 45 0d 2b bd
       0.060675595 0.008106676 0.09706844 -0.0417607
0002c0 b5 b6 a2 3d 51 65 82 3d f6 89 c5 3d 94 55 35 3d
       0.07945005 0.06366981 0.096454546 0.044271067
0002d0 69 61 69 bd 48 f1 d5 3c ff 68 c7 3c e6 34 c5 3c
       -0.056977663 0.026116028 0.024342058 0.024073076
0002e0 3d 59 99 3c f3 7b cd 3d 6b ed 85 bd 20 70 9a bd
       0.01871931 0.10033407 -0.065394245 -0.075409174
0002f0 38 90 83 3c 6f 19 b3 bd fe af 8b 3c 78 5e 3d bd
       0.01605998 -0.087450854 0.017051693 -0.04623267
000300 f8 85 18 3d 0f 44 da 3d 05 f0 b1 3b d9 e1 f1 3c
       0.037237138 0.106575124 0.005430224 0.029526638
000310 b7 eb d8 3d 1a 31 aa bc 59 80 5c bd 7b 5d 9f 3d
       0.10591834 -0.020775367 -0.05383334 0.07781502
000320 b7 4b b4 ba e2 94 17 bd 33 1e 8e bc 05 8f 98 3d
       -0.0013755475 -0.03700722 -0.017348384 0.07449154
000330 17 df 46 bb 04 d9 0e 3b a4 fb d1 ba 3d 27 a0 bd
       -0.0030345374 0.0021796832 -0.0016020429 -0.07819984
000340 02 3a 9f 3d 59 5b a3 3d 9a 64 53 bd 80 0c bb bd
       0.07774736 0.079764076 -0.051609613 -0.091332436
000350 aa 5e 9c 3d a4 a9 8f 3d 6b c7 a2 3d da 34 e0 3c
       0.07635243 0.07014778 0.07948192 0.027368952
000360 07 e2 d2 3b f1 80 b8 bc 3c 82 b7 3d e5 a1 e8 3c
       0.006435636 -0.022522422 0.08960387 0.02839751
000370 22 57 9b bd b6 a5 0c 3d 06 17 87 3d 0f 30 31 3c
       -0.07584979 0.03433772 0.06596188 0.010814681
000380 16 b2 b2 3d a9 4f a1 bd 16 67 0c be 75 e7 09 3d
       0.087253734 -0.07876522 -0.13711199 0.033668
000390 82 10 98 3d f2 be 6d 3b 42 ba 42 bc 45 f7 c7 3c
       0.074250236 0.0036277142 -0.011885228 0.0244099
0003a0 fb bd 68 bd ed 4d 86 3d d3 9c 9e ba 4d cc 20 3c
       -0.056821804 0.06557832 -0.0012101181 0.009814334
0003b0 fb 07 36 3d a0 92 b3 bc d1 77 55 bd 7d 3c 1c 3d
       0.044441205 -0.021920502 -0.05211622 0.038143624
0003c0 bb 63 b5 bd ee 15 90 bd 8d e6 ef bd 07 37 5a bb
       -0.08856913 -0.07035433 -0.11713896 -0.003329696
0003d0 10 51 59 3d 97 d9 4f bd d3 a3 8e bd 26 e2 b4 3c
       0.053055823 -0.05074462 -0.06964841 0.022080492
0003e0 a2 33 80 3d 42 b6 6a bd bd 0b 10 bd 6a 48 d1 bd
       0.06259848 -0.05730272 -0.035167444 -0.1021889
0003f0 bd 75 2e 3b 62 eb 5d bd 9a 98 d8 3c 3f 9e 48 bd
       0.002662047 -0.054179557 0.026439954 -0.04897904

cnn.3.bias f4 [64]
000000 e4 a8 72 bd 93 3d b9 3d 97 37 68 3d 27 6d 8f 3d
       -0.059243098 0.090449475 0.05669364 0.07003241
000010 85 02 54 3a 7a 11 da 3b 8b d2 9d 3c db 32 48 bd
       0.00080875336 0.0066549154 0.019265434 -0.048876625
000020 34 f9 9c bd 6e 81 6a bc 6b 6f c8 3d 26 e7 85 bd
       -0.07664719 -0.014313085 0.09786876 -0.06538229
000030 8d 67 d2 3d 85 16 f7 3d 08 3b a4 bd 6a 70 e6 3d
       0.10273657 0.12064842 -0.08019072 0.1125191
000040 57 e2 4b 3d 20 2e 83 3c ac fd 97 bd 72 63 93 bb
       0.0497764 0.016013205 -0.07421431 -0.004497939
000050 4b 5d 6f 3d 30 0a af bc 5f b6 4d bd 03 ac e2 bc
       0.05843858 -0.021367162 -0.05022275 -0.027669912
000060 6b 57 69 bc 67 d4 5b 3d cb b0 4a 3d 32 3d 75 bd
       -0.0142420335 0.05366936 0.04948501 -0.059872814
000070 eb 2e f1 bc 7a 7e 1e bd a5 d8 8b 3d 0a 0a c0 bd
       -0.029441318 -0.038694836 0.06828431 -0.09376915
000080 11 8e 9a bd 92 bc 82 3b 86 bf 8c 3d 01 a8 96 bd
       -0.07546628 0.0039897645 0.06872468 -0.07356263
000090 ae 2f 67 3c 93 c9 81 bd 69 06 94 3c fd 77 b0 bd
       0.014110489 -0.06337275 0.018069463 -0.08616636
0000a0 77 0d 87 bc 67 f4 9d bb c7 12 df bc 6c f2 30 3b
       -0.016485913 -0.004820395 -0.027230633 0.0026999963
0000b0 c6 8e 8a bc 29 7f 87 bd 98 89 e4 3d 4c 15 fc bc
       -0.016913783 -0.06616051 0.111590564 -0.030771874
0000c0 d5 4d 3e bd 11 7f a3 bd 33 4f 31 3d aa 83 b8 3d
       -0.046460945 -0.0798322 0.04328842 0.09009488
0000d0 b1 60 5c bc 99 b3 75 bd ac 75 dd bd e2 32 dc 3d
       -0.013450787 -0.05998573 -0.1081346 0.107518926
0000e0 c0 5d fc bc 6f fe 90 bc c7 2d d5 3d 36 24 da bc
       -0.030806422 -0.017699448 0.10409122 -0.026628595
0000f0 35 d2 9f bd 9d e5 89 bd aa f9 82 3d 61 81 a3 bd
       -0.07803766 -0.067332484 0.06395276 -0.079836614

lstm.weight_ih_l0 f4 [512, 64]
000000 2b 5d 8b b9 5e 30 5e 3c e3 7b e1 3d 20 77 ab 3d
       -0.00026581562 0.013561336 0.11009958 0.08372331
000010 49 7d b4 3d a6 6d b5 3d 26 65 a7 3d 89 49 c9 3c
       0.08812959 0.088588044 0.081735894 0.024571197
000020 9a 8d 8c bc 2c 0d 07 3e 89 91 59 3d cc 8e 46 3d
       -0.017157365 0.13188618 0.05311731 0.048476025
000030 db 01 94 bd 75 25 16 bd 91 58 83 3c 84 95 c3 3c
       -0.072269164 -0.036656816 0.016033443 0.023875006
000040 c9 ee 87 3d 43 36 41 bd 3e 82 f8 bb 04 b4 f8 3d
       0.066373415 -0.04717089 -0.0075838855 0.1214371
000050 e6 dc ae 3a 48 22 cd 3c f8 46 49 bd 96 48 5e 3c
       0.0013340979 0.02504076 -0.049139947 0.0135671105
000060 89 aa 86 3a de 81 6c 3d c1 75 a1 3d 7c fe 0c 3d
       0.0010274212 0.05774104 0.07883788 0.034422383
000070 76 91 d6 3c 28 30 3c 3d df 92 a6 bc 12 ab 8d bc
       0.026192408 0.045944363 -0.020333705 -0.017293487
000080 43 75 db 3d 02 21 2b 3d c2 8e 82 bb 4f 15 c7 3d
       0.10715725 0.041779526 -0.003984303 0.09720861
000090 ac c8 26 bc 62 21 9a bc 3f 00 c6 3a 0b 1e 82 3c
       -0.01017968 -0.018814746 0.0015106275 0.015883466
0000a0 bf 50 86 3d f9 44 b4 3d 3f 12 c2 3d ac 5a 36 3d
       0.0655837 0.08802218 0.094761364 0.044520065
0000b0 fa e2 39 bd 0c f4 9a 3c 38 29 2c bd 11 64 d2 3a
       -0.045382477 0.018915199 -0.042031497 0.0016051551
0000c0 bf 71 0c 3a 4d 4c c5 3b 97 77 72 bd f5 4b ac bc
       0.00053575257 0.0060210587 -0.05919608 -0.021032313
0000d0 d0 1b 8e 3c 0a 97 26 bd cb 67 de 3d 74 d6 2d 3d
       0.017347246 -0.040671386 0.10859641 0.042440847
0000e0 4a 85 ab 3d b9 19 a9 3d 5d 43 d6 3d 6b 0d af 3d
       0.08375032 0.08256859 0.10462067 0.08547481
0000f0 ea 19 2f 3c cf 5a 2d 3c da 72 68 bc 50 e4 b6 bd
       0.010687331 0.0105807325 -0.014187539 -0.08930266
000100 08 af ff 3c 25 50 5e 3d cd 19 81 bb 18 dc 50 bd
       0.031211391 0.05427565 -0.0039398433 -0.050991148
000110 28 92 30 bd 02 ae 70 bb ac 5e ee 3b 78 51 c9 b7
       -0.043108135 -0.003672481 0.0072744694 -2.3999004e-05
000120 af ad cc 3c ef 74 21 bd 09 f1 73 3a 32 aa 14 bd
       0.024985163 -0.039418157 0.00093056314 -0.036295123
000130 5b c8 4e 3d 47 0a c7 3d 34 f7 5f 3d 9a fb 66 3b
       0.050484043 0.09718757 0.05467911 0.003524518
000140 ce 0d 7f bd 53 28 d2 bd aa 8b ad 3d 1a 24 b4 bc
       -0.062269025 -0.102615975 0.084739044 -0.02198987
000150 76 aa 1a bd 9b 00 c2 3d 22 a9 38 3d 41 d0 3d 3c
       -0.03776022 0.09472772 0.045083173 0.011585296
000160 bd 41 6e bd bd 11 a7 bd 7b 7b 4a bd 92 69 a0 3d
       -0.05816816 -0.0815768 -0.049434166 0.07832636
000170 d6 90 f9 bc b0 fe 17 bd 7a b7 8e bd 2d 00 b4 3d
       -0.030464571 -0.037108123 -0.06968589 0.08789096
000180 2b 03 54 3d 8e 43 06 3d 44 d4 df 3d 6f e8 8c 3d
       0.051760834 0.03277927 0.10929158 0.06880271
000190 13 21 9a bd 00 0f b5 3d 45 b8 7f bd e6 25 71 bd
       -0.0752584 0.08840752 -0.062431592 -0.058874033
0001a0 6e 63 32 bd ff 41 2c bd 4e 73 aa 3d a3 06 bb 3d
       -0.043551855 -0.042055126 0.08322774 0.09132125
0001b0 25 82 bb 3d 41 e4 0e 3d 6f 4c 8c bd b6 20 a8 bd
       0.091556825 0.03488565 -0.06850516 -0.08209364
0001c0 b7 73 6a bd ae c5 55 bd ca 57 ab bb 56 ae 9a bc
       -0.05723926 -0.052190475 -0.005228971 -0.018881958
0001d0 a6 e7 1a bd e7 7e 8b 3d 36 d8 7e bd 43 63 88 3d
       -0.037818573 0.06811314 -0.062217914 0.06659558
0001e0 ae 0b a1 3d d2 1c 4d 3d 0a 20 be bc 18 46 fc 3b
       0.07863556 0.050076313 -0.023208637 0.0076987855
0001f0 22 76 ec 3c 4e 79 2f bd a9 8f c5 bd b2 88 c1 3d
       0.028864924 -0.042840295 -0.096465416 0.09449901
000200 51 2a aa bd 66 42 b8 3d 56 ca 7c 3d 5f 0f 09 bd
       -0.083088525 0.089970395 0.0617164 -0.033461925
000210 0d 83 d7 3c 38 e2 31 3d d9 a6 a1 3d a3 e9 10 bd
       0.026307607 0.04342863 0.07893152 -0.035379063
000220 44 29 76 3c 67 0b 75 3c 06 b2 fa 3b 76 1d db bc
       0.015024487 0.014956332 0.0076506166 -0.026747447
000230 7c 3e cc 3d e9 00 d7 3d a6 9c 80 3c b0 67 1c bb
       0.099728554 0.104982205 0.015699696 -0.0023865514
000240 35 f2 38 3d 31 e7 67 bd 7f ce 03 3c d4 25 54 3d
       0.04515286 -0.056616966 0.008044838 0.05179389
000250 33 fd 9f 3d 47 36 0b 3e 6a 5b b3 bd 62 c3 c3 3c
       0.07811966 0.13594924 -0.0875767 0.023896877
000260 9e 97 8f bd 66 e0 8e bd 1c 98 e4 bb c9 1d 9d 3d
       -0.070113406 -0.06976394 -0.0069761407 0.07671697
000270 f0 d1 42 3d 58 2b c9 3d 6a c2 84 bc e7 80 61 bd
       0.047563493 0.0982272 -0.016205985 -0.05505457
000280 86 69 c7 3c 06 c8 95 3d 19 87 60 bc 07 31 2a 3d
       0.02434231 0.07313542 -0.013704085 0.041550662
000290 7e e0 d8 bc 90 78 4b 3c 2f b6 94 bd 93 7d d3 3c
       -0.026474234 0.012418881 -0.07261311 0.025816714
0002a0 52 dd d6 3d 19 26 b5 3d 62 af c8 3d 7f a4 b4 3c
       0.10491432 0.08845157 0.097990766 0.022051094
0002b0 e5 4a b0 bd bf 71 3b 3c 00 45 17 bc ec eb 55 3c
       -0.08608035 0.011440693 -0.0092327595 0.013056736
0002c0 6a 81 03 bd e0 e5 29 bc 1f 92 2a bd 1f de cb 3b
       -0.03210584 -0.010369748 -0.04164326 0.0062215473
0002d0 1c 48 97 3d 3e cc f9 3c 2d 5d b1 bd ca 11 32 bd
       0.07386801 0.030492898 -0.0866035 -0.043473996
0002e0 ec 2d 98 3d 0d c4 34 3d 38 5b 8a bd 8c 23 95 3d
       0.07430634 0.04413228 -0.0675568 0.07282171
0002f0 fc 5c 88 3d 5e 3d 7f bd 44 3d e1 3c 29 d4 4c bb
       0.0665836 -0.062314384 0.027495034 -0.0031254387
000300 f6 fc e7 bc a3 5e 57 3d be 3a b9 3d c9 9f a0 bc
       -0.028318863 0.052580487 0.09044407 -0.019607441
000310 16 f8 66 3d 59 18 ff 3b 93 78 38 bd 57 60 0e bd
       0.056388937 0.007784885 -0.045036864 -0.034759846
000320 02 db 4c 3d cb e1 2e 3d bc d3 a1 ba d6 bd 2c 3c
       0.05001355 0.0426958 -0.0012346427 0.010543307
000330 22 42 63 3d 89 57 40 3d 52 93 89 3c 10 2d 05 3d
       0.05548299 0.04695848 0.01679388 0.032513678
000340 5c c2 07 3d 75 22 89 3c 9f 2a 81 3d ea ce 6a 3d
       0.03314434 0.016740063 0.063069575 0.057326235
000350 be 9c 88 3c de 5e a9 3d 04 1a 0f 3d 92 88 5f bb
       0.016676303 0.082700476 0.03493692 -0.0034108502
000360 c7 7d 71 bd 86 e4 03 bd 03 ce f7 bc aa 84 9e bc
       -0.05895784 -0.03220036 -0.030249601 -0.019350369
000370 c2 34 e9 3c fe 88 46 bd f5 90 93 bd 69 7c 97 3d
       0.02846754 -0.04847049 -0.07205383 0.07396776
000380 a9 a1 b6 bb 5a 27 ac 3d bd 07 22 bd 2f d4 fe 3d
       -0.0055734706 0.08405943 -0.03955816 0.124428146
000390 d9 81 e2 3d 5e ea 18 3d 98 c6 2b bc 28 a0 9e 3c
       0.11059923 0.037332885 -0.01048436 0.019363478
0003a0 f1 0c ed 3d 14 15 42 bd 19 fe c7 3c 41 37 2b 3d
       0.11574734 -0.047383383 0.024413155 0.04180074
0003b0 ea 19 1a bd 39 cf 9a 3c 57 7d 32 bd d3 ae 88 3d
       -0.03762237 0.01889764 -0.043576565 0.0667397
0003c0 64 35 f1 3d 69 71 87 3d b0 6e 32 bd 47 1b bc bc
       0.117777616 0.06613428 -0.04356259 -0.022962226
0003d0 91 e5 11 bd 09 e0 d1 bd 5b 39 8f 3d a8 81 3f bc
       -0.035619322 -0.102478094 0.069933616 -0.011688627
0003e0 c6 18 73 3d 13 41 93 3d 1a 2f bd 3d a7 bd c9 3c
       0.059349798 0.07190146 0.092374995 0.024626566
0003f0 fd 2a 2f bd 62 b1 0c 3e 71 aa cb bc 82 fc b5 3c
       -0.042765606 0.13739541 -0.024861546 0.022215132

lstm.weight_hh_l0 f4 [512, 128]
000000 b0 00 46 3d 9f 48 dd bd cb 36 b5 bc 09 db 2b bd
       0.0483405 -0.10804867 -0.022120854 -0.041956935
000010 fb cb 74 bb 5c df 67 3c bf 38 52 bd a5 d0 2a bd
       -0.0037353027 0.014152374 -0.05132365 -0.041702885
000020 cc 7a 0f bc e2 64 5f bd a7 32 a3 bd 87 46 8d bd
       -0.008757304 -0.05453957 -0.079686455 -0.06898218
000030 82 74 2b 3d 4c 27 b3 3d 39 f8 b4 bd 3c f3 07 bd
       0.041859157 0.0874773 -0.08836407 -0.03319095
000040 26 10 9a bd e2 a3 1d 3d 23 d7 83 bd 8a 22 ce 3d
       -0.07522611 0.03848637 -0.064375184 0.100651816
000050 d4 11 a0 3c 11 53 36 3b 6e 0d e6 3c 1c ae 05 3e
       0.019539751 0.0027820508 0.028082576 0.13054699
000060 f8 d7 26 bd 8b c2 e8 3d 3b b3 78 3d 59 83 14 bd
       -0.040733308 0.11365231 0.060717802 -0.036258075
000070 48 7f db bd 00 9b 20 3d 82 31 b0 3b af 98 10 3c
       -0.10717636 0.03921032 0.0053769955 0.008825465
000080 14 96 83 bd a0 a2 cf bc 08 2d e5 3d d7 53 b2 bc
       -0.064251095 -0.0253461 0.1119023 -0.021768494
000090 70 c9 29 bd ec 54 e4 bc 90 ea f1 3c 14 39 0a bd
       -0.04145187 -0.027872525 0.029530793 -0.03374584
0000a0 72 81 17 bd 24 d0 1a 3d af 7a 12 bc 26 ca 3f bc
       -0.036988683 0.037796155 -0.008940383 -0.011705911
0000b0 7b cc ac 3d cb f2 68 bd cf 7a de 3b 92 a0 95 3c
       0.08437439 -0.05687217 0.0067895423 0.018265042
0000c0 de 2b 19 bd 7a 01 ab 3d 89 86 0d bd db f7 66 3d
       -0.03739535 0.08349891 -0.03455213 0.056388717
0000d0 f0 32 e5 3d 99 c8 81 bb 26 dc 89 3c 53 b2 a5 3c
       0.11191356 -0.0039606807 0.016828608 0.020226633
0000e0 2a 4a c1 3c e0 6d d1 bc 3f 1e a4 bd 1b 45 8f 3d
       0.023594934 -0.025565088 -0.080135815 0.06995603
0000f0 f8 ce dc bd 43 da 4f 3d 72 a9 69 bd 36 40 af 3d
       -0.10781664 0.05074526 -0.05704636 0.08557169
000100 b9 ae 81 3d 4d 1c fd 3c 28 1a e0 bc a3 cf 5d bd
       0.06332154 0.030897284 -0.027356222 -0.054153096
000110 7d 6f d9 3d c0 47 39 bd 9f 4d 04 bd 59 70 e4 3d
       0.10616968 -0.04523444 -0.032300588 0.11154241
000120 6b 06 a6 3d 2f 1a 23 bd e8 0f 2d bd 1a e1 e5 3c
       0.08106693 -0.039819892 -0.042251498 0.028061438
000130 6c 01 a3 3d 86 67 de bc 76 34 58 bd 6e da d4 bc
       0.079592556 -0.027148973 -0.052784406 -0.025983062
000140 54 dc 57 bd e1 04 34 3d 6d 1d f8 3d 71 ce 95 3d
       -0.052700356 0.043949965 0.121149875 0.07314766
000150 40 ee d0 3d f9 1c 20 3d 64 ca 9d bc 62 c1 b8 bc
       0.102016926 0.03909013 -0.019261546 -0.02255315
000160 ce 84 19 3c 9e b7 78 3c 89 2a c2 bc 57 f5 69 bd
       0.009370042 0.0151804965 -0.023701923 -0.05711874
000170 73 a0 2b 3d 67 64 3a 3d 87 b0 50 bd be 8b e0 3d
       0.041901063 0.045505907 -0.0509496 0.10964154
000180 6d df ad 3d ed 53 f1 3c c7 1c 5e bd f6 20 cb 3d
       0.08489881 0.029458964 -0.054226663 0.09918396
000190 69 54 dc bd e8 c1 b2 bd 20 1f 2c 3d 18 54 00 3b
       -0.107582875 -0.08728391 0.04202187 0.0019581374
0001a0 6a 63 ad 3b 20 e6 b6 3d 38 d4 f1 3c ea 0f a0 3d
       0.005291392 0.089306116 0.02952014 0.07815535
0001b0 a5 14 a4 ba 6c 2a e5 bd 8e db 8b 3d 4c b4 e6 bc
       -0.001251836 -0.11189732 0.06828986 -0.028162144
0001c0 47 70 e1 3d 11 e9 2e 3d 15 fd e2 bc 52 16 9a bd
       0.11007743 0.04270274 -0.02770857 -0.075237885
0001d0 af c8 f6 3c 52 f9 fb bc 08 cd 75 3c 64 a5 75 bd
       0.03012499 -0.030758534 0.015002497 -0.059972182
0001e0 43 37 68 bc 4a af aa bd ee 03 a6 3d 32 75 02 3c
       -0.014173332 -0.08334215 0.08106218 0.007962512
0001f0 7b e0 e4 3a d5 99 9d bd 47 0f b8 3d 72 38 9b 3d
       0.001746192 -0.07695357 0.08987289 0.075791255
000200 13 61 84 bd c9 bc 3b 3d 8a 64 e9 bb 6f c7 94 3c
       -0.06463828 0.045834336 -0.007122581 0.018161504
000210 54 f2 c0 bd 0a 47 0f bd a1 7c 1d 3c 6f c6 a9 3d
       -0.094212204 -0.034979858 0.009612233 0.08289801
000220 d1 4b 4d 3d 91 a3 f4 bc f9 e0 75 bd aa 44 a6 bc
       0.050121132 -0.02986315 -0.060029004 -0.020296413
000230 dd 37 1f 3d b7 e3 07 3d 1f 8c 1f bd fa 97 b9 bc
       0.038871635 0.03317615 -0.03895199 -0.022655476
000240 d6 29 a4 3c 75 bd 8c bd 94 39 70 bc aa 61 1a 3e
       0.02003948 -0.068720736 -0.014662165 0.15076318
000250 6b af 94 bb ce 82 da 3c 35 3d cb bd 40 f7 f8 3d
       -0.004537513 0.0266737 -0.09923784 0.12156534
000260 c9 10 54 3d 22 3a e4 3d 3a a5 91 3c 3d 34 c8 bc
       0.05177382 0.111439005 0.017778981 -0.024438972
000270 1b 8e 10 bb 43 a2 09 3d 69 c3 62 bd f0 a5 73 bb
       -0.0022057358 0.03360201 -0.05536214 -0.0037177764
000280 48 c9 55 3d 32 a7 eb bd f0 87 94 bc d2 4b f0 bd
       0.05219391 -0.11506499 -0.018131226 -0.117332116
000290 4c 0d 36 bd bb 2d ee 3b 01 31 d9 bd 4e 88 b2 3d
       -0.044446275 0.007268635 -0.1060505 0.08717404
0002a0 97 81 b0 3d 23 dc 83 3d 3a 76 e0 3c 68 31 c1 bc
       0.08618467 0.06438472 0.027400125 -0.023583129
0002b0 27 c9 08 bd 69 c0 04 be cd 7d ab bc e5 35 d2 bc
       -0.03339496 -0.12964024 -0.02093401 -0.025660465
0002c0 b8 13 a3 3d a4 3c 39 bd 3c 98 35 3d cb 59 08 bb
       0.079627454 -0.045223847 0.044334635 -0.0020805474
0002d0 e6 32 7b 3b 50 60 a9 3d 6e 12 7e bd a5 b0 3d 3d
       0.0038329898 0.08270323 -0.062029295 0.04631104
0002e0 c1 db 81 3c 20 ea 3d bd 9f 14 b3 3b 27 78 62 bb
       0.015851857 -0.046365857 0.0054651047 -0.003455648
0002f0 ca 79 90 3c 43 62 b6 bd 0b 37 05 bd 50 e7 e9 bc
       0.017636199 -0.08905461 -0.032523196 -0.028552681
000300 c5 a0 a8 bd d0 b2 d3 bd 4f 8d 7c bd 74 41 e5 bd
       -0.08233789 -0.1033684 -0.0616582 -0.11194125
000310 af c9 ee 3d ba 9d d8 3d 96 62 70 3b 9f de bf bc
       0.11659562 0.10576959 0.0036679856 -0.023421584
000320 bb 87 0e be 0d 60 41 3d 9c bf e4 bd 8a 4f cf 3d
       -0.13918965 0.04721074 -0.11169359 0.10122593
000330 cf 7c 2c bd 79 a8 f5 3b 7d 0a a2 bb 36 66 ea bc
       -0.042111214 0.00749689 -0.004945098 -0.028613191
000340 a0 6a e4 3b 6b f3 2d 3d 6f af 83 3d 34 3a f6 3d
       0.0069707185 0.04246847 0.06429946 0.1202282
000350 cd 4e 11 bd d5 ac 84 bb 9d a6 ae bc 16 b6 98 3d
       -0.03547554 -0.0040489235 -0.021319682 0.07456605
000360 a0 cc 89 3d 44 5f ae bc c0 9a 85 3d 01 08 08 bb
       0.06728482 -0.02128566 0.06523657 -0.0020756724
000370 9c 71 0d 3d 9c 1f 1c 3d d4 75 93 bd e0 f3 18 bd
       0.034532174 0.038116083 -0.07200208 -0.037341952
000380 0d 12 0e 3e 27 d6 15 bd 26 b1 f2 3d ba c9 bf 3d
       0.13874073 -0.036581185 0.11850195 0.09364648
000390 07 23 cc bd 46 17 96 bc 99 9b 36 bd aa aa 3a bd
       -0.099676184 -0.018321645 -0.044581983 -0.045572914
0003a0 41 04 24 3d 98 64 b4 3d b7 ee c8 3c 66 fe 01 3e
       0.04004312 0.08808249 0.02452789 0.12694702
0003b0 d7 94 1a bd 8b 84 ba bd e2 0a e4 3d 80 05 54 3c
       -0.0377396 -0.09107312 0.11134888 0.012940764
0003c0 de fd b4 3d 3b 0c c4 bd e4 0c d7 3c 61 b9 92 3d
       0.08837484 -0.09572645 0.026251264 0.071642645
0003d0 bd 90 bb 3d 91 94 4e bd 2d e0 6a 3d 89 cb 6a bd
       0.09158466 -0.050434653 0.057342697 -0.057323013
0003e0 a4 a3 7d 3d b6 09 16 3d 94 42 d7 3d 41 df 43 bd
       0.061923638 0.036630355 0.10510746 -0.047820333
0003f0 a0 03 e6 3b f0 21 a5 3d 77 3d a2 3d 36 1e 3f bd
       0.007019475 0.08063114 0.0792188 -0.04665967

lstm.bias_ih_l0 f4 [512]
000000 80 03 81 bd c6 d1 0e bd 6d 8c 59 3c 71 4b ee bc
       -0.06299496 -0.034868024 0.013278109 -0.029088708
000010 71 ab 69 bd 0c 7a 7f bd 4b a0 9c bb f4 1d 32 bc
       -0.057048265 -0.062372252 -0.0047798506 -0.010871399
000020 e9 f1 da 3d 42 bf 80 3c 73 5e ab 3d 97 91 a8 3d
       0.10690672 0.015716199 0.08367624 0.08230894
000030 f7 91 3a 3d 13 f6 db bc db cf 46 3d ee 63 c0 3d
       0.04554936 -0.026850736 0.04853807 0.0939406
000040 83 30 04 3e df 56 a5 3d c5 1a a9 3d ba b3 da 3c
       0.12909131 0.0807321 0.08257059 0.026697028
000050 4b 94 5c bc a9 59 0a bd f2 70 fc bc b5 dc c1 bc
       -0.01346309 -0.033776913 -0.030815575 -0.023664812
000060 e1 25 4b bc 7b 52 58 bd 8c 7c e9 3d f4 96 24 3d
       -0.012399168 -0.052813035 0.114007086 0.040183023
000070 4d d6 12 3c 13 80 f8 bc d0 27 ae bc 1b 06 d4 3d
       0.008962226 -0.030334508 -0.021259218 0.10352727
000080 f2 3f 1a 3d 38 fa 85 39 04 23 9b 3a 4f 19 3e bd
       0.03765864 0.00025554164 0.0011835997 -0.046410855
000090 5d 68 92 3d cd 7a d4 bc 95 c6 3b 3c 66 bb 78 bd
       0.07148812 -0.025937462 0.01146092 -0.060725592
0000a0 86 39 b4 3d 0c b3 b9 3d 15 f5 f2 3c fa 7e e7 ba
       0.08800034 0.090673536 0.02965788 -0.0017661743
0000b0 06 5c cc 3d 01 b2 5b bc 17 7a cc 3d 06 42 44 3d
       0.099784896 -0.013409139 0.09984224 0.047914527
0000c0 1b 70 6d 3d b4 ef 34 3d d2 33 aa bc f6 cf 3b 3d
       0.05796824 0.04417391 -0.020776663 0.045852624
0000d0 1f 8c 27 bd 44 02 a6 3d 7c 82 10 bd c8 ce 15 3a
       -0.040905114 0.08105901 -0.03528069 0.0005714712
0000e0 00 dc 29 bd 8a cb 2e 3c f5 94 ca 3d 3b 54 e6 bc
       -0.041469574 0.010668645 0.098916925 -0.028116336
0000f0 a9 71 9d 3d a2 17 47 bd 5b 81 e9 3d 7e ec 81 3d
       0.076876946 -0.048606522 0.11401626 0.063439354
000100 c5 30 99 bc ff 42 98 3d af b1 4b 3d dd f1 59 3d
       -0.018700013 0.074346535 0.04973 0.053209174
000110 f3 78 ea bc 4c a0 4d bd 65 25 82 bd 55 58 48 3d
       -0.028622126 -0.0502017 -0.06354789 0.048912365
000120 35 0b 6f 3d b8 a1 e0 ba d1 07 47 3d fc 81 1f 3c
       0.058360297 -0.001713804 0.04859144 0.0097355805
000130 10 8d f2 3d ba 78 8d 3d 4d 77 af bc 84 28 8e 3c
       0.11843312 0.069077924 -0.021419192 0.017353304
000140 04 de 79 3c 58 11 11 3d 55 f9 84 3c 70 03 80 3d
       0.015250687 0.03541693 0.016232172 0.06250656
000150 63 f1 13 3c 89 56 8d 3c 5e b4 42 bd 0d 34 2a 3d
       0.009029719 0.017253177 -0.047535293 0.041553546
000160 02 ee 9a 3d 2d ba 82 3d 3c 8f a4 bc de 42 5e 3c
       0.07564928 0.063831665 -0.02008783 0.013565747
000170 df f1 d6 3d f8 8a b0 3d 54 ee 45 bb dc 52 a8 3b
       0.10495352 0.08620256 -0.003020187 0.0051368307
000180 b4 16 25 3d b6 29 4f bd ec 92 b5 3d 40 5a cc 3d
       0.040304855 -0.050576888 0.08865914 0.09978151
000190 c2 78 64 bd 7b bd 3a bd 33 7c f8 3c a8 e7 17 bc
       -0.055779226 -0.04559086 0.03033266 -0.00927154
0001a0 b9 65 06 bd b0 46 0a bd ff 5c a5 3a 89 a1 0f 3c
       -0.032811854 -0.03375882 0.0012616216 0.00876654
0001b0 5b da 84 3c 17 a2 55 3b 74 a3 fb bc b6 9f 89 3d
       0.016217401 0.0032597834 -0.030717589 0.067199156
0001c0 89 20 97 3d 66 ec d3 3c 5e c6 87 3d 4a 70 3b bc
       0.073792525 0.02586956 0.066296324 -0.011440346
0001d0 8a a9 9f 3d 0c 4d 41 3d 72 d0 81 bc c3 51 a2 3c
       0.07796009 0.04719262 -0.015846465 0.019814378
0001e0 88 22 82 3d bc 84 03 3d 3d fc cd 3d df b7 25 3d
       0.063542426 0.032109007 0.10057876 0.040458556
0001f0 ac c4 68 bd 67 0d c8 3c 29 09 09 3c b4 66 17 3c
       -0.056828186 0.024420453 0.008364 0.009240795
000200 05 65 c6 3d e6 76 e2 3c d2 77 1f 3d 7f 94 24 3d
       0.09687237 0.027644586 0.03893263 0.04018068
000210 6d 3a 82 bc f0 3c 91 3d 5a 10 cc 3d 50 69 2b bc
       -0.015897 0.07091701 0.09964056 -0.01046212
000220 79 bc e2 3d 35 d0 40 bd c3 d5 0c bd 29 fa 8e 3d
       0.110711046 -0.04707356 -0.034383547 0.06981308
000230 df db d7 3d a5 19 0e 3d f7 c9 d1 bc fd 57 81 bd
       0.10539984 0.034692425 -0.025609 -0.063156106
000240 90 53 44 bd ad 84 05 bd 09 fa 34 bd de 22 e0 3d
       -0.047931254 -0.032597233 -0.044183765 0.109441504
000250 3d 7d 06 bd fa e6 45 bd 8b 8a 10 bd 6b 17 d7 3d
       -0.03283428 -0.04831598 -0.035288375 0.105025135
000260 02 74 dd 3d 0f d3 ca 3d 9f b2 25 3d f4 c4 55 bd
       0.10813142 0.099035375 0.04045355 -0.052189782
000270 d2 49 40 3d 12 44 c2 3d 8c c9 d9 bc 70 31 14 3d
       0.0469454 0.0948564 -0.026585363 0.03617996
000280 61 92 98 3b 08 9e ab 3d 6b 5e 14 3d 94 11 d3 3c
       0.0046561216 0.083797514 0.036222856 0.025765218
000290 14 79 30 bd 70 6f 0b bd 9d bc 63 bc 91 84 44 3d
       -0.04308422 -0.034041822 -0.013899949 0.047977988
0002a0 37 8f 19 3d 30 e4 91 3d 1e 5e 6d 3d f0 76 b7 bc
       0.037490096 0.071236014 0.057951085 -0.022395581
0002b0 de 23 0a 3d 3b a7 0f bd 7e 02 c6 3d 31 1c 42 3d
       0.033725612 -0.035071593 0.09668444 0.047390167
0002c0 5b 87 bb 3d 4b 67 1a ba 93 2f cf bc 2c fd 44 3d
       0.091566764 -0.00058900256 -0.02529124 0.048093006
0002d0 d7 a3 83 3d 37 44 9f bc 73 08 88 bc 09 92 8b 3d
       0.06427734 -0.019441707 -0.016605591 0.06814963
0002e0 e4 2b 60 3d c2 3e c9 3c b4 06 7f bd 14 f6 b2 3d
       0.054729357 0.024566058 -0.062262252 0.08738342
0002f0 6f 4d d3 bb 43 8e 94 3d 57 eb c5 3c 69 52 2a 3d
       -0.00644844 0.07253697 0.02416007 0.0415825
000300 ce 5a 16 3d c1 c4 b1 3d 7e 62 11 bd 4a d8 6b 3b
       0.03670769 0.08680106 -0.03549432 0.0035987073
000310 0e 42 bc 3b e9 97 cd 3d 8b 72 79 bd 3f 66 9d 3c
       0.005745179 0.1003874 -0.060900252 0.019213794
000320 76 fa 38 bd cf 33 a2 bc 01 8f 23 bd 3d 6b a5 3d
       -0.045160733 -0.019800095 -0.0399313 0.08077095
000330 b3 81 32 bd 53 0b 15 bc d7 98 e3 ba 3f 18 d8 3d
       -0.043580722 -0.009096938 -0.0017364275 0.105514996
000340 1a 93 0e 3d 18 76 55 3d b8 a5 f2 bc 5e 3b 8d 3d
       0.034808256 0.052114576 -0.029620036 0.06896089
000350 ba 98 b1 3d fa df fa bc 19 73 ad 3d ea e8 cf 3d
       0.086717084 -0.030624378 0.08469219 0.10151847
000360 1e 18 cf bc dc b1 f6 3d 3f c3 05 3c b7 c3 7b 3d
       -0.025280055 0.12045643 0.008164226 0.061465945
000370 46 2a 08 bd 3f 86 6a 3d 5c 65 6f 3d d2 a5 69 3d
       -0.03324344 0.057256933 0.058446273 0.057042904
000380 ed 44 ec 3d e7 44 21 3d 7b db 23 3c 13 01 59 3d
       0.11536584 0.03937235 0.010001059 0.05297954
000390 55 ba 05 bd 09 12 03 bd 33 d0 65 bd 26 71 0d 3d
       -0.032648403 -0.03199962 -0.056106757 0.034531735
0003a0 4d f1 74 bc b2 a4 1d bd 22 ee be 3d 7f 1f a1 3d
       -0.014950109 -0.038487144 0.09322764 0.078673355
0003b0 ef 0b b2 3d 66 73 87 b9 01 0e 22 3d 0b a7 de bc
       0.086936824 -0.00025835185 0.039564136 -0.027179262
0003c0 b2 bc 81 bd a7 ee 65 bc bf e0 7d 3d c7 a8 08 3c
       -0.06334819 -0.01403395 0.061981913 0.008341021
0003d0 4d 5f c5 3d f2 87 6a bd 1c 4c c2 3c 33 d1 d8 bc
       0.09637318 -0.057258554 0.023717932 -0.026466941
0003e0 cf 38 9f 3d 6a 39 a7 3d a8 d8 94 3d 71 cd 86 3d
       0.07774507 0.08165248 0.072678864 0.065821536
0003f0 da f3 8a bd 27 d9 9e 3d f1 a5 11 3d 7c 94 8b bd
       -0.06784792 0.07756262 0.035558645 -0.068154305

lstm.bias_hh_l0 f4 [512]
000000 a0 0b 20 3d 94 34 7a 3d 90 0e d2 bc 26 d0 0b bd
       0.039073586 0.0610853 -0.02564171 -0.034134053
000010 25 44 9b 3c fc 9a 37 3d 98 c0 93 3d 09 e7 4b bd
       0.018953392 0.04482554 0.07214469 -0.04978088
000020 d9 c3 de 3c f3 34 5f bc ee 9c 5e bd a5 a5 86 bd
       0.027192997 -0.013623464 -0.05434888 -0.06574563
000030 f9 40 ef 3d b9 6c 22 bd 6f 50 48 3d 1d ad 61 bd
       0.116823144 -0.039654467 0.048904832 -0.055096734
000040 43 34 4c 3d e7 13 56 3d cc 3b c2 3c ec ae 02 bc
       0.04985453 0.052265074 0.023710154 -0.007976275
000050 b0 86 48 3c af af 26 3d 6f 68 21 3d 85 2a 10 bc
       0.012239143 0.04069489 0.039406236 -0.0087992
000060 5e 73 14 bd 62 49 14 bd 7a d0 b6 3d 50 a9 bb 3d
       -0.036242835 -0.036202796 0.089264825 0.09163153
000070 34 ef 73 3c 45 91 e6 3c d8 94 99 bc 9a 76 b7 3d
       0.014888573 0.028145442 -0.018747732 0.08958168
000080 d9 50 da 3d 8a 9c 72 bd 13 83 6e 3d 89 40 15 bb
       0.10659952 -0.05923132 0.05823047 -0.0022774062
000090 f8 8b f8 3d da 8a e2 bc 20 be 88 3d e2 0e ab 3d
       0.12136072 -0.0276541 0.066768885 0.08352448
0000a0 a3 d4 c2 3c cd a6 ff bc a6 0c 66 bd 48 f8 81 3d
       0.023783034 -0.031207466 -0.056164406 0.06346184
0000b0 53 97 80 3d 54 2a 72 3d 68 fb 5c 3c 5d 03 9b bc
       0.06278863 0.0591224 0.013487674 -0.018922502
0000c0 bb 68 2d bc 33 38 75 3c 56 2e 8d 3d 7e cc 35 bd
       -0.010584052 0.014967012 0.068936035 -0.044384472
0000d0 49 df 66 bd 08 73 ae bc bf ba 8f 3c b4 9f 09 bd
       -0.056365285 -0.021295086 0.017545102 -0.03359957
0000e0 8a 26 4b bd bd d7 a7 bc 39 2c b8 3d dd 6b b7 bc
       -0.0495973 -0.020488614 0.0899281 -0.0223903
0000f0 6e 04 6e 3d c2 8f 34 bd c5 36 13 bd c0 e2 d5 3d
       0.058109693 -0.04408241 -0.035940904 0.1044364
000100 ae b1 5c 3d 90 e7 b3 3d c7 f2 08 bd ea 91 98 3d
       0.053880386 0.087844014 -0.033434656 0.07449706
000110 cc 2e 44 3d 21 cc 7f 3c 0b 18 b0 3d 3d 8c 3f 3d
       0.04789619 0.015612633 0.08598336 0.0467646
000120 85 cc 30 bc ac f3 e2 3c 97 d5 c7 3d b7 9d c3 3c
       -0.010790949 0.027704082 0.09757536 0.023878915
000130 9f 9f 15 3d 57 ab b3 3d 81 f4 47 3d 1e 3b fc 3b
       0.03652918 0.08772915 0.04881716 0.007697477
000140 41 d5 fa 3c bc 30 26 3d a2 65 27 bb 31 dd 38 bd
       0.030619266 0.04057382 -0.0025542756 -0.04513282
000150 35 b1 c9 3d 3d 4b 52 bd 8e aa f8 bb a8 40 04 bd
       0.09848253 -0.051341284 -0.007588691 -0.032288224
000160 85 51 9e 3d d6 81 bb bb eb c2 88 bd 5e 85 98 3d
       0.07730392 -0.0057222648 -0.06677803 0.07447313
000170 17 3a 82 3d 3e 1b 94 3d 7b 88 cd 3c 49 6a bd 3c
       0.06358736 0.072317585 0.025089493 0.02312197
000180 0c 2d f9 ba e1 ef 73 3c 2d 02 89 3d 8d f3 49 bd
       -0.0019010617 0.014888735 0.06689868 -0.049304534
000190 3f 58 6a bc 5c 7a c6 bc 50 68 c9 3d 04 93 b9 3d
       -0.014303266 -0.024228267 0.09834349 0.09061244
0001a0 3d 83 19 bd 98 79 b7 3d 51 b0 ae 3d b5 06 c0 bc
       -0.037478674 0.08958739 0.085297234 -0.023440698
0001b0 8f 4f da 3d 77 eb fd bc 24 a0 1c bd 9c 38 a7 3d
       0.10659706 -0.030996067 -0.03823866 0.08165094
0001c0 a9 b3 4e bd 70 5e a1 3d 31 fa b7 3a 0b 2a 05 bd
       -0.050464306 0.07879341 0.0014036355 -0.0325108
0001d0 93 11 30 bd c1 e1 f1 3c ff 1c 26 3c cf 10 0c 3d
       -0.04298551 0.029526593 0.010138749 0.034195717
0001e0 25 4c b4 3c 41 aa 1d 3c 57 cc 79 bd ed 05 83 3c
       0.022008965 0.009623111 -0.06098589 0.015994037
0001f0 20 9c c5 3b 71 e7 72 3d 3b ff a4 bb d4 dd e8 3d
       0.0060305744 0.05930275 -0.0050353087 0.11370435
000200 3d a2 a6 3d 52 c0 42 3d e6 ad 83 bd c9 92 c9 3d
       0.08136413 0.047546692 -0.06429653 0.0984245
000210 84 8d 74 bd d4 c6 77 3d 37 c2 9f 3d 44 b6 69 3c
       -0.059705272 0.06049235 0.078007154 0.014264647
000220 54 ed e2 3d 12 9f f9 3c 51 af b0 3d dd 8a ca 3d
       0.11080423 0.030471358 0.08627189 0.09889767
000230 cd 3b 59 3d b1 78 24 bd a2 9d 93 3d 5d bd 18 3c
       0.053035546 -0.040154163 0.072078004 0.0093224915
000240 66 43 f3 3d ee a4 82 bd 94 6b f8 3a 9b 0d c0 3d
       0.118780896 -0.06379114 0.0018952959 0.09377595
000250 27 eb e6 3c 9a af d8 3d 79 8e 33 bd eb 5c 82 3d
       0.028188301 0.10580368 -0.043837044 0.06365379
000260 ad a6 38 3d 71 56 91 3d d1 43 e5 3b cc 87 61 3d
       0.04508083 0.070965655 0.0069966097 0.055061147
000270 ce fb b7 3c 9c 2d 31 3d 10 95 8e bd 38 ee c9 3c
       0.022458937 0.043256387 -0.06962025 0.024649724
000280 e5 fc 33 3b 41 d0 04 3d 5b f7 38 3d 1a 39 89 3d
       0.002746397 0.03242517 0.04515777 0.067003444
000290 90 ab 6a bd 0c f7 85 bd ed e8 ed 3d b3 98 21 3c
       -0.05729252 -0.06541261 0.11616693 0.0098630665
0002a0 a1 44 6a 3d 1b 28 d2 bc 63 cf 5f bd 81 66 32 3d
       0.057194356 -0.02565389 -0.05464114 0.043554787
0002b0 63 a6 a7 3d ca 5c f6 bc b3 07 2e bd 74 72 b6 3d
       0.081860326 -0.030073542 -0.04248781 0.08908549
0002c0 72 6f 79 3d 65 c5 3b bd a1 22 b8 bc 3d 6d 57 bd
       0.0608973 -0.045842547 -0.02247745 -0.052594412
0002d0 1b 1c 6e 3c 06 94 b0 3d 4d e4 8e 3d 6c 39 f8 bc
       0.014533068 0.08621983 0.06977139 -0.030300818
0002e0 43 d6 6f 3c fb 08 7a 3c f2 ba 76 3d 91 d6 84 3d
       0.014638486 0.01526093 0.06023688 0.06486238
0002f0 08 e5 8b 3c c4 6e 86 3c b9 1a 97 bc 27 76 0b bd
       0.017076984 0.016410239 -0.01844536 -0.034048226
000300 75 5d 29 bd 3a cb 64 3d c9 52 bd bc 1c 8e c9 3c
       -0.041348893 0.055857874 -0.023110764 0.024603896
000310 51 9c c1 bc 24 b7 84 3d dd 1c cf bc 99 d3 d4 3d
       -0.023634108 0.06480244 -0.025282318 0.103919216
000320 ca 5c 4f bd 7e 29 cd 3d ed 30 b1 3c 5f 6a 14 3d
       -0.0506256 0.1001768 0.021629775 0.036234256
000330 31 20 01 3d 21 f6 83 3d eb 89 79 3d db 92 9c 3d
       0.03152484 0.0644343 0.060922544 0.07645198
000340 32 81 c7 bb 53 09 85 3d 42 9e 4b bd cd 7d 31 bd
       -0.0060883993 0.06495919 -0.049711473 -0.043332864
000350 d2 32 a7 3d 08 08 63 bb 2d 84 3d bc 2b 9b 46 bd
       0.0816399 -0.0034642238 -0.011567158 -0.048487823
000360 bc 54 61 3d 19 08 43 3d a9 3a 36 3d 21 86 d7 3c
       0.05501245 0.047615144 0.044489536 0.026309075
000370 a3 6e af 3c ab 93 8d bd 91 0f 7b 3d 24 65 34 3d
       0.02141506 -0.06912931 0.061294142 0.044041768
000380 15 4d f1 3d ad 9a 8a 3d 81 ed 93 3c cb b6 94 3c
       0.1178228 0.06767783 0.018057587 0.018153569
000390 8c 02 0b 3d 94 1e a3 3d 37 88 67 3d 50 0d 2c bd
       0.033937976 0.07964817 0.05652639 -0.042004883
0003a0 a0 6b 83 3d 4d fc 2e bd 62 eb cb 3d c1 d7 c1 3d
       0.06417012 -0.04272108 0.09957005 0.0946498
0003b0 51 dc b2 3d 9a 26 bb 3d a3 3a 4b 3d 28 92 03 3d
       0.08733428 0.09138222 0.049616467 0.032121807
0003c0 60 66 3e bd 8c 34 81 3d a4 77 c7 3d 23 94 81 3c
       -0.04648435 0.06308851 0.097396165 0.015817707
0003d0 31 91 a1 bc f7 b7 7d 3d da 4a a1 3d 0f 46 8e 3d
       -0.019722553 0.06194302 0.07875605 0.06946956
0003e0 4d a6 76 3d d9 85 fb 3c 65 36 2b 3a ae cd 6c 3d
       0.06021719 0.030703472 0.0006531238 0.05781334
0003f0 04 e9 86 bd 85 bb 56 bd 0a 13 c7 bc 82 b8 02 3a
       -0.06587413 -0.052424926 -0.02430107 0.00049866
