models/cnn_lstm_model.pth (torch, 992486 bytes, 15 tensors)

cnn.0.weight f4 [32, 7, 3]
00000000: 36a1 463e 2455 903d 126e 1bbd 8ee6 2b3e
00000010: 9529 7fbd 8ce8 08be ac7a 3fbe e016 3bbe
00000020: fa11 483e 316e 54be c916 e23d dc89 07be
00000030: 191a 9a3d b2f4 333e d353 613e b6a5 603e
00000040: cfa2 1bbe fe8d f6bc c859 0c3e a616 2bbe
00000050: 7a04 2c3c cb2f 413e d28c 953d 1703 aabd
00000060: caf6 313d ae7f 02be ecfb b53d 9e76 35be
00000070: 2b33 083d e476 c93d c19c 86be 34a5 5bbd
00000080: 92a8 48bd d044 383e fc8d 75be 4dd4 4a3d
00000090: a3c1 41be 373b 163d e2f1 89bc 4f95 053e
000000a0: 36ec a3bd 7f60 13be ab31 373c 66e1 533e
000000b0: 5ba3 483e 2975 693e dda9 133e ae37 b1bd
000000c0: be57 3bbd 6d3b 13be d056 6c3b fa27 94bd
000000d0: 8807 91bc 2638 293d c550 ecbd 1dd0 a6bd
000000e0: dd5f 833e 4429 7b3d f287 4bbe 9635 af3d
000000f0: 179b 9439 6cef 15bc 30d9 183e 8968 013e
00000100: 7da2 8c3c ae5c ca3d 4d9a 263e 3ca3 993c
00000110: a6a7 00be 039f 613d 7c59 693d d8be 6d3d
00000120: 540c f33d 3420 f63d 1bae 8ebc d0b6 3a3e
00000130: e84d 3e3e 487c 423e ab06 34be 8a8e 0abe
00000140: ef8b 14be b14d 143d 795c febd 3293 5a3e
00000150: 076e 49bd 3ac2 353e bca9 92bd 67b6 723e
00000160: 73f6 543d 6837 023e 48d7 15bd 823c f23d
00000170: 9a58 293d 1907 4abd 2f71 673e 3bbb 72bd
00000180: 5906 d43d e379 383e 9e4a 263e 99fc 73be
00000190: 4c07 eebd 431f 47be 505b 203e c581 a03d
000001a0: 4462 ed3c 210c 51be b6d4 a83d 183f 6d3d
000001b0: ce7a 39be 3bf1 083d f61a 6dbd a8f7 6fbe
000001c0: 9264 02be 9a56 403e e32f 38be 2275 4f3e
000001d0: 749f e23d a42c a73d 3fcb 303c 3e5b f9bd
000001e0: cb57 67be f19b 60be 8f30 0e3e dc2c 41be
000001f0: 9d6b 323e 9630 533e eb79 823d a4f5 03be
00000200: 8b47 853c e11e 2ebe 067e 81bd 7e37 46be
00000210: 6e9e 673a f939 21be 36a7 13bd 087e e33d
00000220: 7e98 8ebd ca24 06be 5366 483e e473 113d
00000230: f96c cabd 82a6 403e 967d 08bd 1dc0 183e
00000240: a88e 80be 6b01 39be 209f d3bd f5f7 b93d
00000250: f993 f63d 167e 583e 3306 c7bc 4054 043e
00000260: e439 13be 502b e4bd 1bff 72bd 8461 54be
00000270: 03a5 623e 4bd8 073e c8bd 6c3e c8ec 8b3e
00000280: b7c8 523e 73d7 56bd d94b 9ebd 59f8 b0bb
00000290: ac23 5e3e 2382 adbd 28ad a9bd d059 c53d
000002a0: 48d6 883d 2821 b13d abda 143e afb8 ee3c
000002b0: ee5b 8f3d 14c5 e53d 0d24 e13c 5f85 bc3d
000002c0: 36cb 7a3e 2735 1f3e 9ae8 1b3e cc02 b939
000002d0: d8aa 04be 7441 0aba fc52 673b 6720 a43d
000002e0: dbba 8ebd d703 e93d 5572 84bd c28a 73bd
000002f0: 313e 0abe 927e 65be 9964 c1bd 89c8 a53d
00000300: 5584 0bbd 4fba 5abe c4cf 2c3c 7882 1e3e
00000310: a701 223d 2fa6 993d 7a49 a03d 674a 24bd
00000320: 2646 033e 7361 f5bd d4ee 0cbe 9975 74be
00000330: fd7b 383e 515f 4abe 2e43 d4bd 2ba0 12be
00000340: 8637 41be 925e c7bc d531 5cbe c554 203d
00000350: 6b9a 87bb c5e0 26be 22a9 283e a244 41be
00000360: bd0b 0c3e 63d7 96bd 65c5 30bd 8768 083d
00000370: 0a5a 373d 770f 003e 03a1 363b 7802 84bd
00000380: 76a2 863e 2afc 16be d723 33be d50f 4cbe
00000390: 2550 a73d a340 30be aa79 323e 3b77 d43d
000003a0: 5a78 be3d 2dc2 d93d 10e9 013e d8e6 733e
000003b0: 25e7 0a3e df60 6f3e 177c 9b3d c0e7 583e
000003c0: 88c3 0d3e 76b7 d13d 9739 353e dead 5c3e
000003d0: ba34 4dbd a5b5 613e edb5 27bd c4ed 6e3c
000003e0: 8b27 1fbe 96bd b1ba 0713 b93d 3626 093e
000003f0: f142 f6bd 956d 023e 30bf 80bd c2d0 63be
0.19397435 0.07047489 -0.037946768 0.16787168 -0.062295515 -0.1336996 -0.1869914 -0.18270445
0.19538108 -0.2074516 0.11039502 -0.13236183 0.07524509 0.17573813 0.22004633 0.21938214
-0.15198825 -0.030097004 0.13706124 -0.16707858 0.010499114 0.18865888 0.0730225 -0.083013706
0.043448247 -0.12744018 0.08885941 -0.1772103 0.033251923 0.0983713 -0.2629147 -0.053624347
-0.048988886 0.17995 -0.23979944 0.049518872 -0.18921523 0.036677565 -0.016838972 0.13045238
-0.08004038 -0.14392279 0.011181275 0.20691451 0.19593565 0.227986 0.14420266 -0.08653198
-0.045737974 -0.14378138 0.0036062486 -0.072341874 -0.017703786 0.041313313 -0.11538843 -0.08145163
0.25659075 0.06131865 -0.19876078 0.085551426 0.0002834431 -0.009151321 0.149266 0.12637533
0.017167324 0.098809585 0.16269799 0.018754594 -0.12563953 0.055083286 0.056970105 0.05804333
0.11867586 0.12017861 -0.017417004 0.182338 0.18584406 0.18992722 -0.17580669 -0.13530937
-0.14506505 0.036206905 -0.124199815 0.21345213 -0.049177196 0.17749873 -0.071612805 0.23702393
0.051992845 0.12716448 -0.03658226 0.11827947 0.041344263 -0.049323175 0.2260177 -0.05926059
0.10352773 0.18015246 0.16239402 -0.23826827 -0.116224855 -0.19445519 0.15659833 0.078372516
0.02897752 -0.20414783 0.082436964 0.0579215 -0.18113253 0.03343318 -0.05788704 -0.23434317
-0.12733677 0.18783036 -0.17987017 0.20259526 0.110655695 0.081628114 0.010790645 -0.12175606
-0.22592084 -0.21934487 0.13885711 -0.18864769 0.17423864 0.20624003 0.0637091 -0.12886673
0.016269466 -0.17003967 -0.06322865 -0.19357106 0.00088355585 -0.15744771 -0.036048137 0.11108023
-0.06962679 -0.13099971 0.19570284 0.035510913 -0.09884066 0.18813518 -0.033322893 0.14917035
-0.25108838 -0.18066947 -0.10333085 0.09080497 0.12039942 0.21141848 -0.024294948 0.12922764
-0.14377552 -0.11141074 -0.05932532 -0.20740324 0.2213326 0.13266103 0.23119271 0.27329087
0.20584379 -0.052451562 -0.077293105 -0.005400699 0.21693295 -0.08472087 -0.0828498 0.09636271
0.06681496 0.08648902 0.1453654 0.029140798 0.06999956 0.1121923 0.02748301 0.09205126
0.24491581 0.1554762 0.15225449 0.00035288034 -0.12955797 -0.00052740355 0.0035297265 0.08013993
-0.069692336 0.113776855 -0.064671196 -0.0594585 -0.13500287 -0.22411564 -0.094430156 0.0809489
-0.03406175 -0.21360134 0.010547582 0.15479457 0.039552357 0.075024 0.078265145 -0.040110018
0.12819728 -0.119814776 -0.1376298 -0.23872985 0.18016048 -0.19762923 -0.10364376 -0.14318912
-0.18868837 -0.024337087 -0.21503384 0.039143343 -0.004138281 -0.1629668 0.16470769 -0.18873838
0.13676353 -0.073653005 -0.043157 0.03330281 0.044763602 0.125059 0.0027866967 -0.064457834
0.26295823 -0.1474463 -0.1749414 -0.19927914 0.08169583 -0.17212157 0.17429224 0.10374304
0.09300299 0.10632739 0.12686563 0.23818529 0.13564737 0.23376797 0.07592028 0.21182156
0.1384412 0.102400705 0.1769775 0.215507 -0.050099112 0.22041948 -0.040944982 0.014583055
-0.15542428 -0.0013560529 0.09036832 0.13393483 -0.12024487 0.12737115 -0.06286466 -0.22247604

cnn.0.bias f4 [32]
00000000: ce7b 563e f585 08bd 27f9 e53d daf7 663e
00000010: f56e b3bd fde1 ba3d 50e7 3bbc 5d56 6c3e
00000020: 1bfe 163e f428 503e 0d35 ed3d b459 13be
00000030: a3ee d6bd e044 d63b 3b53 353d a2f1 0b3e
00000040: dc82 593e b388 f5bd cf70 48bd 56f4 5d3e
00000050: 3114 253d 7923 093d 5a5c c8bd 48be b73d
00000060: 20be 223e a6bd 2b3e 9d65 53be 6af0 27be
00000070: b953 203e 30c7 423e ba70 a93c 4140 26be
0.20945665 -0.033330876 0.11229163 0.22555485 -0.08761398 0.09125135 -0.011468723 0.2307982
0.14745371 0.20328122 0.11582384 -0.14389688 -0.10494735 0.0065389723 0.044268828 0.13666394
0.21241325 -0.11988964 -0.048935708 0.21675238 0.04030246 0.033481095 -0.0978324 0.0897184
0.1589284 0.16771564 -0.20644231 -0.16400304 0.15656938 0.19021297 0.020683635 -0.16235448

cnn.3.weight f4 [64, 32, 3]
00000000: a076 843d 8788 dc3b 855c ecbc dddc 3dbc
00000010: 3c7f e1bc c213 bdbc 2ab6 1dbd 12ee a73d
00000020: 6fae 643d 9d1c c8bc b6aa f9bc 266d ab3c
00000030: c567 803c e2c6 573d f35b a5bd 0db3 833c
00000040: 7f96 b73d f8e6 9b3d 94c9 acbc 28ff f2bc
00000050: e9d9 98bd 9676 8e3d 78eb 213d 6fa9 de3d
00000060: 8f90 acbd 43a2 393d 54f9 81bd c553 9e3d
00000070: 03be 9ebd a78b c23d 8a34 8abc 8180 463d
00000080: 5122 c03d 1d7f 7e3d 0c82 4fb9 b17d 5f3c
00000090: 250e bebc 46b3 833c d74a 87bd b7e4 03bc
000000a0: 8182 3e3d d671 2a3d 7436 b8bc 451f b1bd
000000b0: bf83 143d b681 44bd ccae 94bd bc62 233d
000000c0: b007 a73d ecc1 62bd 9f04 34bd 7a59 a13d
000000d0: a4d7 91bd 7d45 893c d528 d13d 262c 283d
000000e0: bf0e 7a3b 5f1e adbd 73c0 983d 856a f83c
000000f0: 345b d03d eb5f e83d 2fb8 873c 37d2 a63d
00000100: 1506 32bd a2de e2bb c0bb 0ebd c166 de3d
00000110: cba8 b73d 77ce 663a 6bf3 bd3d b856 9bbd
00000120: aedc 1a3d df59 9b3d a65e c13c 0d01 bf3d
00000130: 0b26 cf3d c745 97bb 91ab 85bc f41d 853c
00000140: 164b c8bd 1558 e0bd 0d0b 9dbd 5365 9c3d
00000150: 9530 88bd a9d6 adbc e803 bdbc 44c5 653d
00000160: 67a9 3ebd ff13 23bd b59c f33d 2e73 243d
00000170: 34d3 e33d d59d a23d faba 8ebd 06b9 e83c
00000180: daef 68bd 3c6e de3d ddc4 8d3c 2c00 40bc
00000190: d24a f03c 8789 99bd e6bf 013d ad1c 4fbc
000001a0: 1552 5f3d 20b1 983d 57e0 0f3d f87d ef3d
000001b0: 2788 bdbd 7c96 9fbb 465d ffbc e738 d63d
000001c0: eb7d 2cbd 9490 6ebd 1322 3dbd e962 1ebe
000001d0: 4b05 72bd 7600 99bd 80b2 62bd 364f f13d
000001e0: e808 77bc 03a8 9ebd 704a 9f3d e631 23bd
000001f0: eb3a 8fbd 7eb1 943d 8c85 183d d740 c93b
00000200: 541b 9c3d 2fbc 3c3d 8e63 cabd 1a78 61bd
00000210: bb75 bdbc 6379 2e3d 4950 de3d f560 a63d
00000220: 9a82 a13d 5c10 92bd 09df 9a3d 205a 88bb
00000230: b151 15bd 2107 713b 1f4e 033c b8c7 063d
00000240: aa0d b83d ecf3 5cbd 0f1b f13d 2752 b6bc
00000250: b3b5 cdbd fefa c43c 9e2f 8abd 37f9 6abd
00000260: 5837 a7bb 1daf 3b3c 5b5b 2dbd aafe d43c
00000270: 0f5a b43c fc1a 963c 65e3 f6bc 5d27 a4bd
00000280: 25b8 b53d 5cdb 1cbd f552 943d d4b7 b43d
00000290: fa14 93bd 11b9 67bc 2a06 a0bd bd5c b2bd
000002a0: b5cc ccbd f181 aabc c128 38bd 7ebb 4a3d
000002b0: 242f 4ebd 18e2 e53d 9e3e 053d 772a 2ebd
000002c0: b0c2 933d f0cc 61bd 6225 363d 2151 7dbd
000002d0: 40ba b43d 029c 6dbb 9919 963c 7344 28bc
000002e0: 2226 773d 5755 be3d ce5f c1bd bdcb 863c
000002f0: 3381 0c3d dc61 68bd 1833 bb3d f7ec c6bd
00000300: 7c25 983d 1412 e93d ca17 bb3c b15d b33d
00000310: 13f1 64bb 91ee a7bd d16e ef3d b199 54bb
00000320: 9af8 843d bdcc bc3b ec7f 39bc db24 073e
00000330: 22de 213c 2488 5c3d f647 ca3d 681f fe3d
00000340: 81e3 063e 0b7d 4f3d 5ef9 35bd b3c5 ac3d
00000350: 9e2d 8c3d 672d ec3d ba2c 25bd a863 19bd
00000360: 62f7 2cbd 0aac 763d ec53 a3bd 5b14 943c
00000370: 124b df3d 2b89 d13d 697e d8bc fc38 96bd
00000380: ba06 79bd acbc 9ebd 351f f53c bfbf 67bb
00000390: fd10 c9bd 8e9a d63c cd25 62bd 6b94 5ebd
000003a0: 90e2 a23d 6249 923d 7ba3 8fba 9595 2e3d
000003b0: 6fd0 d4bd cc82 c6bd bb3f b4bd 1670 a3bd
000003c0: 3289 8ebc d751 1e3d 7b62 ec3d 2e01 b6bc
000003d0: 2d8f 8bbc bc59 ea3b 4c76 e43d f513 0b3e
000003e0: db41 4fbd 26f2 a1bc a47a cb3d ea55 92bd
000003f0: 00d8 6c3c 86df f33c 12ba 81bc 0da1 723d
0.064679384 0.0067301425 -0.02885271 -0.011588302 -0.02752649 -0.02308071 -0.038503803 0.08199705
0.055830415 -0.024427706 -0.03047691 0.02092607 0.015674481 0.052679904 -0.080741785 0.016076589
0.08964252 0.07612413 -0.021092214 -0.029662684 -0.07463438 0.06956212 0.0395312 0.10872161
-0.0842601 0.04532076 -0.06346384 0.077308215 -0.077510856 0.09499293 -0.016870756 0.048462395
0.09381545 0.062132943 -0.00019789505 0.013640807 -0.023200104 0.016076695 -0.066060714 -0.008050135
0.046511177 0.04161247 -0.022486903 -0.08648542 0.036258455 -0.047975264 -0.07259902 0.039889082
0.08155763 -0.05536072 -0.04394972 0.078783944 -0.07121208 0.016756767 0.10212866 0.04105773
0.0038155762 -0.084530585 0.07458582 0.03032423 0.101736456 0.1134642 0.016567318 0.08145564
-0.04346283 -0.0069235126 -0.03484702 0.108594425 0.089677416 0.00088045694 0.09274944 -0.075849
0.037808113 0.07585501 0.023604702 0.09326372 0.10114678 -0.0046164724 -0.01631716 0.016249634
-0.097799465 -0.109543 -0.076681234 0.076365136 -0.06649891 -0.021220522 -0.023073152 0.05609633
-0.046548273 -0.03981399 0.11895124 0.040148906 0.11124268 0.0794026 -0.06969257 0.028408539
-0.056869365 0.10860869 0.017305786 -0.011718791 0.029332552 -0.074969344 0.03167715 -0.012641114
0.05452164 0.07455659 0.035126057 0.116939485 -0.092544846 -0.004870234 -0.031172406 0.10460072
-0.042112272 -0.05824335 -0.046175074 -0.15467419 -0.05908708 -0.07470791 -0.055346012 0.117826864
-0.015077807 -0.077468894 0.0777787 -0.03984251 -0.069936596 0.072604164 0.037236735 0.0061417627
0.076224 0.046077903 -0.0988227 -0.05504618 -0.023127427 0.042596232 0.10855157 0.08123962
0.078862384 -0.071320266 0.07562072 -0.0041611344 -0.03645486 0.003677793 0.008014231 0.03290531
0.08986981 -0.05394356 0.11772739 -0.02225597 -0.10044422 0.024045464 -0.067473635 -0.057366576
-0.005103033 0.0114553245 -0.04232345 0.02600034 0.0220156 0.018323414 -0.030137727 -0.080153205
0.088730134 -0.038295135 0.07242385 0.08824125 -0.07181735 -0.014143244 -0.07813676 -0.08709095
-0.09999982 -0.020813914 -0.04496074 0.049495213 -0.050337926 0.112247646 0.03253042 -0.042520966
0.07214868 -0.055127084 0.044469245 -0.06184495 0.08824587 -0.0036256318 0.018322753 -0.010270226
0.0603391 0.09293621 -0.094421014 0.016454572 0.0343029 -0.05673395 0.09140605 -0.09713166
0.074290246 0.11380401 0.022838492 0.087581046 -0.003493373 -0.081998 0.116910584 -0.003244024
0.064927295 0.0057617114 -0.011322003 0.13197653 0.009879621 0.05384077 0.09877007 0.12408334
0.13172723 0.05065636 -0.04442727 0.08436146 0.06844638 0.11532097 -0.040325858 -0.037448555
-0.04222811 0.060222663 -0.07974991 0.018076112 0.109029904 0.10231241 -0.026427465 -0.07335088
-0.06079743 -0.0775083 0.029922107 -0.0035362092 -0.098176934 0.026196744 -0.05521183 -0.05434076
0.079533696 0.07142903 -0.0010958755 0.04262312 -0.10391318 -0.09692916 -0.08801218 -0.07980363
-0.017399404 0.038652267 0.11542221 -0.02221736 -0.017036045 0.0071518105 0.11155376 0.13581832
-0.050599914 -0.019768786 0.09935501 -0.07145293 0.014455795 0.02976967 -0.015835796 0.05923562

cnn.3.bias f4 [64]
00000000: 0ed3 8b3d d9b4 81bd 809d 643d 540c ad3d
00000010: deb7 9d3d 4e20 d3bc 3580 473c e1a6 29bc
00000020: 8119 993d cdf1 84bd a01c d83d dd93 193c
00000030: 89e4 90bb d5f6 30bd c900 bb3d 5ce9 933d
00000040: 50d6 f13c 7d59 7f3d a5e2 73bc a051 d4bd
00000050: 7610 e53d ccdc 693d 4903 42bc 5c1c 9c3d
00000060: 8d75 da3d 96e7 3ebd 4982 28bd 3e49 2fbd
00000070: 7b28 5e3d 0823 993c d244 d63d dc7c 88bc
00000080: c376 fb3c f30e 4cbd eb2a b13d ac56 173c
00000090: 501c 8a3d bf8d 02bd 02d1 47bd 5251 ad3d
000000a0: 3ffe 1f3d 5175 043e c452 12bd b78b 81bd
000000b0: 2af3 593d fa3e 093d 7517 2a3d 43d1 153d
000000c0: 195f 0bbd 40c9 21bd 09d7 553d b4b3 fe3c
000000d0: e8dd 80bd efbc b43d e462 f13d 0779 79bd
000000e0: 7c7c 19bd b740 b13d d3f7 5ebd a91d 98bd
000000f0: 6b94 bcbd 0cfc 903d 4706 003c c919 9d3d
0.06827365 -0.06333322 0.055814266 0.08449617 0.077010855 -0.02577224 0.012176563 -0.010354728
0.074755676 -0.06491432 0.10552335 0.009373632 -0.0044217748 -0.043204147 0.09131009 0.07222244
0.029521137 0.062341202 -0.014885579 -0.10367131 0.1118478 0.057095334 -0.011841604 0.076225966
0.10666952 -0.046607576 -0.041139875 -0.04279446 0.054237824 0.018693462 0.10462345 -0.0166611
0.030696278 -0.049818944 0.08650764 0.009236973 0.067436814 -0.03187346 -0.04878331 0.08462776
0.039060827 0.12935378 -0.035723463 -0.063254766 0.053210415 0.033507325 0.041526277 0.03657652
-0.03402624 -0.039498568 0.052207027 0.031091549 -0.06292325 0.08825099 0.1178644 -0.060906436
-0.037472233 0.086549215 -0.054435562 -0.07427532 -0.09207996 0.07079324 0.007813997 0.07670934

lstm.weight_ih_l0 f4 [512, 64]
00000000: 9b50 cf3d fa80 a2bd 57dc bf3d 67d0 77bd
00000010: caca 24bd 33fb a9bd 9dd9 86bd 6232 23bc
00000020: 5fed d33d d24a 563d 8d9f 74bd 1f6a ecbc
00000030: 90f1 aebc 8571 c43d 0fc7 82bd f1e9 293d
00000040: 8be4 5b3d f7ba 70bd 7891 993d 3326 1bbc
00000050: dc64 de3d 9d18 df3c c7aa bebb 14c3 1d3c
00000060: b716 5cba 9d1b 913d 2247 ba3d 52a0 bebc
00000070: 8eb4 29bd 3021 99bc d05a 43bd dc39 b43d
00000080: 7b9a 3dbd dd32 613d d8f1 cf3d 147d a2bd
00000090: f9c8 83bd 2102 083d 4d0f 433d 4a3c 01bd
000000a0: 02f4 d5bc 6757 0cbc 75f9 cfbc 7e4d cf3d
000000b0: 2bdc 0ebd 18de 71bd 19e6 b43d db60 273d
000000c0: f131 a63c 085a 76bd a14b ab3c 086d 9abc
000000d0: 68e0 923d 51af 02bd 1e69 ac3d 0c34 d43c
000000e0: 3841 73bd 41da ac3d 0155 d8ba 85e3 63bd
000000f0: cbf7 f5bc 2f82 15bd 08ca 193e 98c0 8abd
00000100: c4f1 28bd de7e 013e dceb ea3d d58a ef3d
00000110: 572d 073c 0099 0bbd 7f02 92bd 02d6 863d
00000120: 7437 af3d eb10 58bd 7d8c 4cbd 1a78 fdbc
00000130: 8bd9 5c3d 38eb 45bb c6d0 943b 57a3 a63d
00000140: fa05 3abd 1936 d8bc 588c 723c 46e8 563d
00000150: dda5 883d 6e12 be3d df6b 1f3d 7390 1a3e
00000160: 5592 e03d 676f 99bd 7c29 d6bc 42d2 d43d
00000170: 29bc 3c3c dd3a 12bd e55c 8e3d 23c6 c63d
00000180: b4f4 77bc 5fd3 583d d1a5 983d aaca f73d
00000190: 807b af3d cf6a b23c 2119 c0bd 39f3 eb3d
000001a0: 0b0b 763c 9859 e63d 0e16 323d 8015 72bc
000001b0: a194 043e 7c93 d13d 8d9c 8c3c 85f6 113d
000001c0: 421d b83c 07d4 cb3c 99e8 8b3d 6207 f73c
000001d0: d2cd e9bc e872 45bc adc5 8ebc 9327 b53d
000001e0: 12ab 9d3d dd7f 3cbc ad6c d43c 9365 893c
000001f0: 7658 3abd 2e94 30bd 9c57 15bd 4de1 c03d
00000200: 6c79 bdbb fa33 6c3b dfc8 b53d 8b77 d63d
00000210: 5b1e 3e3c 26d5 b63d 0a31 593d cf37 0f3d
00000220: 8a5b ce3c 93a2 0e3d fc76 963d 6b95 783d
00000230: ab6b 8a3d f1ba 6c3c 0d1a 74bc f855 ce3d
00000240: 37bc 5c39 9c48 063e 1e1b 803d ef7d b1bb
00000250: 5239 3ebd eedc 1a3c d047 08bd 9ffb debc
00000260: c967 1bbb e55f 153e 2646 8d3d 8bc2 0c3d
00000270: 6e0f efbc 7126 9fbd d9c2 77bb 6561 653d
00000280: 540a 893c 7435 9d3c 0c8f 1c3d 3fd5 a1bd
00000290: 7807 9f3d 0bee 8abc b971 533c c4ca 3a3d
000002a0: 8ed4 c43d 9ac4 4f3c 805b 9a3d d228 03bd
000002b0: 86ea 7a3d 586c ddbc 019b cf3c 2574 d9bc
000002c0: 3f68 da3d 425c 8d3c fe67 b5bd 2ae7 1abd
000002d0: 0f42 d93d f754 3ebd 1396 be3d 476e 9fba
000002e0: fbe7 a23d 27b0 b0bc 49c5 9b3c 0a33 233c
000002f0: 0f07 b03d 9d01 cf3d fdae f33c 0d87 65bc
00000300: 2836 56bd cde4 2a3c ed65 54bd 8539 893d
00000310: 15ae 61bd df65 9f3d 1942 a83d 4750 a63d
00000320: f35b abbc 8b51 83bc e02c 563d 7f72 4f3c
00000330: 3a14 9b3b 425c fcbc f390 013d 507c a33d
00000340: e795 76bd b6f9 38bb 3b18 273d 2cee 9f3d
00000350: f55e 36bd b418 243d c5ea a83d 2826 703d
00000360: a047 9a3c 4023 4f3d 17ce 953d 96fd 593d
00000370: e1cb 393d d40f 953d ddfe 29bd d2e5 6e3c
00000380: c497 f53c 7b5b 7e3d 0a74 03bd c4c1 d2bc
00000390: de44 3f3d 4c41 dbbc 29d5 b8bc 60ac d93d
000003a0: d17f 173d 1cb3 a23d 16d5 ad3b 3f55 de3d
000003b0: b030 3dbc 4ec3 b53d 5121 4fbd f7c7 963d
000003c0: d97e 08bd 25f8 a2bd 1d1a dbbc 1ec2 cabc
000003d0: 2b00 a33d 8802 33bd a405 9dbc cfec d73c
000003e0: 933f e9bc 77f6 fbbc d480 71bd 6452 bf3c
000003f0: bf19 843d 555d 953d 3920 81bc c111 ad3d
0.10122796 -0.079347566 0.09368198 -0.060501482 -0.040232457 -0.082998656 -0.06584475 -0.009960743
0.10348009 0.052317448 -0.059722472 -0.028859196 -0.02135542 0.09591965 -0.06385624 0.04148287
0.053684752 -0.058772054 0.07498449 -0.009469557 0.10859081 0.027233416 -0.005818698 0.00962903
-0.0008395719 0.07085345 0.09095599 -0.023269806 -0.041431956 -0.018692583 -0.047694027 0.08800098
-0.046289902 0.054980148 0.1015355 -0.07934013 -0.06434817 0.033205155 0.047622014 -0.031551637
-0.026117329 -0.00856576 -0.025387505 0.10122202 -0.034877937 -0.059049696 0.0883295 0.040863853
0.020287486 -0.060144454 0.020910086 -0.018850818 0.07171708 -0.031905476 0.08418487 0.025903724
-0.05938837 0.08440066 -0.0016504825 -0.0556369 -0.030025383 -0.036501106 0.15018475 -0.067750156
-0.04124619 0.12646052 0.11470768 0.11696402 0.008250556 -0.03408146 -0.07129382 0.065837875
0.08555499 -0.05275051 -0.049938668 -0.030941058 0.053918403 -0.0030200016 0.0045414893 0.08136623
-0.045415856 -0.026392983 0.014803968 0.052467607 0.06672261 0.09280859 0.038921233 0.15094166
0.109654106 -0.074919514 -0.026142828 0.10391666 0.01151947 -0.035700668 0.06951312 0.0970576
-0.015134025 0.052935954 0.07453502 0.12099202 0.08568478 0.021779446 -0.09379793 0.115210004
0.015017281 0.112475574 0.043478064 -0.014775634 0.12947322 0.102332085 0.017164493 0.03563549
0.022474889 0.024881376 0.06831474 0.030154888 -0.028540526 -0.012051322 -0.017428244 0.08845439
0.07698645 -0.011505094 0.025930727 0.016772067 -0.04549452 -0.043110065 -0.036460504 0.09417973
-0.005782297 0.0036041723 0.08876204 0.1047202 0.011603917 0.089273736 0.053025283 0.034965333
0.025190134 0.03482301 0.07346913 0.06068937 0.06758817 0.014448867 -0.014898789 0.10074991
0.0002105095 0.13113636 0.06255172 -0.005416624 -0.046441384 0.009452088 -0.03327161 -0.027219592
-0.0023712984 0.14587362 0.068981454 0.034365218 -0.029182162 -0.07771004 -0.0037805347 0.056001086
0.016728558 0.019190527 0.038222358 -0.079020016 0.077650964 -0.01695921 0.012905532 0.04560353
0.09610854 0.012681151 0.075369835 -0.03202135 0.061258815 -0.027029201 0.025342466 -0.02654464
0.106644146 0.017255906 -0.088577256 -0.03781811 0.10608303 -0.046467748 0.09305968 -0.0012163603
0.07954403 -0.021568371 0.019014971 0.009960899 0.08595096 0.101077296 0.029746527 -0.014009249
-0.05229774 0.010430527 -0.051855016 0.06700424 -0.05509766 0.07783102 0.08215732 0.081207804
-0.020917868 -0.016030094 0.05228889 0.012661575 0.004732636 -0.03080571 0.031632375 0.07982695
-0.06020155 -0.0028225011 0.040794592 0.078090996 -0.04452415 0.04006262 0.08247904 0.05863014
0.018832982 0.050570726 0.07314699 0.053220354 0.04536045 0.072784096 -0.041502822 0.014581161
0.029979594 0.06209896 -0.032093085 -0.02572716 0.046696536 -0.026764534 -0.02256258 0.10628581
0.03698713 0.07944319 0.005304943 0.10856103 -0.011547253 0.08875142 -0.050568882 0.07362359
-0.033324096 -0.07957486 -0.02674585 -0.024750765 0.079590164 -0.043703586 -0.019167729 0.026358036
-0.028472697 -0.030757172 -0.05896075 0.023354717 0.06450223 0.07293192 -0.015762435 0.08450652

lstm.weight_hh_l0 f4 [512, 128]
00000000: f3f2 3dbb b8d4 713a e770 343c 5e9c 773c
00000010: 659a 9abb 2d6a 533b 9d23 e13c 67dc 513b
00000020: 7d91 a7bd e880 d3bc cbe7 a9bd 5fa3 29ba
00000030: b5de 6bbd 048a 093d 22d6 dc3d c15c e23c
00000040: 3134 c9bc c203 f13d 0f1b 00bd 945b bfbd
00000050: e169 8bbd 948d 5d3d 1b71 053d 0f1e 9a3c
00000060: dcea 893c 7250 d13d cb7c 743c 435d 10bd
00000070: 455c 453d 01a0 ca3c 9c50 aebc b33f 8c3c
00000080: 7950 bf3d dc44 82bd 31b8 a7bd 735c b3bd
00000090: 0f91 51bb b5a3 a53c abc3 32bc 181c b3bd
000000a0: 845e 04bd 7c29 963c 47c4 cd3d 03b2 c63d
000000b0: c761 b6bd 8e6d 7b3c 5c5f b7bc ad1f 9bbd
000000c0: 81f6 dabb 86c0 61bd 2bfd 6abc d508 eb3d
000000d0: 22c0 a1bd 1882 7b3c a55a b53b 090b 36bc
000000e0: f609 b63d ddd7 70bd c13d 643d ba33 7cbd
000000f0: c7fd 843c afa9 bf3d 44b9 4cbd f356 da3d
00000100: da32 fbbd 473c 6f3d 5e2d cfbd 9c3c 6bbd
00000110: 3e74 6ebd e889 d8bc abd5 92bc a611 ab3b
00000120: c9a9 d6bd 8a3e ddbd 3dc7 05bd dcbc d13d
00000130: 933e ac3d 8845 a43d e703 7f3d ae15 4b3d
00000140: 462c 0c3d 4288 763d df1d 6ebd 6519 a5bd
00000150: 607b 7d3a 9ad3 3cbc 5754 3f3d d90a af3c
00000160: 77ef 8c3d e1f8 843a 8aa6 a4bd 5f16 463d
00000170: 9593 3d3d 5bf5 9abc 1e4c 7a3d 4ff8 3cbd
00000180: 3dcb 003d c66d 9ebd 3305 e5bb 1e7e e1bb
00000190: f993 b23d f321 e4bb 057b 16bc 85c8 d3bb
000001a0: 08ef 96bc 5480 1b3c b854 863d 1f6d 853d
000001b0: d30d 413d 1bae 6d3d c710 f5bc 9f1a d5bd
000001c0: 5a12 0b3d b5ca a93d 7a1e 20bd 006a 393d
000001d0: 5570 013d c25c 39bd 1ae4 6b3b f1c0 66bd
000001e0: 1b85 2d3c 819e e33d 327c f23c 7ffc 2fbd
000001f0: 9c1f 1439 9e05 d1bd 897a 9fbc 5529 803d
00000200: 59d3 73bd fb3a 2a3d 2f8e a03c daa9 3c3d
00000210: 0938 113e fc5f ac3d 372c ee3c 24cf 073e
00000220: a980 1abd f0f1 09be ca39 8abd 7a32 5c3d
00000230: 5f9c 953d b3ff a43d 6e1a 193e d36f 8ebd
00000240: ddcf 72bd 985d 36bb 7ff3 0bbd bc55 24bc
00000250: a649 3b3d 58bf 8cbd 125b 153e e924 41bd
00000260: e143 be3d c928 af3c aae7 66bb 67a1 82bc
00000270: a22b 31bd 1e87 bc3c ad32 2d3d 5c33 1d3a
00000280: fe94 f53d 10ee 01be ec6c adbd d603 b23c
00000290: db0e 06bd f8cf abbd 708b be3c b8a0 2ebd
000002a0: c80e 22bd f622 ca3d 3175 463d a7d1 7e3b
000002b0: a1ce f6bd 82f0 3cb9 8d84 ddbd 84be 2abd
000002c0: ed1d ca3d d8ba 09be aeed 0e3c 54de 0c3e
000002d0: a8e4 87bd 87d4 e03c 8a62 17be e0a8 a5bc
000002e0: b372 fb3d d5b1 e1bd f387 da3d 0d15 bc3a
000002f0: 6954 9cbd 8102 023d db20 0ebe 7383 d8bc
00000300: 59d5 413d 028a ac3b e33f cfbd 5ecc 34bd
00000310: 3344 96bd 347f fc3c 45bb 9e3d 28a8 ecbc
00000320: ebe7 88bd 3ffe 80bd 1788 1ebe edad ac3c
00000330: d108 873d e343 e43c 8c92 06be 539a 8b3d
00000340: 25bb ea3d fb15 e13d 6dd3 51bd a670 ab3b
00000350: 905c 7e3b 3328 e9ba c03a ef3d c65a b9bd
00000360: 139f 073e 35db 3f3d d466 86bd 4a31 9cbd
00000370: 8625 dfbd b022 e43c 4b4a c5bd be84 013e
00000380: 3c11 833a f9d1 cbbc bdb2 cbbc f30e 013e
00000390: 474e 693d 1e73 b33c 5a75 82bd 798c d83d
000003a0: 81a3 ed3d 65ce b4bb ec68 4bbd aa22 35bc
000003b0: d106 b63b 073d f9bc cfc9 23be 1186 0ebe
000003c0: 3d6e 093e 1b6e 183e 5358 f63d b404 72bd
000003d0: deed 3b3d 72ce aa3d 9351 8e3d a5e6 c6bb
000003e0: ae20 273d 2df3 7c3c 3c97 923d 1f1e 40bd
000003f0: 0bdf 1b3b e7a1 e5bd 4366 173e 5bd1 103c
-0.002898392 0.0009225118 0.011013246 0.015112964 -0.0047181123 0.003225933 0.027482802 0.003202224
-0.081820466 -0.025818303 -0.08296164 -0.00064711826 -0.057585437 0.033578888 0.1078303 0.02763212
-0.02456102 0.11768295 -0.031275805 -0.09343639 -0.06807304 0.054090098 0.03257857 0.018813161
0.016835622 0.10220422 0.014922331 -0.03524519 0.0481837 0.024734499 -0.021278672 0.017120218
0.09341521 -0.0636079 -0.081894286 -0.08757868 -0.003197733 0.020219663 -0.010910909 -0.08745593
-0.0323167 0.018330328 0.100472026 0.09701922 -0.08905368 0.015345944 -0.022384338 -0.07574401
-0.0066822176 -0.055115245 -0.0143425865 0.11476294 -0.078979746 0.015350841 0.0055344873 -0.011111029
0.08888619 -0.058799613 0.055722956 -0.061572768 0.016234292 0.093585365 -0.04998137 0.106611155
-0.122655585 0.058407094 -0.10116075 -0.05743085 -0.058216326 -0.026432946 -0.01792415 0.0052206097
-0.10481603 -0.10802944 -0.03266071 0.102411 0.084103726 0.080210745 0.06225958 0.049581222
0.03422191 0.06018854 -0.058133956 -0.08061484 0.00096695684 -0.011525059 0.046711292 0.021367477
0.06881612 0.0010144972 -0.08039577 0.04836118 0.046283323 -0.018915823 0.061107747 -0.046135243
0.031443823 -0.07735781 -0.006989145 -0.0068814894 0.0871963 -0.006962055 -0.009184604 -0.006463113
-0.018424526 0.009491045 0.065591276 0.06514954 0.047132324 0.058027368 -0.029915227 -0.10405468
0.03395305 0.082906164 -0.039091565 0.045267105 0.03160127 -0.045254476 0.0035994113 -0.056336347
0.010590817 0.111142166 0.029600237 -0.04296541 0.00014126155 -0.102061495 -0.019467609 0.062578835
-0.05952773 0.041560154 0.019599048 0.04606042 0.14181532 0.08416745 0.029073818 0.13262612
-0.037720356 -0.13471198 -0.06749304 0.053759076 0.07305216 0.08056583 0.14951488 -0.069549225
-0.059280265 -0.0027826782 -0.034167763 -0.010030206 0.045724533 -0.068724334 0.14585522 -0.04715434
0.092902906 0.021381753 -0.0035233297 -0.015946103 -0.043254502 0.023013648 0.042284656 0.0005996728
0.11991309 -0.1268847 -0.08468041 0.021730345 -0.03272901 -0.08389276 0.023259848 -0.042633742
-0.039564878 0.098699495 0.048451606 0.0038882287 -0.1205113 -0.00018018673 -0.10816298 -0.041685596
0.09868989 -0.13450181 0.008723659 0.13756686 -0.066354096 0.027445091 -0.14783683 -0.020222127
0.122777365 -0.11020247 0.106704615 0.0014349535 -0.076332875 0.03174067 -0.13879721 -0.026429867
0.047322605 0.0052654753 -0.10119607 -0.044140212 -0.07337227 0.030822374 0.077505626 -0.028888777
-0.0668486 -0.062984936 -0.15481602 0.021079028 0.065934785 0.027864402 -0.1314184 0.068165444
0.11461476 0.109905206 -0.051227022 0.0052319346 0.0038812496 -0.001778847 0.116811275 -0.09050517
0.13244276 0.04683991 -0.06562582 -0.07626589 -0.10895829 0.027848572 -0.09633311 0.12648293
0.0009999643 -0.024880396 -0.024865502 0.12603359 0.056959417 0.021905478 -0.06370039 0.10573668
0.116034515 -0.005517768 -0.04966061 -0.011055628 0.005555012 -0.030424608 -0.15994953 -0.1391833
0.13420959 0.14885752 0.12028565 -0.059086516 0.045881145 0.083401576 0.06949153 -0.0060699754
0.04080265 0.015438837 0.07157752 -0.046903726 0.0023784067 -0.11212521 0.14785103 0.008838977

lstm.bias_ih_l0 f4 [512]
00000000: 0aff 5fbc 19ee 793d ae13 fc3d 0a73 ba3d
00000010: adc0 873d 670c 2c3c 7dad 713b 31c9 e53d
00000020: f7a8 413d 7b08 c93d 515f aa3d 759f 12bd
00000030: 7521 883d 8525 893d 7004 513d 10b8 ab3d
00000040: eb87 d93b 8bf5 be3d 54d0 d83d e583 853b
00000050: b2ec a43d fff0 90bc f9bb 353d f524 a13d
00000060: 043e 2c3d 2104 8a3d 17d6 eb3d 4b67 c9bc
00000070: f626 a23b 81a5 68bd 4ada 94bc 3b48 a13d
00000080: 61a3 583d 4646 8d3d 3eb2 cb3d 7b48 0abd
00000090: 06ca a5bc 2288 e63c 75d8 353d 3d98 503d
000000a0: d765 773d 212f be3c eb88 ac3c 7555 553c
000000b0: 7707 e33d 2130 c73d 57f1 15ba f07b 973d
000000c0: 270e 943d e23f b73d 1ea3 c83d b77b 6a3d
000000d0: 74c4 b4bc 7d3a 643d 5f19 143d 8e52 993d
000000e0: a6f8 84bd c6a9 01bd a9bb c6bb 5114 55bd
000000f0: 8ce9 e93c a3e9 3b3d 8968 e83d 125f 3dbc
00000100: 7939 d63d 6221 c0bc 6534 62bd 3598 d23d
00000110: 198d 873a 4255 a23d c2b8 2d3c da64 cf3d
00000120: bd4b 433d aa09 613d 8d64 3bbd 4ab2 213d
00000130: af01 c43d ec41 a33b 7311 d33d 8cbc a93c
00000140: 0ed6 ad3d d846 503d bc50 d43d 42d2 eebc
00000150: c2a6 efbc d2c9 db3b e275 083c 50eb d33d
00000160: daa6 0a3e 5f29 2cbc 491a 1e3d 7d40 c8bc
00000170: 56ab 0a3e 2249 793d 126b 523d ae8e bdbc
00000180: 8050 ac3c bc77 f5bc 8270 d0bc 47a5 163c
00000190: 08bc 3c3c 9859 75bb 04ee 14bd da71 54bd
000001a0: 9e78 383d 84e3 f8bc e27d e83d ba48 c43d
000001b0: d35c a23d f617 903d 62d6 a03d 6c5c c03d
000001c0: a7bf bb3d c5d6 b13d 645f 9d3d 9b16 473d
000001d0: 8846 b33d 7357 733d 21e5 26bd 7f5c 9db9
000001e0: c5f5 c83d 197c b83d 8e18 c93d b48f ae3d
000001f0: ffa0 cb3d bdac a33d 216d c63d c222 833d
00000200: aa31 35bd 2427 633d 8473 a8bc 1a98 46bd
00000210: d0b8 34bd e75d 923d 9085 26bc 078c 193d
00000220: eb8c 81bd 2def 873d 37b7 343d e3e4 ad3d
00000230: 5f37 1d3d 86f8 b4bc 68c1 7e3d c111 693d
00000240: 5f85 8c3d aed6 1fbd 8315 f93d 2e6f 4a3c
00000250: 4f6d 52bc 7a03 6f3d ac1f 85bc f746 30bc
00000260: bb89 543d e5da 1abd 9fe1 a03d 6829 88bd
00000270: 06ac 72bd 5db5 80bc f6e0 4fbd a1ce 8f3d
00000280: d1c8 eabc 4bd1 083d 8f0a 8dbc 1471 a8bc
00000290: f6e2 da3d 7e2a 90bd 5a6d 233d efb4 e43c
000002a0: 2662 47bd 01fc e8bc 014d 293d 25a3 953c
000002b0: 5652 3ebc efd6 08bc 8b20 b33d 4fa9 ec3c
000002c0: d075 a83d 5831 753d 7453 f63d bb7e c8bb
000002d0: cf8d 413d 63b1 23bd bad8 eaba 07c9 673d
000002e0: c757 3d3c 92bf 8e3c 2de5 973d 57b3 45bd
000002f0: b9fc 313b 84fe 473c b7c2 e03d b4cf ef3d
00000300: ac61 293c 5269 4f3d 3527 d43b 9fdc a03d
00000310: dd7a 71bc b3dc cb3c e196 0ebd 59b0 293d
00000320: 3714 083d 98af 413a 0848 3f3d a7f8 8fbd
00000330: e1b8 7fbd 8f12 7fbd a55a ca3d 65df fa39
00000340: 2714 debb e844 31bc 1cc6 36bc 3422 0b3d
00000350: a526 4cbd 6dd9 dabc 13bd a13d 398c d03d
00000360: 0e8d 943d 9cf0 68bc 4c48 df3c 1820 d83d
00000370: 5551 473d dfba 553c e025 bbbb 596c 9ebc
00000380: c033 00bc 5085 db3c 0af2 193c 4f3a d03c
00000390: 5d07 403d 4443 593d 61fa ee3c b529 8d3d
000003a0: 7f2a d73b a211 963c ff69 f839 b128 e33d
000003b0: 613f dcbb fba1 c13d b526 dcbc 2f4c 26bd
000003c0: e571 263d 0462 78bd 629f a43d f515 843c
000003d0: 0c35 583d 9dcb 14bd 080d 123c c79d 68bd
000003e0: d2a7 863c 9cb5 37bc 4695 8b3d 1c45 45bd
000003f0: 3629 743d f796 f73c 9ce6 11bd aac8 b63d
-0.013671646 0.061018083 0.12308441 0.09103973 0.06628547 0.010501004 0.0036877089 0.11220015
0.047280278 0.09816071 0.083189614 -0.0357966 0.066470064 0.066966094 0.051029623 0.083847165
0.006638517 0.09324177 0.105866104 0.004074561 0.080529585 -0.01769304 0.044368718 0.07868377
0.04205133 0.06739069 0.11515444 -0.024585387 0.004948492 -0.05679846 -0.018170495 0.07875105
0.052890185 0.06898169 0.099461064 -0.03376053 -0.020237934 0.028141085 0.044395883 0.050926436
0.060399856 0.023215832 0.021061381 0.013020863 0.11085408 0.09725977 -0.00057198614 0.07396686
0.07229262 0.089477316 0.09796737 0.05724689 -0.022066332 0.05571984 0.03615701 0.07486449
-0.064927384 -0.03165605 -0.0060648513 -0.05202133 0.028553747 0.04587711 0.113480635 -0.011558311
0.10460181 -0.023453418 -0.05522575 0.102829374 0.0010341733 0.07926418 0.010603132 0.10126658
0.04767965 0.054940857 -0.04575019 0.03947667 0.095706336 0.0049822237 0.103060625 0.020719789
0.08488093 0.050848812 0.10366961 -0.029152993 -0.029254321 0.0067074085 0.008328887 0.10347617
0.13540211 -0.0105079105 0.038599286 -0.024444813 0.13541922 0.06086076 0.05137164 -0.023139324
0.02103448 -0.02996432 -0.025444273 0.009194679 0.0115194395 -0.0037437435 -0.036359802 -0.05186639
0.045036905 -0.030381925 0.11352135 0.09584184 0.07927861 0.0703582 0.0785339 0.09392628
0.09167414 0.08683542 0.0768421 0.048605543 0.08753687 0.05940957 -0.040745858 -0.00030014288
0.09812502 0.09008045 0.098191366 0.08523503 0.09942817 0.079919316 0.096887834 0.06403114
-0.044236816 0.05545725 -0.020562895 -0.0484849 -0.044121563 0.07146817 -0.01016368 0.037487056
-0.06325706 0.06637416 0.04412004 0.08490922 0.038382884 -0.022091161 0.062196165 0.056901697
0.06861376 -0.039023094 0.12162306 0.012355609 -0.012843444 0.058352925 -0.016250454 -0.010759107
0.051889163 -0.03780641 0.07855534 -0.066485226 -0.059246086 -0.01571148 -0.05075165 0.07021833
-0.02866021 0.033402722 -0.017216949 -0.020561732 0.106878206 -0.07039355 0.039899208 0.027918307
-0.048677586 -0.028440477 0.041333202 0.01826627 -0.01161631 -0.008352025 0.087464415 0.028889326
0.08225596 0.05986151 0.12027636 -0.006118623 0.04725438 -0.03996409 -0.0017917373 0.0565882
0.011556572 0.017425332 0.07416759 -0.048266735 0.002715869 0.012206677 0.10974639 0.11709538
0.010338228 0.05063755 0.0064744004 0.0785458 -0.014738766 0.024885511 -0.034811858 0.041427944
0.033222403 0.0007388531 0.046699554 -0.070298485 -0.062432174 -0.06227356 0.0988057 0.00047850158
-0.0067773047 -0.010819651 -0.011155631 0.033968166 -0.04984154 -0.026715005 0.07897391 0.10182995
0.072534665 -0.014217522 0.027256154 0.105529964 0.04866155 0.013045042 -0.005711302 -0.019338774
-0.007824838 0.026796967 0.0093960855 0.025418429 0.046882022 0.053042665 0.029172124 0.068927206
0.006566345 0.018318955 0.0004738122 0.11091746 -0.0067214225 0.094547234 -0.026873926 -0.040599998
0.040635962 -0.06064035 0.08038212 0.016123751 0.052784964 -0.036326993 0.00891424 -0.056791093
0.016437445 -0.011212733 0.06815581 -0.04816161 0.059609614 0.030223353 -0.035620317 0.089249924

lstm.bias_hh_l0 f4 [512]
00000000: 8c8c 683a a7a4 92ba 4ed1 393b e6f7 953d
00000010: 019d 0ebc c6a1 b63b ef37 b6bc 540a 3e3d
00000020: 1f3d d93d ea39 813d d2d6 2b3c 01eb 023c
00000030: f4fe ca3d 3bcf eb3d 27d4 8c3d 2e0f f13d
00000040: 96f0 493c 38bf 803d 33f6 093d 08d5 073e
00000050: 2b62 11bd d3b7 353b 5950 983d 3d67 b53d
00000060: 9f9e 943d 0816 39bd 6250 923c 7dd5 03bd
00000070: 35ee c13d efb1 133d 8f65 933d c480 fdbb
00000080: 00f7 be3d 23b2 093c b92f dcbc 99b1 1fbd
00000090: 1e61 c5bc 408b a33d 00ba 30bd 88f4 2f3e
000000a0: acdb e53d 7074 5abd 59d9 62bd e806 363d
000000b0: 624b b13d b88a 1cbc abdb 3ebd 4d42 ed3d
000000c0: 5769 693c 7ab3 013d aedb ab3c df23 6cbd
000000d0: 165f 60bc 4017 99bb 4d31 3a3d 211c ce3d
000000e0: fe8b dc3c a057 293d 39bc b93d 47c7 873d
000000f0: 0c3a 983d 26e9 813d 308b 98bc ccda 813d
00000100: 8fe0 ab3d d5ad 233d 3cc2 a83d 2816 6bbd
00000110: 4162 943d c3b7 273d 70c3 9b3c 55f2 e83d
00000120: f50c 643d db45 dcb9 8519 f2b9 497b d0bc
00000130: 190a 6b3d 5a26 a73d 5fce a63d 4a02 763d
00000140: 0352 7f3d 6b56 883d b5e9 6c3d ae16 07bb
00000150: 8b2e 773d 81a9 af3d b15b ab3c 1223 a73c
00000160: cfe1 043d a42d c73d 2d22 9c3d 26d2 163d
00000170: 2df9 6f3c 2a8b f03c 5e99 eb3d fa15 613d
00000180: 7163 763d 8f23 ac3d 464a 2cbd 731e 73bc
00000190: 8090 55bd 67b8 c43d ec6f d5bc f6ce 35bd
000001a0: a644 d5bc 1f03 f2bc 48a0 ca3d 4b88 6b3c
000001b0: f3fa 81bb 60e8 5dbd 3625 ec3c 7559 acbb
000001c0: 9c7a b73d a26a 0abd 7e33 393c ab8c fcbc
000001d0: 1762 443d b727 65bd 9ae1 ee3c 5daa a33c
000001e0: 4d74 e03d 6a66 a53d d453 db3d 9525 96bc
000001f0: d976 7c3d 88da 6abd 0730 353d e076 7bbd
00000200: 46b3 61bd 5c8b 9f3d 22c1 ad3d d034 583c
00000210: 774f c33c 7c18 bf3d a6ff d2bc db9e 923d
00000220: 88d9 c1bc 73b3 803d 62f0 b33d ce8d 113d
00000230: 5f91 323c ecef 6dbd f6a8 07bd 6026 aa3d
00000240: 7d0f 90bc 90b1 13bd 0274 1cba a6ee 9f3d
00000250: 8bcb 633d 1cf1 433d 2645 493d e15e 3d3d
00000260: 775b 16bd c6d9 b03d c404 9ebc b6b3 873d
00000270: 5c73 01bd 7b6f 83bd d3eb 683d 00f4 a73d
00000280: 6128 b43d 905c 39bd 600d 03bd 4058 9e3d
00000290: 5e00 68bc 1a51 643c 80e7 9dbc 089f a7bb
000002a0: 02ff caba 340a 95bc 9fc9 233d a374 903d
000002b0: 91c3 993d 39b3 063e 37f1 ac3d bb28 923d
000002c0: 105a a73d c28b 2c3d c0d3 00bd fb08 9c3c
000002d0: 0bd4 863d c4c2 8bbd 679a a43d fbde 543c
000002e0: 2435 943c 342d 10bc 9fee 773d 2442 b53d
000002f0: 8148 1b3d 8b6f 023e 9bb2 20bd 6030 953c
00000300: 2177 793d 05d3 9dbc 7e41 9abc 0026 6f3c
00000310: 0c58 553c 9466 673d 67f8 923d ea16 13bd
00000320: a30f c8bb ad5b acbc 024c 193d 252b a43c
00000330: 9aeb ae3d 14f8 3abc 3ddd f23d bb9a 823d
00000340: ce67 0c3a 12b2 a53d 8f35 2b3d 8650 58bd
00000350: 04b5 d4bc c5af 8abd b965 e3bc 113a 1dbd
00000360: b06a e03c 6478 6d3d 4a23 103c a537 5f3d
00000370: c66d ef3d 3690 8aba f490 a83c 3dc4 103c
00000380: 64af 803d 893b 903d c1f9 35bd 7ec8 35bc
00000390: ef5d f83c f514 bb3d 1bc8 783d dffa b13d
000003a0: 1111 ec3d 246c b63c e694 0a3e c7cd d53d
000003b0: e1d1 c23c 4a85 0f3c 344c c63d f984 cb3d
000003c0: 657c 49bd 4735 2fbc bf94 d13d c03a 9c3d
000003d0: 437f c53d 5c4f a2bc efe8 8fbd cf11 d53c
000003e0: 6ec9 ffbb f391 b83b 6afb a63c cf38 34bc
000003f0: f00c 41bd db4d 893c b47b dd3c 3884 2abd
0.0008871041 -0.0011187986 0.0028353515 0.073226735 -0.008704425 0.005573484 -0.022243468 0.04639657
0.10607361 0.06309874 0.010488229 0.0079906 0.0991191 0.115141355 0.06876402 0.117704734
0.012325427 0.06286472 0.03368206 0.13264859 -0.03549401 0.0027727976 0.074372 0.08857582
0.07256817 -0.045187026 0.017860595 -0.03218602 0.094692625 0.036058363 0.07197105 -0.0077362973
0.09324455 0.0084042875 -0.026878225 -0.03898773 -0.02409416 0.07985544 -0.043146133 0.17183125
0.1122354 -0.0533337 -0.05538306 0.04444018 0.08656956 -0.0095545575 -0.04659621 0.115849115
0.014246306 0.031665303 0.020978775 -0.057651397 -0.013694545 -0.004671961 0.045457173 0.10063959
0.026922222 0.04134333 0.09069104 0.06629806 0.074329466 0.06343298 -0.018621057 0.0634056
0.083924405 0.0399607 0.08240172 -0.057394177 0.07245303 0.040946733 0.01901409 0.11374346
0.05567642 -0.00042013716 -0.0004617685 -0.025449412 0.057382677 0.08161612 0.08144831 0.060060777
0.06233407 0.06657108 0.057840068 -0.0020612883 0.06034712 0.08577252 0.020917745 0.020402465
0.03244191 0.09725502 0.07623706 0.036821507 0.0146468105 0.029363234 0.11503862 0.0549526
0.06015343 0.0840522 -0.04206302 -0.014838803 -0.05213976 0.096054845 -0.026054345 -0.044386826
-0.02603371 -0.029542504 0.098938525 0.0143757565 -0.003966683 -0.05417669 0.028826337 -0.0052596875
0.08958933 -0.0337931 0.011303781 -0.030828794 0.04794511 -0.05594608 0.02916031 0.019978696
0.109596826 0.080761746 0.10709348 -0.018328467 0.06163678 -0.057337314 0.044235256 -0.061392665
-0.05510261 0.077902526 0.08484103 0.013196185 0.023841603 0.09330842 -0.025756668 0.071592055
-0.023663297 0.06284227 0.08786084 0.035535626 0.010898917 -0.058090135 -0.033120118 0.08308101
-0.01758551 -0.03605801 -0.0005968214 0.078091905 0.055614036 0.04783736 0.04913821 0.04623306
-0.03670832 0.08635287 -0.019289382 0.06626074 -0.031604156 -0.064177476 0.056865525 0.08200836
0.08796764 -0.04525429 -0.031995177 0.07731676 -0.014160244 0.013935352 -0.019275427 -0.0051153935
-0.0015487375 -0.018193342 0.039987203 0.07053497 0.075080045 0.13154306 0.084444456 0.07136675
0.08171475 0.04212547 -0.03145194 0.019047251 0.06583413 -0.06824258 0.080372624 0.012992616
0.018091746 -0.00879984 0.0605303 0.08850506 0.037910942 0.12737863 -0.03923283 0.018211544
0.060904626 -0.019265661 -0.018830057 0.014596462 0.01302148 0.05649431 0.07176285 -0.035910524
-0.0061053797 -0.021039808 0.037426002 0.020040104 0.08541031 -0.0114116855 0.11858604 0.06377169
0.0005356044 0.08090605 0.041799124 -0.052811168 -0.025965221 -0.06771807 -0.027758466 -0.038385455
0.027394623 0.05797614 0.008797476 0.054496426 0.116908595 -0.0010571543 0.020576932 0.008835849
0.06283453 0.070426054 -0.044427637 -0.011095164 0.030318229 0.091348566 0.06073771 0.08690428
0.11526693 0.022268362 0.13533363 0.104396395 0.023781719 0.008759806 0.09682503 0.09937472
-0.049190897 -0.010693855 0.10233449 0.07628393 0.09643414 -0.019813232 -0.070268504 0.026009468
-0.0078059947 0.005632633 0.020383555 -0.010999872 -0.04713148 0.016760757 0.027036525 -0.04163

lstm.weight_ih_l1 f4 [512, 128]
00000000: f6bd 4e3d 4c79 9e3d c2fb 49bd d08b a33d
00000010: fe4f 07bd 33d3 a7bd b4a3 a83d cfd5 21bd
00000020: 3e9b 92bd c86f ad3b a2d1 3bbd b9ef fd3c
00000030: 4c12 0d3c 83d9 a0bc d4eb 71bc 546e 5f3c
00000040: b166 2bbd 11ac 303d e2c2 603c bcd6 21bd
00000050: eb75 bebd a97c dabc 26f7 dfbb f451 ddbc
00000060: a017 63bd d010 3c3c 60d4 853b b6ba 8b3d
00000070: 705e a9bd 52e2 12bd 54dc 61bd d857 c63d
00000080: 8550 873d 76f4 4c3d d261 a9bd c14d 833d
00000090: 47ac ca3c dbf5 e4bd 2637 4d3d ffa7 94bd
000000a0: a46e 363c 7539 d13d 9684 503d 0828 553d
000000b0: 9dc9 9f3a cf3d 263d 75bb 79bc c493 bf3d
000000c0: 78cb 95bc 49fc 90bd 8d3f a23d 21ee c63d
000000d0: f6d2 edbd c2f6 fdbc 2510 4fbd d6e3 84bd
000000e0: e699 113d ead2 a9bb d3e9 8e3c 5479 523d
000000f0: b8e9 853c a40f 0d3d 2c20 2b3d b6a2 77bc
00000100: 43a0 f3bd 46ba 9e3c 18ce 90bd 0d5c ecbc
00000110: f688 663b 4cd7 e1bd ea28 d83d 96c2 11bd
00000120: eaf7 ebbd f1db ddba c084 94bd 1960 31bd
00000130: 0ac6 f2bc fcf4 ca3c 9f0a 4a3d 7611 683d
00000140: ef25 983c 16e6 ae3d 141b 82bd eb41 b5bc
00000150: 448f 10bd 74d3 da3b 9e4c e0bb 74e9 7fbd
00000160: 429a 823c 6bea 983d 28ff 8abd ca3e 583c
00000170: e784 433d afb2 0dbb 0415 6cbd 15ef e53d
00000180: 43ee 97bd f73e adbc 7a13 5a3d 1cda a43d
00000190: e245 da3d 5b28 6abd 2470 78bd 6e00 64bc
000001a0: 97df 9fbc b86c d23c ce0a 983d 458e c93a
000001b0: a226 e8bc 4421 e23c dcc1 c1bd 87fe 47bd
000001c0: 5215 a23d 5639 e53d 498e 093d 17f5 433d
000001d0: f8ee 51bc 6ece 42bd 4f4d afbc be22 a03d
000001e0: d055 9f3c 805f ba3d 40d4 70bd cc3e a13c
000001f0: b5df a7bc b966 32bd af71 3b3d de21 9d3d
00000200: c222 f6bc 09c8 503b 3b6a 59bd 7c00 dabb
00000210: de0e aabb e8c7 bfbd 95b3 46bc ffd9 5cbc
00000220: 08d8 3bbd 9010 2abd a382 4c3a c0ac c43c
00000230: 79ad 35bd d996 f83d 5cbd 4dbd 8dbe 53bd
00000240: 5438 423d fe2a 73bd 5350 973d 7745 663d
00000250: c893 ffbc 1b14 8b3d d200 c23d 65f3 3b3d
00000260: c80a 9d3c e3ee d1bc c805 42bd 03bd c63c
00000270: fb20 9d3c 667f 713d de87 99bc cad2 74bd
00000280: 62bb b13d 4892 b7bd 110c dfbd c214 81bd
00000290: 0b6c 443c 6534 d73b 39b8 95bd 5c80 8fbd
000002a0: 4c60 c1bc 3e6f 8abc 137d bd3d 219b 5a3d
000002b0: 6515 123d 2036 15bd 7d59 533b 96bc 8ebd
000002c0: 072e 6bbd bea2 be3c c5df ff3b 55a7 8b3d
000002d0: 8556 a8bd 51d8 4fbd 6bf0 9abd 4aa9 92bb
000002e0: ae2e 7ebd 67f7 463d 0c59 833d d9ec 3b3d
000002f0: 5c26 0b3d 3693 0dbd f9c1 bcbc 2355 923c
00000300: 6fef dfbc 9c54 1fbd 2731 96bb d700 03bd
00000310: d9e2 8bbd b4c6 7a3d 5c45 22bd d71a 7dbd
00000320: afb1 3d3d 3ba7 8d3d 58ea 83bd a193 483d
00000330: acea dfbc 1153 643d d344 9a3d b330 0d3d
00000340: a7d4 573d 551a 84bd 8f0c 86bc 9cac 9bbd
00000350: af25 d33c 01ae 2bbd 05ca 2dbd 03c2 5ebd
00000360: a3db 33bd f3de 5a3d 0a8e 4bbd b0a5 e43d
00000370: 7a55 1a3c e999 beba 700d c9bd fe7d d73b
00000380: 1e84 46bd 881e 623d 1a5b e23b 8802 873d
00000390: 96a0 54bd cc61 24bd e475 febc 6a78 17ba
000003a0: 1b67 ed3c 1220 963c f07f 743d ddb4 923c
000003b0: bb66 adbd 593b 9cbd 0b92 acbd 63ac 9bbd
000003c0: 14d7 e6bc 0008 a63d ccff 903d 890b 6abd
000003d0: 1714 27bd f4df 88bd 8920 1f3d 38da d5bc
000003e0: 6ef6 58bd 730d 853d ccf9 18bd a3d0 683d
000003f0: fe4a 503d 37e0 753d 7963 3dbd 4ab6 853d
0.05047413 0.07737979 -0.04931236 0.079856515 -0.03303527 -0.0819458 0.08234349 -0.039510544
-0.07158516 0.0052928664 -0.04585422 0.030998098 0.008610319 -0.019634968 -0.014765698 0.013637144
-0.04184598 0.043132845 0.013718339 -0.039511427 -0.09299835 -0.02667077 -0.0068348823 -0.027016617
-0.055442452 0.011478618 0.004084155 0.06822722 -0.08269966 -0.035860367 -0.055141762 0.096847236
0.06607155 0.050037824 -0.08270611 0.06411315 0.024740351 -0.11179706 0.05010142 -0.07258605
0.011134777 0.10216037 0.050907694 0.05204013 0.0012190823 0.04058629 -0.015242447 0.09354356
-0.018285498 -0.070793696 0.079222776 0.09713388 -0.11612503 -0.031001452 -0.050552506 -0.06488769
0.03554716 -0.0051826136 0.01744548 0.05138524 0.016346797 0.034438744 0.04177873 -0.015114477
-0.11895802 0.019375931 -0.07070559 -0.028852487 0.003517685 -0.11027393 0.10554679 -0.035585962
-0.11521895 -0.001692651 -0.072518826 -0.043304536 -0.029635448 0.02477502 0.049326535 0.056657277
0.018572776 0.08539979 -0.06352821 -0.022126159 -0.03529288 0.006678039 -0.006845071 -0.062478498
0.015942696 0.07466587 -0.067869484 0.013198564 0.047734167 -0.0021621396 -0.05763723 0.11227242
-0.07418492 -0.021148188 0.05324123 0.080494136 0.1065786 -0.057167392 -0.06065382 -0.013916118
-0.019515796 0.025686607 0.07423936 0.0015377483 -0.028338734 0.027603753 -0.09460804 -0.04882672
0.07914223 0.111925766 0.03358296 0.047841158 -0.012813322 -0.047560148 -0.021399168 0.078191265
0.019450098 0.091002464 -0.058796167 0.019683264 -0.020492414 -0.043554995 0.045762714 0.07672475
-0.03004587 0.0031857511 -0.053079825 -0.00665289 -0.0051897606 -0.09364301 -0.012127777 -0.013479709
-0.04586032 -0.0415197 0.0007801449 0.024008155 -0.04435489 0.12138147 -0.050229415 -0.051695395
0.047417 -0.059367172 0.073883675 0.05621859 -0.031198397 0.06790944 0.09472813 0.045886416
0.01917018 -0.025626605 -0.047368795 0.02426005 0.019180765 0.058959387 -0.018741544 -0.059771337
0.086783186 -0.08963448 -0.10890973 -0.06302787 0.01198865 0.006567525 -0.07310528 -0.070069045
-0.023605488 -0.016898748 0.09252372 0.0533706 0.035664935 -0.03642857 0.0032249384 -0.06969564
-0.057416942 0.02327096 0.007808658 0.068190254 -0.08219627 -0.050743405 -0.07565387 -0.0044757472
-0.062056236 0.048575785 0.06413469 0.045880172 0.03397213 -0.03456422 -0.023041712 0.017862862
-0.02733585 -0.03889905 -0.004583496 -0.031983223 -0.06830377 0.061224654 -0.039616928 -0.061793175
0.04631203 0.06916662 -0.06441182 0.048968915 -0.02733358 0.05574328 0.075326584 0.03447027
0.052693035 -0.06450335 -0.01636341 -0.07601282 0.025774805 -0.04191399 -0.04242899 -0.054384243
-0.043910634 0.053435277 -0.049696006 0.11164415 0.009419793 -0.0014541718 -0.09817016 0.0065762987
-0.04846584 0.055204898 0.006907833 0.0659228 -0.05191096 -0.04013233 -0.031062074 -0.0005778136
0.028979829 0.01832584 0.059692323 0.017908508 -0.0846686 -0.07628507 -0.08426293 -0.076012395
-0.02817873 0.08106995 0.070800394 -0.057139907 -0.040790644 -0.06683341 0.038849387 -0.026105031
-0.05296939 0.06496706 -0.0373476 0.056839596 0.050852768 0.06002828 -0.046237443 0.065289095
