models/cnn_lstm_modelmodel.pth (torch, 992915 bytes, 15 tensors)

cnn.0.weight f4 [32, 7, 3]
0	0x3e72681f	0.23672532
1	0xbe32f88e	-0.17477629
2	0x3d02d6a3	0.031942975
3	0xbd54e28c	-0.051973864
4	0x3d27b9ef	0.040948804
5	0x3e71d485	0.23616226
6	0x3d920501	0.07129861
7	0x3e559242	0.20856574
8	0xbe1e961b	-0.15486948
9	0x3dc91883	0.09819128
10	0x3e802edf	0.2503576
11	0x3ded9cee	0.116021976
12	0x3e2acfbe	0.1668081
13	0x3dae288e	0.08503829
14	0xbe0666d1	-0.13125159
15	0x3de9c707	0.114149146
16	0xbd21eec4	-0.039534345
17	0x3e66fe3a	0.22557917
18	0x3ce4ad2a	0.027914602
19	0xbd8bb3b2	-0.068213835
20	0x3d8f2fcb	0.06991538
21	0x3e09a79d	0.13442846
22	0xbe10f4d7	-0.14155899
23	0xbdb8839a	-0.09009476
24	0xbe10e5b0	-0.14150119
25	0x3cc647c9	0.024204152
26	0xbdf5d3e0	-0.120033026
27	0xbce30d27	-0.027716232
28	0xbd8d262b	-0.068920456
29	0x3d7ed429	0.06221405
30	0xbe2af648	-0.16695511
31	0xbe13613b	-0.14392559
32	0x3e04cefb	0.12969582
33	0xbe6049b1	-0.21903111
34	0xbdbe4947	-0.0929132
35	0x3e52748a	0.20552269
36	0xbc50b754	-0.012739021
37	0x3e328862	0.17434838
38	0xbd8949bb	-0.06703516
39	0xbdc88791	-0.09791482
40	0x3e61acfa	0.22038642
41	0x3dd64d1f	0.104639284
42	0xba86943b	-0.0010267565
43	0x3c6d89ed	0.014498216
44	0xbe0ddf80	-0.1385479
45	0xbce27e13	-0.027648007
46	0xbd957aa1	-0.0729878
47	0xbd89c27d	-0.06726549
48	0xbda22066	-0.07916336
49	0xbd8d110b	-0.06888016
50	0xbe0e237b	-0.13880722
51	0x3df2eb9b	0.118613444
52	0x3db7ec06	0.08980565
53	0xbe1dbf07	-0.15404902
54	0xbd3e7b7b	-0.04650448
55	0xbdfc93ee	-0.12332903
56	0x3df4bc6c	0.11950001
57	0x3e849ba9	0.2590001
58	0xbd2f81a6	-0.04284825
59	0x3c9898aa	0.018627483
60	0x3da42b41	0.080160625
61	0xbe1a5775	-0.15072425
62	0x3e4d7221	0.20063068
63	0xbc8a621d	-0.016892487
64	0x3e3286d4	0.17434245
65	0xbd77f977	-0.060540643
66	0x3dafb2e8	0.085790455
67	0xbdf2a65a	-0.11848135
68	0xbe08b3ff	-0.13349913
69	0x391c392c	0.00014898618
70	0x3d6fba08	0.058527023
71	0xbce9aaa6	-0.028523754
72	0x3d587614	0.052846983
73	0xbe26d22a	-0.16291109
74	0xbdfcb6bd	-0.12339542
75	0x3e370e81	0.17876627
76	0x3db9698d	0.09053335
77	0xbbf5cd9a	-0.0075013163
78	0x3dee036b	0.11621746
79	0xbe50aad9	-0.20377673
80	0xbe3ae0a8	-0.18249762
81	0xbd88fbbb	-0.06688639
82	0x3d4e5d22	0.050381787
83	0x3e1d0697	0.15334545
84	0x3c7bb638	0.015363269
85	0xbe4b1621	-0.1983266
86	0x3e671700	0.22567368
87	0x3e4557cd	0.19271775
88	0x3e081310	0.13288522
89	0x3e3037ff	0.17208861
90	0x3e48ee72	0.1962221
91	0x3d63510b	0.05549721
92	0x3d82a4af	0.06379067
93	0xbd50d2a4	-0.050982133
94	0xbe3b9efb	-0.18322365
95	0x3d30768b	0.0430818
96	0x3e21a3c5	0.1578513
97	0x3e193fda	0.14965764
98	0x3de16ee8	0.11007482
99	0x3dd799cb	0.105273806
100	0x3e0b7aae	0.13621017
101	0x3cdea888	0.027179971
102	0x3c575be8	0.013144471
103	0xbd310721	-0.04321969
104	0xbe765abd	-0.24058051
105	0x3befd9c3	0.0073196604
106	0xbd808894	-0.0627605
107	0xbe35b74b	-0.17745702
108	0xbde48b62	-0.11159398
109	0xbe627be7	-0.22117577
110	0x3d4cbc55	0.049984295
111	0x3df0cb4f	0.11757528
112	0xbdd88f79	-0.1057424
113	0x3d871fe1	0.06597877
114	0x3e680a59	0.22660197
115	0x3e011f93	0.12609701
116	0xbca4181d	-0.02003103
117	0x3e4959e4	0.19663197
118	0x3e3c5b0c	0.18394107
119	0x3e22adfb	0.15886681
120	0x3cc6625a	0.02421682
121	0xbe7a2263	-0.2442718
122	0xbe2d1966	-0.1690422
123	0x3d138240	0.036012888
124	0xbdc54ea7	-0.09634142
125	0x3d8cf2c7	0.068822436
126	0xbe491fb2	-0.19640997
127	0xbdbd3beb	-0.09239944
128	0xbded95af	-0.116008155
129	0xbbe74986	-0.007058325
130	0xbe14b92c	-0.14523762
131	0x3dfa22c7	0.122136645
132	0xbe1eda0e	-0.15512869
133	0x3dc64a32	0.096821204
134	0x3e33e0f4	0.17566282
135	0x3da2904b	0.07937678
136	0xbda7619f	-0.081729166
137	0x3e846777	0.25860187
138	0x3dff2589	0.12458331
139	0x3e1b5aa0	0.1517129
140	0xbd616130	-0.055024326
141	0xbe6b92bd	-0.23005195
142	0x3e31b883	0.17355542
143	0xbace923d	-0.0015760135
144	0x3e065fd7	0.13122497
145	0xbe7c25fd	-0.24623866
146	0xbe13d7fa	-0.14437857
147	0x3e009d46	0.12559995
148	0xbdac4d39	-0.084131666
149	0xbde16c7c	-0.1100702
150	0x3e0574db	0.13032858
151	0xbe4f6468	-0.20253146
152	0x3d31e50a	0.04343132
153	0xbe6f7f5f	-0.23388432
154	0xbe4171d9	-0.18891086
155	0x3df9f7ce	0.12205468
156	0xbdce4ee7	-0.10073643
157	0x3c8cd8ee	0.017193284
158	0x3d78a5c1	0.06070495
159	0xbcae08f6	-0.021244507
160	0xbe09bf2b	-0.13451831
161	0xbdae81dd	-0.08520863
162	0x39a90d37	0.00032244038
163	0xbe27617b	-0.1634578
164	0x3dc46589	0.09589679
165	0x3dc1f364	0.09470251
166	0x3ced92e1	0.029000701
167	0x3e5435f1	0.20723702
168	0x3e58c91a	0.21170464
169	0x3e2809d1	0.16409995
170	0x3ccc20b1	0.024917932
171	0x3b4735ab	0.003039698
172	0xbde2cef7	-0.11074632
173	0x3e46465d	0.19362779
174	0x3e5d6744	0.21621424
175	0x3e638031	0.2221687
176	0x3db41d04	0.08794597
177	0x3b49dadc	0.0030800616
178	0x3e1653ab	0.14680354
179	0x3d97bf5b	0.07409545
180	0xbc8e0e0a	-0.017340679
181	0xbd48681b	-0.048927408
182	0x3e36f636	0.1786736
183	0x3d8943d4	0.0670239
184	0xbe73eb9e	-0.2382035
185	0xbe3f6170	-0.18689513
186	0xbd984c8a	-0.07436474
187	0xbc860882	-0.016361479
188	0xbd94ef0a	-0.072721556
189	0xbd55a0a7	-0.052155163
190	0x3d4556c0	0.048178434
191	0x3dec47f8	0.115371644
192	0xbd140851	-0.036140744
193	0x3dabef6c	0.083952755
194	0xbc74aff9	-0.014934533
195	0x3d4336a5	0.047659535
196	0xbe027717	-0.12740742
197	0xbe47e9fb	-0.1952285
198	0x3c85c908	0.01633121
199	0x3e2bf6be	0.16793343
200	0xbd022613	-0.03177459
201	0xbd229749	-0.039695058
202	0xbe767e9a	-0.24071732
203	0x3cc80ef7	0.024421198
204	0xbe77e945	-0.24210079
205	0xbe82cf99	-0.2554901
206	0xbdc0a31c	-0.09406111
207	0x3d59c267	0.053163912
208	0xbe52514d	-0.20538826
209	0xbe584047	-0.2111827
210	0x3e1781d8	0.14795625
211	0x3e0941c8	0.13404
212	0x3d6ab0b8	0.05729744
213	0x3e47057a	0.19435683
214	0x3d0bb360	0.034106612
215	0x3c6b8d92	0.014377015
216	0x3e01bb04	0.12668997
217	0x3dffb4fd	0.12485693
218	0xbe316a55	-0.17325719
219	0x3e4b96cb	0.19881742
220	0xbd1b05d7	-0.037847366
221	0xbe20e9ac	-0.15714139
222	0xbe2b09b8	-0.16702926
223	0xbdc479ea	-0.09593566
224	0xbe8a2422	-0.26980692
225	0x3d79fd28	0.061032444
226	0xbe4c97a5	-0.19979723
227	0xbe434651	-0.19069792
228	0x3cc2f034	0.023796178
229	0xbda3a0eb	-0.07989677
230	0xbdf4610f	-0.11932575
231	0xbb5e6d57	-0.0033939683
232	0x3d154610	0.03644377
233	0x3e184d94	0.14873344
234	0xbdcd4c98	-0.10024375
235	0xbe1868a4	-0.14883667
236	0xbe05fc6f	-0.13084577
237	0xbd82bed2	-0.06384052
238	0xbe15f0dc	-0.14642662
239	0xbdf97daa	-0.12182172
240	0xbd647929	-0.05577961
241	0x3e536d7c	0.20647234
242	0x3dea1341	0.11429454
243	0x3e4ca15c	0.19983429
244	0x3dc7ed2a	0.09762032
245	0x3e531abe	0.2061567
246	0xbe6a04af	-0.22853349
247	0xbd8a9e3b	-0.06768461
248	0xbe391782	-0.18075374
249	0xbe414a7c	-0.1887607
250	0x3e2253e6	0.15852317
251	0xbe60fabd	-0.21970649
252	0xbccfe1c6	-0.025376212
253	0x3bf578ef	0.007491223
254	0xbdf422ff	-0.119207375
255	0xbe3087df	-0.1723933

cnn.0.bias f4 [32]
0	0xbdbeeaff	-0.09322166
1	0x3e65819b	0.22412722
2	0x3e209065	0.15680082
3	0x3e1529bc	0.14566702
4	0x3c9d01a1	0.019165816
5	0x3e24757e	0.16060445
6	0x3e005d07	0.12535487
7	0x3d452a15	0.048135836
8	0xbe5067c2	-0.2035208
9	0x3e7e798c	0.24851054
10	0x3d257c6c	0.04040186
11	0xbdd5314b	-0.104097925
12	0x3e25b179	0.16180982
13	0xbdb54643	-0.08851292
14	0x3e419e8e	0.1890814
15	0x3cf110c7	0.029426945
16	0x3d10b055	0.035324413
17	0x3e6695ae	0.22518036
18	0xbd990407	-0.07471471
19	0x3e2dd31c	0.16975063
20	0xbdb50a99	-0.08839912
21	0x3e805a6f	0.25068995
22	0xbe911a3d	-0.2834033
23	0xbe20d926	-0.15707836
24	0x3e4dfce6	0.20116004
25	0x3e1315bc	0.1436376
26	0x3e674cad	0.22587843
27	0x3e1f5751	0.15560652
28	0x3e518de9	0.2046429
29	0x3dac3a1c	0.08409521
30	0x3dc2d22e	0.09512745
31	0x3e008574	0.12550908

cnn.3.weight f4 [64, 32, 3]
0	0xbd6ef42b	-0.058338325
1	0x3db0b3ae	0.08628021
2	0xbd75f292	-0.060045786
3	0xbd6d537a	-0.057940938
4	0x3d8b2c35	0.06795541
5	0x3c5683b3	0.013092923
6	0xbd0520f7	-0.03250214
7	0x3dab4aff	0.08363914
8	0x3d8cb0f6	0.0686969
9	0x3d161f38	0.036650866
10	0x3dce2f52	0.100676194
11	0x3b94628d	0.0045283497
12	0xbb8b9742	-0.0042599747
13	0x3be3c875	0.0069513866
14	0x3ded808a	0.115967825
15	0x3dba7c55	0.09105746
16	0x3df53493	0.11972918
17	0x3d9b3b74	0.07579699
18	0xbc05db47	-0.008169956
19	0xbd4131ea	-0.047166742
20	0x3db10020	0.08642602
21	0x3c8da1a2	0.017288987
22	0x3c590125	0.013244902
23	0xbdcc7009	-0.099823065
24	0xbd16830b	-0.036746066
25	0x3dcc8f98	0.09988326
26	0x3dcc9b6a	0.099905804
27	0xbdeb92c6	-0.11502604
28	0xbddbfe09	-0.10741813
29	0x3d2b86b8	0.041876525
30	0x3d12f323	0.035876404
31	0xbccf0c95	-0.025274554
32	0x3c5922d5	0.0132529335
33	0x3d2c4e59	0.042066906
34	0x3bbe567f	0.005808651
35	0xbd88ba7c	-0.06676194
36	0xbccf3e8a	-0.025298376
37	0xbca1cadd	-0.019750053
38	0xbd490e33	-0.049085807
39	0x3b937723	0.004500286
40	0x3c5ca0d0	0.013466075
41	0xbd453619	-0.048147295
42	0x3da79241	0.081821926
43	0xbcd6db58	-0.026227638
44	0x3ca4b5b3	0.020106172
45	0x3c8136e4	0.015773244
46	0x3d7cb62f	0.06169718
47	0xbc05ce8a	-0.0081669185
48	0x3bd8c608	0.006615404
49	0xbc8fd806	-0.017559063
50	0x3cd7a674	0.026324488
51	0x3d764fa3	0.06013454
52	0x3d235e49	0.03988484
53	0xbc6e03e9	-0.014527299
54	0xbdb9070f	-0.090345494
55	0x3ab83c67	0.0014056087
56	0x3dba7038	0.09103435
57	0xbdbc0d1f	-0.0918219
58	0x3d601872	0.054710813
59	0xbdbcbf50	-0.092161775
60	0xbd92a267	-0.07159882
61	0x3ca1015d	0.01965397
62	0x3d22f851	0.039787594
63	0x3d359a35	0.044336516
64	0x3da25728	0.0792678
65	0x3d0e13e4	0.034686938
66	0xbdb49139	-0.088167615
67	0x3db4e102	0.08831979
68	0x3ddafff0	0.106933475
69	0x3dbac967	0.09120446
70	0xbd4c7b54	-0.049922302
71	0xbd909e39	-0.070614286
72	0x3da241b3	0.079226874
73	0xbd635c29	-0.055507813
74	0x3bbc1829	0.005740185
75	0xbca275f7	-0.01983164
76	0xbd476e82	-0.048689373
77	0xbd0ea9ab	-0.034829777
78	0xbd679f4b	-0.056548398
79	0x3c962785	0.018329391
80	0x3da106a3	0.07862594
81	0xbce8a63b	-0.028399577
82	0x3dc485bd	0.09595821
83	0xbc0e3e8e	-0.008681906
84	0xbc503efd	-0.01271033
85	0xbca5e7a4	-0.020252056
86	0x3b8a7dc9	0.0042264205
87	0x3db75e0f	0.08953487
88	0x3a2454ac	0.00062687206
89	0x3dc1d9ce	0.09465371
90	0xbd6ff890	-0.058586657
91	0xbcacac23	-0.021078175
92	0xbc862ca8	-0.016378716
93	0x3d88d0f1	0.066804774
94	0xbdde486b	-0.108536564
95	0x3d57d21c	0.05269061
96	0xbd86422e	-0.065555915
97	0x3dcb1e11	0.09917844
98	0x3dd904fb	0.10596653
99	0x3dc4bfb4	0.09606877
100	0xbbfe7818	-0.007765781
101	0x3c814056	0.015777748
102	0x3cadd264	0.021218486
103	0x3d2114d0	0.03932649
104	0x3c8007b1	0.015628668
105	0x3db58297	0.08862799
106	0xbdd145fd	-0.10218427
107	0x3d83427d	0.06409166
108	0x3d4dc3d5	0.050235588
109	0x3dadea1d	0.08491919
110	0x3dc4e113	0.09613242
111	0x3cbb4878	0.022861704
112	0x3db82eef	0.08993327
113	0xbd6e4f11	-0.058180872
114	0xbd0b7744	-0.034049287
115	0xbc408d85	-0.011752491
116	0xbce4cc7f	-0.027929543
117	0xbc9c8bf6	-0.019109707
118	0x3d8c70a6	0.068574235
119	0x3d5f9997	0.054589834
120	0x3c508df1	0.012729154
121	0x3cf1a5f3	0.029498076
122	0x3d2fa3cb	0.042880815
123	0xbd33f4ab	-0.043934505
124	0xbd1de316	-0.038546644
125	0x3da895c0	0.082316875
126	0xbde9fedd	-0.114255644
127	0x3cc7c99a	0.024388123
128	0x3db05ae9	0.0861109
129	0x3be1f5d6	0.006895761
130	0xbd9831e6	-0.07431392
131	0xbdb6a0c3	-0.089173816
132	0x3d1668cc	0.036721036
133	0xbd692068	-0.05691567
134	0xbc5b0733	-0.013368416
135	0x3d1a62c7	0.037691858
136	0x3dc5d300	0.09659386
137	0xbd889d5e	-0.066706404
138	0x3ccc2e26	0.024924349
139	0xbd81575d	-0.06315491
140	0xbcb125b0	-0.021624416
141	0xbcb1ea0b	-0.021718046
142	0x3dc151b6	0.09439413
143	0x3dc519b8	0.09624046
144	0x3d990346	0.074713275
145	0x3d9167bd	0.07099865
146	0x3d769db0	0.060208976
147	0xbc7eb5b1	-0.015546248
148	0xbd820a4b	-0.063496195
149	0x3b0a17f3	0.0021071404
150	0xbc889576	-0.016672831
151	0xbdbc18f0	-0.09184444
152	0xbe0b161b	-0.13582651
153	0x3dda0ebc	0.106473416
154	0xbcddbc82	-0.027067427
155	0xbdf4bf3d	-0.11950538
156	0xbd39f789	-0.045402084
157	0x3d4facf0	0.050702035
158	0xbde3ddfb	-0.11126324
159	0xbd384141	-0.044984106
160	0x3dc49edc	0.096006125
161	0xbc445053	-0.011982041
162	0xbc93967e	-0.018016096
163	0xbce77eca	-0.0282587
164	0x3d7f78a6	0.06237092
165	0x3dad7576	0.084696695
166	0xbca5f1e0	-0.020256937
167	0x3d8db1f5	0.06918708
168	0x3d90de97	0.07073706
169	0x3d9022bd	0.07037876
170	0xbc8284eb	-0.01593252
171	0x3d5ad5f0	0.053426683
172	0x3cbe9b4f	0.023267416
173	0xba2f5d3c	-0.0006689613
174	0xbd105a09	-0.035242114
175	0xbcdd8973	-0.02704308
176	0x3d486550	0.048924744
177	0xbd67fbb3	-0.056636523
178	0xbdad8731	-0.08473051
179	0x3c5b3aa9	0.013380685
180	0x3b9a07cd	0.004700637
181	0xbccd813d	-0.02508604
182	0xbda6d94a	-0.08146913
183	0xbd27f1eb	-0.041002195
184	0xbcec44a9	-0.028841333
185	0xbdddc2ef	-0.10828196
186	0xbd427f30	-0.047484577
187	0xbade09f7	-0.0016940226
188	0xbd5528b1	-0.05204076
189	0x3c5c0b78	0.013430469
190	0x3c2cf07c	0.010555383
191	0x3d73bd89	0.059506927
192	0xbdc9ea10	-0.09859097
193	0xbd1132d1	-0.035448853
194	0x3bf4cff3	0.0074710785
195	0x3da127f9	0.07868952
196	0x3ccef555	0.025263468
197	0xbbe7b164	-0.007070707
198	0xbd8752bf	-0.066075794
199	0x3d22a440	0.039707422
200	0x3c7d3808	0.015455253
201	0xbd257cf9	-0.040402386
202	0xbda52d89	-0.08065326
203	0xbd680fd1	-0.05665571
204	0xbda96f8b	-0.08273228
205	0x3d18dc53	0.037319493
206	0xbd8faa4e	-0.07014905
207	0xbc95237c	-0.018205397
208	0x3d99948b	0.074990354
209	0x3c586b45	0.013209169
210	0x3c5b994f	0.013403251
211	0xbd80c097	-0.062867336
212	0xbce6a282	-0.028153662
213	0xbd15befe	-0.036559097
214	0xbc08e5bf	-0.008355557
215	0x3dc25667	0.09489136
216	0xbd5b6262	-0.053560622
217	0x3d616c7b	0.055035096
218	0x3d4693bd	0.048480738
219	0x3cda3da2	0.026640717
220	0xbd33547f	-0.043781754
221	0x3ac0cdca	0.0014709767
222	0xbdce4cf8	-0.100732744
223	0x3d3a90cb	0.04554824
224	0x3dba00cf	0.090821855
225	0xbc3a7eda	-0.011382783
226	0xbd7c0792	-0.061530657
227	0xbb0e1ff6	-0.002168653
228	0x3b40a27c	0.0029393723
229	0x3bc11907	0.005892876
230	0x3bf56068	0.007488299
231	0xbdb6e35a	-0.089300826
232	0x3c4e9d83	0.012610796
233	0xbdb91062	-0.09036328
234	0x3db22a2a	0.086994484
235	0xbd9c8494	-0.07642475
236	0x3cf1285e	0.029438194
237	0x3c87aa86	0.016560804
238	0xbdb86038	-0.09002727
239	0xbe0447fa	-0.12918082
240	0x3d902ae0	0.07039428
241	0x3db5bdc1	0.08874083
242	0x3d3b2279	0.045687173
243	0xbd93780d	-0.07200632
244	0x3c2f3f2e	0.010696216
245	0x3cb29f84	0.021804579
246	0xbc0f02eb	-0.008728723
247	0xbcfd1ff0	-0.030899018
248	0xbcb3a89c	-0.021930985
249	0x3d56bb9b	0.05242501
250	0x3cb7353e	0.022364255
251	0xbdd5dcd9	-0.10442514
252	0x3d9e0895	0.07716481
253	0x3ae4e4e8	0.0017463239
254	0x3dd129cb	0.102130495
255	0xbca1d7a4	-0.019756146

cnn.3.bias f4 [64]
0	0xbd2f39e5	-0.042779822
1	0xbd23f9f1	-0.040033285
2	0xbd9a6bab	-0.07540067
3	0xbd2e9139	-0.042618964
4	0x3d862c62	0.06551434
5	0xbcaea82e	-0.021320429
6	0x3dd493e3	0.1037977
7	0xbb941bdb	-0.004519922
8	0xbd90979e	-0.07060169
9	0x3d126a0e	0.035745673
10	0xbd9881b8	-0.07446617
11	0x3dce3fa5	0.10070733
12	0xbdbc5db4	-0.0919756
13	0xbdc4f89e	-0.096177325
14	0x3ca10db5	0.019659856
15	0xbd5a507d	-0.053299416
16	0x3df16c35	0.11788217
17	0xbd85163e	-0.06498383
18	0xbc8befea	-0.017082173
19	0x3cea088e	0.028568532
20	0x3dce0829	0.1006015
21	0xbc285fd4	-0.010276753
22	0x3d3c3a8e	0.04595428
23	0xbcba907b	-0.022773972
24	0x3d897696	0.067120716
25	0xbcd8f6ed	-0.02648493
26	0x3d17200f	0.036895808
27	0x3dd431cc	0.103610605
28	0xbd2a8090	-0.041626513
29	0xbc8edf9d	-0.017440611
30	0x3c809812	0.015697513
31	0x3d0815df	0.033223983
32	0x3db7b8ba	0.08970781
33	0xbda0c1de	-0.07849477
34	0xbc83c1db	-0.016083648
35	0x3d853da5	0.065058984
36	0xbd11cf13	-0.035597872
37	0xbd9735d4	-0.07383314
38	0x3d33b31a	0.043871976
39	0xbd84d865	-0.064865865
40	0x3ddf6eeb	0.10909828
41	0x3de2cc34	0.11074105
42	0xbb85b156	-0.004079978
43	0x3da09480	0.07840824
44	0xbdb94114	-0.09045616
45	0x3d86c78b	0.065810286
46	0xbd1f7443	-0.038929235
47	0x3ca49f80	0.020095587
48	0xbd4a1d40	-0.0493443
49	0x3da67e3d	0.08129547
50	0x3d0d9721	0.034567956
51	0xbdc31343	-0.09525158
52	0xbd85bf30	-0.06530607
53	0x3cff24ff	0.03114557
54	0x3db4e0a0	0.08831906
55	0xbdc88088	-0.097901404
56	0xbdbdabc8	-0.0926128
57	0x3ccd84da	0.025087763
58	0x3d418027	0.047241356
59	0xbdd3751f	-0.103250735
60	0x3dbd2a30	0.09236562
61	0xbd3eceb1	-0.046583835
62	0xbdac0e64	-0.08401182
63	0xba195ddc	-0.0005850473

lstm.weight_ih_l0 f4 [512, 64]
0	0xbbdccc24	-0.0067382026
1	0x3dab9de9	0.08379728
2	0xbd3807e6	-0.044929408
3	0x3b5f7196	0.0034094802
4	0xbd2373dc	-0.039905414
5	0x3d4345b0	0.04767388
6	0x3cdddc1a	0.027082492
7	0x3dd3683d	0.10322616
8	0x3c0548b9	0.008135014
9	0x3da68b18	0.08131999
10	0x3ab17612	0.0013539216
11	0xbc0fc177	-0.008774153
12	0x3d29f64c	0.041494653
13	0xbda0d7f6	-0.07853691
14	0xbc573db3	-0.013137269
15	0x3e258e0f	0.16167472
16	0x3aa6c924	0.001272474
17	0x3da2b6bc	0.0794501
18	0xbd20f629	-0.039297257
19	0x3da1f59e	0.07908176
20	0x3d4d6081	0.05014086
21	0x3d60c090	0.054871142
22	0x3db5c270	0.08874977
23	0xbd123935	-0.035699088
24	0x3d494a9a	0.04914341
25	0x3d6f5b91	0.058436934
26	0xbb33e7e1	-0.0027451443
27	0x3d9f9576	0.07792179
28	0x3d145fe2	0.036224253
29	0x3d54972e	0.05190199
30	0x3d9096a0	0.070599794
31	0xbcbddff9	-0.023178088
32	0xbd1b440f	-0.037906703
33	0x3c31c339	0.010849767
34	0x3ddda137	0.10821765
35	0x3d8c3727	0.06846457
36	0xbc4c9690	-0.012487069
37	0x3c8a986a	0.01691838
38	0x3c0d784e	0.00863464
39	0x3b9c5f93	0.0047721355
40	0x3d6daa1d	0.05802356
41	0x3dcd0e6a	0.10012515
42	0x3dd4bbaf	0.1038736
43	0x3d0e34fe	0.034718506
44	0xbd01844d	-0.031620312
45	0x3cae2694	0.02125863
46	0xbdb82a9b	-0.08992501
47	0x3dc53589	0.09629352
48	0x3d338e56	0.043836914
49	0xbc0d00cb	-0.008606146
50	0x3d93478d	0.071913816
51	0xbbe08ee5	-0.006852972
52	0x3d5c9485	0.053852577
53	0x3cf5ca49	0.030003684
54	0xbd68f168	-0.056870848
55	0x3df62914	0.12019554
56	0x3e00678c	0.125395
57	0x3dd33e0b	0.10314568
58	0x3cfc6f99	0.030814933
59	0xbcb66fe9	-0.02227016
60	0x3dda56b8	0.106610715
61	0x3d0ede93	0.034880232
62	0xbd0d699b	-0.03452454
63	0x3d83302b	0.06405672
64	0xbca8d24b	-0.020608088
65	0x3df9e194	0.12201229
66	0xbc457fea	-0.012054423
67	0xbd28cb54	-0.041209534
68	0x3e065c34	0.1312111
69	0x3cafc7c6	0.021457564
70	0x3df60b4c	0.120138735
71	0xbb3b794b	-0.0028606232
72	0x3ce01d6c	0.02735778
73	0xbd30dd77	-0.043179955
74	0xbd8a849c	-0.067635745
75	0x3cd06204	0.025437362
76	0x3ce43777	0.027858479
77	0x3ce037f7	0.027370436
78	0x3b291668	0.0025800709
79	0x3e0df528	0.13863051
80	0x3c3762e4	0.011193011
81	0x3d66b4bb	0.0563247
82	0x3c91d7f9	0.01780318
83	0x3dd1fcb4	0.102532774
84	0x3d362e45	0.04447772
85	0x3e074d0a	0.13212982
86	0xb9eb1358	-0.00044837105
87	0xbcd8182b	-0.026378712
88	0xbcce9a69	-0.025220113
89	0xbaa4635e	-0.0012541821
90	0xbd14d6af	-0.03633755
91	0xbd46030b	-0.048342746
92	0x3e012d3d	0.12614913
93	0xbd51fd27	-0.051266816
94	0xbd5ac642	-0.05341173
95	0xbd74cf0b	-0.059767764
96	0xbd8ca7c2	-0.06867935
97	0x3e0a4dbb	0.13506214
98	0x3d2edaa5	0.042688984
99	0x3de69a22	0.11259867
100	0x3da8f398	0.08249587
101	0xbc1298dc	-0.008947577
102	0x3df83220	0.121189356
103	0xbd4327eb	-0.04764549
104	0x390524bc	0.00012697553
105	0xbcd2f565	-0.025751779
106	0x3d638c7e	0.055553906
107	0xbbbee8ab	-0.005826076
108	0xbcdcc837	-0.026950939
109	0xbd799745	-0.060935277
110	0xbc9ff05e	-0.019523796
111	0x3d019d6c	0.03164427
112	0xbcd114d6	-0.02552263
113	0x3db5a5f1	0.088695414
114	0x3dd2c72d	0.10291896
115	0x3a99f403	0.0011745695
116	0xbd8c3c13	-0.06847396
117	0xbd79ff2d	-0.06103437
118	0x3d2bfb75	0.041987855
119	0x3d2ca0bc	0.042145476
120	0x3d98e417	0.0746538
121	0xbc8e3f5d	-0.017364198
122	0x3dea58bf	0.11442708
123	0x3dd1badf	0.10240721
124	0x3d72b3ee	0.059253626
125	0x3ccd2278	0.02504085
126	0x3ddfd328	0.10928947
127	0x3d83c96b	0.06434902
128	0xbc93521f	-0.017983494
129	0x3cfd1694	0.030894555
130	0xbd9fa58c	-0.077952474
131	0x3e01edc6	0.1268836
132	0x3bdbf203	0.0067121997
133	0x3ba3c261	0.004997537
134	0x3bf25d63	0.0073963865
135	0x3d8685fc	0.06568524
136	0x3d3f60ed	0.046723295
137	0x3d7996c0	0.060934782
138	0x39b42557	0.00034360096
139	0x3cf8bc4c	0.030363224
140	0x3ca3ad5e	0.019980129
141	0x3b99e06c	0.0046959426
142	0x3c57def2	0.013175713
143	0xbd885379	-0.06656546
144	0xbc5016cd	-0.012700749
145	0xbcc3b19c	-0.023888402
146	0xbceff4c6	-0.029291522
147	0x3de513cc	0.111854166
148	0x3d26dec8	0.040739805
149	0x3d4932f6	0.049120866
150	0x3cc7ebc0	0.024404407
151	0x3cdd8bde	0.027044233
152	0x3d2b0106	0.041749023
153	0xbe0433ca	-0.12910381
154	0x3d36b3c5	0.044605035
155	0x3e10baad	0.14133711
156	0xbcdeaa44	-0.027180798
157	0x3d92204c	0.071350664
158	0x3dfee211	0.124454625
159	0x3cc79bdb	0.02436631
160	0xbcb8569d	-0.022502238
161	0xbd907623	-0.07053783
162	0xbb9b731f	-0.004743948
163	0xbd38f9ad	-0.045159984
164	0xbd9bbbb2	-0.076041594
165	0x3dbdc9e6	0.09267025
166	0x3de5c1a4	0.11218575
167	0xbcda9151	-0.02668062
168	0xbd115aef	-0.03548711
169	0xbcc4c2d9	-0.024018692
170	0xbc87da55	-0.016583601
171	0xbb03e40a	-0.0020124936
172	0xbd8421cd	-0.064517595
173	0x3d8ae1a5	0.067813195
174	0x3e2da4fd	0.1695747
175	0x3d6600a9	0.056152973
176	0x3da8e356	0.08246486
177	0xbce6694e	-0.028126385
178	0x3df9fc14	0.12206283
179	0x3d51bdbc	0.051206335
180	0x3d749c29	0.05971924
181	0xbbc2b90e	-0.0059424704
182	0x3da9ea24	0.08296612
183	0x3c77c5ee	0.015122874
184	0x3d9c8913	0.07643332
185	0x3d49387a	0.049126126
186	0xbc8760c8	-0.016525641
187	0xbd0b5085	-0.034012336
188	0xbd27cb85	-0.040965576
189	0x3df6aacc	0.12044296
190	0x3cc78767	0.024356557
191	0x3c8080fc	0.015686505
192	0x3ce2128c	0.027596734
193	0x3d983daf	0.0743364
194	0xbda54f86	-0.080718085
195	0xbd43dcae	-0.04781788
196	0xbd5370f7	-0.051621404
197	0x3d0a1065	0.03370704
198	0x3d8671a4	0.06564644
199	0xbc816717	-0.015796227
200	0x396ec8ae	0.00022772208
201	0x3c153f18	0.009109281
202	0x3d52c577	0.05145785
203	0x3c0b45b2	0.008500503
204	0x3d981ec7	0.07427745
205	0x3d73aeef	0.059493
206	0x3d038c52	0.03211624
207	0xbbe7af49	-0.007070456
208	0x3d703421	0.058643464
209	0xbdb3ef50	-0.087858796
210	0x3e0340b8	0.12817657
211	0x3c2f1152	0.010685282
212	0x3dac000e	0.08398448
213	0x3dd550d5	0.10415808
214	0x3dd07f99	0.10180587
215	0x3de1ce13	0.11025634
216	0x3dac15ad	0.08402572
217	0xbd3b20c4	-0.045685545
218	0x3d102b00	0.035197258
219	0x3d99002b	0.07470735
220	0x3c7f451e	0.015580444
221	0x3c946825	0.018116066
222	0xbd93f590	-0.07224572
223	0xbd78ddb3	-0.060758304
224	0xbcf73e86	-0.03018118
225	0xbdc27543	-0.09495022
226	0xbccebdc0	-0.025236964
227	0x3dd9da76	0.10637371
228	0x3d99642c	0.074898094
229	0x3dbdc621	0.09266306
230	0x3d949b9f	0.07256245
231	0xbd27302e	-0.040817432
232	0x3da27097	0.07931631
233	0x3d2c8364	0.04211749
234	0x3d908a61	0.07057644
235	0x3dca316f	0.0987271
236	0xbcf64e26	-0.030066561
237	0xbcd9a9de	-0.026570257
238	0x3da6bfd4	0.08142057
239	0x3ce967a4	0.028491803
240	0xbd4548bd	-0.04816507
241	0xbc249013	-0.010044116
242	0xbc3f0342	-0.011658492
243	0x3d354e42	0.044264086
244	0x3d3253d2	0.04353697
245	0x3e0e645b	0.1390547
246	0x3dbe6b7a	0.09297843
247	0x3d88cc44	0.066795856
248	0x3c75cd9e	0.015002636
249	0x3d334bd4	0.043773487
250	0xbc5d9284	-0.013523702
251	0x3c6c219d	0.014412311
252	0x3d69b6ba	0.057059027
253	0xbc92e0c7	-0.017929448
254	0x3ccf9a91	0.025342258
255	0x3d92f5a5	0.07175759

lstm.weight_hh_l0 f4 [512, 128]
0	0xbcd3eb15	-0.025868932
1	0xbd064583	-0.032781135
2	0x3cc513ee	0.024057355
3	0xbdf98c6b	-0.12184986
4	0x3e2ff325	0.17182596
5	0x3e08a945	0.13345821
6	0xbd888bc0	-0.0666728
7	0xbdbf2829	-0.09333832
8	0x3d0a2d8a	0.033734836
9	0xbd8c604d	-0.068543054
10	0x3d73130b	0.059344333
11	0x3c404d8c	0.011737239
12	0x3d8019f6	0.06254952
13	0xbdc162c1	-0.09442664
14	0xbd05d9c3	-0.032678377
15	0xbdcb878a	-0.099379614
16	0x3bf0c3ff	0.0073475833
17	0xbde21221	-0.11038614
18	0x3cc531d0	0.024071604
19	0xbb26573d	-0.0025381588
20	0xbde4d279	-0.11172957
21	0x3e049f5f	0.1295142
22	0x3c1b2a70	0.009470567
23	0x3db30338	0.08740848
24	0xbddc14b2	-0.10746135
25	0x3db685ba	0.08912225
26	0x3d2fbd89	0.042905364
27	0x3e15c45e	0.1462569
28	0x3d48fbb7	0.04906818
29	0x3d425b3d	0.047450293
30	0x3e01902a	0.1265265
31	0xbda1184f	-0.078659646
32	0x3ccde0df	0.025131641
33	0x3dd5c6a2	0.10438277
34	0x3de37a40	0.11107302
35	0x3d13cce7	0.036084082
36	0xbd2203b4	-0.039554313
37	0x3de8aa7e	0.11360644
38	0xbd102773	-0.03519387
39	0x3dad2ff9	0.08456416
40	0x3ccf1395	0.025277892
41	0xbd11a22d	-0.035555054
42	0x3e329693	0.17440252
43	0x3dc1f397	0.09470289
44	0xbe0aa351	-0.13538863
45	0xbde5b757	-0.1121661
46	0xbd08816b	-0.033326548
47	0xbd04d381	-0.03242827
48	0xbd071ba8	-0.03298536
49	0x3ccc1542	0.02491248
50	0x3ba169f9	0.004925963
51	0xbda0cc26	-0.07851438
52	0x3c2c3b70	0.010512218
53	0xbe27d482	-0.16389659
54	0x3de93b6d	0.11388288
55	0x3d84d39a	0.06485672
56	0x3cd2d9de	0.025738653
57	0xbd957813	-0.07298293
58	0x3d96a5a5	0.07355813
59	0xbda801a5	-0.08203439
60	0x3c8ad38e	0.01694658
61	0xbd55a61c	-0.052160367
62	0x3e04ebc8	0.12980568
63	0xbd06dca4	-0.032925263
64	0x3e05e1d2	0.13074425
65	0xbdfc0256	-0.12305133
66	0xbd854347	-0.06506973
67	0x3debd385	0.115149535
68	0x3a681c48	0.0008854312
69	0x3cb0ff18	0.021606013
70	0x3c039829	0.008031883
71	0x3ca5147a	0.020151366
72	0xbdadf06d	-0.08493123
73	0xbdf8d8c7	-0.12150722
74	0xbdde4514	-0.10853019
75	0xbd39cbf5	-0.045360524
76	0x3c7193ff	0.014744758
77	0x3df9ebb0	0.12203157
78	0x3b323825	0.002719411
79	0xbd420b2e	-0.047373943
80	0x3e0f78e2	0.14010957
81	0x3d86d033	0.065826796
82	0x3e1b0e28	0.15142119
83	0xbca3f274	-0.020013072
84	0xbd5964c4	-0.053074613
85	0x3dd9a1af	0.10626542
86	0x3d848cca	0.06472166
87	0x3dd0e169	0.101992436
88	0x3bc11c47	0.0058932635
89	0x3c5b224f	0.013374879
90	0xbdb9a278	-0.090641916
91	0x3ca21222	0.019784037
92	0xbd42bd94	-0.047544077
93	0xbe13a7dd	-0.14419504
94	0x3d1c68a7	0.03818574
95	0xbcdd43f5	-0.027009944
96	0x3d7c99fb	0.061670285
97	0xbe04bbed	-0.12962313
98	0x3cf062b7	0.029343946
99	0x3c721096	0.014774462
100	0x3d5cd6ae	0.053915672
101	0xbd8d71ee	-0.06906496
102	0xbd51df77	-0.051238503
103	0xbe0e30fc	-0.13885874
104	0x3e1b2f0f	0.1515467
105	0xbe0fe96d	-0.14053889
106	0xbd63f039	-0.055649016
107	0xbb83c4f8	-0.0040212832
108	0xbd88b556	-0.06675212
109	0xbc0705d1	-0.008241133
110	0xbe1c67bb	-0.15273945
111	0xbe2dedfa	-0.16985312
112	0x3d761a1b	0.06008349
113	0xbe0babc9	-0.1363975
114	0x3d1dce21	0.038526658
115	0xbe0087cf	-0.12551807
116	0xbe00973c	-0.12557691
117	0x3dee0778	0.11622518
118	0x3bf80a64	0.007569598
119	0x3cbde445	0.023180136
120	0x3da6e1ea	0.081485584
121	0xbd89541b	-0.06705495
122	0x3ccc1bee	0.024915662
123	0xbdbc769c	-0.092023104
124	0xbd058087	-0.032593276
125	0xbdc020e0	-0.093812704
126	0x3d7504ed	0.05981915
127	0x3dd01943	0.10161068
128	0x3c177166	0.009243345
129	0xbdd73de9	-0.10509855
130	0x3c389f0f	0.011268391
131	0x3d094e89	0.033522163
132	0x3bc4e459	0.0060086665
133	0x3c8a48e4	0.01688046
134	0xbdc8e7a6	-0.098098084
135	0xbc803190	-0.015648633
136	0xbd1e9925	-0.03872027
137	0xbd165f34	-0.036711887
138	0x3b927ec6	0.004470679
139	0x3ba596a7	0.0050533595
140	0x3d07fb93	0.033198904
141	0xbd241e7a	-0.040068127
142	0xbc1193ff	-0.008885383
143	0x3b87c991	0.0041439016
144	0x3dfa1865	0.12211684
145	0x3bdfbf4c	0.0068282243
146	0xbd1feadc	-0.03904234
147	0x3cd46ef6	0.025931817
148	0x3cd9b9b8	0.026577815
149	0x3de808a1	0.11329771
150	0x3c9fec77	0.019521935
151	0xbd1ae617	-0.037817087
152	0xbc1ce993	-0.009577173
153	0xbcbe6a71	-0.023244115
154	0x3db10b5d	0.086447455
155	0x3e0c9418	0.13728368
156	0xbd65ccc2	-0.056103475
157	0x3d097567	0.03355923
158	0xbda1049e	-0.07862209
159	0xbd3475b4	-0.044057563
160	0x3dc1f0c6	0.09469752
161	0x3d8fcd5d	0.07021592
162	0xbceaab65	-0.02864618
163	0xbdce4e2c	-0.10073504
164	0x3c2334e0	0.009961337
165	0x3d848288	0.06470209
166	0xbc89e202	-0.016831402
167	0x3b81756f	0.0039507668
168	0x3caad324	0.020852633
169	0xbe0ad523	-0.13557868
170	0x3d946cd4	0.0724732
171	0x3db84333	0.08997192
172	0xbd44137a	-0.047870137
173	0xbda04ff6	-0.07827751
174	0xbca7805c	-0.020446949
175	0xbd388aba	-0.045054175
176	0xbde523e2	-0.11188485
177	0x3c8e4545	0.017367015
178	0xbd6ea33d	-0.058261145
179	0xbcadd194	-0.021218099
180	0xbd196668	-0.037451178
181	0x3ce0251f	0.02736145
182	0x3c3011aa	0.010746399
183	0xbcff550f	-0.031168489
184	0xbcab3b39	-0.020902263
185	0xbda97194	-0.082736164
186	0x3ce46192	0.027878556
187	0x3baa5d2e	0.005199096
188	0x3d05b263	0.032640826
189	0xbc87e93d	-0.016590709
190	0x3cdf3573	0.027247166
191	0xbce59a0a	-0.028027553
192	0x3cf8e96d	0.030384744
193	0x3d3036da	0.04302106
194	0x3da39e1f	0.079891436
195	0xba503d9a	-0.00079437497
196	0xbd6e834c	-0.058230683
197	0x3bc5ca9f	0.006036117
198	0x3d5afe32	0.053465076
199	0x3d8ccba2	0.068747774
200	0xbd2686a4	-0.040655747
201	0xbe049bb7	-0.12950025
202	0xbd38a992	-0.04508359
203	0xbccd37fb	-0.025051108
204	0x3e0174f0	0.12642264
205	0xbd397567	-0.04527798
206	0x3c7545c2	0.014970245
207	0x3b84eeb5	0.0040567764
208	0xbddb5db3	-0.10711231
209	0x3dd51133	0.10403671
210	0x3d9f9fad	0.077941276
211	0xbdf9f17b	-0.12204262
212	0xbd910efa	-0.07082935
213	0xbd65774f	-0.056021985
214	0x3ce732df	0.0282225
215	0x3d314b6b	0.043284815
216	0x3d61f743	0.055167448
217	0xbaf73189	-0.0018859367
218	0xbd18e015	-0.037323076
219	0x3ddc1248	0.10745674
220	0x3d16ca98	0.036814302
221	0xbd272843	-0.04080988
222	0xbd46381c	-0.048393354
223	0x3d0149c3	0.031564485
224	0xbbe3ca92	-0.0069516385
225	0xbe147d53	-0.14500932
226	0x3db8847c	0.090096444
227	0xbd9a9688	-0.07548243
228	0xbc59df08	-0.013297804
229	0x3bea0dbd	0.007142751
230	0x3ce88042	0.02838147
231	0xbb538a15	-0.0032278348
232	0x3d41bb71	0.0472979
233	0x3ce39abd	0.027783746
234	0x3d3ff57a	0.046864964
235	0x3c9475d4	0.018122591
236	0x3d2351b9	0.03987286
237	0x3c4b7c4d	0.012419772
238	0xbd51c851	-0.051216427
239	0xbdfc190e	-0.12309466
240	0xbc219e73	-0.009864437
241	0xbe03e2a6	-0.12879428
242	0xbc8e5ec0	-0.017379165
243	0xbcbdf8d4	-0.02318994
244	0xbdf42fee	-0.11923204
245	0x3d77cb13	0.0604964
246	0x3d1504fe	0.036381714
247	0x3c21916a	0.00986133
248	0x3b5af80f	0.0033412015
249	0xbd2e12e5	-0.042498488
250	0x3da48ccc	0.080346674
251	0xbdeaf210	-0.11471951
252	0x3b93ffbb	0.0045165694
253	0xbc352078	-0.011055104
254	0x3dcfc478	0.10144895
255	0xbd07acf8	-0.03312394

lstm.bias_ih_l0 f4 [512]
0	0x3b9a0745	0.0047005736
1	0x3d4326bb	0.047644358
2	0xbc7ab742	-0.015302481
3	0x3dfb18e5	0.12260608
4	0xbc4e5726	-0.01259402
5	0xbc938198	-0.018006131
6	0xbb268bbd	-0.002541288
7	0x3dc9e732	0.0985855
8	0x3df1018f	0.117678754
9	0x3dac234d	0.084051706
10	0x3d033c26	0.032039784
11	0x3d1e8443	0.038700353
12	0xbcf8d08b	-0.030372879
13	0xbd3e6fb4	-0.046493247
14	0xbd562e52	-0.05229027
15	0x3dcb82b7	0.09937041
16	0xbd39f733	-0.045401763
17	0x3b743dde	0.003726832
18	0x3d2de1c0	0.04245162
19	0x3dab9327	0.083776765
20	0xbc8e61ae	-0.017380562
21	0xbc92413f	-0.017853377
22	0xbd8a3986	-0.06749253
23	0x3d53735b	0.051623683
24	0x3bd48f5e	0.0064868173
25	0xbd13782c	-0.036003277
26	0xbc28557d	-0.010274288
27	0x3d7ce383	0.06174041
28	0xbc5738fa	-0.013136143
29	0x3d82dddf	0.06389975
30	0x3e08bd2c	0.13353413
31	0x3cb764c4	0.022386916
32	0xbcbf440d	-0.023347879
33	0xbce59ff7	-0.028030379
34	0xbd8b20df	-0.06793379
35	0xbc514731	-0.012773321
36	0xbd410de4	-0.047132388
37	0xbd2a4026	-0.041565083
38	0x3da85153	0.08218636
39	0x3d1719d8	0.03688988
40	0x3dbfce05	0.09365467
41	0xbceb128b	-0.028695365
42	0x3d6b353f	0.057423826
43	0xbc428866	-0.01187334
44	0x3d9c51e6	0.076328084
45	0xbce7b6b8	-0.02828537
46	0xbd7835a6	-0.060598038
47	0x3d92a849	0.07161004
48	0x3d78e35f	0.060763713
49	0xbd87e4b2	-0.06635417
50	0xbbd487bf	-0.0064859088
51	0xbd6c452c	-0.057683155
52	0xbcf40464	-0.02978725
53	0xbd0c112c	-0.034196064
54	0x3ca1bff1	0.019744845
55	0x3dffc5a5	0.124888696
56	0x3bb3d016	0.0054874523
57	0x3d6dc366	0.058047675
58	0xbd14ce9c	-0.03632985
59	0xbd41ba21	-0.047296647
60	0x3b893b54	0.0041879807
61	0x3d3ece31	0.04658336
62	0xbc1830e6	-0.009289002
63	0x3b74f9cf	0.0037380343
64	0x3daf2fcb	0.08554038
65	0x3d8b65cc	0.068065256
66	0xbc95c857	-0.018284006
67	0xbd2c5572	-0.042073674
68	0x3c8d09d8	0.017216608
69	0xba4e6d1f	-0.00078745367
70	0xbcc38ffe	-0.023872372
71	0x3d38695b	0.04502235
72	0x3d8b523e	0.06802796
73	0xbce3e087	-0.027817024
74	0x3dd3c056	0.103394195
75	0x3d812d0d	0.06307421
76	0xbd225072	-0.0396275
77	0x3cbbee3a	0.022940744
78	0xbbb503d1	-0.0055241366
79	0xbd0e9b0a	-0.034815826
80	0x3ce81446	0.02832998
81	0x3d64ccff	0.055859562
82	0x3d7930ed	0.060837675
83	0x3daa03f9	0.08301539
84	0x3dcee48f	0.10102188
85	0x3dc88e94	0.097928196
86	0x3dc57e6f	0.09643256
87	0x3d2f85e6	0.042852305
88	0x3e130b6b	0.14359824
89	0x3d6c5763	0.057700526
90	0x3d9cfc1f	0.07665276
91	0x3de93a69	0.11388094
92	0x3df40bd1	0.11916316
93	0x3d1cbd3a	0.038266398
94	0x3d2f479e	0.04279291
95	0x3d270b8e	0.040782504
96	0x3d988ec6	0.07449107
97	0xbd671216	-0.056413732
98	0xbd69ebb2	-0.057109542
99	0x3d11c02d	0.035583664
100	0xbcc8de5b	-0.02452009
101	0x3d284304	0.041079536
102	0xbcebea35	-0.028798202
103	0x3d4d703b	0.05015586
104	0x3a0f10c1	0.00054575136
105	0x3d946b2b	0.07247003
106	0x3dcd5fcb	0.10028037
107	0x3de40db4	0.11135426
108	0x3ce83743	0.028346663
109	0xbcd76c00	-0.026296616
110	0xbc094770	-0.008378848
111	0x3d051100	0.032486916
112	0x3da22bdc	0.07918522
113	0x3dace475	0.08442012
114	0x3cd3b87d	0.025844807
115	0x3d3a4d57	0.045483913
116	0xbd31929a	-0.0433527
117	0xbc9bce37	-0.01901923
118	0x3d8ed50f	0.069742315
119	0xbd780dfc	-0.06056021
120	0xbd051fcb	-0.032501023
121	0xbd5f1396	-0.054462038
122	0x3dadd06b	0.08487018
123	0xbcc6006d	-0.024170125
124	0x3d09f0ab	0.033676784
125	0x3d87f02a	0.066376045
126	0xbb8f3552	-0.00437037
127	0x3ddd8645	0.108166255
128	0x3de85c91	0.11345781
129	0x3defb426	0.117042825
130	0x3d19dbc8	0.037563115
131	0xbcbb2993	-0.022846973
132	0x3dbd5f5e	0.092467055
133	0xbd29b14e	-0.041428857
134	0x3d2f040a	0.04272846
135	0xbd6fd636	-0.058553897
136	0x3d1dde62	0.03854216
137	0x3ddc1fa0	0.107482195
138	0xbc0434b1	-0.008069203
139	0xbca9e3f3	-0.020738577
140	0xbd7d11ca	-0.061784543
141	0xbd45847c	-0.04822205
142	0x3cf82bd3	0.030294335
143	0x3da9dc4a	0.0829397
144	0x3bc99181	0.0061513786
145	0xbd8340c0	-0.064088345
146	0x3d8718c5	0.06596521
147	0x3cd62701	0.026141645
148	0xbc89da4a	-0.016827721
149	0x3c85271c	0.016254
150	0x3daeddb9	0.08538384
151	0x3be07734	0.0068501476
152	0x3d640d04	0.055676475
153	0x3cd8ca69	0.026463704
154	0xbd0a8752	-0.033820458
155	0xbd2cac56	-0.04215654
156	0xbcd96dd9	-0.026541637
157	0x3d8595bc	0.065227
158	0x3d3b1eda	0.04568372
159	0xbd324d64	-0.043530837
160	0xbd86010c	-0.065431684
161	0x3cf14e43	0.029456263
162	0xbd209f77	-0.039214578
163	0xbc073711	-0.008252875
164	0x3c86191a	0.016369391
165	0x3cf7f286	0.030267011
166	0x3cb690c4	0.022285827
167	0x3d9ec774	0.077528864
168	0x3ddf9e9f	0.109189264
169	0x3db0fdae	0.086421356
170	0xbcc11109	-0.023567693
171	0xbd7e194d	-0.062035847
172	0xbb19e1c0	-0.0023480505
173	0x3da61674	0.08109751
174	0x3da16d81	0.07882214
175	0x3c3b59e2	0.011435004
176	0xbd079450	-0.033100426
177	0x3d09228c	0.033480212
178	0x3d9606b4	0.07325497
179	0x3c1ed3ad	0.009694022
180	0xbb28a4d0	-0.0025733002
181	0x3cf17fff	0.029479979
182	0x3df32419	0.118721195
183	0x3c84e6f0	0.0162234
184	0xbd0692ae	-0.03285473
185	0x3c1dcb7e	0.009631036
186	0x3dd8f2a6	0.105931565
187	0xb98fbb0e	-0.00027414452
188	0xbd0654bd	-0.032795656
189	0x3ca2cb57	0.01987235
190	0xbd0039c5	-0.031305093
191	0xbd20da33	-0.03927059
192	0x3d4f359c	0.050588235
193	0x3bd978a0	0.006636694
194	0x3ccd6ae3	0.025075382
195	0xbc8d0e20	-0.01721865
196	0xbd5e8b57	-0.054332104
197	0x3caf536e	0.021402087
198	0x3ad5788d	0.0016286537
199	0xbd2b37ae	-0.041801147
200	0x3c26c0fb	0.010177846
201	0xbd4483e9	-0.04797736
202	0xbd869731	-0.06571806
203	0x3c760855	0.015016635
204	0xbcc27354	-0.023736633
205	0xbcdb9628	-0.026804999
206	0x3d7b99cf	0.06142598
207	0x3d8f21ea	0.069888905
208	0x3dc0d147	0.094149165
209	0x3d4b13e0	0.0495795
210	0x3d94b0cd	0.072602846
211	0x3c568dcc	0.01309533
212	0xbbae9366	-0.00532763
213	0x3dbda5e9	0.092601605
214	0x3d83ef93	0.064421795
215	0x3cf53178	0.029930815
216	0x3d0d9f82	0.034575947
217	0xbd8717b0	-0.06596315
218	0xbd1f91a9	-0.03895727
219	0xbc582fdb	-0.013195003
220	0x3da0310d	0.07821856
221	0x3cedd575	0.029032448
222	0xbcd369c5	-0.02580727
223	0x3d392232	0.045198627
224	0x3da2be29	0.079464264
225	0x3db80093	0.089844845
226	0x3d286b51	0.04111797
227	0x3d8d6e26	0.06905775
228	0xbc85fa0c	-0.016354583
229	0xbc055372	-0.008137571
230	0xbd2eaea5	-0.042647023
231	0xbd8c80e1	-0.06860519
232	0x3dcf2750	0.1011492
233	0x3da59eba	0.08086915
234	0x3c3fdf3c	0.011710938
235	0xbd4cfd5c	-0.05004631
236	0x3db0a6ec	0.08625588
237	0x3cfacb4b	0.030614516
238	0x3d9730d5	0.07382361
239	0x3d52de23	0.051481377
240	0x3d57618f	0.052583274
241	0x3c110292	0.0088507105
242	0x3c1905b8	0.009339742
243	0x3d789752	0.060691185
244	0x3db6a6d9	0.089185424
245	0xbc9639e8	-0.018338159
246	0x3dd6b46f	0.10483634
247	0xbca4b488	-0.020105615
248	0x3c189878	0.009313695
249	0xbd062b63	-0.03275622
250	0x3da30d08	0.0796147
251	0xbc9874c6	-0.01861037
252	0xbd083077	-0.033249345
253	0xbd7e3c12	-0.062069006
254	0x3b89e090	0.004207678
255	0x3dbd221b	0.09235021

lstm.bias_hh_l0 f4 [512]
0	0xbcc3fc57	-0.023924036
1	0x3da9285e	0.082596526
2	0xbc383fdf	-0.011245697
3	0x3bb2cef4	0.0054567996
4	0x3d17375d	0.036918033
5	0x3cd6db7e	0.026227709
6	0x3d0c85e7	0.034307387
7	0x3b31bc3a	0.0027120248
8	0x3c134b85	0.008990173
9	0x3df653b6	0.12027685
10	0x3de8f588	0.11374956
11	0x3c81468b	0.015780708
12	0x3d92bf59	0.07165403
13	0x3da11d63	0.07866933
14	0xbcaa756a	-0.02080794
15	0x3c201950	0.00977166
16	0x3bdc517d	0.0067235813
17	0xb914dc3e	-0.00014196426
18	0xbcd81192	-0.026375566
19	0x3d2b975e	0.041892402
20	0x3db00346	0.08594374
21	0xbd6535ef	-0.05595964
22	0xbccfb7a4	-0.025356121
23	0x3c731b28	0.0148380175
24	0xbd8b39e1	-0.06798149
25	0x3d0ce4e0	0.03439796
26	0x3df9ff21	0.12206865
27	0xbb8123e3	-0.0039410456
28	0x3daa1dc4	0.083064586
29	0x3c33fc2e	0.010985417
30	0x3e07a91d	0.13248105
31	0x3dedcf2e	0.11611782
32	0xbceff53f	-0.029291747
33	0x3d27cbe7	0.04096594
34	0xbbed4fd8	-0.007242184
35	0x3d79b634	0.060964778
36	0xbd0df8ef	-0.03466123
37	0x3db691b6	0.08914511
38	0x3d955c3e	0.072929844
39	0x3db9dd4c	0.09075412
40	0x3d295d63	0.041348826
41	0x3d65cad8	0.05610165
42	0x3d0f748d	0.03502326
43	0x3dc85749	0.09782273
44	0xbd209510	-0.039204657
45	0xbd06f159	-0.03294501
46	0x3dc58d02	0.09646036
47	0xbd2ed245	-0.042680997
48	0x3d7d657a	0.061864354
49	0x3d01a8e9	0.031655226
50	0x3ab67d3c	0.0013922821
51	0xbd9670c8	-0.0734573
52	0x3d0c2233	0.034212302
53	0xbc437b4b	-0.011931251
54	0x3d9eb3a3	0.07749107
55	0x3b479841	0.003045574
56	0x3d8494af	0.06473672
57	0x3bc74653	0.0060813813
58	0x3db43fdb	0.08801242
59	0x3db8cf2a	0.090238884
60	0xbcc1a725	-0.023639271
61	0x3d0d8c21	0.034557465
62	0xbbf5a29b	-0.0074961907
63	0xbcef68b6	-0.029224735
64	0x3df554ed	0.11979089
65	0xbd2f458a	-0.042790927
66	0x3e03a1e0	0.12854719
67	0x3c9ea92e	0.01936778
68	0xbc9951fa	-0.018715847
69	0x3cb253c5	0.02176846
70	0xbc8a2c49	-0.01686682
71	0x3da563b2	0.08075656
72	0x3b204efb	0.0024461139
73	0x3ca88767	0.020572377
74	0x3d25a119	0.040436838
75	0x3d5c01c1	0.05371261
76	0x3dd3d2c1	0.103429325
77	0x3b6d1b56	0.0036179624
78	0x3db09d32	0.086237326
79	0x3d0a42de	0.033755176
80	0x3e091b42	0.13389304
81	0xbce024b5	-0.027361253
82	0x3d2ba2b8	0.041903228
83	0xbc978baa	-0.018499214
84	0xbcf21e99	-0.029555606
85	0xbc92dd2c	-0.017927729
86	0x3dcfe698	0.10151404
87	0x3d5ad43c	0.05342506
88	0x3e14ebc1	0.14543058
89	0x3d5e66a2	0.054297097
90	0xbbab4cc1	-0.0052276556
91	0xbbbde27b	-0.005794821
92	0x3dc11cd7	0.09429329
93	0x3d95c25d	0.073124625
94	0x3d5539d4	0.052057102
95	0x3d5cac66	0.05387535
96	0x3d043d5e	0.032285087
97	0x3d8f4288	0.06995112
98	0x3da2c51b	0.07947751
99	0x3c402d86	0.011729604
100	0x3de1b29c	0.11020395
101	0x3d78ba13	0.06072433
102	0x3dd53ee0	0.10412383
103	0x3d862ae7	0.06551152
104	0x3d66d3d7	0.05635437
105	0x3d8931b5	0.06698934
106	0xbcd4de34	-0.025984861
107	0x3ddd9540	0.10819483
108	0x3d298ae7	0.041392233
109	0x3dcceb37	0.10005801
110	0x3d9d088b	0.07667645
111	0xbab75845	-0.0013988098
112	0x3dd87b3a	0.105703786
113	0x3d507151	0.050889317
114	0xbd24f389	-0.040271316
115	0xbd188aba	-0.037241675
116	0xbc671803	-0.014104846
117	0x3d653faf	0.055968937
118	0x3d974ae5	0.07387332
119	0x3d19a15e	0.037507407
120	0x3d84b4c3	0.0647979
121	0xbd00c5c0	-0.03143859
122	0x3d8f5219	0.06998081
123	0x3dcfceed	0.1014689
124	0xbd195147	-0.037431028
125	0x3b628870	0.0034566186
126	0xbd3ec5f4	-0.0465755
127	0x3e1c9aa3	0.15293364
128	0x3db562ae	0.08856712
129	0xbc375d22	-0.011191638
130	0x3c9fee97	0.019522948
131	0x3cb204cb	0.021730801
132	0x3d1d6ae5	0.03843202
133	0x3da6e388	0.08148867
134	0x3d5278cc	0.051384732
135	0xbd3eafef	-0.046554502
136	0x3d071510	0.03297907
137	0x3db6efd1	0.0893246
138	0x3df0d7f9	0.117599435
139	0x3cf789aa	0.03021701
140	0xbd7476fb	-0.05968378
141	0x3d010fed	0.03150933
142	0xbac582eb	-0.0015068924
143	0x3db04031	0.086059935
144	0x3d960799	0.07325668
145	0xbd2ef67b	-0.04271553
146	0x3c450b9a	0.012026692
147	0x3cf970a5	0.03044922
148	0xbd58735c	-0.05284439
149	0xbd809b42	-0.06279613
150	0x3da1e678	0.079052866
151	0xbd74ea7c	-0.059793934
152	0x3c482558	0.012215935
153	0x3d9cb0a5	0.0765088
154	0xbc5fc2f5	-0.013657321
155	0x3d19dd10	0.037564337
156	0x3d361788	0.044456035
157	0x3da0795f	0.0783565
158	0xbb8da527	-0.004322666
159	0x3c4ba392	0.012429135
160	0x3cfb0f1a	0.03064685
161	0xbd4f6dda	-0.050641872
162	0x3bf26460	0.0073972195
163	0x3d65ab6e	0.05607169
164	0x3c1dd295	0.009632726
165	0xbd5fd1e7	-0.054643538
166	0x3a568970	0.0008183932
167	0xbd911e97	-0.07085913
168	0x3c297ecc	0.010345172
169	0x3da7a6da	0.08186121
170	0xbd094045	-0.033508558
171	0x3cfd3999	0.030911254
172	0xbd85ca7e	-0.06532763
173	0x3cd1182c	0.025524221
174	0x3dca86c3	0.09888985
175	0x3ce7d933	0.02830181
176	0xbcc7d4f2	-0.024393532
177	0xbcad8e4a	-0.021186013
178	0x3d381549	0.044942174
179	0x3d9e7a83	0.07738211
180	0xbcc253de	-0.023721632
181	0x3d55690c	0.052102134
182	0x3db98d53	0.090601586
183	0x3d970d25	0.07375554
184	0x3d7ec786	0.062202
185	0xbc9627e8	-0.018329576
186	0xbd81c6d3	-0.06336751
187	0x3dd5430d	0.104131795
188	0x3d9446b9	0.07240052
189	0x3d6caade	0.05778014
190	0xbd1ec0d1	-0.038758103
191	0xbd33e285	-0.043917198
192	0x3d9c7638	0.07639736
193	0xba80e830	-0.0009834822
194	0x3e0a3f5b	0.1350073
195	0x3d55851e	0.052128904
196	0x3d9cac17	0.07650011
197	0xbd26b187	-0.040696647
198	0xbd1df103	-0.038559925
199	0x3cae44cd	0.021273041
200	0x3dbe1159	0.092806526
201	0x3d114356	0.035464607
202	0x3ccc93bf	0.024972795
203	0x3dcf7b43	0.10130932
204	0xbd3de949	-0.046365056
205	0xbd864472	-0.06556024
206	0xbd5dacd3	-0.054119896
207	0xba062e63	-0.00051186065
208	0x3e040baf	0.12895082
209	0x3c740a36	0.014895013
210	0x3cbbcff1	0.022926303
211	0x3d7b531f	0.061358567
212	0xbd9adbd6	-0.07561462
213	0xbbb5dc34	-0.005549932
214	0x3dbec93e	0.09315728
215	0xbd94151c	-0.07230589
216	0xbc9713e4	-0.018442102
217	0x3d8dd8a4	0.069260865
218	0x3df084be	0.117440686
219	0x3d900c14	0.07033554
220	0x3cc91bbf	0.024549363
221	0xbd976538	-0.07392353
222	0x3d91ee97	0.071255855
223	0xbb8b8603	-0.004257919
224	0x3c9aab78	0.01888059
225	0x3d95579b	0.072921
226	0x3da4fb4c	0.080557436
227	0x3ca50dbf	0.020148156
228	0xbd4ac155	-0.049500782
229	0x3ce75101	0.028236868
230	0x3dc57a9f	0.09642529
231	0xbd848616	-0.06470887
232	0x3da1571b	0.07877942
233	0xbd6604ab	-0.056156795
234	0x3dc7597a	0.09733863
235	0xbd912c0f	-0.07088482
236	0xbd3e4738	-0.04645464
237	0xbd01da34	-0.031702235
238	0x3dd8d8d1	0.105882294
239	0x3c0cc548	0.008591957
240	0x3d458b38	0.048228472
241	0xbc80006a	-0.015625197
242	0x3d6d65bb	0.057958346
243	0xbc302393	-0.010750669
244	0xbd735ba2	-0.05941356
245	0x3d8d8c9f	0.06911587
246	0x3d6e4d41	0.058179144
247	0x3dbcd697	0.09220617
248	0x3c63923d	0.013889846
249	0x3d29c235	0.041444976
250	0xbcbebf3d	-0.023284549
251	0xbd233218	-0.039842695
252	0x3dcda660	0.10041499
253	0x3d5e19a5	0.054223675
254	0xbcf8a4a7	-0.03035195
255	0x3d6659b4	0.05623789
