models/cnn_lstm_model.pth (torch, 992486 bytes, 15 tensors)

cnn.0.weight f4 [32, 7, 3]
000000 4f 70 87 bc d1 ce 4e 3e 44 9f 1e 3e 47 04 43 3d
       -0.016533045 0.20196082 0.15490443 0.0476115
000010 c7 62 08 be 38 48 98 bc e1 d7 bf bd 6d ca 43 3d
       -0.1331893 -0.018589124 -0.093673475 0.04780047
000020 f0 55 43 3e 9a 3b 68 be 0c b9 e6 3d 1f e6 02 3e
       0.19075751 -0.22678986 0.11265764 0.12783097
000030 97 e9 5b 3d f9 4d de 3d 76 8b 92 bd e8 ce 9d 3b
       0.053689566 0.10854716 -0.07155506 0.004815925
000040 5d 36 a7 3d 8c 47 f1 bd c5 62 1f 3e fd a1 32 3d
       0.08164666 -0.117812246 0.15565021 0.043611515
000050 79 41 a1 bc 90 39 15 3d c3 38 0b be 00 6a c5 3a
       -0.01968454 0.03643185 -0.13595872 0.0015061498
000060 b2 d9 00 be c0 9b a9 bb e0 d8 03 be 3b 51 17 3c
       -0.12583044 -0.0051760375 -0.128757 0.009235675
000070 4f b6 95 3d 53 86 53 be f5 7a 28 3d 09 c6 6e 3e
       0.07310163 -0.2065671 0.041132886 0.23317732
000080 c3 3e fd 3c d9 e6 20 be 30 e3 a2 bd 97 1f 31 bb
       0.030913716 -0.15713061 -0.07953489 -0.0027026886
000090 00 09 19 be d3 f0 9c bc 3f bc 2f 3e c4 1b a1 3d
       -0.1494484 -0.019157803 0.17161654 0.07866624
0000a0 79 78 8c bd 61 29 47 bd fa cb 25 be d8 99 39 3e
       -0.06858916 -0.048623446 -0.16191092 0.18125093
0000b0 8a 4f e6 3d a1 01 0c be cd 28 78 bd 0a 9a 41 be
       0.112456396 -0.13672496 -0.060585786 -0.18906417
0000c0 71 65 68 3d 92 a2 d3 bc 2d 1b 0e bc 2c 01 69 3e
       0.056737367 -0.025834356 -0.008673471 0.22754353
0000d0 bf 6b 8c 3e 11 83 7a 3c 89 6c d6 bd 5e da b9 bd
       0.27425954 0.015290038 -0.1046992 -0.09074853
0000e0 4d 19 51 be ca 1f 49 be ac 59 53 3e 82 8e a0 3a
       -0.20419808 -0.19641033 0.20639676 0.0012249502
0000f0 07 76 3b be 6c 7c ea 3d 48 8b 75 3d 74 76 1e be
       -0.18306743 0.11449513 0.059947282 -0.15474874
000100 d2 8d c3 bd 4d 85 a2 bc be ca 26 be 47 9f 96 bd
       -0.095485345 -0.019838953 -0.16288278 -0.073545985
000110 af c2 89 3d 89 8b 4f 3e 8c 3e 2b be b0 4d 64 3e
       0.06726586 0.20268072 -0.16723078 0.2229526
000120 93 6d 77 be a0 25 f9 3d c0 79 6c 3d 9b 8b 0f be
       -0.24162893 0.121653795 0.057733297 -0.14018099
000130 4e ea b1 3d f7 bf 2f 3e 89 70 0e bc 46 4c 31 be
       0.08687268 0.17163073 -0.008693823 -0.17314252
000140 6b d9 52 be 42 43 2a be c4 54 5b be 80 5d 17 be
       -0.20590751 -0.1662722 -0.21419054 -0.14781761
000150 e5 a9 c3 3d 8e 69 b9 bd c6 dc 13 3e 3a 54 32 be
       0.09553889 -0.09053336 0.14439687 -0.17414942
000160 f5 32 1a be dd 57 19 bd 6a 4c 22 3b 8f 57 04 3e
       -0.15058501 -0.03743731 0.0024764785 0.12924026
000170 a4 22 51 3e b5 23 22 3d 51 07 a3 3d 81 b3 20 be
       0.2042337 0.039584834 0.0796038 -0.15693475
000180 19 62 14 3e 47 50 56 3e 5f 46 35 3e 32 5a e4 bc
       0.14490546 0.20929061 0.17702626 -0.02787504
000190 b5 95 1b 3d 99 20 e2 bd 98 ca aa 3b 31 ae 24 3d
       0.03798457 -0.11041374 0.0052121393 0.040205184
0001a0 f2 44 e6 bd ab fc e6 3d 56 cd 43 be 4b 3b ab 3d
       -0.11243619 0.11278661 -0.19121298 0.083609186
0001b0 5c 4e 68 be f0 a5 06 3d 44 48 7e bd 9f 30 fc 3d
       -0.22686142 0.032873094 -0.062080637 0.12313961
0001c0 74 f9 e2 bc ab cd 1b be 71 d4 64 be aa b3 0e 3e
       -0.02770684 -0.15215175 -0.22346665 0.13935724
0001d0 09 b9 c9 3d 14 cb 6f 3e 2a 0f e7 3d 08 ab 0b be
       0.09849746 0.23417312 0.11282189 -0.13639462
0001e0 c1 24 bd bd 75 0b c1 3d 7d 6a 9b bb 42 ed a4 3d
       -0.09235526 0.094260134 -0.004742919 0.08053066
0001f0 00 38 12 be 09 13 db bd 5e 2a 37 3e c4 9b 09 be
       -0.14279175 -0.1069699 0.17887256 -0.13438326
000200 db 3d 23 3e bd 3f 41 3c c0 77 91 bd f2 a2 35 3e
       0.15941565 0.011794982 -0.071029186 0.1773794
000210 55 43 b3 3d c3 c8 02 be 83 55 42 3e c7 a5 eb bd
       0.08753077 -0.12771897 0.18977933 -0.11506229
000220 28 cc a9 3d a6 0b af 3d e7 08 c5 3b 0a e9 51 3e
       0.08290893 0.08547144 0.006013024 0.20499054
000230 74 d8 32 be 56 bd f4 bd ec 03 00 3e 69 a4 0a 3d
       -0.17465383 -0.119501755 0.12501496 0.0338482
000240 07 e5 b8 bd 2a 68 31 3e 2f 8e 46 3e 8c c8 16 3d
       -0.090280585 0.17324892 0.19390176 0.03681235
000250 46 55 ca bb df 72 bd bd d2 3d 0e bd 15 c9 0f 3e
       -0.006174716 -0.092504255 -0.034726925 0.1404155
000260 f4 16 05 be a8 8d 0f be bf ca 79 3d a2 6b fe bd
       -0.12997037 -0.14018881 0.06098437 -0.12422873
000270 86 a8 da bd a8 ed 42 bd d4 08 13 be 3b 40 89 bb
       -0.106766745 -0.047589928 -0.14358836 -0.004188565
000280 70 f4 a7 bd 16 45 50 bd 77 ac 6d be 19 79 1f bd
       -0.0820092 -0.050847135 -0.23210321 -0.038933847
000290 58 07 24 3c d9 51 6e be 1f ad 82 3d bb 26 ed 3d
       0.0100115165 -0.2327341 0.063806765 0.11579653
0002a0 9e b8 16 3d c5 10 ed 3d c4 4d 45 be be 01 66 3d
       0.03679716 0.11575464 -0.19267946 0.056154005
0002b0 65 89 f4 b9 d7 7a 39 be 09 ce ef bd 5d 44 bb bd
       -0.00046641674 -0.18113266 -0.1170922 -0.09143899
0002c0 ef 6c 55 3e f0 4d 07 3e de b5 c6 3c eb 3a 27 3e
       0.20842336 0.13213325 0.024256643 0.16331069
0002d0 c1 a0 7d bc 24 22 01 be b7 59 04 be 75 8c 40 3e
       -0.015480221 -0.1261068 -0.12924848 0.1880358
0002e0 db 2c 97 bd 42 e1 06 bc 28 ae ab bd 7a 52 85 3c
       -0.073816024 -0.008232417 -0.08382827 0.01627468
0002f0 6c c0 50 3e 63 60 ce bd 4e f6 c9 3d 9f 61 84 bc
       0.20385903 -0.10076978 0.09861432 -0.01615983
000300 e2 73 ee 3d 54 20 19 be 34 61 ec bd 61 b2 6e bc
       0.11643197 -0.14953738 -0.115419775 -0.014568896
000310 1f 3f 18 3e 65 27 09 be 01 3f cf 3c 89 90 ce bd
       0.14867829 -0.13393934 0.025298597 -0.10086162
000320 d9 d0 cd 3c e0 8f de 3d a5 59 24 be 0c 03 75 3c
       0.025124 0.10867286 -0.16049822 0.01495434
000330 b7 be 69 3e 7f d2 3d bd 10 60 71 3e 84 8e e4 3d
       0.22826658 -0.046343323 0.23571801 0.11159995
000340 ab 36 ba 3d 04 96 16 be f5 06 be 3d 62 02 46 be
       0.09092458 -0.14705664 0.09278671 -0.19336846
000350 2e 16 02 be 06 b5 b7 bc 79 1c da bd 6e 9c fe 3b
       -0.12703773 -0.022425186 -0.10649962 0.0077701127
000360 a2 98 0e 3e e2 27 50 3e 7c 54 5a 3e a1 ab 27 be
       0.13925412 0.20327714 0.2132129 -0.16374065
000370 3a a5 2b 3e 33 d6 07 be b9 b9 c5 3b cf 5f 93 3d
       0.16762248 -0.13265304 0.0060341028 0.071960084
000380 7f a5 1c be 8e c3 6e 3e b4 42 8a bb 4e d4 67 3e
       -0.15297507 0.23316786 -0.0042193774 0.22639582
000390 c6 c2 67 3e 69 5c c5 3d d6 d3 7e bd e0 12 5b 3e
       0.22632894 0.096367665 -0.06221374 0.21393919
0003a0 50 f0 dd bd c0 9f 63 bc fc c7 33 3e 1c 79 15 be
       -0.108368516 -0.013893068 0.17556757 -0.14596981
0003b0 9d f7 2c 3d 8d 6e 9f bd 3e 8b ff 3d 64 e4 c6 3d
       0.04222833 -0.07784758 0.1247773 0.09711531
0003c0 dc 92 44 3c 96 40 07 be f3 99 86 3d 58 f0 fa 3d
       0.011997905 -0.13208231 0.06572332 0.12252873
0003d0 1d 21 ad 3d 89 6d 91 3d 0b 70 1c be 02 42 56 3e
       0.084535815 0.0710097 -0.15277116 0.20923617
0003e0 cc a6 73 3e 6f f3 f2 3d 36 57 58 3e b3 51 c0 3d
       0.23794097 0.118628375 0.21127018 0.09390583
0003f0 bb 21 3a bd 12 7d 12 be a7 e8 d1 3d 42 34 39 be
       -0.045442324 -0.14305523 0.10249453 -0.18086341

cnn.0.bias f4 [32]
000000 af b7 0a bd 9d 29 f0 3d 27 1d 93 bd 90 74 41 3e
       -0.03386658 0.11726687 -0.07183295 0.18892121
000010 5b e3 b5 bb 57 e9 11 be b6 82 43 be 06 35 e3 bd
       -0.0055507845 -0.14249168 -0.19092831 -0.11094098
000020 ca 53 18 3e a2 71 2d be f8 62 39 3e a6 4b 1c bd
       0.14875713 -0.16937879 0.1810416 -0.03815808
000030 06 bf 66 3d d3 fa 35 3e 4c 77 2f 3e f0 00 23 be
       0.056334518 0.17771463 0.17135352 -0.15918326
000040 18 02 2d be 6d be fa bd 8f 5d 22 3e 3b 86 5e bd
       -0.1689533 -0.12243352 0.15856002 -0.05432723
000050 e5 73 50 bd b0 e6 d3 3d 5e 6a 53 be 70 77 10 be
       -0.050891776 0.103467345 -0.20646045 -0.14108062
000060 55 2a 3b 3e 8e 0c 3c bd f3 65 5f 3e 21 f8 1d 3d
       0.18277867 -0.04591041 0.21816234 0.038566712
000070 da d5 04 3e d2 6f 56 be 96 a5 43 3e 88 09 3b bd
       0.12972203 -0.20941094 0.19106135 -0.045663387

cnn.3.weight f4 [64, 32, 3]
000000 17 2d 43 bc 2a 07 ce bb e0 fc 8b 3d 1f 21 47 3d
       -0.011912606 -0.006287475 0.068353415 0.04861557
000010 7a 5d 6a bd 4b b9 a1 bc 7e 4d b0 bc 08 c0 93 bd
       -0.057218052 -0.019741675 -0.021521326 -0.072143614
000020 8e 9c 6d 3c e6 3f 5e bb 70 9c 6d 3c 77 fe 2b 3d
       0.014502658 -0.0033912598 0.01450263 0.041990723
000030 aa b1 bb bc 5b 7a e4 3d 0c d5 e4 3d 5c 9e 9c bd
       -0.022911865 0.1115615 0.11173448 -0.07647392
000040 7f 19 57 3d 6b 37 f9 3d 75 86 3f bd 9e 67 8e bc
       0.05251455 0.12168773 -0.046759088 -0.017383393
000050 30 d1 9f 3d fb b9 ac 3d 8f 6f 02 3d b9 3c db bc
       0.07803571 0.084339105 0.03184467 -0.026762353
000060 46 b3 2f 3d e0 56 83 3c d7 22 37 bc 85 e9 62 3d
       0.042895578 0.016032636 -0.01117774 0.055398483
000070 18 cd 22 bc e7 2d 28 3d 2e e1 6b 3d 9e af bc bd
       -0.0099365935 0.0410594 0.057587795 -0.09213184
000080 e7 2c 97 3d 31 58 fb bc d9 90 cd 3d 98 4d e6 ba
       0.07381611 -0.030681701 0.10037393 -0.0017570732
000090 dd 00 80 3d 19 5d 62 3c 97 fd ab bd b2 38 d6 bc
       0.06250165 0.0138161415 -0.08397978 -0.026150081
0000a0 84 ef 18 3d f2 99 bc 3c 4e 72 c4 3c 92 55 a0 bc
       0.037337795 0.023022626 0.023980286 -0.019572053
0000b0 bc 98 a9 bd 4a 4d 82 3d 8c b9 10 3d d4 ae aa 3c
       -0.08281085 0.06362398 0.0353332 0.020835318
0000c0 8e 5d 86 bb 45 7d c3 3c 8c d9 a1 3d a1 11 18 bd
       -0.004100508 0.023863444 0.07902822 -0.037126187
0000d0 45 7c a7 3d 30 0f 9b 3c 45 48 35 bd 35 31 58 3d
       0.081779994 0.01892814 -0.044258375 0.052781302
0000e0 38 77 3a 3d ca 80 d2 bc 3a 8a ad bd 51 3a 51 3d
       0.045523852 -0.025696177 -0.0847363 0.051081005
0000f0 46 58 85 3d 9e c1 11 3d 3e cf b7 3c 04 4d 99 3d
       0.065109774 0.03558504 0.022437688 0.07485393
000100 c1 de c0 3d 79 6b 7f 3b 7e a8 9d 3d f7 e1 00 3c
       0.09417487 0.003897397 0.07698153 0.007866374
000110 00 3a 66 bc e8 2e 5b bd 2f 76 40 3c 4d 54 ef 3c
       -0.014051914 -0.05351153 0.011746927 0.029215002
000120 b8 55 33 bd a6 02 9b 3c 08 00 d5 3d d7 49 a2 3d
       -0.04378292 0.018922161 0.104003966 0.0792424
000130 92 3d 20 bd 10 5a 95 bc a1 d7 c9 3d 0f ab 40 bd
       -0.039121218 -0.018231422 0.09855581 -0.047038134
000140 7a 36 89 bd a6 cd c2 bd 5d f1 99 bd 94 b1 98 3d
       -0.06699844 -0.095118806 -0.075167395 0.07455745
000150 bb eb db 3d f9 f8 8b bd cb 4e 30 bd bb bc 8f bd
       0.107383214 -0.06834597 -0.043043893 -0.07018419
000160 94 19 84 bc 90 2f 1c 3b 41 87 3d 3c 3d d4 cd 3d
       -0.016125478 0.002383206 0.011567892 0.10050247
000170 a3 9b 90 bd d4 7a d7 3d 03 71 a1 3d de 51 11 bd
       -0.07060935 0.105214745 0.078828834 -0.035478465
000180 d0 54 95 bc 10 99 5a bd 67 4f 98 3d 0b dc 94 bd
       -0.018228918 -0.053368628 0.0743702 -0.07268532
000190 b4 17 47 bd 7f fb 28 3d 52 8e 10 bd b0 cf 86 3c
       -0.04860659 0.04125547 -0.035291977 0.016456455
0001a0 29 3d b5 bc 0f 72 0a bc 83 cc 43 3d 55 ce d5 3d
       -0.02212389 -0.008450045 0.04780246 0.10439745
0001b0 53 66 8d bd 14 e2 04 be 14 ab 8e bd a9 0d ef bd
       -0.069042824 -0.12976867 -0.06966224 -0.11672527
0001c0 6a 2b f7 bd f4 eb ac bc 89 5e 15 bd ce a9 56 bd
       -0.120688275 -0.021108605 -0.03646711 -0.052408032
0001d0 ef df ec bb ce b7 c5 3d 85 a8 78 3d 31 a1 71 3c
       -0.0072288434 0.096541986 0.060707588 0.014747904
0001e0 5f fe 25 3d f6 34 9d bd 77 a0 42 bd 9e 9b 8e 3c
       0.04052579 -0.07676117 -0.047516312 0.017408188
0001f0 e4 54 b2 3b 9b bb fc bd 47 3e 81 bd 6a c0 4d 3d
       0.0054422487 -0.123404704 -0.063107066 0.05023233
000200 3a 02 5c bd 93 3f 6c 3d 02 38 f5 3c 96 dd ea 3c
       -0.05371306 0.057677817 0.029933933 0.028670114
000210 c4 27 6a 3c 8f 47 e4 3c ca 07 9a 3d e9 4f 87 3d
       0.014291707 0.027866153 0.07521017 0.066070385
000220 3c 63 99 bd 35 63 4f bd 65 27 ff bc 58 0f 43 bd
       -0.074896306 -0.05063172 -0.031146714 -0.047622055
000230 55 0e 86 bd 24 7d 81 3d 3a fb 1f 3d 45 2e a6 3d
       -0.06545702 0.06322697 0.039057948 0.08114294
000240 f4 7b 0f bd 6d 1d cb bd 70 27 45 3d 60 7f f0 bc
       -0.03503032 -0.09917722 0.048133314 -0.029357612
000250 9d 4c a2 3c 97 f1 fb bc c9 de 91 bc d5 9e 58 3d
       0.019811923 -0.030754847 -0.017806428 0.05288585
000260 27 24 a6 bd bd d0 13 bd 44 53 48 bd 42 ab fc 3d
       -0.08112364 -0.03608774 -0.048907533 0.12337352
000270 05 d3 ad bd ba 81 1c bd 0e 0a b4 3d f8 2c 5a 3d
       -0.084875144 -0.038209654 0.0879098 0.05326554
000280 01 cb d0 bc c2 03 02 3d 3e 1c a0 3d 44 b5 3a bc
       -0.025487425 0.031741865 0.07817887 -0.011395756
000290 1a d8 9e bd d9 34 b2 3d b1 91 06 39 be de 80 3d
       -0.07756062 0.08701486 0.0001283351 0.06292485
0002a0 a0 f6 94 bc f8 46 a7 3d d3 79 6e bc 8f 3b 8e bd
       -0.018184006 0.08167833 -0.014555412 -0.06944954
0002b0 43 ce c0 3c 0e ca 7d bc fb f9 9b bd 39 c8 6a bd
       0.023535853 -0.015490068 -0.07616039 -0.057319853
0002c0 58 49 7a 3d f0 ca 70 3d a4 0b b8 3d 75 5c c6 3d
       0.061105102 0.058787286 0.08986595 0.096856035
0002d0 1d 8c 9a 3d ba 85 c0 39 18 d5 97 bd 86 47 6d bd
       0.07546256 0.00036720728 -0.07413691 -0.05792954
0002e0 09 7f ea 3d b5 14 99 3d 61 2a 04 be 3c 0c ae bd
       0.11450011 0.07474653 -0.12906791 -0.08498427
0002f0 d1 05 82 3c e5 a4 ba bc 68 d7 c1 3d ff ea 60 3d
       0.015871914 -0.022783706 0.094649136 0.05491161
000300 74 60 98 3c 25 0c e1 3d c3 28 ec 3c a7 a0 bc 3c
       0.01860068 0.109886445 0.02882803 0.023025824
000310 7c 6a 8f bb b1 3c 9f 3d 2e 2c 83 bd 20 9a 71 bd
       -0.0043767076 0.07775248 -0.06404911 -0.058984876
000320 c8 6f df 3b b2 5e a9 bd 7e 49 15 bd 7a 97 6e bd
       0.0068187453 -0.08270015 -0.03644704 -0.058249928
000330 fa 2a 45 bd ad df 35 3c 64 40 d6 bd e9 cc e1 3c
       -0.04813669 0.011100692 -0.104615 0.02756353
000340 e2 90 59 bd 4d ba d3 3d 16 96 90 3a 94 e9 d3 3d
       -0.053116687 0.103382684 0.0011031057 0.10347286
000350 09 21 4f 3d 6d fd 2b 3d ee 73 cf 3d 44 e7 d2 bc
       0.050568614 0.041989733 0.10129534 -0.025745042
000360 51 9a e5 3d e3 7d a9 3d 1d 4b 95 3d 47 61 ed 3c
       0.11211074 0.08275964 0.07289717 0.02897705
000370 67 2f 8b bd 19 89 8c bd dc 7c 0c bd fa bf c6 3d
       -0.06796151 -0.06862087 -0.034298763 0.097045854
000380 d6 30 94 3d 0a 4a b3 bd c5 90 c5 3d d4 3a 98 39
       0.07235877 -0.08754356 0.09646753 0.0002903553
000390 bc 7c f2 ba 68 51 bf 3b e3 64 9f 3d f7 df 34 bd
       -0.0018500309 0.005838562 0.077829145 -0.044158902
0003a0 61 95 c1 3d 4c d8 bc 3d df 0a d0 bc b0 d6 9a 3d
       0.0945232 0.09220943 -0.025395809 0.0756048
0003b0 16 65 d3 bc c7 08 91 bd 80 a2 82 3d f4 c8 a7 3d
       -0.025805037 -0.07081752 0.06378651 0.08192626
0003c0 5a 26 3a 3c 99 99 15 3d 77 75 68 3d 6f 96 a1 bd
       0.011361683 0.036523435 0.05675265 -0.07890021
0003d0 e7 10 5f bd c2 a1 ab bd 89 15 80 bd bb 7c 17 3d
       -0.05445948 -0.08380462 -0.062541075 0.036984187
0003e0 92 f3 f7 3c 82 f1 8e 3d a5 ff 22 bd 08 03 6b bb
       0.03026751 0.06979658 -0.039794583 -0.003585996
0003f0 38 2d 94 bd 67 d3 20 3d fc 4e 12 3d 33 06 af bd
       -0.07235187 0.03926411 0.035719857 -0.08546104

cnn.3.bias f4 [64]
000000 3f fc 9c 3d 56 b7 78 bd c1 1a aa 3d 35 ac 57 bd
       0.076652996 -0.060721718 0.08305884 -0.052654464
000010 f6 91 06 bd 30 40 84 3d 8f bf 97 bd ca 72 9e bd
       -0.032854043 0.06457555 -0.07409584 -0.07736738
000020 dd 2b 35 bd 57 08 3d bc 30 6b 9b 3c ca df 72 bd
       -0.044231284 -0.011537633 0.01897201 -0.059295453
000030 b9 e8 81 bd 56 13 77 3d 78 d4 58 3d 6a 98 58 bc
       -0.063432164 0.060321175 0.052937 -0.013219932
000040 a4 bd 94 3c 79 8c c4 bd a1 00 44 3d 29 df 17 3d
       0.018156834 -0.095971055 0.047852162 0.037078056
000050 4f 4e c2 3d c6 1a a0 bd c1 77 a5 3d 74 38 bd 3d
       0.094875924 -0.07817607 0.08079482 0.09239283
000060 18 9d 83 3d cc 2f f3 3c 4b 8f a3 3d 97 fc 75 bd
       0.06426448 0.029685877 0.07986315 -0.06005534
000070 2b 46 29 3d 3b f7 e2 3c b4 1c 67 3d be 4f 86 bd
       0.041326683 0.02770578 0.056423858 -0.06558178
000080 ad 6c ea 3c 66 f2 20 bd 35 6e 90 3d 91 64 dc 3d
       0.028616274 -0.03929367 0.0705227 0.10761369
000090 ef a4 75 3d ce 18 59 3d 46 bc c2 3d 28 51 cd bd
       0.059971746 0.05300217 0.095085666 -0.10025245
0000a0 8d 40 a8 3c 8e 0d 85 bd 96 86 72 3c 26 60 dc bc
       0.020538593 -0.06496726 0.014802596 -0.026901316
0000b0 ad 05 b3 bd b5 8d 45 bd bc 20 9f bd 73 2f 8d bd
       -0.08741317 -0.048230845 -0.077699155 -0.06893816
0000c0 26 8c 2f bd 9a 33 47 bd 42 d1 13 bd f3 62 bf bc
       -0.042858265 -0.048633195 -0.036088236 -0.023362612
0000d0 84 9c d6 bc da a3 f1 bc 29 a2 62 bd 81 c1 ae 3d
       -0.02619768 -0.029497076 -0.05533043 0.08533002
0000e0 3f b8 ca 3d 05 ee 55 3c 5a f7 88 3d 0c 1a dc 3d
       0.098984234 0.013057237 0.066878036 0.107471555
0000f0 53 fa a5 bd 32 43 65 3d 3c 53 9c bd 4a 0a 95 3d
       -0.08104386 0.055972286 -0.07633063 0.07277353

lstm.weight_ih_l0 f4 [512, 64]
000000 9f 8b a6 3d 35 bd fa 3c ef 2c 3d 3d a1 a9 81 3d
       0.08132099 0.030607799 0.04618543 0.06331182
000010 79 51 1a bc bb fe ec bc fd 25 32 bc 9e be 58 3d
       -0.009418839 -0.028930059 -0.010873315 0.05291616
000020 8a 09 3f bd 62 d4 22 bd 35 e8 69 bd 69 d1 67 bd
       -0.046639957 -0.039753325 -0.057106216 -0.056596193
000030 40 a9 05 3d 84 33 51 3d 5f 47 85 3c 99 91 94 3d
       0.032632113 0.05107452 0.016269384 0.07254333
000040 c6 cc 1b 3d 54 00 09 3d 6a c2 00 bd c9 e8 58 bc
       0.038037084 0.03344758 -0.031435408 -0.013239094
000050 20 ab 96 3d 8f 15 75 3d 65 83 98 3c 05 6e 10 bd
       0.07356858 0.059835013 0.018617341 -0.035261173
000060 c4 4f 97 3d a1 f7 27 3b 95 dc 8b bc 78 11 e4 bd
       0.07388261 0.0025629776 -0.017072955 -0.111361444
000070 42 58 76 3d 62 20 1a 3d 94 7c 8a 3d 38 dd 02 3e
       0.060142763 0.03762854 0.06762043 0.12779701
000080 24 2e 84 3d 06 fe a9 bd 95 b0 87 3d c6 1d db 3d
       0.06454113 -0.08300404 0.06625477 0.10699038
000090 e4 14 d4 3c 04 81 5b bd f6 6d b9 3d 10 a0 ec 3d
       0.025888868 -0.053589836 0.090541765 0.11553967
0000a0 2c e2 3e 3d 68 b1 54 bc 16 c7 79 3d 22 3f 4e 3d
       0.046602413 -0.01298175 0.06098088 0.050353177
0000b0 46 fa 66 bd 37 c4 44 3d a6 17 fd 3c 86 9d e5 bc
       -0.056391023 0.048038688 0.030895066 -0.028029215
0000c0 74 dd 15 bd 8f e1 e6 bb 4d 9c 7c 3d c7 74 21 3d
       -0.036588147 -0.0070459316 0.061672498 0.03941801
0000d0 42 c3 a5 bc 3e 33 0e bc f5 1c c2 3d 26 7f 7b 3d
       -0.020234708 -0.008679209 0.09478179 0.061400555
0000e0 49 1a e6 bc f2 a0 62 bc 1d 57 74 bd 76 d5 fd 3c
       -0.028088706 -0.013832318 -0.05965339 0.030985575
0000f0 82 45 cd bc ea 9a d5 3d 16 b5 5b bd e9 13 c5 3d
       -0.025057558 0.10429938 -0.053639494 0.09622938
000100 19 81 bb 3d 68 c4 a2 3a f7 00 9c bd 41 53 0b bd
       0.09155483 0.0012418153 -0.076173715 -0.034014944
000110 b6 6f 79 3d d0 81 25 3d dc 9b 92 bb fb d1 cb b9
       0.06089755 0.040407002 -0.0044741463 -0.00038875625
000120 be b6 06 3d 4e 1d b4 bb 90 7e 59 bd 6f ee 5e bd
       0.03288912 -0.0054966575 -0.053099215 -0.054426607
000130 c8 74 2d 3d 5d d5 bc 3b 29 45 18 bd 86 68 8c 3d
       0.0423477 0.0057627396 -0.03717533 0.06855874
000140 27 47 a9 bc 87 90 b3 bd 92 6c 14 bd ee 30 b5 3c
       -0.02066381 -0.08767801 -0.036236353 0.022118058
000150 85 d3 d0 bc eb 1b 43 bd 52 85 d5 3d 38 39 c2 3d
       -0.025491485 -0.047634047 0.104258195 0.0948357
000160 35 07 e0 bc 1d 0e c3 3d 64 ff 3a bd fc 3f ab bb
       -0.027347187 0.09524176 -0.045653716 -0.0052261334
000170 ea 69 ab 3d cf fe 19 3d 0c 19 c5 3d ae c0 31 bd
       0.08369811 0.03759652 0.09623918 -0.043396644
000180 2c e5 24 3c 12 93 8a bd 37 1e 71 bd 7b 3b 86 3d
       0.010064404 -0.06766333 -0.058866706 0.06554314
000190 0b 6a a4 bd 41 47 ca bc b6 5e c1 3d 5f 70 6d 3d
       -0.080280386 -0.02469218 0.09441893 0.057968494
0001a0 e8 c2 c8 3c 14 07 73 bd 88 67 49 bd 06 9f bc 3c
       0.024507001 -0.059332922 -0.049171 0.023025047
0001b0 a0 a6 92 3d 29 ce c9 3a 86 e1 87 3d 6f 07 d9 bc
       0.071606874 0.0015396524 0.06634812 -0.026492802
0001c0 0a ef 90 3d ed 0b 2d bd 0d 0e 10 bb 00 10 aa bd
       0.07076843 -0.0422477 -0.0021981031 -0.08303833
0001d0 23 c4 2d 3d bf 8e 21 3d 25 f9 d9 3d eb 57 d0 bc
       0.04242338 0.039442774 0.10643224 -0.025432548
0001e0 c9 1e 74 3d 2e 4f 08 bd c1 da 33 3d 40 31 ee 3c
       0.05959967 -0.033278637 0.04390979 0.029076219
0001f0 a9 93 a7 3d 3d 97 81 bd 2d fa aa bd 2f d0 af 3d
       0.08182461 -0.063276745 -0.083484985 0.0858463
000200 f1 7e 3b bd cc a7 9f 3c 39 1b 7b 3c 4f 61 dd 3d
       -0.045775358 0.019489191 0.015326315 0.10809576
000210 9e 41 15 bd 14 c2 19 3d 60 c8 30 bd dd 8d 30 3d
       -0.03643953 0.037538603 -0.043159842 0.04310404
000220 05 a3 c1 bc 49 0d ac 3d c4 ec 07 bd 35 b0 03 3c
       -0.023637304 0.084009714 -0.03318478 0.0080376165
000230 96 83 24 bd 2e b7 e5 3c 90 e7 aa bd 3b 0d 29 3d
       -0.040164553 0.028041448 -0.08344948 0.041272383
000240 a7 aa d4 3c c4 b5 9f bd 48 e7 b0 3c 1f 33 1f 3b
       0.02596028 -0.07798341 0.021594658 0.0024291945
000250 1f 6d a0 3d 9b f9 77 bd 30 80 23 bd 40 5d 43 3d
       0.07833313 -0.060540777 -0.03991717 0.047696352
000260 3d ac 99 3d f4 4a 89 3d 3a 3a 84 bd df c3 6c 3c
       0.07503555 0.06703749 -0.06456418 0.014450996
000270 43 4d b9 3d 1a a5 88 bd 31 19 e2 bc 46 40 95 3d
       0.0904794 -0.066721156 -0.027599903 0.0728765
000280 b5 6f 78 3d 8a 87 31 3d 01 c1 aa bb 17 44 12 bd
       0.060653407 0.04334215 -0.005210996 -0.035709467
000290 21 4e 6f bc 6f 15 87 3c 54 be 98 3d 00 99 1e 3d
       -0.01460603 0.016489713 0.07458177 0.03872013
0002a0 fb 25 cb bc 99 49 77 3d 66 f6 16 bc d1 15 c8 bc
       -0.024798384 0.060372923 -0.009214019 -0.024424465
0002b0 89 f0 4f 3c 4c 9c 7f bd 68 31 e2 3c 17 bd c0 3d
       0.012691625 -0.062404916 0.02761145 0.09411066
0002c0 cc a6 b6 3d 52 58 a4 3d da 51 15 3b 27 fe 26 3d
       0.08918533 0.08024658 0.0022784383 0.040769722
0002d0 de 11 87 bc 15 88 17 bd a6 16 32 3d 0b 88 0c bd
       -0.016488012 -0.036995012 0.04347863 -0.03430943
0002e0 a8 b9 e2 bc ac 47 ba 3d 50 d5 97 bc c3 a4 5a bd
       -0.027676418 0.090957016 -0.018534333 -0.053379785
0002f0 57 cf 18 bd c3 05 8e 3d 10 83 d3 3d 25 8c de bb
       -0.03730711 0.06934693 0.103277326 -0.006791609
000300 2a 2e 70 3b 64 05 3c bd c7 15 d9 bc cf b4 36 bd
       0.003664861 -0.04590358 -0.026499642 -0.044606026
000310 d8 a8 14 bb 99 20 b0 bd 44 6e 38 bd ea 6e 4e 3d
       -0.0022683647 -0.085999675 -0.045027032 0.050398745
000320 17 87 9a bc 6f 10 c1 3d 2d fa 88 3d d3 2b 3d 3d
       -0.018863244 0.094269626 0.06688342 0.046184372
000330 00 91 11 bc 23 31 4b bd f7 0b 48 bd 57 7c 4d 3d
       -0.008884668 -0.049607407 -0.048839536 0.050167408
000340 58 ee b3 bd 6e 07 55 3c 0e ed d3 3d bc a8 b8 3d
       -0.08785695 0.01300226 0.10347949 0.090165585
000350 67 f0 55 bd e1 61 c3 3d c9 09 99 3d 0f ce 4e bd
       -0.05223122 0.09540153 0.074725695 -0.05048948
000360 7e 40 bf bc c2 fe 4e 3d 0b 89 e2 3c 6b dd a9 bd
       -0.023346182 0.050535925 0.027653238 -0.08294185
000370 7b 99 17 bd e5 de 27 3d c6 42 92 3b 72 85 63 bc
       -0.037011605 0.040984053 0.0044635264 -0.013886796
000380 3b bb ae 3d 78 10 96 bc 8c 02 fa bc f8 85 8b 3d
       0.08531805 -0.0183184 -0.030518793 0.06812662
000390 7b f1 8d 3c 76 9d cd 3d 59 2d 58 bd ba e0 6c 3d
       0.01732706 0.10039799 -0.052777622 0.057831503
0003a0 28 5b 5d bd db c0 55 bd 14 58 c0 bb bf 68 c8 bb
       -0.05404201 -0.052185874 -0.0058698747 -0.0061160023
0003b0 36 8d d8 bc 4c c0 97 3c b3 58 97 bd f9 b0 f0 3c
       -0.026434522 0.018524311 -0.07389965 0.029381262
0003c0 53 f6 79 bd 91 7f 99 bd 6c d2 80 bd dc e1 5c 3c
       -0.06102593 -0.074950345 -0.06290135 0.013481583
0003d0 55 3b 59 3d 42 db 5c bd 98 11 54 3c 14 e4 aa bc
       0.0530351 -0.053920038 0.012943648 -0.02086071
0003e0 f2 ed eb 3c c8 99 53 bd 6c 92 0f 3d e7 ce 9e bc
       0.028799985 -0.05166033 0.03505175 -0.019385768
0003f0 57 2e 86 3c 21 0c 21 3c d3 45 89 bb 2e fe 8a 3d
       0.016379518 0.009829552 -0.004189232 0.06786762

lstm.weight_hh_l0 f4 [512, 128]
000000 a8 74 6e bc da 49 f4 b9 67 ef a4 3d eb 2a 09 3d
       -0.01455418 -0.0004659433 0.08053475 0.033488195
000010 4c 81 a6 bd c4 fc 8a bd 5c 0f d2 3d 91 24 b4 3c
       -0.0813013 -0.067864925 0.10256836 0.021990092
000020 7e f6 5d bc f9 d6 db bd 51 f9 ea 3c 03 51 a3 3c
       -0.013547538 -0.10734362 0.028683336 0.01993609
000030 b7 eb 35 bb 29 00 39 bd 99 1f 93 bc ac 8e fc 3c
       -0.0027758905 -0.04516617 -0.017959403 0.03082975
000040 f8 17 da bd 66 a1 81 bc 48 d8 c0 3d 37 ef 3a 3c
       -0.10649103 -0.015824031 0.094162524 0.011409572
000050 c4 05 ce 3d 4f 5f 1d 3c 94 d1 f4 3c a8 62 83 3c
       0.100596935 0.009605243 0.02988509 0.016038254
000060 80 90 dd bc ee 26 b4 3c e4 47 fc bd 65 bb 1c bc
       -0.027046442 0.02199122 -0.123183995 -0.009566163
000070 34 d2 b1 3d 78 27 8b bd 0e 72 c6 bc 76 21 75 3c
       0.08682671 -0.067946374 -0.024224307 0.014961591
000080 7e f9 24 3c 4f 69 8c bd e2 11 19 3d 68 01 68 3c
       0.010069249 -0.068560235 0.03737057 0.0141604915
000090 dd ab 4e 3d dd dc 3c bc 47 20 6b 3d 6f bd dd bc
       0.05045687 -0.011527267 0.05740383 -0.027067868
0000a0 33 d5 6b 3d da 11 d7 3d 3b b3 46 3c ef 42 0a 3b
       0.05757637 0.10501452 0.012127693 0.0021097024
0000b0 04 71 04 3c 3b ec ee 3d 89 b1 59 3d 22 83 2f bd
       0.008083586 0.11666151 0.053147826 -0.042849667
0000c0 03 31 5d 3d 4e fd a5 bd be 54 b7 bd 44 03 03 3e
       0.05400182 -0.08104955 -0.0895171 0.12794214
0000d0 3a 9c 88 3c 0e 29 70 3c 2c 20 8b 3d 32 b6 b5 3d
       0.016676057 0.014658226 0.06793246 0.088726416
0000e0 33 65 90 3d 7d d3 dd bc 4a a8 6a bd fc 80 52 bd
       0.07050552 -0.027078385 -0.0572894 -0.05139254
0000f0 89 26 8d 3c 7f ce 55 3d 05 97 4d 3c 82 b7 95 bb
       0.017230289 0.052198883 0.012548213 -0.004568995
000100 33 13 dc 3c 39 27 2a 3d ff b7 cb 3b 11 5f a8 3b
       0.026864624 0.041541312 0.0062170024 0.005138286
000110 07 f4 ae 3d b2 c2 17 3d 4c 48 76 3d 3e a1 b2 3d
       0.08542638 0.03705091 0.06012754 0.08722161
000120 01 ea 66 bd ca f5 94 bd 39 58 97 3c ce 45 82 bd
       -0.056375507 -0.07273443 0.018474685 -0.063609704
000130 f6 fa d7 3d 7f 63 3e bd 98 aa 73 3c 8d 37 7c bd
       0.10545914 -0.046481606 0.014872216 -0.061576415
000140 07 50 89 bd 1b 84 56 bd b3 43 46 ba 69 3a 15 3d
       -0.06704717 -0.05237208 -0.00075631886 0.036432657
000150 17 4d 53 bd 46 ef 47 bd a6 d4 dc bb 6e b4 d8 bd
       -0.05158719 -0.048812173 -0.006739217 -0.10581289
000160 23 88 a2 bd d5 70 e5 bc 5c 1c 2e 3d 51 7c 73 bb
       -0.07936122 -0.028007904 0.042507514 -0.0037152956
000170 10 19 7c 3a a9 e8 59 3d 14 3b de bc 8b 0a 79 3d
       0.0009616772 0.053200398 -0.02712778 0.06080107
000180 b2 05 50 bd 90 f7 22 bd 27 e4 48 bd 87 31 0e 3d
       -0.05078668 -0.039786875 -0.049045708 0.0347152
000190 78 35 91 3d 9e d4 c3 bd dd 07 2f bd 1b da 12 bd
       0.070902765 -0.09562038 -0.04273211 -0.035852533
0001a0 45 02 1b 3d e5 54 45 bd 16 c5 b4 3c 0b 5e 28 bd
       0.03784396 -0.048176665 0.022066634 -0.04110531
0001b0 a3 51 37 3d cc 63 5a 3d da ae 5d bb 91 5a 44 bb
       0.04475559 0.05331783 -0.0033826143 -0.0029961208
0001c0 71 b5 81 3c 30 60 d0 3c 6c c6 73 bd cf eb 60 bc
       0.015833588 0.02543649 -0.0595154 -0.013728096
0001d0 8a 8e 8f bd 4f 99 4c 3c ca 9d d2 3d 0b 3e f7 bc
       -0.07009609 0.0124877235 0.10284002 -0.030180952
0001e0 49 c1 82 3d 34 b0 5f 3d 68 48 d7 bc 9d 10 94 3d
       0.063845225 0.0546114 -0.026279643 0.07229731
0001f0 db 1c c3 ba 17 e2 bc bd 60 f4 fe 3a 7e 8f 46 bd
       -0.0014885919 -0.09222811 0.0019451492 -0.04847669
000200 50 5b 8d 3c 97 15 b4 bd b7 f4 96 3d b8 3d 16 bb
       0.017255455 -0.087931804 0.073708944 -0.002292497
000210 17 a4 e1 3c 41 da 9a 3d 79 0f 87 3c 1c cd 43 bd
       0.027544064 0.0756116 0.01648687 -0.04780303
000220 89 56 d4 bd aa e8 22 bc 43 70 f2 bc 39 ee 5a bd
       -0.10368068 -0.009943167 -0.029594546 -0.053449843
000230 53 3d c8 bd 4b ea 31 3d d7 81 71 bd 21 6b b7 bc
       -0.09777322 0.04343633 -0.058961716 -0.02238995
000240 01 ed 33 bd f5 f3 bd 3a 2e e0 0c 3d 91 58 9e 3d
       -0.043927196 0.001449226 0.034393482 0.077317365
000250 d1 14 fc bc 31 3d 53 bd 37 93 b0 3c d1 9e b2 3c
       -0.030771645 -0.05157203 0.021554573 0.021804245
000260 b4 26 4c 3c 21 03 a0 3d 8b db 82 3d b1 fc 08 3c
       0.012460399 0.07813097 0.06389531 0.008361028
000270 81 e1 7e 3d e0 b7 4d bd d9 b5 8a bc c5 32 6b bd
       0.062226776 -0.050224185 -0.016932415 -0.057421464
000280 4c b3 8e 3d 06 94 8f bc 08 44 02 bd 25 ce 30 3d
       0.06967792 -0.017526638 -0.03180316 0.043165345
000290 92 18 b7 3d 4d ac d6 3d 3c 7f 8c 3c 5d 97 8b 38
       0.08940233 0.104820825 0.017150514 6.65623e-05
0002a0 7a b0 3f 3d ab cd b6 3d 56 71 ed 3a b8 50 a1 bc
       0.04679916 0.08925947 0.0018115442 -0.01969181
0002b0 cc 35 22 bd 01 3d 44 bd bd d0 72 3d 31 76 1a 3d
       -0.039602086 -0.04790974 0.0592811 0.037710372
0002c0 15 b2 b4 3c 38 a8 86 3d a0 6b 55 bd 2b 8c 8d bb
       0.022057572 0.06575054 -0.052104592 -0.004319688
0002d0 fc ee 2d 3d de 03 a8 bc 53 74 56 3d e4 15 dd 3b
       0.04246424 -0.020509657 0.05235703 0.0067469943
0002e0 a6 9d c0 bd 49 34 9b bd c7 d3 f5 3c e6 7f 5a 3d
       -0.09405069 -0.07578332 0.03000821 0.05334463
0002f0 2f bb 5c 3d 01 00 19 3d 78 27 d8 bd 43 a1 db bc
       0.05388945 0.03735352 -0.10554403 -0.026810294
000300 3e d7 c6 3d c9 15 42 bd bc 1d 91 3d 42 45 a3 3d
       0.09709023 -0.047384057 0.070857495 0.07972194
000310 d9 53 1e bd 0e 68 20 3d 61 1d 8b bd 5f 02 03 be
       -0.038654182 0.039161734 -0.06792713 -0.12793873
000320 30 4b 94 bb 30 eb 50 3d 24 78 0f 3c df 25 bf bb
       -0.0045255646 0.051005542 0.008756671 -0.005833372
000330 4e 35 43 3d 7e c2 45 3d 24 0a 55 bd 41 ba d6 bc
       0.047658257 0.048281185 -0.052011624 -0.02621186
000340 68 d3 25 3c b3 a0 af 3c 41 fb 3c bd d8 68 8f 3d
       0.010121204 0.021438932 -0.046138052 0.07002419
000350 2c bb ca 3d 4f c4 8e bd 97 49 89 bd ac c3 2c 3d
       0.098989815 -0.06971037 -0.06703489 0.042178795
000360 17 f6 d5 3c 75 64 9f bd 05 46 bc 3b df 18 95 bd
       0.026118321 -0.077828325 0.0057456517 -0.072801344
000370 fe ae 90 3d d9 1a 42 bd 99 70 30 bc 7b 74 5a bd
       0.07064627 -0.047388885 -0.010769033 -0.05333374
000380 cd 1a 67 3d e9 b7 9e bc 42 8b 22 bc 1c 35 4d bc
       0.056422044 -0.019374805 -0.009920897 -0.012524869
000390 f5 0e 67 3d fc f0 8b 3d 82 3f 8a 3d e5 10 eb 3c
       0.05641075 0.068330735 0.067503944 0.02869458
0003a0 4d d3 12 3d 42 5a e1 bd b1 0d 5e 3b 01 77 2c bd
       0.035846043 -0.110035434 0.0033882672 -0.04210568
0003b0 a5 f9 36 3d 23 e8 40 3d 91 ca bc bc c3 8d 66 3d
       0.044671673 0.047096383 -0.02304581 0.05628754
0003c0 22 60 22 bd 97 e1 a2 3d 97 41 b2 bd bd dc 44 3d
       -0.03964246 0.07953184 -0.087039165 0.048062075
0003d0 9f 67 52 bd d0 f5 93 bd ec 71 be 3c 43 01 13 bd
       -0.051368352 -0.072246194 0.023247682 -0.035889875
0003e0 52 74 a3 bd 1a e5 2c bd 67 8d ad bd 22 ff 9a bb
       -0.07981171 -0.042210676 -0.08474236 -0.004730121
0003f0 6b 8d c4 bc d7 6c 57 3c 09 c4 8a bd 73 5e 86 bd
       -0.023993215 0.013148508 -0.06775672 -0.065609835

lstm.bias_ih_l0 f4 [512]
000000 77 1a 56 bc ee 57 86 3c 99 c9 b9 bc 9b 51 cc 3d
       -0.013067833 0.01639935 -0.022679137 0.099765025
000010 9c d9 06 bd 17 44 0e bd 72 88 e4 bc aa f4 9c 3d
       -0.032922372 -0.034732904 -0.027897093 0.076638535
000020 0c ff 05 bd 6d f0 ac 3d 6b e2 06 3d b3 b2 13 bd
       -0.032713935 0.08444295 0.032930773 -0.036059093
000030 be 41 4b 3c 43 da cc 3d 15 72 3a 3c 2c 02 27 bd
       0.012405811 0.100025676 0.011379738 -0.040773556
000040 d7 04 ce 3d 51 c9 87 3d 60 14 f9 3c 2c e9 e6 3d
       0.10059517 0.06630195 0.030405223 0.11274943
000050 32 7b ba bb c2 c5 c2 bc 7e 4d 41 bc 42 74 a3 3d
       -0.0056909556 -0.023775939 -0.011798261 0.07981159
000060 0f be d9 3d 3c cd 53 bd 35 fc a7 3d dc 7f de bc
       0.10631954 -0.0517094 0.082024015 -0.027160577
000070 33 9d 97 3b bd 41 5c 3a 63 01 6f bd f2 2a b6 3b
       0.004626894 0.000840213 -0.05835093 0.0055593187
000080 2c 30 d8 3d fc af a1 3d d6 2d 26 bd ff fb 4b 3d
       0.10556063 0.078948945 -0.040571056 0.04980087
000090 a8 8c db 3c 6f 8a 2c bc 58 22 21 bd de 37 70 3d
       0.026800469 -0.010531052 -0.039339393 0.05864703
0000a0 e5 29 97 bc 76 89 03 3d bf 73 93 bc a1 79 c4 3d
       -0.018452594 0.032113515 -0.017999528 0.095935114
0000b0 91 c3 d3 3d 55 01 ce bc a5 5d c1 3d 88 00 ba 3c
       0.10340036 -0.02514712 0.094416894 0.022705331
0000c0 13 11 a4 3d 70 bc 76 3d 1d be d8 3c 18 c0 d0 3d
       0.08011069 0.0602383 0.02645784 0.10192889
0000d0 67 2a dd 3d 22 c6 5a bb 6a 3a fb bc b8 d0 87 3b
       0.10799103 -0.0033382257 -0.030667502 0.0041447543
0000e0 23 73 b7 3d cf c1 bd 3d 94 fd 4c 3c 73 8b 0b 3d
       0.089575075 0.09265482 0.01251163 0.034068536
0000f0 97 fe a9 3d d8 33 8b 3d 39 cb 8a bc de a1 3a 3d
       0.08300512 0.06796998 -0.016942607 0.045564525
000100 f6 75 c9 3c 41 e6 d6 3d 47 17 67 3d 4e f6 ad bc
       0.024592381 0.10493136 0.056418683 -0.021235611
000110 32 0a 8e bd fe bf 4a bd cb ac 02 bb b7 bd bd 3d
       -0.06935538 -0.049499504 -0.0019939418 0.09264701
000120 36 e8 99 3d 21 94 37 bd 64 3f c6 3c c2 40 a8 3d
       0.07514994 -0.044819 0.024200149 0.082154766
000130 48 b0 9d 3b e0 5b c3 3d 7e 45 3b bc 48 41 58 3d
       0.004812274 0.09539008 -0.011430142 0.052796632
000140 38 ef 78 bb d2 cb f4 3d c8 dd 6c 3d 42 72 73 3c
       -0.0037984382 0.11952938 0.057828695 0.014858784
000150 79 eb c1 bc 27 ca 44 3d 5b 40 c9 3b ea 4f 43 3d
       -0.023671852 0.04804435 0.006141705 0.047683634
000160 a1 7f 70 3c 21 95 6a 3d 03 3f 3b bd 50 5a 59 bd
       0.014678867 0.057271127 -0.04571439 -0.053064644
000170 09 5b 13 3c 1e 10 4c bd 4e 80 fb ba 8e a4 00 3e
       0.008993872 -0.049820058 -0.0019188018 0.12562773
000180 e7 51 12 bd 7b 46 0b 3d 49 4a 4c bc a9 0a cd bb
       -0.03572264 0.034002762 -0.012468883 -0.0062573743
000190 86 08 ab bb 7f 4a 91 3d c1 29 b3 bb b1 7f b3 3d
       -0.005219522 0.07094287 -0.005467624 0.087645896
0001a0 1e a7 8e bc 9a 00 3b bd 87 b9 a4 3d 0f 65 6d bd
       -0.017413672 -0.04565487 0.08043199 -0.057957705
0001b0 1a e1 b4 bc a7 81 2d bc fc 8c a8 3d 91 51 91 3d
       -0.022079993 -0.010589994 0.08230016 0.07095636
0001c0 4d 7d b5 3d df 31 d4 bc 7d be 07 bb 82 87 c2 3d
       0.0886179 -0.025902687 -0.0020712905 0.09498502
0001d0 b8 87 85 bc 3f 58 92 3d 5c dc 0d bd 3d 83 30 3d
       -0.016300067 0.07145738 -0.03463398 0.04309391
0001e0 83 c3 d9 3c 4d bf 21 3d 7d 20 28 3c 48 a2 82 3d
       0.026582485 0.03948908 0.010261652 0.06378609
0001f0 c1 19 20 bd fe 23 33 bc bc a4 89 3d 4b a2 b9 3d
       -0.03908706 -0.010933874 0.06720874 0.09064158
000200 6b 3a c2 bb a3 6f 13 3d 0b 27 ea 3c c0 08 ca bc
       -0.005927374 0.035995137 0.02858307 -0.024662375
000210 2b a4 c3 3d 04 a8 f9 3c dd c4 c6 ba c0 60 ab 3c
       0.09552797 0.030475624 -0.0015164871 0.020920157
000220 79 5f 68 bd 27 1a c3 bc 83 6c 80 bc 0e 22 7a 3d
       -0.056731675 -0.023816181 -0.015676742 0.061067633
000230 d3 d4 7e bc 29 a8 1b 3c 89 b0 42 3d 3e d9 06 3d
       -0.015553671 0.009500542 0.04753164 0.032922022
000240 92 4a 87 bc 3b 26 c8 3d aa ae 84 3d 40 bb ab 3c
       -0.01651505 0.09772917 0.06478627 0.020963311
000250 1e 32 13 3d 19 56 87 bd f1 17 bf 3d dc bc d2 3d
       0.035936467 -0.06608219 0.09330738 0.10289928
000260 7e de e9 3d 68 0b 55 3d a6 f8 8e 3d 7b 03 45 bd
       0.1141939 0.05201283 0.0698102 -0.048099022
000270 7c 93 b9 3c df 78 b1 3b 3f 46 34 3d 8d 6f 4b bd
       0.022653334 0.0054160203 0.044012304 -0.04966693
000280 df 3c d0 3d 9b 73 41 bc 4d 69 c4 3c 87 3e 3d bd
       0.1016786 -0.011807348 0.023975993 -0.04620221
000290 9f fe 51 bd 26 b8 d5 3d b9 1c 8f 3d e3 2b 72 3d
       -0.051268216 0.10435514 0.069879 0.059123885
0002a0 2a 0c 8b 3d 48 d3 a8 3c a7 ed 54 bd 05 05 77 bc
       0.067894295 0.02060856 -0.051984455 -0.01507688
0002b0 45 ba bd bc 91 5b c8 ba 12 32 11 3d 69 6b 6f 3d
       -0.02316011 -0.0015286078 0.03544814 0.058452044
0002c0 d9 0c 76 38 86 da 1c 3d dc 5c 8f 3c 7f 56 9d 3d
       5.8662936e-05 0.038294338 0.017500333 0.076825134
0002d0 1c a1 13 bd ea 60 34 3d 6f 6d 20 bd b7 02 75 3d
       -0.036042318 0.044037737 -0.039166864 0.059817042
0002e0 c6 c1 b7 bb 97 cb 9a 3c 04 b1 44 bd 72 a0 bd 3d
       -0.0056078164 0.018895907 -0.048020378 0.09259118
0002f0 52 49 bd 3d e1 fb 80 bd 84 55 73 3d 47 1a 92 3d
       0.092425 -0.06298042 0.059407726 0.07133918
000300 21 db 7a bd 63 43 7d 3c 60 fb e8 3d 74 5d 8c 3c
       -0.061244134 0.015457961 0.11376071 0.017134406
000310 d4 79 66 bd 1a 25 22 3d ec 4f 39 bd 38 8c 6d bc
       -0.056268528 0.039586164 -0.045242235 -0.014498763
000320 67 96 26 3c 4c 76 b1 bc 40 36 80 3c 4d 78 0c 3d
       0.010167695 -0.021662854 0.015650868 0.034294415
000330 b1 09 86 bc e1 29 06 bd 01 f1 6c bc 83 89 07 3d
       -0.016362043 -0.032754783 -0.014461757 0.033090126
000340 6f a8 8f 3c 6f ed 16 bd db 41 20 bd 95 7c 1b bc
       0.01753637 -0.036847528 -0.039125305 -0.009490152
000350 3d aa 08 3c dd 49 ea 3c bb 2f 12 3d 44 54 cc 3c
       0.008341369 0.028599674 0.03569005 0.024942525
000360 37 c9 9c 3d b0 c3 d8 3d 22 1e 99 3d a8 63 5b 3c
       0.07655566 0.105841994 0.074764505 0.013390459
000370 bc 31 97 3c 1a b0 bf 3d cf 6a b5 3d f8 1a 31 3c
       0.018456332 0.093597606 0.08858263 0.0108096525
000380 25 9b 21 bd ae f7 29 3b 2b 26 05 3b 9f e6 09 bd
       -0.039454598 0.0025934982 0.002031694 -0.033667203
000390 75 36 11 bd b6 ce 9f bc 2f 98 b2 bc 25 03 02 bd
       -0.035452325 -0.019507747 -0.021801082 -0.03174128
0003a0 4e b6 8b 3d 80 15 93 3d 58 63 54 bd 98 49 88 3c
       0.06821881 0.07181835 -0.051852554 0.016636655
0003b0 b6 eb d1 3c fa 57 bc 3c 54 62 ec 3c 06 49 a4 3d
       0.025625091 0.02299117 0.02885548 0.080217406
0003c0 8c 6c 4b bd 12 ac 9d bc 08 bd 52 3d 45 64 ea 3c
       -0.049664065 -0.019247089 0.051449805 0.028612265
0003d0 71 29 61 bd 54 0c 11 bd 47 a5 b6 3d 2c 82 da 3c
       -0.054971162 -0.035412148 0.08918243 0.026673399
0003e0 4a 7b 84 3d fa 3d c6 3d f0 d3 c6 3d 36 e0 9e 3d
       0.06468828 0.0967979 0.097083926 0.077576086
0003f0 38 cf 5c 3d c3 c1 60 bc c3 c9 ee bc 19 a8 c1 3d
       0.053908557 -0.013718071 -0.029148942 0.0945589

lstm.bias_hh_l0 f4 [512]
000000 8a 30 d0 3d 7c a7 b2 3d b3 65 8d 3d 09 83 d8 3d
       0.10165508 0.08723351 0.06904163 0.10571868
000010 9e 91 a7 3d 5d 94 9a 3d fe a1 72 bb fa 0c c9 ba
       0.08182071 0.07547829 -0.0037022824 -0.001533895
000020 6c c1 e5 bc 4a d8 67 bd 26 90 df 3c d9 45 7a 3c
       -0.028046332 -0.056602754 0.027290415 0.015275442
000030 5e 06 60 bd cd c9 a9 bc d3 3f 9d bc bf f6 d6 3d
       -0.054693572 -0.020726109 -0.019195473 0.10496282
000040 b9 11 c9 3d 0b 34 8c 3d dc 55 69 3d af 3f 67 bc
       0.098178335 0.06845864 0.056966648 -0.014114304
000050 7f e0 a6 3c 58 ae 0e bd 33 13 c0 bc d0 21 e6 3b
       0.02037072 -0.034834236 -0.023446655 0.0070230737
000060 e3 34 0e 3c 88 e8 87 bb 3d d2 de 3d 0e 25 4a bd
       0.008679601 -0.004147593 0.108799435 -0.049351744
000070 82 e5 7d bd e7 14 37 3d 2f 9d d1 3c d6 92 9e 3d
       -0.061986454 0.04469767 0.025587646 0.077428505
000080 f4 14 d7 3d 91 28 f4 bc f4 dc 02 3d 1a 3b 35 3d
       0.10502043 -0.0298045 0.031949 0.044245817
000090 3a a3 18 3d c7 da be 3d 4c 85 c6 3d 3c cc ae bb
       0.03726504 0.09319072 0.09693393 -0.005334405
0000a0 54 e7 69 bd 1d c7 8a 3d 96 d2 b8 3d fd 46 82 3c
       -0.057105377 0.06776259 0.09024541 0.01590299
0000b0 23 b1 b9 3d d0 ed 82 3d d7 6e 1b bd 16 62 f7 3d
       0.09066989 0.063930154 -0.037947502 0.12079255
0000c0 f5 11 b1 bc 71 6e 12 3d 9c 19 be 3d e1 93 07 ba
       -0.021615008 0.035749856 0.09282228 -0.0005171877
0000d0 58 c9 dd 3d 77 c0 59 3d ad 49 89 bd f2 d3 2e 3d
       0.10829419 0.053162064 -0.06703506 0.042682596
0000e0 e4 ae 19 bc b5 af a7 3d 15 91 99 39 d3 c4 0d bd
       -0.009380076 0.0818781 0.0002929053 -0.034611534
0000f0 25 ed c4 3d 13 f7 d4 3d 64 e9 3a bd fa 4f d9 3c
       0.09615544 0.10398688 -0.045632735 0.026527394
000100 b4 7a 8c 3d d5 4b d3 3c c8 4e b9 3d 1b 26 a8 3d
       0.06859341 0.025792995 0.090482295 0.08210393
000110 6c b3 1a 3d 59 f2 a3 3d f7 a3 8f 3d ac 8a b8 bc
       0.037768766 0.080052085 0.07013696 -0.022527061
000120 e5 23 54 bd ef 8e 99 3d 62 33 2e 3d 15 7c 09 3d
       -0.051792044 0.074979655 0.04252947 0.0335656
000130 22 b9 d6 3d e0 ce b7 3c d1 80 87 3c 1b 2d a8 3d
       0.1048453 0.022437513 0.016540917 0.08211728
000140 c0 1e 76 3d 44 1d 3a bd 0a 63 cd 3c 74 f4 82 bc
       0.06008792 -0.045438066 0.02507164 -0.015985705
000150 0e d2 ca bc d8 97 19 3d 4d 39 c8 3d 2b df 84 bc
       -0.024758365 0.037498325 0.09776554 -0.016219696
000160 18 62 fb 3d 53 2c fc bc 51 13 44 bd 2e ed 07 3d
       0.12274569 -0.030782854 -0.047869984 0.033185177
000170 78 5b 59 3c 81 fc d6 3d b2 48 df bc 7e 86 91 3d
       0.013266437 0.1049738 -0.027256344 0.071057305
000180 2c 55 2e bd 20 07 a1 ba d2 8e 0d 3d e5 4c 49 bc
       -0.042561695 -0.0012285449 0.034560032 -0.0122863995
000190 7b a9 a4 3d 22 34 d7 bb 52 e5 29 3d b7 68 02 bd
       0.08040138 -0.006567494 0.041478463 -0.031838145
0001a0 79 b6 0a 3e f4 c2 75 bc e8 fc 2b bc 0c 37 ab 3b
       0.1354617 -0.015000094 -0.010497309 0.005225068
0001b0 5f 4d ef 3c a2 0f 3c 3d 14 20 27 3d a1 e6 85 3d
       0.029211698 0.045913346 0.040802076 0.065381296
0001c0 a1 a9 a7 3d e4 ba 0f bd e0 f9 78 bd 20 f1 d4 bc
       0.08186651 -0.035090342 -0.060785174 -0.025993884
0001d0 c1 e5 8e 3d 3a f4 c5 3d 75 fa d8 bc 35 69 c2 3c
       0.06977416 0.09665723 -0.026486615 0.023731807
0001e0 13 57 84 bc fe 59 c0 3d dd b0 be 3c 4f 47 83 3d
       -0.016154801 0.09392165 0.023277694 0.064100854
0001f0 90 bb 53 3d 0a ef 36 bd 46 4f ce ba 6b 99 ca 3d
       0.051692545 -0.04466156 -0.0015740178 0.098925434
000200 c8 88 03 bd a7 b3 45 3d 7c 23 a5 3d 7d f5 b7 3d
       -0.032112867 0.048267033 0.08063409 0.0898237
000210 38 10 6a bd 24 f5 55 3b 05 98 64 3c 0e c9 9c 3d
       -0.057144374 0.0032647336 0.01395226 0.07655536
000220 f1 ac 26 3d 37 cf 64 bc 75 7c 06 3d 7e 14 c7 3d
       0.040692274 -0.0139654195 0.032833535 0.097207054
000230 dd 1b aa 3c 59 75 fd 3c 65 86 e4 3d 77 d7 cc 3d
       0.02076524 0.030939745 0.11158446 0.10002034
000240 e9 0e 86 bd f2 ce e8 3c b0 a2 85 3d 36 fd 92 3d
       -0.06545813 0.028418992 0.06525171 0.071772024
000250 66 96 0f bc 44 cd b7 3c bb 41 b4 bc 8c eb 68 3b
       -0.008763885 0.022436745 -0.022003999 0.0035540788
000260 cc 5b 82 3d 1c 3a c8 3d 7d c6 27 bd 7d ae c9 ba
       0.06365165 0.097767085 -0.040960778 -0.0015387085
000270 b7 2f 9f 3c 13 ca c2 3c df 2e b7 3b 6c c2 7b 3d
       0.019431932 0.023777997 0.0055903043 0.061464712
000280 e1 14 bc bb da f8 19 3d ed 5f 48 bd 1b 14 b4 3d
       -0.0057397936 0.03759084 -0.048919607 0.08792897
000290 7e 5b ef 3d 56 20 47 bd f8 2a d1 3d b8 27 d4 3d
       0.116873726 -0.048614822 0.10213274 0.10359138
0002a0 a4 c1 bb 3d 75 52 85 3b aa 9f 0d 3d e6 3e f5 3d
       0.091677934 0.0040686675 0.034576096 0.119748875
0002b0 cf 25 4c 3d 64 68 09 bd da 6b 05 bd 87 cd fb 3d
       0.049840745 -0.03354682 -0.03257356 0.122950606
0002c0 02 f5 46 3d 6f 0a ec bc d9 9e 70 bd 05 85 bf 3d
       0.0485735 -0.028813569 -0.05874524 0.09351543
0002d0 95 3b c8 3a ae 37 d9 3b 28 b7 3f bc e9 d0 8d 3d
       0.0015276546 0.006628952 -0.011701383 0.06924612
0002e0 7f 9b 8a 3d 26 92 be 3d 87 26 e4 3c 7a 76 95 3d
       0.0676794 0.09305219 0.027850403 0.07297988
0002f0 46 6b 08 bd e9 a0 cc 3d f6 9b a0 3d e6 d9 9c bc
       -0.03330543 0.09991629 0.07842247 -0.01914687
000300 f9 eb 52 3d be 02 47 bc 93 2a a2 3d 1a b4 04 bd
       0.051494572 -0.01214665 0.07918277 -0.03239832
000310 9c 87 a5 3d 2c e7 45 bd a8 20 6f bd df 34 a6 bc
       0.08082506 -0.048316166 -0.058380753 -0.020288883
000320 91 bd de bc 8a 2c ae 3c 4e 69 c0 3d 8b 1b ba 3d
       -0.027190002 0.021261472 0.09395085 0.09087285
000330 10 25 3b 3d 99 e0 0e bd c8 c5 6e 3c 5f 68 bc 3d
       0.045689642 -0.03488216 0.014573522 0.09199595
000340 af 39 1b bd ae b1 67 bd 26 2b fa bc 6b 5d a5 3c
       -0.03789681 -0.056565933 -0.030538153 0.020186147
000350 df 8d 28 bc 03 5e 86 3c 39 8a 69 3d 27 49 f3 3b
       -0.010287731 0.01640225 0.057016585 0.007424492
000360 18 62 b3 3d 2d f6 04 bd ee c9 e7 3d 87 46 87 3d
       0.08758944 -0.032461334 0.11317812 0.06605249
000370 a8 2d 10 3a 6c 92 bf bb c5 44 83 3c 1a 77 e0 bb
       0.00054999674 -0.0058463123 0.016024003 -0.0068501355
000380 01 e9 43 3d 1e bc 5d bd d1 f8 ab 3c b2 1d 62 bd
       0.04782963 -0.05413448 0.020992668 -0.0552041
000390 54 04 c1 3d 32 cc f7 3c ac 5d d0 ba 25 6b 8b 3c
       0.09424654 0.030248735 -0.0015897057 0.017018864
0003a0 3d f4 e4 3d f5 ba ca 3d 84 98 64 3d 70 6f 14 bd
       0.11179397 0.098989405 0.055809513 -0.036239088
0003b0 20 e8 5e 3d de 8d 75 bb ca 43 5e bd 6f 29 c1 bc
       0.05442059 -0.0037468593 -0.054263867 -0.023579327
0003c0 f9 13 1d 3d c1 6c 95 3d 63 1a ad bc 1d c6 35 3c
       0.038349126 0.07296134 -0.021130746 0.011094597
0003d0 97 ee 57 3d ae bd c9 3d e3 33 d2 bc 46 7c 80 3d
       0.05271777 0.09850632 -0.025659507 0.06273703
0003e0 02 25 85 3c 13 de 90 3d 79 14 b3 bc c0 00 77 bd
       0.016252998 0.07073607 -0.021860348 -0.06030345
0003f0 ab af c8 3d 61 e9 ec 3d 09 fa c0 bc 2e 30 8c 3d
       0.09799131 0.11567951 -0.023556726 0.06845127
