models/cnn_lstm_model.pth (torch, 992486 bytes, 15 tensors)

cnn.0.weight f4 [32, 7, 3]
000000 80 46 48 bd 91 ac 8a 3b 3d 27 1f 3e c6 bc 0e 3e
       -0.04889536 0.0042319973 0.15542312 0.13939199
000010 a6 70 fc 3d 43 e2 b1 3d a7 6d 50 be 38 29 e4 bc
       0.123261735 0.08685734 -0.20354329 -0.027851686
000020 ee 6d 5b 3e ae d7 83 bb 25 85 4d be 2f 2f d5 3d
       0.21428654 -0.0040235138 -0.20070322 0.1040939
000030 8a 46 80 3d 0e e6 22 3c 2f ef 59 bd b1 84 50 3e
       0.06263454 0.009942545 -0.05320662 0.20363118
000040 8c 7a cc bd 80 a1 eb bd 72 df 3f 3e 08 e7 32 3e
       -0.099843115 -0.11505413 0.18737581 0.17470944
000050 28 2d 86 bd d4 9d 18 bc 93 ff 06 3d c8 d3 53 be
       -0.065515816 -0.009314973 0.03295858 -0.20686257
000060 02 98 78 bc 31 f9 05 3e 3a b2 a5 bd 9d 11 67 be
       -0.01517296 0.1308334 -0.08090635 -0.22565313
000070 9c 1f 70 3c f6 c2 d8 3d 7b af c5 3d 83 c5 57 be
       0.014655974 0.10584061 0.09652611 -0.21071438
000080 b8 f6 24 be d9 1c 18 bd 22 1a 57 bd 7b 04 7a bd
       -0.1610974 -0.037136886 -0.052515157 -0.06103943
000090 08 68 22 be 23 d0 e9 bd cf 8c a9 bc 67 d6 66 be
       -0.15859997 -0.11416652 -0.020697026 -0.22542726
0000a0 b1 de 1b be 0f 84 cb 3d fe 09 12 3d 74 81 09 be
       -0.15221669 0.099372976 0.03565406 -0.13428289
0000b0 d8 7c da bc 47 94 5d be 82 86 f4 3d 1e 2a a9 bd
       -0.026670858 -0.21638595 0.11939718 -0.08259986
0000c0 2a 87 aa 3d 93 b9 14 3e 34 60 1a be 55 38 69 be
       0.08326562 0.14523916 -0.15075761 -0.22775395
0000d0 23 00 71 be dd 33 ee bc 5c ce 3b be 8f c5 0e be
       -0.23535208 -0.029077465 -0.18340439 -0.1394255
0000e0 46 00 73 3d 50 44 1b 3d 7f d4 5e be cb 24 32 3e
       0.059326433 0.037906945 -0.21760748 0.17396848
0000f0 43 40 af bc 37 d8 41 3d fc 8a ba bd 59 d1 f1 3d
       -0.021392947 0.04732534 -0.091085404 0.11807508
000100 d9 67 dd 3c 52 59 24 be 58 f8 a3 bc 59 6b dd 3d
       0.027027057 -0.16049698 -0.02001588 0.108114906
000110 cd 79 2e 3e db 12 4a be d8 d9 2b be 47 da 48 bd
       0.17038651 -0.19733755 -0.1678232 -0.04903629
000120 55 cc 5b 3e 8c cd 11 bd 49 40 34 be 37 97 10 3e
       0.21464665 -0.035596415 -0.17602648 0.14120184
000130 3f 75 36 3e 51 cd 84 3d 01 b3 98 bb 25 1d ea bd
       0.17818163 0.064844735 -0.004660011 -0.1143134
000140 b6 07 4a be 7c 44 be 3d 78 9a ca bb ed 09 3b 3e
       -0.19729504 0.09290406 -0.006182965 0.18265505
000150 f8 4d e2 bd ca 01 33 be 2c 79 43 bc c0 70 05 be
       -0.110500276 -0.17481151 -0.011930745 -0.13031292
000160 49 ef b6 bd 42 a6 2d 3e 27 f6 22 3d 3a 0f 03 3e
       -0.08932359 0.16957954 0.03978553 0.12798777
000170 8a 01 61 be 37 0b 92 bd dc 4c 10 3d 6a fe 5f 3e
       -0.21973243 -0.07131045 0.03522955 0.21874395
000180 80 01 21 3e df db c4 3c 38 44 1b 3e 84 45 d0 bc
       0.15723228 0.024030624 0.15162742 -0.025423773
000190 6d a2 98 bd d6 39 47 3e ef 2b c3 bd 23 d2 a5 3b
       -0.07452855 0.19455656 -0.09529864 0.0050604506
0001a0 2e 52 5e 3d 1d 4c f0 bd 0c 8f fc bd b4 63 bd 3d
       0.05427759 -0.117332675 -0.123319715 0.092475325
0001b0 87 c1 bc 3d 92 a9 2a 3d 26 53 b7 bd 6d 44 12 bd
       0.092166 0.04166562 -0.08951406 -0.035709787
0001c0 bc bc 6e 3d a9 23 35 3e 9b 45 88 3d 24 8a ba 3d
       0.05828546 0.17689385 0.06653901 0.091083795
0001d0 57 a9 e8 bd ff 44 58 be cc 83 46 be 7a 81 0c be
       -0.11360424 -0.2112007 -0.19386214 -0.13721266
0001e0 c7 2a 2e 3e 11 db 36 be 5c 8b 9f bd af 36 5f be
       0.17008506 -0.17857005 -0.077902526 -0.21798204
0001f0 f5 8d 32 be b6 83 a0 bd 9e 64 df 3d 0f 0b 43 3e
       -0.17436965 -0.07837622 0.10907863 0.19047187
000200 4d 26 5b be 40 be b2 bd 6e 76 02 be cc 98 49 be
       -0.2140133 -0.087276936 -0.1274049 -0.19687194
000210 71 b7 50 3e 5f b7 55 be 78 57 39 be eb 1b 58 3e
       0.20382477 -0.20870732 -0.18099773 0.211044
000220 82 ef a0 3d c0 e3 40 be 7b 5c 2a be 3d 47 25 3e
       0.078581825 -0.1883688 -0.16636841 0.16140456
000230 52 73 43 be 46 23 e0 3d 2c b3 06 3d ab 98 b3 bd
       -0.1908696 0.10944228 0.032885715 -0.087693535
000240 82 b2 4d 3e fc 19 28 be c6 89 0c 3e 0c 6e 39 3e
       0.20087627 -0.16416162 0.13724431 0.18108386
000250 8c b2 29 3e 60 e0 eb 3d 72 06 47 bd 6a 84 3a be
       0.16572016 0.115174055 -0.04859013 -0.18214574
000260 0c 0d 89 3d 0a 9b 1c be 16 fa 4c 3e 63 40 eb 3d
       0.066919416 -0.15293518 0.20017275 0.1148689
000270 6a eb 3d 3d be f8 9a 3d dc db 89 3e f6 be 33 be
       0.046367086 0.07566975 0.26925552 -0.17553315
000280 5e 82 0a be bf 03 6e 3c 94 60 37 bb ac b1 43 be
       -0.13526294 0.01452726 -0.002798115 -0.19110745
000290 10 24 3e 3e 34 80 33 3e 8a 1d 5e be 48 9f 80 3c
       0.18568444 0.17529374 -0.21690956 0.015700951
0002a0 e6 25 13 3e 81 4b 1d 3e e3 d0 b2 bd ca 9e 9d 3c
       0.14369926 0.15360834 -0.08731248 0.019240756
0002b0 87 f9 dd 3d 9c f4 01 bd e7 69 15 3e 03 37 a7 3d
       0.10838609 -0.03172742 0.1459118 0.081647895
0002c0 d3 4a d9 bd 75 d2 ae bd 1d 1e 40 be 9a 5a 01 3e
       -0.10609975 -0.08536235 -0.18761487 0.12632218
0002d0 17 66 09 3e 80 7c 44 be b0 0e 86 bd 03 47 34 be
       0.1341785 -0.19188118 -0.0654577 -0.17605214
0002e0 e7 b1 19 3e a6 b4 8e bd 0f dd 4e be 6e f3 cb 3d
       0.1500927 -0.0696805 -0.20201515 0.0995854
0002f0 1b b6 cc 3c 78 be 3c be 8b 7d 59 be 41 c9 67 be
       0.024989178 -0.18432033 -0.21239297 -0.22635366
000300 2f 45 4e be 9b 75 01 3e 47 d5 45 be 99 39 80 3d
       -0.20143579 0.12642519 -0.1931964 0.06260986
000310 ae 15 25 3e dc dc b7 bd a1 60 1f 3e b0 5a 56 3e
       0.16121551 -0.089776725 0.15564205 0.20933032
000320 23 df 50 ba 0e d6 0c be 97 46 6a 3c 3a 02 59 3d
       -0.000796782 -0.1375353 0.0142990565 0.05298064
000330 76 f6 0d be a7 4f 5a be ab 73 5f 3d fc 39 84 ba
       -0.13863549 -0.21319447 0.05455367 -0.0010088081
000340 6b bc 7c bd 21 a6 9e 3d 2f c5 40 3e 1a e5 05 3e
       -0.061703127 0.0774653 0.1882522 0.13075677
000350 10 f9 72 3e a3 88 ac bd 88 45 2a 3e 9c f1 ea 3d
       0.23727822 -0.08424499 0.16628087 0.114718646
000360 20 d5 a0 3d c5 5a ac bb c6 b2 1a 3e 05 f1 a3 bd
       0.0785315 -0.005259844 0.15107259 -0.08004955
000370 45 f5 8a bd e2 7a 12 be de 22 da bc 86 01 0e be
       -0.06785063 -0.14304689 -0.026627954 -0.13867769
000380 19 e9 7c be d1 50 a9 bd a4 d0 37 3e d6 2f 1d 3e
       -0.24698295 -0.08267368 0.17950684 0.15350279
000390 18 dc 02 3e 78 99 8a 3d 3e 14 19 3e 86 2f 13 bd
       0.12779272 0.06767553 0.14949128 -0.035933994
0003a0 5e 90 cf 3d 68 e1 56 3e 4c 91 40 3e 01 df ed 3d
       0.10134958 0.20984423 0.18805426 0.116148
0003b0 4d dd b3 bd 65 e1 5a 3e 53 4b 3c 3e 2f 88 fe 3d
       -0.08782444 0.21375044 0.18388109 0.12428319
0003c0 2c 93 aa bd 32 41 4b 3e ec 77 2c be ef 86 12 3e
       -0.08328852 0.19849089 -0.16842622 0.14309286
0003d0 4a 53 9c bd aa c3 26 3d 4c ad e6 3d 8c ce 4e 3e
       -0.07633074 0.040713944 0.112635225 0.20195979
0003e0 b3 b7 ed bc 0c e1 24 be 07 bf a6 bd 2b 0e 59 3d
       -0.029018259 -0.16101474 -0.08141904 0.052992027
0003f0 39 5b 0b 3e 36 20 3b 3e 33 74 a1 bc bd 55 d9 bd
       0.13609017 0.18274006 -0.019708728 -0.106120564

cnn.0.bias f4 [32]
000000 55 eb 8a bd 55 5c 00 be ed 63 10 3e bb 8e 86 3d
       -0.06783167 -0.12535222 0.14100619 0.065701924
000010 ff 7b 50 3d 3e cc 78 3e 23 31 ac 3d ab 97 48 3e
       0.050899502 0.24296662 0.084078096 0.19589107
000020 ac fe 43 3e 2f 71 39 3d 20 80 eb bd a4 ef 6c 3d
       0.19140118 0.045273956 -0.11499047 0.057845727
000030 64 81 8e bc 3e 96 55 3c d8 47 2a be 5b f1 b1 3d
       -0.017395683 0.013036309 -0.16628969 0.08688613
000040 66 7e ce bc 46 a9 23 bd 53 ac c8 bd a3 88 33 be
       -0.025206756 -0.039956354 -0.09798493 -0.17532592
000050 16 ec a7 bd a6 15 0b bd d8 a7 05 3e ce 6c 1c 3d
       -0.08199327 -0.033956192 0.13052309 0.0381897
000060 cb 19 6c 3e 71 e3 97 bd 39 f2 1d 3d 41 de 0e 3e
       0.23056714 -0.07416428 0.03856108 0.1395197
000070 54 02 40 bb c4 ce 7b 3e 57 ed 2e 3e 3d fc 42 be
       -0.0029298263 0.24590594 0.17082725 -0.19041534

cnn.3.weight f4 [64, 32, 3]
000000 ca 63 c3 3d 64 10 dc 3d ea 7b dc ba 21 01 cd 3d
       0.09540518 0.10745314 -0.0016821597 0.10009981
000010 14 8f a9 bc 54 67 1c 3d 1a 64 be 3c e5 64 82 bb
       -0.020698108 0.03818448 0.023241092 -0.0039793127
000020 60 74 ca 3d 84 93 f8 3c 03 34 d1 3c 26 ca ba 3d
       0.09885478 0.030343778 0.025537496 0.09120588
000030 95 8a b9 3d e5 cc b2 3d dd 8f 93 bd a9 c3 3a bd
       0.090596355 0.08730487 -0.07205174 -0.045596752
000040 93 bc df 3d 87 55 c4 3d ce ed a3 bd f7 8e 93 bd
       0.109246396 0.095866255 -0.08004342 -0.07205003
000050 24 eb 81 bd 1c b2 14 bd 56 6c ac bd 52 34 82 bd
       -0.06343678 -0.03630267 -0.08419101 -0.063576356
000060 d3 d2 6c 3d 25 53 b1 3d 0c da 17 3d 98 c6 f8 bc
       0.057818245 0.08658437 0.03707318 -0.030368134
000070 60 50 6e 3b 67 40 60 3d 2b c5 e6 bc 60 9a f1 3c
       0.0036363825 0.05474892 -0.028170189 0.029492557
000080 10 24 5d 3d 1b 0f 0b 3c 80 81 57 3a 4a 71 a0 ba
       0.05398947 0.008487488 0.0008220896 -0.0012240794
000090 01 59 c6 3d f3 7e e0 3d 99 bc 21 3d f9 cf d5 bd
       0.09684945 0.10961714 0.0394865 -0.10440058
0000a0 29 68 77 3d 59 a8 bd 3d 12 af 45 3d d1 38 58 3c
       0.06040207 0.092606254 0.048262663 0.01319714
0000b0 7d d7 a3 bb 03 5b 9e 3d a8 ba 61 bc c1 5b ee 3c
       -0.0050000534 0.07732203 -0.0137774125 0.029096486
0000c0 68 d0 9c bd c9 b8 2c bd 69 f8 ab 3d 80 e4 6d 3d
       -0.07656938 -0.042168412 0.0839699 0.058079243
0000d0 3e b7 1a bd aa 24 b8 bd 6f 6d 41 bd 2e 28 9d bc
       -0.03777241 -0.08991368 -0.047223505 -0.019184198
0000e0 88 26 51 3b c8 aa 1d 3d 21 91 52 bd 74 bf 83 3d
       0.0031913836 0.038492948 -0.051407937 0.06433001
0000f0 4e 0d ab 3d 44 7c 7a 3d 90 2e fe 3c 4b a3 8a 3d
       0.08352147 0.061153665 0.031028062 0.06769427
000100 74 b8 c2 3d 58 48 77 bc 36 f4 92 bc 26 80 97 3d
       0.09507838 -0.015092932 -0.017938714 0.07397489
000110 46 f8 10 3d ff 11 9e 3d 4f 63 c8 3c f0 36 6c bc
       0.035393022 0.07718276 0.024461417 -0.014417395
000120 97 cf ac bd bc c5 24 bd fd d9 33 3d 16 0d 9f ba
       -0.08438032 -0.040227637 0.04390906 -0.0012134637
000130 ff fe 52 3d 91 08 27 bd fc cf 26 3d d1 a9 a1 3d
       0.051512714 -0.040779654 0.040725693 0.07893718
000140 f9 8d 85 bc be d5 78 bb b6 bf 9a bd b6 60 0f 3c
       -0.01630305 -0.0037969197 -0.07556097 0.008751085
000150 7e ba 50 3d 96 9d c8 3d 6f fe 29 bd ad d4 ac bd
       0.050959103 0.09795682 -0.041502412 -0.08439002
000160 35 69 58 bd 1d 8c f0 3d b5 32 b6 bd 3a df f0 3c
       -0.05283471 0.117454745 -0.0889639 0.029403318
000170 c9 ed 3a bd f7 61 80 3d a8 43 9f 3d 7a 6c 4a bb
       -0.045636926 0.06268685 0.07776576 -0.003088741
000180 93 d4 33 bc fd c6 63 bd 55 14 63 bd 80 35 98 3d
       -0.010975975 -0.055609692 -0.055439312 0.07432079
000190 6a 8a bb 3d 22 9a aa 3c 16 e3 df bc 7d 48 12 bd
       0.0915726 0.02082545 -0.027329963 -0.03571366
0001a0 5c 9b 0c bd 4d 8a c8 3c bc 78 35 3d 53 c5 bc 3b
       -0.03432785 0.02448001 0.044304594 0.0057608276
0001b0 d4 d1 8d 3c 21 06 7f bc 99 3d 83 bd db 71 62 3d
       0.017311968 -0.015565426 -0.06408233 0.055284362
0001c0 cb d0 85 3d dc 7a c6 bc 7a 3b d1 3d 70 d8 e3 bc
       0.06533965 -0.024228506 0.102164224 -0.027813166
0001d0 9a 91 57 bc 31 0f ad bd 4c db 0e 3d a9 91 d6 bb
       -0.013157273 -0.08450163 0.034877107 -0.0065481258
0001e0 32 a4 6b 3d 31 86 a8 3c e2 29 8d 3d ae 90 a9 3d
       0.057529636 0.0205718 0.06892754 0.082795486
0001f0 26 5a e1 3d be 37 c9 ba 65 ee 2c 3c ed ac da 3d
       0.110035226 -0.0015351695 0.010554885 0.10677514
000200 e1 c4 f5 3d 5d 2e 83 bd 38 53 80 3c cb 0f 18 3d
       0.12000442 -0.064053275 0.015664682 0.037124436
000210 f8 ce c9 3d 2d f1 e2 bc d0 cc b7 3c b8 f2 7b bd
       0.09853929 -0.027702892 0.02243653 -0.06151077
000220 82 a5 37 bd 76 be cc 3b d2 ba a3 bc 84 df 32 bd
       -0.044835575 0.0062482907 -0.019986544 -0.043670192
000230 d1 73 be bb d4 2f cb bc ba 1d 2e 3c 29 3c c0 3d
       -0.0058121462 -0.02480308 0.010627205 0.09386475
000240 a1 bc 07 3d 08 c0 ab bc e0 2b 39 3d 9e 16 0b 3c
       0.033138875 -0.020965591 0.045207858 0.008489279
000250 ed 0a ba 3d 99 86 64 3d a5 6f f7 bd 8f 01 d5 bd
       0.09084115 0.055792425 -0.120818414 -0.10400688
000260 c8 a5 a4 bb bf b3 b2 bd c6 a4 91 bd da be 58 bd
       -0.0050246455 -0.0872569 -0.07111506 -0.052916385
000270 1c 87 47 3d 98 30 8b bd a0 8c 84 3c 77 00 80 bb
       0.048712835 -0.06796378 0.016180336 -0.0039063054
000280 4c f2 c9 3c f4 f2 f3 3d 2a e7 aa bd a5 36 a5 bd
       0.024651669 0.11911574 -0.08344872 -0.08067063
000290 e9 69 58 3c 85 a2 e7 3d 8c e8 32 bd 75 11 9b 3d
       0.013208845 0.11310295 -0.043678805 0.07571689
0002a0 a6 3f e4 3c 5c c0 23 bc 23 42 97 bd 95 bd 9a 3c
       0.027862381 -0.0099945925 -0.073856615 0.018889228
0002b0 6d 47 d4 3d d8 9e 74 bd ac dc ae 3d 1b 42 91 3c
       0.10365186 -0.059721798 0.085381836 0.017731717
0002c0 1b 89 8e 3d e8 0b d5 3d 0b a8 f6 bc 87 31 88 3d
       0.069597445 0.104026616 -0.030109426 0.066500716
0002d0 a8 4d e7 3a cd 26 a9 3d b7 22 3b 3c 9e fa d7 3d
       0.0017647045 0.08259354 0.011421851 0.10545848
0002e0 86 79 b1 bd 8b 61 3d 3d 27 ff ae bb fe 8a 3d bd
       -0.08665757 0.046235602 -0.005340475 -0.04627513
0002f0 bb 41 5c 3d 32 17 b6 b9 97 b9 20 bc be 0f 54 bd
       0.053773623 -0.00034731027 -0.009809873 -0.051772825
000300 ce 57 9f 3c e6 79 8d 3d fe 11 41 3d 9c e7 dc bd
       0.019451048 0.06908016 0.0471363 -0.107863635
000310 60 4c cf bd d1 b5 a3 bd 0b 09 62 bc aa 4b de 3c
       -0.10121989 -0.07993663 -0.013796101 0.027135689
000320 cb bb 16 bd 3e e2 23 bd be 2d dc 3c d0 19 50 3d
       -0.036800187 -0.040010683 0.02687728 0.050805867
000330 a9 52 bf 3d 12 a3 18 3c f2 d8 ed 3c 55 23 0f be
       0.09341938 0.009316223 0.029034112 -0.13978322
000340 2d 12 56 bd 25 09 bc bd c8 a5 8a bc 4d df 61 bd
       -0.052263428 -0.09181432 -0.016924754 -0.055144597
000350 01 55 c7 3d e1 cb 1a bd fb e0 a4 3d 53 9d be bd
       0.0973301 -0.03779209 0.08050724 -0.09307351
000360 7e dc 6c bd db ba 80 bd c9 55 0a be f1 7f 6a 3d
       -0.057827465 -0.0628564 -0.13509287 0.05725092
000370 82 be b2 3d 88 4f bf 3d fe 13 92 3d 69 5b c1 3d
       0.08727743 0.09341341 0.071327195 0.09441263
000380 7b b7 86 bd 6f 4b c4 bd 0c e9 76 bd ac 8f 87 bd
       -0.06577965 -0.095847 -0.060280845 -0.066192
000390 4b 79 d6 3d 2e 1c 8a bc 56 79 8f bd 2d db ff bc
       0.104723535 -0.01685914 -0.07005565 -0.03123244
0003a0 1a 99 63 3c 8a a1 7e bd bb 36 80 3d 14 26 6a 3d
       0.013891483 -0.062165774 0.06260439 0.05716522
0003b0 08 fc 17 bd 31 c3 aa 3d 64 bd a4 bd 3b 3d 2f 3c
       -0.03710559 0.08338011 -0.08043936 0.010695751
0003c0 fe 58 62 bc 54 d0 60 bd 63 fd a9 bd 52 db 19 bd
       -0.013815163 -0.054886177 -0.08300283 -0.037562676
0003d0 d7 3e fd bc 65 c5 af bd 3f 57 1c 3d 13 8f 91 3d
       -0.030913753 -0.08582572 0.03816914 0.07107367
0003e0 a8 83 67 3d 11 e3 86 3c 3d f7 61 3d 14 7c b1 bd
       0.05652204 0.016465696 0.055167425 -0.08666244
0003f0 b8 a7 12 3d 39 3a ca 3b 5c ab 2f 3d c2 a4 e0 3a
       0.03580448 0.0061714915 0.04288803 0.0017138945

cnn.3.bias f4 [64]
000000 18 df 6b 3d bb d8 8a bb 7a 22 c3 3c 04 e2 58 3d
       0.057585806 -0.004237262 0.02382015 0.05294992
000010 fc a9 9b bd 34 7c 12 3b ae 81 5b bd 40 4b aa 3d
       -0.07600781 0.0022351863 -0.05359047 0.08315134
000020 fe b9 f1 bd db 91 7b 3d c8 5f c2 3d 47 b7 17 bd
       -0.11803053 0.061418395 0.09490925 -0.03704002
000030 bb 73 11 bc 6b da 14 bc 9f 0a e9 3d 42 cc 94 bd
       -0.00887769 -0.009085278 0.11378979 -0.072655216
000040 94 63 33 3d 4a e0 71 3d 02 6a f5 3b 1f ce 95 3d
       0.043796137 0.05905179 0.0074894438 0.07314705
000050 1f 2f 90 3d cc 32 af bc d8 f2 67 3b 74 7a 42 bd
       0.07040238 -0.021386527 0.003539255 -0.04748006
000060 f7 74 bf 3d 88 f9 bd bd 01 7a 0f 3d df c1 92 3d
       0.09348481 -0.0927611 0.03502846 0.07165884
000070 7e ca 14 3d 0a c1 92 ba c0 7b 4c bd cd b3 d4 bc
       0.036325924 -0.0011196446 -0.049922705 -0.025964642
000080 38 db 7a bc 3e 7a 1b 3d 2a 2a 91 bc 27 79 93 bc
       -0.015311055 0.037958376 -0.0177203 -0.018002106
000090 1c 07 ab 3d 93 18 d7 3d 37 e9 b0 3c 19 43 be 3d
       0.083509654 0.10502734 0.02159558 0.092901416
0000a0 05 a5 fe bb 53 82 e3 bd cc 63 95 3d fd c7 35 3d
       -0.0077711367 -0.11108842 0.07294425 0.044380177
0000b0 9e 40 ce 3b ec a9 71 3d ad 3b 88 3c be b6 b6 3a
       0.006294324 0.05899994 0.016630018 0.001393996
0000c0 45 44 29 bc 7d c2 a3 bd f1 8e c6 3d 9d 6e a1 bd
       -0.010331218 -0.0799608 0.09695233 -0.07882426
0000d0 47 fb 2b bd 98 2d 13 3d 31 78 91 bc 6a fb 2a bd
       -0.041987684 0.035932153 -0.017757507 -0.041743673
0000e0 6a bf 74 bc 01 e7 b7 bd d4 53 bb bd 59 84 52 3d
       -0.014938215 -0.089796074 -0.09146848 0.051395748
0000f0 18 c7 85 bd 44 54 e3 3d bf 8c a7 3d b0 82 06 bd
       -0.06532115 0.11100057 0.08181142 -0.032839477

lstm.weight_ih_l0 f4 [512, 64]
000000 69 38 49 3d 70 09 0f 3d 8a b4 74 bc 96 7b 34 3d
       0.049126063 0.03492111 -0.014935622 0.044063173
000010 ab 8f 72 bd 93 20 0c bd d1 28 07 3b 97 c4 b1 3d
       -0.059219044 -0.034210753 0.0020623694 0.08680075
000020 e6 e9 0b 3d 02 ad 21 3d dc 12 86 3d 62 1c 8e 3d
       0.03415861 0.039471634 0.06546566 0.06939007
000030 59 19 86 bd 61 30 ca 3d 0a f9 a2 3d 4d 62 b5 ba
       -0.065478034 0.09872509 0.07957657 -0.00138385
000040 a2 8e c8 3c c7 92 4b 3d bf fa de 3d fd 69 09 3d
       0.024482075 0.049700525 0.1088767 0.033548344
000050 ff 6e 3c 3d 5d 7e b3 bb 60 29 cb 3d 7e e8 eb 3d
       0.04600429 -0.00547771 0.09920001 0.11518954
000060 93 30 7f 3d 6b fa a6 3d 3b 38 24 bd 80 a2 b9 3d
       0.062302183 0.08153232 -0.040092688 0.090641975
000070 36 fe b8 3d 01 66 8a bd d7 11 89 bd 38 7f b9 3c
       0.09032862 -0.06757737 -0.06692856 0.02264367
000080 89 cd ab 3d 1a 5c 6a bd 4d 64 34 3d 63 e8 f2 3c
       0.08388812 -0.05721674 0.044040967 0.029651826
000090 3a fc 1d bd 84 2e f0 3d 88 75 29 bc 33 64 ae 3d
       -0.03857062 0.11727622 -0.010342963 0.08515205
0000a0 f8 45 46 3d eb fa f1 bc d7 b5 1a bd fa 0c 1f 3d
       0.04840657 -0.029538592 -0.037771072 0.038830735
0000b0 5a f4 91 3d 34 c3 58 3c c6 f5 2d 3d 4c 35 e5 3d
       0.071266845 0.013230134 0.042470716 0.11191806
0000c0 3b bb 3f bc fc 08 c1 3d 7f db 0a 3c 83 f0 68 3c
       -0.011702354 0.09425542 0.0084751835 0.014217499
0000d0 f6 e5 fb bb bf b6 17 bc 81 51 19 bd b0 49 6a bd
       -0.0076873256 -0.009259879 -0.037431244 -0.05719918
0000e0 50 bf 0e 3d c2 a2 59 3d a9 79 3f 3d 15 34 5b bd
       0.03485042 0.053133734 0.046746884 -0.053516466
0000f0 79 a8 a6 3d e3 73 82 3d 97 fc f4 bb 10 59 2f 3d
       0.08137602 0.0636976 -0.0074764 0.042809546
000100 fc bb ec 3d b1 19 72 3d a7 f4 63 bc 94 ff da 3d
       0.11559293 0.059106532 -0.01391331 0.10693279
000110 6f 37 fc bc 5a 68 9c bc e7 f1 bb 3d d3 34 93 3d
       -0.030788152 -0.019092727 0.091769986 0.0718781
000120 3a 05 bd 3d 54 67 89 3d 20 a7 8e 39 7b 0d dd 3d
       0.092295125 0.067091614 0.00027208868 0.10793587
000130 ba 86 f2 3a 12 f9 11 bc e6 e1 04 3e 42 4c 1d bd
       0.0018503286 -0.008909481 0.12976798 -0.038402803
000140 bf 8b 76 bd ea b0 0b bd 3b 7a c5 3d a1 ba 8d 3c
       -0.060191866 -0.034104265 0.09642454 0.017300906
000150 e9 a9 f4 3c 7f f6 bb 3b 44 67 0c bd ea 07 84 3d
       0.029866176 0.0057361717 -0.03427817 0.06446822
000160 27 ac 05 3d 0c 91 37 3d c7 a4 a7 bc c3 28 00 3d
       0.03263488 0.04481606 -0.020464314 0.031288873
000170 90 35 7f 3d 6c d0 ab 3d ce 21 15 bd a1 3e c3 3d
       0.06230694 0.08389363 -0.03640919 0.0953343
000180 b5 9a 66 3d 00 69 12 bd 36 85 0f 3c 4e 25 01 3e
       0.056299884 -0.035744667 0.008759787 0.12611887
000190 d8 c0 fd 3b de b8 13 bd 82 68 52 3d af 4d ee 3b
       0.007743936 -0.036064975 0.051369198 0.007272444
0001a0 8f 86 20 3c 19 75 5d bd eb af 12 3d 08 29 82 3b
       0.009797706 -0.05406675 0.0358123 0.0039721765
0001b0 9c 36 35 3b 44 9e 85 bd bd 0c aa bd 18 09 41 3d
       0.0027650958 -0.065243274 -0.08303211 0.047127813
0001c0 5e 27 d0 3d 67 fe b4 3d 12 61 e0 3d 5c 0f 34 3c
       0.10163759 0.08837586 0.10956015 0.01098999
0001d0 08 d6 73 bd 1d 4f 8c bd 40 81 e6 3d 3f c5 a7 3c
       -0.059530288 -0.06851027 0.11255121 0.020479796
0001e0 b3 23 08 3c 55 76 13 3d 49 88 74 3d ca af 75 bd
       0.008309293 0.036001522 0.059700284 -0.0599821
0001f0 ee 4b cb bb 20 6b 47 3d 0c 31 ff 3d 22 d1 1e bd
       -0.00620412 0.048686147 0.12460527 -0.038773663
000200 72 5d 0d 3d 29 f4 81 bd 12 c1 76 bd 46 5f 37 bd
       0.034512945 -0.06345398 -0.06024272 -0.044768594
000210 c5 59 92 bc b4 e5 18 3d ae 2f 8e 3d 0e a8 81 3d
       -0.017865071 0.037328437 0.06942688 0.06330882
000220 e4 cc b3 3c 0e 8e c2 3b 15 df 9d 3d 4c 02 84 bb
       0.021948285 0.0059373444 0.07708565 -0.004028594
000230 d0 91 be bd 5b f8 01 bc 47 ab 85 bb e5 62 c6 bc
       -0.09305155 -0.007932748 -0.0040792557 -0.024217078
000240 7e 4a 93 3c 95 7b a1 bd 3c 0d e6 bb 67 2c 8d bd
       0.017979857 -0.078848995 -0.0070206206 -0.06893235
000250 c4 a7 56 3d 56 f1 b0 bc 3b f2 1c 3d ba b7 de 3c
       0.052406088 -0.021599453 0.038316946 0.027187217
000260 eb 50 05 bd 6b fa a0 3d 14 8e 03 3e cb 9e a1 bc
       -0.032547873 0.078602634 0.12847167 -0.019729039
000270 65 14 43 3d a2 ef 1f bd 9b 6c 98 3d a3 80 54 bc
       0.04762687 -0.03904689 0.0744259 -0.0129701225
000280 2a fc b5 3c e9 7d ba bd 55 46 1f bc 7d 02 15 bd
       0.022214968 -0.09106047 -0.009721358 -0.036379326
000290 af 75 14 3d ea e3 77 bd bb 61 b0 bc 7c 84 38 3d
       0.036245044 -0.06052009 -0.021530977 0.045048222
0002a0 3b a0 6b 3d 06 3f b5 3d 6b 99 47 3d 03 8f 42 3d
       0.057525855 0.088499114 0.048730295 0.047499668
0002b0 a4 47 8c 3d 65 84 e4 3c cd c7 ea bc b3 1c ef bc
       0.06849602 0.027895162 -0.028659726 -0.02918849
0002c0 ec 35 41 3d 48 f5 d4 3d 35 a5 71 3d 99 a8 ab 3c
       0.047170565 0.10398346 0.058995444 0.020954417
0002d0 a3 6c 83 3d 1a ab 9c bc a0 49 4a 3d 7b 31 35 3d
       0.06417205 -0.019124556 0.04938662 0.04423664
0002e0 08 39 25 3a 4c c4 8c 3d a0 47 94 3d 72 40 20 bd
       0.0006302749 0.06873378 0.07240224 -0.03912396
0002f0 92 a3 89 3d a5 0f 04 bc a8 75 31 3d c9 44 b8 3d
       0.06720652 -0.008060371 0.043325096 0.08997495
000300 0f 7d c7 3c b6 30 bc bb 6d a2 d3 3d 01 01 8d 3d
       0.024351625 -0.0057431115 0.10333715 0.06884957
000310 ca 35 43 bd 78 20 5e 3d 57 31 98 3d 8a ac d9 3b
       -0.04765872 0.054230183 0.07431286 0.0066428827
000320 c2 22 20 bd 97 c7 ce 3d 81 8c c9 3d 89 77 0a 3c
       -0.039095648 0.100966625 0.09841252 0.008451351
000330 4a d6 c7 3a 5e ef 4a 3a d1 72 46 bc 79 13 8c 3d
       0.0015246358 0.0007741357 -0.012112335 0.068396516
000340 c8 73 fe 3d d6 5b 4b bd 11 60 e2 3c 70 23 b8 bb
       0.12424427 -0.04964813 0.027633699 -0.005619459
000350 be e8 e7 3d ca af 4d bd 3b a8 86 3d a7 a7 95 3c
       0.11323689 -0.050216474 0.06575056 0.01826842
000360 7e 3c c3 3d 64 42 45 3d bd 64 8b bd b4 bb 9d 3b
       0.09533022 0.04815902 -0.06806324 0.0048136357
000370 14 e8 bc 3d 9e 2b 5e bd 7f 05 33 3c a4 e9 47 bb
       0.09223953 -0.054240815 0.010926603 -0.003050425
000380 e5 f3 5c bd 6f 42 a4 bc af 3b 88 bd ec 6b 9b 3d
       -0.053943533 -0.02005121 -0.06652009 0.07588944
000390 14 1d b2 3d fa b1 b0 3d b1 1a 4b bd 04 2d b7 3d
       0.086969525 0.08627696 -0.049586 0.08944133
0003a0 0f 98 96 3d f8 08 e1 bb ec 15 e7 bc 5f 5c 93 3d
       0.073532216 -0.0068675242 -0.028208695 0.07195353
0003b0 ce 8a 51 bd 01 cd c6 3d 0e e1 0a bd ff d0 18 3d
       -0.051157765 0.0970707 -0.033906035 0.03730869
0003c0 ff 22 dc bc c5 15 c6 3d 2c db a5 3c 04 c3 5b bd
       -0.026872156 0.09672121 0.02024611 -0.05365278
0003d0 e0 17 62 3d de c6 15 3e cc 84 7f 3d b0 33 5e bc
       0.05519855 0.14626643 0.062382504 -0.013562128
0003e0 97 e9 eb bc c5 8d 80 bb b1 1b 53 bb fc a7 30 3d
       -0.028797908 -0.0039231502 -0.003221255 0.043128952
0003f0 0d d3 ae 3d 56 c8 c7 3d 53 1f 56 bb 4c 35 3d 3d
       0.085363485 0.09755008 -0.003267248 0.046193406

lstm.weight_hh_l0 f4 [512, 128]
000000 2c 8c 01 be 02 7b 0f 3d 55 b6 f2 3b 9d 4c 41 bd
       -0.12651128 0.03502942 0.0074069896 -0.047192205
000010 18 68 80 3d c7 51 a9 bd 9b cb 20 3d 8c 8d 72 3c
       0.06269854 -0.08267551 0.039256673 0.014804255
000020 94 bf 6b bd 84 2f d5 3d c1 a9 0c 3d f8 f1 91 bd
       -0.05755575 0.104094535 0.034341577 -0.0712623
000030 c5 bc 9a bd 31 02 17 3c 62 35 1f 3d 6d b8 76 bb
       -0.07555536 0.009216831 0.03886927 -0.0037646547
000040 6c d3 04 3d 1b 16 d1 bc ab e6 e5 3d d3 53 cc bd
       0.03242819 -0.025523236 0.11225637 -0.09976926
000050 ff 8e da bc 3c 80 61 3d f0 12 b8 3d 3e 8e 25 bc
       -0.026679514 0.055053934 0.08987987 -0.010104714
000060 72 ec 74 bd 69 8c 9f 3c 47 9d a6 bc da 15 59 bd
       -0.059795804 0.019476132 -0.020338668 -0.052999355
000070 c8 51 31 3d b5 74 6d bd c4 6d 35 bd 20 fc 28 ba
       0.043290883 -0.05797263 -0.044294134 -0.0006446261
000080 49 54 2d 3b da 68 4d 3d f8 43 be 3d c3 3c b3 3c
       0.0026447943 0.050148822 0.09290308 0.02187956
000090 63 4e 68 3d bc b7 34 3d 74 8e eb bc 92 cf 27 bd
       0.05671538 0.044120535 -0.02875445 -0.04096944
0000a0 d3 fb a3 3d c6 9a 1d 3b 58 f2 ab 3d b3 d4 ba 3d
       0.08007016 0.002404855 0.08395833 0.091226004
0000b0 66 85 46 bb ae 60 ca ba 32 38 c4 3c d3 b6 c3 bc
       -0.0030291914 -0.001544019 0.023952577 -0.023890888
0000c0 c2 d6 b9 bd c7 4a de 3d b6 c5 86 3d ab ad a1 3c
       -0.09074165 0.108541064 0.06580679 0.019736132
0000d0 49 c4 c0 3b 2f f0 2a 3b 5e 03 1d 3d 7e fc 84 3d
       0.005882774 0.0026083102 0.03833329 0.064934716
0000e0 57 bd 5e 3d 03 6c 2c bd 95 dc d9 bc fe cd ec 3d
       0.054379787 -0.042095196 -0.02659444 0.115627274
0000f0 b9 b0 19 bd e4 71 b2 bd 57 89 2c 3c 93 1a 83 3d
       -0.03752205 -0.08713129 0.010530791 0.06401553
000100 02 63 40 bc e4 05 e5 3d 2f 64 2c 3d cd 40 48 3d
       -0.011742355 0.11182764 0.04208773 0.048889924
000110 39 75 c3 3d ea ea 89 bd a6 ed 01 3e b9 de 80 3d
       0.09543843 -0.067342594 0.12688312 0.06292481
000120 cf 23 61 bc 8f bd 1c bd f5 f1 7b 3d 0a 4e c5 3d
       -0.013741448 -0.038266715 0.061510045 0.096340254
000130 eb 16 9a bb e2 85 ec 3d 11 1b 60 bd 82 8a 93 3b
       -0.004702439 0.115489736 -0.054713313 0.0045025954
000140 ab 9b 90 3c db 95 b4 bd 46 71 08 bd 4a ab 0e 3e
       0.017652353 -0.08817645 -0.03331115 0.13932529
000150 99 61 4a bc fb 55 d5 3b 7c 03 bb bd 40 08 1c bd
       -0.012352371 0.006510494 -0.09131524 -0.038093805
000160 31 14 3e 3d b6 cd 98 3d 7e a0 a1 bd b5 5b 2c 3d
       0.046405975 0.07461111 -0.078919396 0.042079646
000170 3d 2f 0d 3d 09 c1 aa bd 46 7d 1a 3d a1 2a 2a bc
       0.034468878 -0.083376 0.037717126 -0.01038614
000180 34 73 96 3d 3e 23 f4 bc df db 5a bc 55 13 41 3b
       0.07346192 -0.029801961 -0.013358085 0.0029460986
000190 b8 14 7c bd 76 71 0f bd 4f fe 14 bd 19 0c 0e 3d
       -0.061543196 -0.035020314 -0.03637534 0.034679506
0001a0 8f cf 44 3d 58 b1 4e 3d 2e 34 6b 3d 49 37 37 3b
       0.048049506 0.050462097 0.05742281 0.0027956537
0001b0 c3 ea 60 bd 09 a2 7f 3d 2d 11 04 3c 12 1e 68 bb
       -0.054911386 0.06241039 0.008060736 -0.0035418314
0001c0 fe f4 de 3b e7 cd 8c bd 9e 82 a4 3a 5c d9 36 3d
       0.0068041077 -0.0687521 0.0012551134 0.044640884
0001d0 45 ec 2a 3c 5b 85 dc 3c fe 78 d8 bd ed ad 2e 3d
       0.010432308 0.026919058 -0.105699524 0.042646337
0001e0 35 b0 8d bc e5 e3 7d bd da 6a cb bd 3c df f4 bc
       -0.017295936 -0.061984915 -0.0993249 -0.029891603
0001f0 d5 b2 38 bd 8a 6f a7 3d 29 3f 24 bd 1f 7e 9f 3d
       -0.045092423 0.08175571 -0.040099297 0.077877276
000200 9c eb 12 be 2e b5 ae bc ba 6b 05 3d d4 37 1d bd
       -0.1434769 -0.021326628 0.03257344 -0.03838332
000210 eb 36 e0 3c c5 1f 45 bc 98 a4 4e 3d 51 ed 01 be
       0.027369937 -0.0120315 0.050449938 -0.12688185
000220 31 0c b8 bd 49 9e b0 3d f6 df 94 bc 40 ed 3e 3d
       -0.089867 0.086239405 -0.0181732 0.046612978
000230 e2 66 ef bd 00 cd eb 3d d2 1f 24 bd 4a 68 43 bd
       -0.11689545 0.1151371 -0.04006941 -0.04770688
000240 94 cd 19 bd ca 97 b9 3d 19 0f 8e 3c 0f c4 95 bd
       -0.03754957 0.090621546 0.017341183 -0.07312786
000250 a6 4c 85 bd 95 8a 3f 3d f4 ef 26 3d a2 ab c6 3d
       -0.0650876 0.04676302 0.04075618 0.09700705
000260 e6 fa ed bd 5c 28 64 3d 1a ed a1 bd 1a 38 8f 3d
       -0.11620121 0.055702552 -0.07906552 0.069931224
000270 b2 ef 33 3d b0 a7 60 3d 3c 36 e4 3d 61 dc d0 3c
       0.043929763 0.05484742 0.11143157 0.02549571
000280 fe d3 aa bd a6 fd 50 bd 9e 28 20 3d f9 c2 9b 3d
       -0.083412156 -0.051023148 0.039101236 0.076055475
000290 f2 ce 6f bc 51 03 40 bd 6b 18 1e 3d 03 44 03 be
       -0.014636742 -0.046878163 0.038597506 -0.12818913
0002a0 66 7f b1 bb 64 92 db 3c c0 78 ad 3c e3 3b e3 bc
       -0.0054167984 0.026803203 0.021175742 -0.027738517
0002b0 da 90 99 bd 55 b1 23 3d 89 c5 2b bd 90 bf d5 3b
       -0.07498331 0.03996404 -0.04193643 0.00652308
0002c0 fc 8e 92 bd b4 70 11 bc 76 4d 1d bc 47 fe e9 3d
       -0.07156178 -0.008876968 -0.009600988 0.11425453
0002d0 86 ad 02 bd ce cd 95 bc 78 a8 9b 3d 62 b3 94 3d
       -0.031903766 -0.018286612 0.07600492 0.07260777
0002e0 61 0d d7 3d c6 cb a6 bd 47 56 2a bd bf 09 36 bd
       0.10500599 -0.081443354 -0.041586187 -0.04444289
0002f0 96 08 98 bd 9c 16 e7 3c 25 91 04 3d 12 9b ab bc
       -0.07423513 0.028209023 0.032364983 -0.020947967
000300 ac 66 d2 3c 85 37 0f bd 5b 6c 81 3c 7f 36 03 3d
       0.025683723 -0.034965057 0.015798738 0.032034393
000310 a6 ba 3b bd 3a 5a 77 3d fe 4b ff 3d ca 5f bc bc
       -0.0458323 0.06038878 0.12465666 -0.022994895
000320 36 42 da bd 69 74 80 bd c2 70 08 bd 42 d0 9b ba
       -0.1065716 -0.062722035 -0.03331066 -0.0011887627
000330 14 8f d2 3b 81 70 2e 3d 00 4d 22 3c e6 16 69 bc
       0.0064257476 0.04258776 0.009906054 -0.014226651
000340 e6 45 cf bd f4 6a b6 3c 81 6a 27 3d 08 03 4f 3d
       -0.10120754 0.022267796 0.040873054 0.05054
000350 5b e1 8e bd ed 0a 27 bd bd d8 82 3a 8c 82 9c 3d
       -0.06976577 -0.040781904 0.0009982806 0.07642087
000360 17 6d 20 bc 12 d0 1c bd 76 be eb bd 65 f3 bc 3d
       -0.009791634 -0.03828437 -0.11510937 0.09226111
000370 95 6d a5 3c 52 d2 1a bd c8 1d 73 3d cb 50 54 3b
       0.020193854 -0.037798233 0.059354573 0.003239679
000380 6f 9c 27 3d 8f 4e 8e 3c 2c 9b 28 bd 87 11 88 3c
       0.04092067 0.017371444 -0.04116361 0.01660992
000390 04 59 37 bd e4 54 d6 3d ab 6e a4 bc 03 19 3b 3d
       -0.044762626 0.1046541 -0.020072302 0.04567815
0003a0 20 2f 8f 3d 5d ab 7a 3d f0 54 4c 3c 62 51 ac bd
       0.0699141 0.06119858 0.012471423 -0.0841396
0003b0 86 2e b8 3c 51 a4 4b bd 49 a4 36 3d 6f 43 f5 3c
       0.022483122 -0.04971725 0.04459027 0.029939381
0003c0 95 e1 74 bc 28 31 0e 3d 39 d0 50 bd aa 8c e1 bd
       -0.014946361 0.034714848 -0.050979827 -0.11013158
0003d0 ef fb 9c bd c4 3e 8c 3c 80 13 6e bd e5 58 c7 3d
       -0.0766524 0.017119773 -0.058124065 0.09733752
0003e0 61 cd 27 3d e4 4f 3b bd 2f e1 10 3d bb 0f f3 3c
       0.04096735 -0.045730487 0.035371 0.029670587
0003f0 b9 89 48 3d 8f 9e d6 bc 61 3f 3a 3d f1 a8 1c bd
       0.048959468 -0.026198654 0.0454706 -0.038247053

lstm.bias_ih_l0 f4 [512]
000000 84 27 26 bd 98 85 bb 3d 31 23 2b 3d 1c d4 dc 3d
       -0.04056503 0.0915634 0.041781608 0.10782644
000010 00 bf c1 3d ab e5 45 3d e3 6f 7e 3c c4 a9 04 3d
       0.094602585 0.04831473 0.015529606 0.032388464
000020 d9 8b a0 3d eb f7 aa 3d c1 d2 3b 3d 22 bf 0b bc
       0.07839174 0.08348068 0.045855287 -0.008529456
000030 24 cb 86 bb c0 07 2d bd dc c6 e4 3d 63 a4 6d 3d
       -0.0041135717 -0.04224372 0.11170742 0.0580181
000040 46 c8 d9 3d 00 b4 12 bd ae f0 83 bc 64 77 9f 3d
       0.10633902 -0.035816193 -0.016105976 0.07786444
000050 d3 53 68 bd 81 29 de 3d 9a 0b 39 bd 37 0e 07 3d
       -0.056720566 0.1084776 -0.04517708 0.03297254
000060 43 72 8b 3d b2 7a 6f 3d 9e e8 92 38 16 91 dc 3d
       0.06808903 0.05846662 7.005151e-05 0.107698604
000070 36 15 1d bd 91 e6 e2 3b 0e 86 a6 3d 72 16 ad bc
       -0.038350306 0.0069244583 0.08131038 -0.021128867
000080 35 18 b6 bc af a4 fc 3d 00 12 da 3d 88 c4 ca 3d
       -0.02222834 0.123360984 0.106479645 0.099007666
000090 ff 1b 33 bd 18 98 43 bd dc 17 05 3d 11 dc 29 bd
       -0.04372787 -0.04775247 0.032493457 -0.041469637
0000a0 12 ee d3 bc 5e f5 52 3d 32 37 21 3d e2 43 c8 3c
       -0.025870357 0.05150353 0.03935928 0.024446432
0000b0 23 77 2a 3d 41 58 b9 bc b5 88 75 bd 5e b7 61 3b
       0.041617524 -0.02262509 -0.059944827 0.003444157
0000c0 13 1f 01 bd 3a b6 a7 3d f5 7d bb 3d e9 91 85 bd
       -0.031523775 0.08189054 0.09154884 -0.06521971
0000d0 25 e0 76 3d 49 ac 82 3c 0f 8c 44 3c 98 cd c5 3d
       0.060272355 0.015951293 0.011996283 0.096583545
0000e0 bb 9c 94 3c b0 8c 5c 3d d5 a4 c6 3d d2 75 2a 3d
       0.018141141 0.053845108 0.09699408 0.04161627
0000f0 6c df 76 3d e1 71 de 3d 00 27 8f 3d 6f 5a e7 3c
       0.060271665 0.108615644 0.069898605 0.028241364
000100 6c 45 5a bc 6d 89 55 bd ca 0a c0 3d ff f5 33 bd
       -0.0133222155 -0.052133013 0.09377058 -0.043935772
000110 1e af 06 bd b4 38 85 3d 5f 31 11 3d 5a 34 b0 3d
       -0.03288185 0.06504956 0.035447475 0.08603735
000120 d8 b5 84 bc 4a d8 8f 3d 4b 92 15 3e 01 84 eb 3d
       -0.016199991 0.07023676 0.14606588 0.11499787
000130 2b 0c 20 bd ae 78 83 bc bc 22 92 3d 42 35 a8 3d
       -0.039074104 -0.016048755 0.07135531 0.08213283
000140 8d f5 a7 3d 2a 99 5b 3d 5e af 8d 3d 5c 6c 99 bc
       0.08201132 0.053612866 0.06918214 -0.018728428
000150 c3 5a b5 3d 45 af 9a 3d 8d 06 14 bd cb 94 20 bd
       0.08855202 0.07552961 -0.03613906 -0.0392044
000160 27 8e c8 3c 2b 66 aa 3c 1b 7a 7a 3b 51 b6 a6 3d
       0.024481846 0.02080067 0.0038219753 0.08140243
000170 05 9f 4d 3d 0c 78 09 3d c1 48 99 b9 c3 a1 da 3d
       0.05020048 0.03356175 -0.0002923664 0.10675385
000180 5f 97 ea bb 35 90 00 3c 53 9a b7 3d f8 49 99 3d
       -0.007159158 0.007846882 0.08964982 0.074848115
000190 50 e2 36 bd b8 85 f7 bc a9 7d c8 3b 38 7c 1d 3d
       -0.044649422 -0.03021513 0.0061184955 0.038448542
0001a0 a7 31 69 bd 95 0b 62 3d 14 e2 4e 3d 06 b5 d5 b9
       -0.056932118 0.055186827 0.050508574 -0.000407614
0001b0 6e cb 47 3c fb ec 70 3d 2f a1 43 bd 98 61 58 bd
       0.0121944975 0.058819752 -0.04776114 -0.052827448
0001c0 86 06 57 bd 0b a1 5e bc ec e2 0c bd a7 b5 7d 3d
       -0.052496456 -0.0135882 -0.034396097 0.061940815
0001d0 c9 00 be 3d 0d 31 ff 3c 52 89 59 bd 66 2a 73 bd
       0.092774935 0.031151319 -0.053109474 -0.059366606
0001e0 a4 53 f9 bc 8f 84 5e bd 66 80 73 3c 28 c9 96 3d
       -0.03043539 -0.054325636 0.014862156 0.07362586
0001f0 0e d4 dc 3d 14 e5 40 bd 7f 05 ce 3d 44 71 af 3d
       0.10782634 -0.047093466 0.10059642 0.085665256
000200 3f 06 d1 3c 19 78 43 3d a9 9f 1a 3d 0a c6 d8 3c
       0.025515674 0.047721956 0.03774992 0.02646162
000210 95 b0 80 bd c9 2a 4b bd e6 58 88 3d c1 93 6f 3d
       -0.0628368 -0.04960135 0.06657581 0.05849052
000220 11 12 da 3d be 3c 8e 3d 80 d6 1f 3d e2 09 ec bc
       0.10647977 0.069451794 0.039022923 -0.028813306
000230 b4 00 c0 3d 28 26 d6 3d d9 74 a9 3d b7 1c 7f bd
       0.09375134 0.104564965 0.0827424 -0.062283244
000240 a1 06 db 3d bc 14 b3 3d 88 36 05 3e 1a 2e c5 3d
       0.10694624 0.08744189 0.13009083 0.09627934
000250 e6 39 5d bd cb a0 42 3d 31 01 62 bd 16 f3 84 3a
       -0.054010294 0.047516625 -0.055176917 0.0010143246
000260 fa dd 80 bd fb b9 a2 3c 7e a0 80 bd 61 61 b5 3d
       -0.06292339 0.019864073 -0.062806115 0.08856464
000270 65 56 06 3d 03 7b db 3d c3 bb 84 bd b8 e6 82 3d
       0.032797236 0.10716822 -0.06481125 0.06391662
000280 e6 c5 8d bd c4 b7 9e 3d 19 0e fc 3b 6d 16 8a 3b
       -0.06922512 0.07749894 0.0076921103 0.004214099
000290 15 ec f7 3d cd 97 31 3d 0b 71 c1 3d f8 9e f7 3d
       0.12105576 0.04335766 0.09445389 0.12090868
0002a0 3e 14 ee 3c 95 90 5b bd c4 08 2a 3d 54 52 ca 3c
       0.029062387 -0.05360468 0.041512266 0.02469746
0002b0 11 34 b7 3d ac 34 c9 bc 86 a0 40 bd 72 d7 d3 3d
       0.08945478 -0.024561249 -0.047028087 0.10343827
0002c0 3d 05 40 3d 85 cf 75 bd e0 21 7c bc b6 28 b3 3d
       0.046879996 -0.06001236 -0.015388936 0.08747999
0002d0 e2 e1 40 3d f7 cf 2a bd 6a 9c 9a 3d 30 77 af 3c
       0.04709042 -0.041702237 0.07549365 0.021419138
0002e0 5a 6a b6 3d 3f 59 10 bc f7 62 70 bd e2 2f a1 3d
       0.08907004 -0.00881034 -0.05868813 0.07870461
0002f0 aa d5 ea 3d 9d c0 ec bc f5 68 48 bd 83 fc 8f bd
       0.114665344 -0.028900439 -0.04892822 -0.07030585
000300 96 61 11 bd e0 51 14 3d 31 a4 89 bc 6d 94 8f 3d
       -0.035493456 0.036210895 -0.016801925 0.07010732
000310 83 b4 9a 3d 13 04 8b 3d 9f 65 5e 3d ab 52 85 3b
       0.07553961 0.067878865 0.054296132 0.0040686927
000320 69 8b 2c bd fc a8 f4 3c b8 52 cf 3d 3b c8 72 bc
       -0.04212514 0.029865734 0.10123199 -0.0148182465
000330 33 53 8d 3d 84 9f c6 bc e6 00 87 3d a8 95 bc 3c
       0.069006346 -0.024245985 0.06591968 0.02302058
000340 24 78 55 bd b4 a8 62 bb c0 26 8e 3d 65 d3 91 3d
       -0.05211653 -0.0034585418 0.06940985 0.071203984
000350 15 c5 55 3d 13 35 a0 bb cb 42 80 3d 27 5c 8a 3d
       0.052189905 -0.0048891394 0.0626274 0.06755858
000360 73 b5 33 bd ab 96 3a 3c 62 42 08 3c 1f 99 84 bd
       -0.043874215 0.011388461 0.008316608 -0.06474518
000370 3c f3 5e 3d b9 76 8b 3d f6 81 d7 bc 7c fc 3e 3d
       0.054431185 0.06809754 -0.026307087 0.046627507
000380 b7 6d b4 3d 5b 0b 8a bc 00 b3 ae 3d 36 ea c9 3c
       0.08809989 -0.016851118 0.08530235 0.024647813
000390 8d 53 81 bc a1 05 92 3d 4c 60 55 bc 22 b2 89 3c
       -0.01578691 0.0712998 -0.013023447 0.016808573
0003a0 ed 5b 3d 3d 54 8c 99 3d 91 e7 e4 bb c1 0b c3 3d
       0.046230245 0.074974686 -0.0069856127 0.09523726
0003b0 8a 3f 2c 3d 1d f2 07 bc f6 d6 08 bd 92 b6 78 3c
       0.042052783 -0.00829747 -0.033408128 0.015180247
0003c0 b4 e7 a4 3d 35 84 45 3d 44 49 20 bd 82 f7 a1 3c
       0.08052006 0.048221786 -0.03913237 0.019771341
0003d0 bc 60 8d bc 47 1e 52 3b 8e ee 6e bc a8 31 d7 3d
       -0.01725804 0.0032061504 -0.014583243 0.10507518
0003e0 6f de c9 3d ad c9 99 3d 36 37 e4 3d 8e b1 1a 3d
       0.09856879 0.0750917 0.11143343 0.037766986
0003f0 0f ce 52 3d 66 bd 8b 3b 45 4c b2 3c 5f 67 75 3d
       0.051466044 0.0042645214 0.021764884 0.059913035

lstm.bias_hh_l0 f4 [512]
000000 cc 36 44 bd b0 49 31 3d 34 2b 68 bd 02 fe 8e 3c
       -0.04790382 0.043283165 -0.056681827 0.017455105
000010 f1 73 c5 bc 5a c9 a3 3b ea 4d c5 3c 60 c5 ae bc
       -0.024103137 0.004998368 0.024085004 -0.02133435
000020 58 9d 46 bd 62 42 22 3d 56 de a4 3d a5 f3 6c 3d
       -0.0484899 0.03961409 0.0805022 0.057849545
000030 33 b3 86 3c 04 99 b0 3d 0e 37 bc 3d af 2a 15 bd
       0.01644287 0.086229354 0.09190188 -0.03641766
000040 1a 46 62 bc ca 38 cf 3d 53 d5 bf bc 13 61 11 3c
       -0.013810659 0.101182535 -0.02341715 0.008873242
000050 e1 b9 ae 3d 1e b0 aa bc cc 8f 5a 3d 56 55 26 bc
       0.08531547 -0.020835932 0.05335979 -0.010152182
000060 6b 08 ed bc d1 c7 bb 3d 46 7f 60 b9 b0 48 e7 3c
       -0.028934678 0.09168971 -0.00021409718 0.028232902
000070 f4 66 dc 3d 5e 05 2e bd 5b d8 8a 3d 45 38 fa 3c
       0.10761824 -0.042485587 0.06779548 0.03054441
000080 5d 01 2b 3d cf c9 e8 3d 7e a9 17 bc 8a 6f 84 3d
       0.041749347 0.11366617 -0.009256719 0.06466587
000090 ef 4d 9a 3d 7a 31 7a 3d 94 a1 10 3c 9a e8 b6 3c
       0.07534396 0.06108234 0.008827586 0.02232771
0000a0 4b 6b aa bb 4e 85 99 3d 9c 30 8f bc 0e 79 8f 3d
       -0.0052007786 0.07496129 -0.017479233 0.07005511
0000b0 44 1c 11 bd a6 5f c9 3d 3d d2 cc 3d 16 ec 23 bb
       -0.035427347 0.098326966 0.10001037 -0.0025012544
0000c0 16 b1 b7 3d 93 78 cc 3c 16 44 f7 bc 6f 43 24 bd
       0.08969323 0.024959838 -0.030183833 -0.040103372
0000d0 86 0f a3 bc 79 92 da 3d 26 57 fb 3c d0 68 b9 3d
       -0.019904863 0.10672469 0.030681204 0.090531945
0000e0 19 4d a4 bc de 98 3d bd c1 08 6f 3d b5 97 9b 3d
       -0.020056294 -0.046288364 0.058357958 0.07597295
0000f0 06 61 15 3d e7 90 c1 3d 2e 65 b7 3d 0a 61 6d 3d
       0.036469482 0.09451466 0.08954845 0.05795387
000100 00 bb ad bc 4a 81 79 bd 89 6f 44 bd fb 0f 54 bc
       -0.021207333 -0.060914315 -0.04795793 -0.012943263
000110 06 dd 93 3d 0f 81 b6 3d 7e 5c ad 3d db 9f 47 bd
       0.07219891 0.08911335 0.08464907 -0.048736434
000120 24 f4 32 bd c5 80 78 3d 17 3d ed 3d a5 c3 9a 3c
       -0.043689862 0.06066968 0.115839176 0.018892119
000130 1b 30 a6 3a 3a a7 d3 3d a3 3c d6 3d 74 71 cc 3d
       0.0012679131 0.1033463 0.10460784 0.09982577
000140 9f c8 0b bd ff 46 9b 3d 1f a6 72 3d f9 ec 92 bd
       -0.034126874 0.07581901 0.059240457 -0.07174105
000150 36 08 4e 39 32 13 d7 3d ca a8 1a bb 23 77 83 3d
       0.0001964875 0.10501708 -0.0023599141 0.06419208
000160 d5 09 db bc fc 97 37 bd 7b 8b d3 3d 6a 8a 24 bb
       -0.026738087 -0.044822678 0.10329338 -0.0025106915
000170 04 f1 d6 bc d7 e5 a1 3d b6 2b cc 3d ca f2 fa 3d
       -0.026237972 0.079051666 0.09969275 0.122533396
000180 64 94 cb 3c 2d ee f8 bc b7 9f c9 3d 9b 36 60 bb
       0.024851032 -0.030387009 0.09844916 -0.0034212235
000190 62 db 9c 3c 38 1c cc 3c 95 76 fc bc 64 90 17 bd
       0.019147579 0.0249158 -0.030818263 -0.037002936
0001a0 52 43 00 bb 7c b7 82 3d 00 60 ac 3d 78 df e8 bc
       -0.0019571376 0.06382653 0.08416748 -0.02842687
0001b0 53 ef 78 3d a0 cf 3a bd 9c 64 06 3c 11 b5 35 3c
       0.060775112 -0.045608163 0.008202698 0.011090533
0001c0 0d 16 4a 3a a7 31 83 3d 43 68 a2 3d 88 0e 06 bd
       0.00077089743 0.06405955 0.079300426 -0.0327287
0001d0 95 cd 01 bd 1b bc ad bb cc bf 5d bd 36 f5 e1 3d
       -0.0316902 -0.005301965 -0.05413799 0.110330984
0001e0 aa da 99 3d 8d 05 29 3d f2 cb 8d 3b db e2 2a 3d
       0.0751241 0.04126506 0.0043272907 0.041720252
0001f0 fe 46 67 bc a8 75 a7 ba 07 e8 c4 3d 23 ec d7 3d
       -0.014116047 -0.0012776153 0.09614568 0.105430864
000200 30 2d 1a bc b4 17 62 bd fa f1 a4 3d cf 87 ae 3d
       -0.009410188 -0.055198386 0.08053966 0.08521997
000210 72 85 0e bd c3 09 38 bd f4 c3 9d 3d 96 c0 83 3c
       -0.034795232 -0.044931185 0.07703391 0.016083043
000220 f5 22 5a bd fb 35 98 3a 70 18 88 b9 45 ec 7a bd
       -0.053255994 0.0011612767 -0.0002595815 -0.06126048
000230 ea 42 0f bc d6 7e 28 bd 8f 13 c7 3d c4 01 ab bc
       -0.008743981 -0.041136585 0.097205274 -0.020874865
000240 6d 42 55 bd 73 10 0b 3d 6f da c6 3d 85 fc 69 bd
       -0.0520653 0.033951234 0.09709632 -0.057125587
000250 d3 16 a6 3c e3 58 39 3d 62 09 91 3d 2f 5c 4b 3c
       0.020274555 0.045250785 0.07081868 0.012412115
000260 7a c0 16 bd c6 76 e1 3c 2a e3 a5 bc b0 7e 39 bd
       -0.036804654 0.027522456 -0.020249922 -0.045286834
000270 eb 13 8e 3d 3d b7 2a 3d 83 be b7 3d 1b 62 b6 3c
       0.06937393 0.041678656 0.08971884 0.022263577
000280 ba 44 37 3d a6 1c 2b bc aa 89 dd 3d a5 40 33 bd
       0.044743277 -0.010443842 0.10817273 -0.04376282
000290 96 6e ed 3d e9 6a d1 3c 81 c4 ae bc dc 09 90 bc
       0.11593358 0.025563674 -0.021333935 -0.017582826
0002a0 ea 0f c7 3c bf 77 a1 3d 87 aa 3e 3d 0b 6e cf 3d
       0.02429958 0.07884168 0.046549346 0.10128411
0002b0 82 85 02 3d 33 dd 88 3d a0 4e 8a bc a2 8e cc 3d
       0.031865604 0.066828154 -0.016883194 0.099881425
0002c0 9d 8f 07 3d de a6 68 3d 67 cd a0 3d ef 74 05 bd
       0.033095945 0.056799762 0.078516774 -0.03258222
0002d0 78 74 0a 3d 47 7e dd 3c 91 08 b9 3d 9c 6b 79 bd
       0.03380248 0.027037753 0.09034837 -0.06089364
0002e0 3f 2b b9 3c fa c8 8a 3c d6 f2 7f 3d b1 c4 34 3d
       0.02260363 0.016941536 0.062487446 0.044132892
0002f0 de 11 62 bd 88 3a 8a 3d 2f cf a9 3d 73 24 ac 3d
       -0.05519282 0.06749445 0.0829147 0.0840539
000300 fa 38 49 bd b2 0b df 3c dd e0 88 3c 2f fb 80 3c
       -0.049126603 0.027227256 0.016708786 0.015744774
000310 ed c9 d7 bc 0e 50 84 bd f0 18 db 3c f6 bb 10 bd
       -0.026341403 -0.06460582 0.02674529 -0.035335504
000320 9f 19 90 bc 8c 4a 5a bc 20 e1 af 3c 97 0c 82 bc
       -0.017590342 -0.013323437 0.021469653 -0.015875144
000330 6f 0f 98 bc 13 46 8b 3c 7f a6 80 3c d5 47 40 3c
       -0.018562047 0.017001187 0.015704392 0.011735876
000340 e2 9f 57 bd cd da 83 bd 2f 4b 2b 3d c1 f5 f7 bc
       -0.05264271 -0.06438217 0.041819748 -0.030268552
000350 c9 74 47 ba 43 a5 2f 3c 29 7d 88 3d 01 cf 56 bd
       -0.000760865 0.010720554 0.066644974 -0.052443508
000360 db 21 b9 3d 36 56 d0 bc 4f 00 19 3d 80 9c be 3d
       0.090396605 -0.025431734 0.03735381 0.09307194
000370 74 29 9d 3d ae 98 ad 3d f8 75 ce 3d 05 9f 60 3d
       0.07673922 0.08476387 0.100810945 0.054839153
000380 0c 4e 6f 3a b9 c8 e6 3d 46 47 24 3d 5f d2 89 bc
       0.00091287564 0.112687536 0.040107034 -0.016823946
000390 d7 73 64 3c 48 e0 70 bd b7 62 42 3d 9d 98 52 bd
       0.013943634 -0.05880764 0.047457423 -0.051415075
0003a0 e8 5c c7 3d aa 6b 15 3c f5 21 9a bc 20 57 e8 bb
       0.09734517 0.009119907 -0.01881502 -0.0070904642
0003b0 38 0e 9f 3d ce 77 33 3d 53 8e 7a bc 08 1d af 3d
       0.07766384 0.043815427 -0.015292722 0.08550459
0003c0 bd ee 8d 3d 4e cf 47 3d 6b 0f cb 3d e4 b6 13 bc
       0.06930301 0.048781686 0.0991505 -0.0090157725
0003d0 d8 cd 40 3d 82 f6 65 bc 7d d2 c3 3c d6 c5 52 3d
       0.047071308 -0.014035823 0.02390408 0.051458202
0003e0 1a 53 26 bd eb 0e e2 3d 65 0c d0 bc 05 0c 0a bd
       -0.040606596 0.110380016 -0.025396535 -0.03370287
0003f0 7a e6 61 3d d6 bb e0 3d 33 23 8e 3d 9c 45 3e 3d
       0.05515144 0.10973327 0.069403075 0.046453103
