models/cnn_lstm_model.pth (torch, 992486 bytes, 15 tensors)

cnn.0.weight f4 [32, 7, 3]
000000 77 68 0e be 45 11 37 3e 33 77 b3 3c 16 79 c6 bd
       -0.13907038 0.17877682 0.021907425 -0.09691064
000010 fc 5f 4f 3d e8 f4 17 be ff 6d ec bc 70 ac 6b 3e
       0.050628647 -0.14839518 -0.028861044 0.23014998
000020 3d ab 1e be a7 e8 98 3d bb 7a 72 3d 1e 5f 21 3e
       -0.1549501 0.0746625 0.059199076 0.1575894
000030 02 69 2b 3e e1 69 4d 3d 95 09 55 be 12 39 46 be
       0.16739276 0.050149802 -0.20804437 -0.19357708
000040 e8 2f 31 3e 92 2a c5 bd ee 29 48 bd 49 d4 47 3e
       0.17303431 -0.0962726 -0.048868112 0.19514574
000050 1b 38 fb 3d dd 16 0d 3e 9f 60 4c be 39 ca 50 be
       0.12266561 0.13778253 -0.19958733 -0.20389642
000060 6c b9 d2 3d 0e 13 b9 3d dd 8f 54 bd 16 06 fd 3d
       0.10289273 0.090368375 -0.05189501 0.123546764
000070 a4 c1 31 3d df be 4f be bf 9e 29 3e dc 61 23 3d
       0.04339756 -0.20287655 0.16564463 0.039888248
000080 4e f4 12 bd 2e e5 7d 3c b8 2b 82 3e e8 e5 ee bd
       -0.03587752 0.015496535 0.2542398 -0.11664945
000090 b4 e9 49 3e c8 51 f9 3c dc 8b 28 bd b2 4f 4f be
       0.19718057 0.030434504 -0.041149005 -0.20245245
0000a0 52 0c 20 be 0b 92 73 be 89 48 35 be f0 45 6e 3d
       -0.156297 -0.2378618 -0.17703451 0.058172166
0000b0 dd 68 36 3d a7 4b 39 3d f0 00 9a bd aa e3 31 3e
       0.0445336 0.045238163 -0.0751971 0.17372003
0000c0 4c 16 74 bc cd 47 04 be ef 4e 3f 3d 7e 3f ce 3d
       -0.014897894 -0.12918015 0.046706136 0.10070704
0000d0 4d de 85 3e 6d 59 6f be b5 20 69 be a9 5e dc bd
       0.26146165 -0.23373957 -0.22766383 -0.107602425
0000e0 a5 bf 11 3e 8a 7d 02 3e c2 ce 37 bd 91 28 c6 bd
       0.14233263 0.12743202 -0.044874914 -0.09675706
0000f0 a4 ea 50 be 36 9b 2b 3e b8 60 1a be e1 23 15 be
       -0.20402008 0.16758427 -0.15075958 -0.14564468
000100 db b9 71 bd e7 c8 26 3e 21 f8 0b 3c aa ee 14 3e
       -0.059015136 0.16287576 0.008543045 0.14544168
000110 42 0d 6b be 0c f3 33 bd 20 66 4e 3e e3 2d 9f 3d
       -0.22954276 -0.04393296 0.20156145 0.07772424
000120 db 0c 77 be cd aa 0f 3e 6f 9a 11 be 0a f1 6e be
       -0.24125998 0.14029999 -0.14219068 -0.23334137
000130 67 76 47 be 26 0b 2e be 9c 43 49 3d f4 36 4e be
       -0.1947876 -0.1699644 0.049136743 -0.2013815
000140 5d 52 2f be 08 f7 1d be 17 31 53 be cf b6 12 3e
       -0.17121263 -0.15426266 -0.20624195 0.14327548
000150 cd 6b c6 bd 96 7c 10 be d2 3c d9 bd ea 2c e5 bd
       -0.0968853 -0.14110026 -0.10607304 -0.11190207
000160 bd aa 1c 3e 47 c7 22 be 19 b7 cb bc cf 7a a7 3b
       0.15299506 -0.15896331 -0.024867581 0.0051110755
000170 8e 95 af 3d f4 e6 3a 3e ab 39 bc 3d d8 d3 78 3e
       0.08573447 0.18252164 0.09190687 0.24299562
000180 2a 25 7d bd af ce 80 3d bd 71 84 bc 2b 9d 7e be
       -0.06180302 0.06289422 -0.016167516 -0.24864642
000190 3d 10 79 be 52 d3 cc bd 4f ee 82 3e 7f b2 ea bd
       -0.243226 -0.10001244 0.2557244 -0.11459827
0001a0 97 d5 8f bd 2b 84 41 3e b0 0b 49 3d ae 21 b0 3d
       -0.07023161 0.18898074 0.04908341 0.08600174
0001b0 df cc 35 3d 78 ae 12 3e 5a 8b db 3d 86 f5 1d be
       0.044384833 0.14324367 0.107199386 -0.15425691
0001c0 6c 05 2d be f5 f2 cc bd ea 5e 14 be fb d1 ea bd
       -0.168966 -0.10007278 -0.14489332 -0.11465832
0001d0 7e d7 91 be 5f 58 44 be 20 89 42 3e 7a ff e4 3d
       -0.2848472 -0.19174336 0.18997622 0.11181541
0001e0 44 0b d3 3c ea 70 32 be c5 c3 4c 3e 81 50 3a be
       0.025762208 -0.17425886 0.19996555 -0.18194772
0001f0 e0 2c b0 bd 79 23 4c 3e 59 23 fc 3d 8b fe 17 3d
       -0.08602309 0.19935407 0.123114295 0.037107985
000200 ad fc c8 bd 32 77 26 3e 13 00 14 3e aa d5 20 bb
       -0.09813819 0.16256407 0.14453153 -0.0024541416
000210 42 1a 29 bc 5c 8d 6d 3d 59 8e f5 3d 7f d7 84 bd
       -0.010321202 0.05799614 0.11990041 -0.06486415
000220 aa a1 45 3d 51 a2 0a 3d d1 dc 3c bc 2a 35 6c be
       0.048249878 0.033846203 -0.011527256 -0.23067155
000230 bc 18 f2 bd c1 eb d5 bd c7 46 05 3e b0 90 9b bd
       -0.11821124 -0.10445357 0.1301528 -0.07595956
000240 63 6b 85 bd 9c cc 0f 3e dc 3d fb 3d 99 e1 5b be
       -0.06514623 0.14042896 0.12267658 -0.21472777
000250 df 04 2c 3e f3 d9 2b bc 19 66 f7 3d b9 00 6a be
       0.16798733 -0.010488975 0.120800205 -0.22851838
000260 eb ea 2d be ec b8 2a bc 19 85 3d 3e e8 d2 42 3d
       -0.16984145 -0.010420065 0.18507804 0.047564417
000270 ec 09 83 3c 54 3d 2b 3e b6 40 39 bd 7c 29 96 bd
       0.015995942 0.16722614 -0.04522773 -0.07332131
000280 d6 97 89 3d a7 2c 0f bc 5f 52 22 3e bf 2c 6e 3c
       0.067184135 -0.008738673 0.15851735 0.0145370355
000290 73 b7 12 be eb bc 80 be 81 e4 8d ba e8 d6 f6 bd
       -0.14327793 -0.25144133 -0.0010825546 -0.12052709
0002a0 5e 61 01 3e 85 68 b0 bd 63 97 08 be 0d fa a5 3d
       0.12634799 -0.086136855 -0.13339 0.08104334
0002b0 61 c4 69 be a3 d8 32 be 59 46 46 3c e1 b3 97 3d
       -0.22828819 -0.17465453 0.012101733 0.07407356
0002c0 f8 9b ca 3c b2 f1 c7 bd 24 f7 79 be 74 ca 29 bd
       0.024732575 -0.097628966 -0.24410683 -0.04145284
0002d0 1f 7a 15 3d 1f 8d b1 bc ec 05 ed 3d 98 c6 34 3e
       0.036493417 -0.021673737 0.11573395 0.17653883
0002e0 f3 56 ee bd 3e 02 17 3e 02 07 88 bc 35 e9 f4 bd
       -0.11637678 0.14746949 -0.016604904 -0.11958543
0002f0 0d f8 07 3d f9 f4 2f be dc 37 2a 3e 10 b8 0d be
       0.033195544 -0.17183293 0.16622871 -0.13839746
000300 50 d6 04 3e 73 c5 aa 3d 14 28 92 bd c4 bb 0a be
       0.12972379 0.08338442 -0.071365505 -0.1354819
000310 e3 34 e0 3c f4 5f 12 be 1b 12 e7 bd 6f 7d 56 be
       0.027368968 -0.14294416 -0.1128275 -0.20946287
000320 c3 16 e9 bd 6f e0 28 3e 24 36 5d 3e b9 54 60 3d
       -0.113812946 0.16491865 0.21602684 0.054768298
000330 5c da 4c 3b 89 a6 63 3e 5b 27 b2 bd 67 6f 95 3d
       0.0031258082 0.22231497 -0.08698913 0.07296639
000340 90 ef 45 3d 66 df 4d 3e 5e 61 f6 bd e4 54 b3 bd
       0.048324168 0.20104751 -0.1203029 -0.08756426
000350 b8 86 cd 3b 19 e6 af bd 15 ec 48 bd 5b 80 c9 bd
       0.0062721632 -0.085888095 -0.04905327 -0.09838935
000360 57 3b e2 bb f1 92 86 bd 36 f3 de 3d 14 69 c5 bd
       -0.0069040465 -0.065709956 0.108862326 -0.09639183
000370 ca 2c f7 3d 67 b0 6a 3e 92 a6 44 be e6 13 50 bd
       0.1206909 0.22918855 -0.19204167 -0.050800227
000380 a8 9e 85 bd c1 78 9a 3c a4 19 0b be 8d 0b 3c be
       -0.06524402 0.018856408 -0.13584 -0.18363781
000390 a3 09 4a 3e f9 51 1b be 5a fc 9a bd 31 3f 56 be
       0.19730239 -0.15167989 -0.075676635 -0.20922543
0003a0 4b 13 f4 bd d3 86 35 be 91 1b 3f 3e bc 6e 36 3e
       -0.11917742 -0.17727213 0.1866286 0.1781568
0003b0 6b 2c 5a be 68 59 48 3e 7e d3 3d 3e f2 6e 88 3d
       -0.21306007 0.19565356 0.18537709 0.06661786
0003c0 e0 8e 08 bd cd 41 80 be 5b 0e 3c be 1a 67 32 3e
       -0.03333938 -0.25050202 -0.18364851 0.17422143
0003d0 5d ca 1c 3d 4a d1 ce 3d 69 a2 35 be 56 60 39 be
       0.038278926 0.100985125 -0.17737736 -0.18103155
0003e0 04 b4 62 be 7e ea 7d be 7d 23 aa bd 2c bf 31 be
       -0.22138983 -0.24796483 -0.0830755 -0.17358083
0003f0 53 3c 2d be c6 fa 54 3e ad 41 40 be b4 29 e4 3d
       -0.16917543 0.20798787 -0.18775053 0.11140767

cnn.0.bias f4 [32]
000000 0e 1f d1 bd 09 a5 9c bd 02 c4 8e bd ca 12 a4 bd
       -0.10211001 -0.076486655 -0.06970979 -0.08011396
000010 a1 31 c9 3d 99 58 e1 3d f4 c9 09 3e 42 7a 40 3e
       0.09823919 0.11003227 0.13455945 0.18796638
000020 43 fc 50 3c d3 bb 71 3e cb f6 0a be dc 48 87 3d
       0.012755456 0.23606806 -0.13570707 0.06605694
000030 07 25 e7 3d 5b 60 f6 bd 2c 74 e3 3d 7b 5d a3 bd
       0.11286359 -0.12030097 0.111061424 -0.07976814
000040 ef c0 24 3d 70 06 e1 3d 65 ec 10 3e 30 8d 87 3d
       0.04022306 0.10987556 0.14152677 0.06618726
000050 b3 5c 35 3e 15 66 1b be b0 f1 fd bd 8b e4 41 3e
       0.17711143 -0.1517566 -0.12399614 0.18934838
000060 94 d7 8d ba a9 60 91 bd 64 62 14 3e d7 2e 47 be
       -0.0010821694 -0.070985146 0.14490658 -0.19451462
000070 68 a4 e9 bd b4 df d1 3b a0 1b 18 be 5f a1 1e be
       -0.11408311 0.0064048413 -0.14854288 -0.15491246

cnn.3.weight f4 [64, 32, 3]
000000 98 15 b1 3d a7 86 55 3d 5d de d0 bd 6a 50 cb 3d
       0.08646697 0.052130368 -0.101986624 0.09927447
000010 9d 1d 95 3d 84 2a 33 3a c0 a3 83 3d 08 de b4 bc
       0.07281039 0.00068346434 0.06427717 -0.022078529
000020 ca 12 01 bc 17 8e 1c 3d 05 ad 60 3d 6b c3 6e bd
       -0.007878015 0.038221445 0.054852504 -0.058291834
000030 a5 5e 99 3b bf dc 9f 3d bb c1 a9 bd 33 34 99 3d
       0.004680472 0.07805776 -0.08288904 0.07480659
000040 47 9f 39 bd 50 21 b0 bd 90 74 3b 3d e6 5c 8e 3d
       -0.045317914 -0.08600104 0.04576546 0.06951313
000050 b3 56 b2 3d 71 ce 48 3d c9 29 fb 3c 5b b8 09 bd
       0.08707943 0.049025003 0.030659573 -0.03362308
000060 b6 43 37 bc 0d 40 78 3d 6e ed 1b 3d a7 8d 48 39
       -0.011185577 0.06060796 0.038068227 0.00019126256
000070 e6 27 93 3d 65 3e 98 3c 62 ef d5 bc d5 3f cf 3c
       0.071853444 0.01858444 -0.026115123 0.025298992
000080 2b ef 02 be a9 1b b5 bd fe d1 48 3c 9c 57 da 3d
       -0.12786548 -0.088431664 0.012257097 0.106612414
000090 2d fa b7 3d 97 ca 2a 3c 42 74 34 3d d1 aa 06 be
       0.08983264 0.010424278 0.044056185 -0.13151099
0000a0 ac 99 a6 bd 99 84 74 bd 52 7b b9 bd 10 a3 50 3d
       -0.08134779 -0.059696767 -0.090567246 0.05093676
0000b0 35 e9 30 3c 9f d3 20 bd 37 4c b6 3d cf a2 be bd
       0.010797788 -0.039264318 0.089012556 -0.09308397
0000c0 7f 9b ec 3d aa 69 7a bd 61 95 47 3d 2d 80 2b bd
       0.11553096 -0.061135925 0.048726443 -0.041870285
0000d0 74 20 e2 3d e1 87 ad bd 59 96 d9 bd 5c 36 da bd
       0.11041346 -0.084731825 -0.1062438 -0.106548995
0000e0 1c 98 33 bd fb 5c 37 bd d5 92 63 bd b0 ec 5d 3d
       -0.043846235 -0.044766407 -0.05555995 0.0541808
0000f0 29 8b 98 bd 90 5e 64 bd fc ab 19 3d df 34 33 3d
       -0.07448418 -0.055754244 0.037517533 0.043751594
000100 4f 34 88 3b d6 36 99 bd e9 63 b9 bd 04 0e d4 bd
       0.0041566263 -0.07481162 -0.090522595 -0.10354236
000110 15 2f 2b 3d b5 f2 29 bd 25 b6 1e bd ab 33 14 bd
       0.041792948 -0.04149123 -0.038747925 -0.036182087
000120 0b bd 7d bd 70 d3 62 3d 17 59 6c 3d a8 99 e1 bc
       -0.061947864 0.055377424 0.05770215 -0.02753909
000130 50 71 b7 3d 94 bd 00 3e 1e 2c f9 bd 42 e0 ab bd
       0.089571595 0.12572318 -0.12166618 -0.08392383
000140 84 ca 6e bd c8 53 1e bd 48 4f fd bc 59 56 8c 3d
       -0.058298603 -0.03865412 -0.030921593 0.06852407
000150 27 71 19 3d bb 97 3d 3d c7 c4 da 3d 06 0f 1b 3d
       0.037461426 0.04628728 0.106820635 0.037856124
000160 f6 c4 32 bd 05 02 ff bc f7 87 df 3a d0 33 03 bd
       -0.043644868 -0.031128893 0.001705407 -0.032031834
000170 dc 8e 41 bd b9 a7 b3 bd a9 e0 8d 3d 94 6b e9 3c
       -0.047255382 -0.08772225 0.06927616 0.02849368
000180 24 91 8c bc fd 71 7f bb ac 27 85 3d 77 a5 99 3d
       -0.017159052 -0.0038977854 0.065017074 0.07502263
000190 37 d2 ee 3c af c7 da 3d 3d 40 19 3d dd ad 8d 3b
       0.029152973 0.10682618 0.037414778 0.0043237046
0001a0 64 1b 70 bd 35 1e c3 3d f4 31 ca 3d dc 9f 63 bd
       -0.05861987 0.09527246 0.09872809 -0.055572376
0001b0 7d 3a 2b bd f9 a4 7d 3c 9e 71 92 bc f8 63 8a bc
       -0.041803826 0.015481227 -0.017876443 -0.016893372
0001c0 66 7a 98 3d 04 fd 44 3d bc fb b3 3b 8d 4b a0 bc
       0.07445221 0.048092857 0.0054926556 -0.019567275
0001d0 a6 07 1c bd 38 7e 83 3d 04 f6 c0 3d de 69 3b ba
       -0.03809323 0.06420559 0.09421924 -0.00071492593
0001e0 a8 08 80 3d 35 3c 71 3d 47 28 45 bc 9a c7 70 bc
       0.06251651 0.05889531 -0.012033529 -0.014696026
0001f0 21 5d 16 bc e5 f3 e1 3d 5f 2f b8 3d 14 a5 56 3c
       -0.009177477 0.11032847 0.0899341 0.013100881
000200 b4 69 e6 39 c6 9f 07 3e dd 02 12 3e 66 fe a2 bb
       0.00043947774 0.13244542 0.14258905 -0.0049741743
000210 a5 4e d8 3d 41 76 e1 bc 82 e7 13 3a 39 c9 3a 3d
       0.10561875 -0.027522208 0.00056421023 0.045602057
000220 81 31 79 3d 24 f3 a5 3d 56 05 95 bb dd 69 8f 3d
       0.060838226 0.08103016 -0.0045477552 0.07002614
000230 ac 41 00 3e 12 4d 10 3e 0a 47 32 bb c4 63 91 bb
       0.12525052 0.140919 -0.0027202987 -0.004436942
000240 56 f7 4d bd a1 b2 63 bd d6 f6 32 bd 02 7b 5b 3d
       -0.050284706 -0.055590276 -0.043692432 0.053584106
000250 98 b4 02 3e 5e d3 49 3c 7d ff d7 3d 4e 74 8a bd
       0.12764204 0.01231846 0.105467774 -0.067604646
000260 d6 29 d2 bc 6d 58 c3 3d ea f8 85 bb ea e0 ee ba
       -0.025654715 0.0953835 -0.0040885108 -0.0018224989
000270 27 70 c6 3d c4 77 8f 3d e6 ce 04 3e 58 15 77 bd
       0.0968936 0.07005265 0.1296955 -0.06032309
000280 3f 53 6f 3b 4f 0f 9a bb 4a 14 4f bd bc b8 f2 3c
       0.0036518124 -0.004701532 -0.05055646 0.029629104
000290 cc 6e 90 bb e5 87 b8 3b b6 c9 9f 3d eb d5 50 bd
       -0.0044077393 0.0056314343 0.07802145 -0.050985258
0002a0 ba 81 2c bd 12 81 12 3e ac 64 93 3d 2e 2c 88 3d
       -0.042115904 0.14307049 0.07196936 0.066490516
0002b0 67 63 00 3e af 92 cb 3d 9f 62 50 3d a0 06 d3 3c
       0.12537919 0.09940087 0.050875302 0.025759995
0002c0 eb f0 d3 3d 10 b4 b3 3b 4e fe 14 3e e8 3f 87 3d
       0.10348686 0.0054841116 0.14550135 0.06603986
0002d0 64 4d 13 3d a6 f7 c4 3d 7b d3 34 3d f7 44 fe ba
       0.035962477 0.09617548 0.044146996 -0.0019399215
0002e0 18 0c b8 bd c8 9b a7 3d f3 3d b7 3b c4 5a 4e 3c
       -0.08986682 0.0818401 0.0055921017 0.012594882
0002f0 bf 74 e9 3d 76 87 82 bd f1 9b 20 bd 97 cf d1 3b
       0.11399221 -0.063734934 -0.039211217 0.0064029205
000300 ac 70 0d bd 92 27 a6 bb c6 fe 83 3d 6e c1 23 3d
       -0.03453128 -0.005070635 0.064450786 0.03997939
000310 ad 9d 11 3e 82 7b 30 bd 7f c9 ca bd 70 d8 96 3d
       0.14220305 -0.043086536 -0.099017136 0.07365501
000320 e1 16 c1 3d 11 d0 9f bc 80 d4 19 3d 1d 97 d1 3d
       0.09428192 -0.019508393 0.03755617 0.10233901
000330 35 55 84 bd 16 01 7a bd a2 29 56 3d 51 ea 0c bd
       -0.064615645 -0.061036192 0.052285798 -0.03440315
000340 dc 6a 87 3d 69 b5 ce 3d b4 81 51 bd 37 9e a9 bd
       0.06612179 0.10093195 -0.051149085 -0.0828213
000350 04 83 a4 3d ac f8 bb 3d 2b e6 13 3d 49 92 48 3c
       0.08032802 0.0917829 0.036108177 0.012241908
000360 3e 43 69 bb 16 96 d2 3d 9e 19 40 3d a8 13 7f bd
       -0.0035593058 0.10282533 0.04689943 -0.062274605
000370 02 f1 44 3d b2 80 a8 bd 7c 03 bd 3d b8 49 56 3d
       0.048081405 -0.08227672 0.0922918 0.052316397
000380 d5 7f 97 3d bd a8 b3 bd 64 9a 4c 3d fe c2 33 3d
       0.07397429 -0.08772419 0.049951926 0.04388713
000390 9e 28 67 3c 22 6e b7 bd 6c 76 b6 3c d2 d5 43 bd
       0.014108805 -0.08956553 0.022273265 -0.047811337
0003a0 36 13 5b 3d d8 19 64 3d 17 72 ad bd 90 7b 37 ba
       0.053485118 0.05568871 -0.084690265 -0.0006999308
0003b0 e4 bc 2b 3d 7e 5f 7c 3d e2 b0 61 bd 6a b0 3e 3d
       0.041928187 0.061614506 -0.05510033 0.04655496
0003c0 23 91 26 bc 34 6f 10 bd c1 c2 75 3d b4 b2 9d 3d
       -0.010166439 -0.0352623 0.060000185 0.077001005
0003d0 1d 2f b0 3d 9d 11 50 bd 6f c8 8e bc 1e 58 bc 3d
       0.08602736 -0.050798047 -0.017429559 0.091964945
0003e0 90 c0 05 3d 6b 10 53 3d 15 02 60 bd ec 6a 89 bd
       0.032654345 0.05152933 -0.054689486 -0.06709847
0003f0 48 57 73 bb 3f c0 b7 bd fc 03 93 3d e6 37 3c bd
       -0.003713088 -0.08972215 0.07178494 -0.045951746

cnn.3.bias f4 [64]
000000 52 e3 05 3d 86 2e f3 3d 96 8e 1b 3d 7f 9a 38 3c
       0.032687493 0.11874108 0.037977777 0.0112673035
000010 0d d0 08 bd 61 56 1a bd 94 54 a0 bd 78 1e 73 bd
       -0.033401538 -0.037680034 -0.07828632 -0.05935523
000020 70 20 80 3c 56 e9 b0 bc 19 aa 4f 3d 9c 83 72 bd
       0.015640467 -0.021595638 0.050699327 -0.059207544
000030 1a 95 0d 3d ef 7b 72 3d 94 c6 e0 bc 42 5f 08 3d
       0.034566022 0.059200224 -0.02743844 0.03329397
000040 9c be 50 3d 06 f3 e8 3c 7a 3f 85 3a c5 85 83 3d
       0.05096303 0.028436195 0.0010166012 0.06421999
000050 9f ce 70 bd 42 6b 92 bd f0 bb 9f bc 36 f8 c7 b9
       -0.0587908 -0.07149364 -0.019498795 -0.0003814117
000060 a9 ee 8e bc a8 66 72 bd 3a 87 c4 3d 0c 43 40 bd
       -0.017447786 -0.059179932 0.09596105 -0.04693894
000070 48 d0 0b bc 91 5a 77 3c 47 b6 9a bc 2d f6 46 3d
       -0.008533545 0.015097276 -0.018885745 0.048574615
000080 3f a1 dc bc ba bc ae 3d 9e 77 c9 3d 69 eb fe 3d
       -0.026932357 0.085320905 0.09837268 0.12447245
000090 9d 70 08 bd 22 bf 86 3d 15 dc 7b bc 09 27 8a 3d
       -0.03331052 0.065794244 -0.015372296 0.067457266
0000a0 68 29 b2 3c a0 ba 73 3d d3 ab 8a 3d af 8a 03 bd
       0.02174826 0.05950415 0.06771054 -0.03211468
0000b0 a6 53 18 3c 9d 8f 08 bd b6 dc 40 bd f5 2a 28 bd
       0.009297287 -0.033340085 -0.047085486 -0.041056592
0000c0 f5 34 ac 3d 6d 09 32 3d 01 90 20 bd 4e 50 42 bc
       0.08408538 0.04346602 -0.039199833 -0.011859966
0000d0 05 06 bd b8 04 c6 e7 bc 52 68 c4 ba 25 62 a8 3c
       -9.0133435e-05 -0.028292663 -0.0014984703 0.020554611
0000e0 ba 54 64 bb 12 7b bd 3d 72 32 ae 3d 0c 26 b0 3d
       -0.003484054 0.092519894 0.085057154 0.08601007
0000f0 d8 9d 8b bc 0e 3f cc 3c c0 f7 8a 3d ca f4 5d 3d
       -0.01704304 0.02493241 0.06785536 0.054188527

lstm.weight_ih_l0 f4 [512, 64]
000000 97 17 c3 bd 7b c9 9d 3d 7f 69 49 3c e7 45 a7 bd
       -0.09525984 0.07704445 0.012293219 -0.0816763
000010 b6 e4 a8 3c 55 eb 9c bd 2d 13 69 bc f5 53 a6 bd
       0.02061687 -0.076620735 -0.014225763 -0.08121482
000020 78 a3 3e bc 2d 83 69 bd 1e 76 ab bc d0 8d b7 3d
       -0.011635654 -0.057009865 -0.020930346 0.089625955
000030 27 c3 4b bc ff 71 90 bd 1c 70 18 3d a6 06 ed 3d
       -0.012436665 -0.07052993 0.03721629 0.11573534
000040 ea 2c ce 3c cf b1 06 bd 50 bb 9c bd 83 c1 c3 bd
       0.025167901 -0.032884415 -0.076529145 -0.09558394
000050 d7 cc 2a 3d 81 7a 8d 3d ed dd fc bc 4c bb 33 3a
       0.041699257 0.069081314 -0.030867541 0.00068562175
000060 e3 00 a2 bb 74 60 78 bd b6 b2 46 3d 1e 36 cc bc
       -0.0049439534 -0.06063886 0.048510276 -0.024928149
000070 8d 3b bf bd 92 ac d5 bc 49 95 40 bd b0 78 ac 3d
       -0.0933753 -0.026083264 -0.04701737 0.08421457
000080 49 bc 23 3c f4 01 83 3c 5d 13 86 bc 94 fd ed 3d
       0.009993621 0.015992142 -0.016366655 0.11620632
000090 c3 f3 67 3d a6 9f 9b 3d fd 5c aa 3d e5 5f 97 bd
       0.056628954 0.0759881 0.08318517 -0.07391337
0000a0 a1 81 ac 3d b9 85 33 bd e3 39 c3 bc b3 9d 15 bd
       0.08423162 -0.0438287 -0.023831313 -0.036527347
0000b0 03 85 9f 3c 4c 7b bb 3d c1 75 a2 3d 3f d3 88 bd
       0.019472605 0.091543764 0.07932616 -0.06680917
0000c0 f1 36 8b 3d ce 12 70 3b ed 6f 33 bc f0 2a ab bd
       0.067975886 0.0036632302 -0.010951978 -0.08357799
0000d0 a1 af 10 bd e0 a7 c9 bc 8c 9c 83 3c b2 34 80 bd
       -0.035323743 -0.024616182 0.016065858 -0.06260051
0000e0 07 fe 53 bd 3d 2c 41 bd 90 50 d0 3c fe 00 a6 3c
       -0.05175593 -0.04716133 0.02542904 0.020264145
0000f0 f5 37 60 bc 0b 0e 61 3d b0 38 75 bd 2f a5 25 bd
       -0.013685216 0.054945033 -0.059868515 -0.040440734
000100 e2 bb 8b 3c 9e a0 c9 3d 77 d9 72 bd b2 5e 90 bc
       0.017057363 0.098450884 -0.059289422 -0.01762328
000110 ea 70 d7 bc 5d 5f 3c 3d f0 0a 68 3c 5b 8c 8f 3d
       -0.026298959 0.045989383 0.014162764 0.070091926
000120 6d 8f 5c 3d 1c 05 54 3d 35 7e 7b 3c 83 ed a7 3d
       0.05384772 0.051762685 0.015349914 0.08199599
000130 76 7d 74 3c 73 b9 9e 3d cf a3 e3 3b b0 a1 6e 3c
       0.01492249 0.077502154 0.0069470177 0.0145649165
000140 68 6e 7e 3d 00 77 91 bd 71 e4 b3 3d 66 16 e6 3c
       0.06211701 -0.071027756 0.08783806 0.028086852
000150 ea b6 a7 3d 8f 36 f0 bc 90 2b 64 3d c9 3e a1 bd
       0.08189185 -0.02932289 0.055705607 -0.078733034
000160 eb 88 4c 3c 48 de fa bc b8 9b fe 3a ef e1 a9 3d
       0.012483816 -0.03062357 0.001942507 0.082950465
000170 8f 6f 15 3d 62 f5 80 3d 84 ff 98 3d 5f 2f b9 3d
       0.036483344 0.06296803 0.07470611 0.090422384
000180 28 35 ab 3d 05 2d 39 bd 51 e4 5a 3e 27 01 2b 3c
       0.08359748 -0.04520895 0.21376158 0.010437286
000190 01 b0 90 3d bc 81 7c 3d 89 c8 a4 bc 5f 77 8c bc
       0.0706482 0.06164716 -0.020115154 -0.017146764
0001a0 c9 23 de bb a9 72 25 bd 3a a1 6b 3d 35 2b 6b 3c
       -0.0067791683 -0.04039255 0.057526805 0.014353563
0001b0 fe bd 37 bd 01 8d ce 3b be 6f d8 3d 9e 96 d4 3c
       -0.044858925 0.00630343 0.10568188 0.025950726
0001c0 56 b9 cb 3c bf 33 5e 3b 46 53 04 3d bd 62 a5 ba
       0.024868648 0.0033905355 0.03230598 -0.0012617927
0001d0 7e 49 74 bd 23 65 3e 3d 73 d6 22 3c 38 90 94 3d
       -0.0596404 0.04648317 0.009938824 0.0725407
0001e0 8f 59 31 bc cd 63 26 bb 7e 8d 81 bd f4 75 f5 bc
       -0.010824575 -0.0025389076 -0.063258156 -0.029963471
0001f0 46 16 cf 3d 70 69 65 bd 5e f8 5c 3d 26 45 7d bd
       0.1011167 -0.056008756 0.0539478 -0.061833523
000200 22 19 16 3d 36 5a a0 bb ff f0 2c bd ed e1 af 3d
       0.036645062 -0.0048935665 -0.04222202 0.08588014
000210 86 f7 bc 3c c5 46 87 bb a2 7d 67 3d 08 20 ac 3d
       0.023067247 -0.0041283094 0.056516297 0.08404547
000220 2e da a2 3b e3 ff 80 3c 1f b2 c5 3c 90 5a 8d 3d
       0.0049698567 0.015747016 0.024132786 0.06902039
000230 fc fd 5f 3d 30 3d 2e ba a8 de 35 3d 74 4c 68 3c
       0.054685578 -0.0006646691 0.044401795 0.014178384
000240 ac e5 cd 3d 3a a1 cc 3c f7 f1 6e bd 62 f4 2b bd
       0.10053572 0.024979223 -0.058336224 -0.04198111
000250 c9 4f 12 bd 36 5e c4 3c 3b 03 de 3c 15 21 d9 bd
       -0.03572062 0.023970705 0.02710115 -0.10602013
000260 17 9c 75 3d b3 36 b5 3c ba bb 98 bc 30 72 cf bd
       0.059963312 0.02212081 -0.018644203 -0.101292014
000270 27 a8 ee 3d 16 a8 94 3d 6c 0d 4c bb 02 b0 8b 3d
       0.11653166 0.07258622 -0.003113593 0.0682068
000280 41 2b 03 3d 45 97 13 3d c5 ef b1 bd ac be 96 3d
       0.032023672 0.036032934 -0.086883105 0.073605865
000290 33 40 9a 3d 8f e2 0b 3c ed d6 b2 3d 7d d8 22 bc
       0.07531776 0.0085379025 0.087324 -0.00993931
0002a0 d7 be a6 3d e1 27 c0 3d f2 d5 59 3c b3 01 55 3b
       0.081418686 0.09382606 0.013295637 0.0032502234
0002b0 36 c2 67 3d 39 9e 18 bd 94 e7 69 3c 59 50 aa 3d
       0.0565817 -0.037260268 0.014276404 0.08316106
0002c0 f7 0f 16 bd 58 00 87 3d 7e 1b 35 bd 91 78 66 3d
       -0.03663632 0.065918624 -0.04421567 0.056267325
0002d0 96 5d e8 3d 51 48 ee bc 83 b9 e5 bc d3 fd 4e 3d
       0.11345975 -0.029087218 -0.02804256 0.050535034
0002e0 bc b9 02 3e 0b a4 6b bb c1 c8 96 3d 1a cb 4a bd
       0.12766165 -0.0035955932 0.073625095 -0.0495101
0002f0 27 42 8f bc 11 9d ae 3d 5a 19 8e bd 4d c9 40 3c
       -0.017487599 0.08526052 -0.06938429 0.011766744
000300 01 6f c1 3d 85 86 fe 3b 5e 62 41 b9 e6 5b 72 3d
       0.094450004 0.007767501 -0.00018442559 0.059169672
000310 be 98 83 3d 60 3a ac bc 38 0f 54 3d f2 b9 04 3d
       0.06425618 -0.02102393 0.051772326 0.032403894
000320 77 09 08 3d 91 4b 72 bd a4 41 f3 3d 96 fb ae 3d
       0.03321215 -0.059154097 0.11877754 0.0854408
000330 a5 e3 63 bd d5 8e ca 3c d6 ed 56 bd d2 a3 1e bb
       -0.05563702 0.02472631 -0.05247291 -0.0024206531
000340 6e f2 10 3d 8e 2f fa 3d 2e 28 8f bd 4d 23 35 3d
       0.03538745 0.122161016 -0.069900855 0.04422312
000350 b6 94 09 bb 97 ad 44 bd cb e3 3e 3d 95 67 8c 3d
       -0.002099318 -0.04801711 0.04660396 0.06855694
000360 12 ed d5 3c e8 1a 83 bc 09 b4 f4 3d de 5f 8c 3d
       0.02611402 -0.01600404 0.119484015 0.06854223
000370 77 08 36 bc 6d 93 c0 3d be 3d d6 3c 14 93 98 bd
       -0.011110417 0.09403119 0.026152488 -0.07449928
000380 dd 84 aa 3d ec 4e a0 3d cd fe 1b be 84 bc 5e 3d
       0.08326123 0.07827553 -0.15233918 0.054379
000390 d1 fa 3b bd 1b 8b dc 3c a4 72 26 3d 0a 8e 0c 3d
       -0.045893494 0.0269218 0.040636674 0.034315147
0003a0 27 70 c7 3c 04 de 6b bd 15 7e 0e 3e 5c ef 18 3d
       0.02434547 -0.057584777 0.13915284 0.037337646
0003b0 6d 89 c5 3d fb a4 f6 3d 7d 23 a1 3b 97 80 47 3d
       0.096453525 0.12043186 0.0049175606 0.048706617
0003c0 aa f9 ad bc 55 f9 de bc 2a 27 6e 3c b4 9a 8a 3d
       -0.021237213 -0.0272185 0.014535705 0.067677885
0003d0 e8 11 0f 3d cf 91 ba 3d 1c 70 bc 3c af c3 e0 bb
       0.034929186 0.09109842 0.023002677 -0.006859265
0003e0 87 88 8a 3d 61 06 72 3d 0c 29 a8 3c 30 76 2d 3d
       0.06764322 0.059088115 0.020527385 0.04234904
0003f0 f2 b5 b7 3d 8a 71 80 bc f5 40 1d 3d e5 9e b8 3d
       0.0897025 -0.01567914 0.038392026 0.09014682

lstm.weight_hh_l0 f4 [512, 128]
000000 86 74 f3 3d 0b 79 c0 bd 06 90 6e bc bc 1a e8 3d
       0.118874595 -0.09398087 -0.014560705 0.11333224
000010 82 a3 8b bd 30 4e df bc 92 21 5e bd 77 58 aa 3c
       -0.06818296 -0.027258962 -0.054231234 0.020794136
000020 37 ae fb 3c c1 69 a2 3d 78 ec 54 bd 1e 85 86 bd
       0.03072272 0.07930327 -0.051983327 -0.06568359
000030 51 8a f4 b9 30 fd 1f bc 71 ee 03 bb d0 9d 99 bc
       -0.0004664236 -0.009764954 -0.0020131136 -0.018752009
000040 3d 8a 6d 3d 25 37 07 3d 20 5c 7f 3c f5 51 ca 3c
       0.057993162 0.033011574 0.015585929 0.024697283
000050 e3 c2 1f bd d3 08 99 bd b9 42 df 3c 57 be d0 3d
       -0.039004218 -0.07472386 0.027253496 0.101925544
000060 d8 4c 22 bd 68 1b a1 3d 69 3b 85 3c 67 81 dc bb
       -0.039624065 0.078665555 0.01626368 -0.006729293
000070 dc 99 be 3d 97 a2 30 3d 9b ae dc bc c1 7e 55 bd
       0.0930669 0.043123808 -0.026938727 -0.052122835
000080 fd 29 64 bd 12 1a 37 bd 5f 74 9f 3d 17 97 b0 bd
       -0.055704106 -0.044702597 0.07785868 -0.08622568
000090 5d f9 8c bd 99 a7 aa bc d4 2e de 3d 7d ec b8 bd
       -0.068835 -0.02083187 0.108487755 -0.090294816
0000a0 08 e5 bf bd 0e ce 83 3d 3f 8f 37 bd 9a f7 73 3d
       -0.09369856 0.06435786 -0.044814344 0.059562303
0000b0 5c f8 e3 bc ab e3 25 3d a1 18 41 bd 54 45 b9 3d
       -0.027828388 0.040500324 -0.04714263 0.090464264
0000c0 ec 9e 85 3d f3 e7 a4 bd 71 7a 74 bd e0 83 fb 3c
       0.065244526 -0.08052053 -0.05968708 0.030702531
0000d0 4a 4c 85 bd 9f 29 ee bc 66 d2 90 bd 67 69 11 bd
       -0.065086916 -0.02907258 -0.0707138 -0.03550091
0000e0 5d 41 a8 bd 8c c3 c1 3d d2 4a 77 bd 93 f6 b8 bc
       -0.08215592 0.09461126 -0.06037409 -0.022578513
0000f0 8f f3 ec 3b 20 05 bd bd c7 39 be 3c d4 b4 43 bd
       0.007231183 -0.09229493 0.02322091 -0.047779873
000100 55 04 3d 3d ae 7d b2 bd bb 00 43 3d 3d 86 ba bd
       0.04614671 -0.08715378 0.04760812 -0.09107635
000110 8a 1a b3 bd 15 27 4d bd ef 72 f1 bc 67 da e5 bc
       -0.08745296 -0.0500861 -0.02947375 -0.028058244
000120 0f 75 cd 3c e5 15 8a 3d 1e eb 33 3c 91 4e 6f 3d
       0.025080232 0.06742457 0.010981349 0.058424536
000130 1f f1 ce bd 5b 9c 4f 3d 11 44 9f 3d 29 26 05 3d
       -0.10104584 0.05068622 0.077766545 0.032507095
000140 b7 88 0a bd 3c 07 a5 bd fa d1 d5 bd a3 3d 91 3d
       -0.033821788 -0.080580205 -0.104404405 0.070918344
000150 44 51 aa 3d 32 d1 7c bd 1d e4 78 bd f9 72 5c 3c
       0.083162814 -0.06172294 -0.06076442 0.013455146
000160 ef 46 bb bc d6 1c 75 bd a7 35 03 bc 48 ee 38 3d
       -0.022860972 -0.059841953 -0.008008397 0.045149118
000170 37 65 6e 3d e2 9c 63 3d 0f 26 91 bd 3b 05 c7 3d
       0.058201995 0.055569537 -0.07087337 0.097177945
000180 4f 0d ca bd 9a ba 33 bd 73 fc 99 bc 6d e3 6d 3d
       -0.0986582 -0.04387913 -0.018797135 0.05807822
000190 9e 37 b2 bc 7d 1d 17 3c d4 42 18 bc fe 3f b8 3d
       -0.021755036 0.009223339 -0.009293277 0.089965805
0001a0 a6 d4 0e bd e4 79 8c 3d 24 42 d6 bc 35 88 85 bd
       -0.034870766 0.06859186 -0.026154585 -0.0652012
0001b0 a1 f0 81 3b fd e0 89 3d ac 0b 39 bd a3 72 fa bd
       0.003965453 0.06732366 -0.045177147 -0.122288965
0001c0 67 66 a8 bd dc 36 aa bd e2 ac 8b bc 3a 82 18 3d
       -0.08222657 -0.08311245 -0.01705021 0.03723357
0001d0 28 90 5e 3c be 88 91 bc d4 18 70 3c 7d f7 7a 3d
       0.013584174 -0.017765399 0.014654357 0.06127118
0001e0 d4 13 85 3d 5c 5e 85 3d 8a 19 f1 3c 6b e8 5b bd
       0.064979225 0.06512138 0.029431123 -0.053688448
0001f0 06 01 ee bc f8 60 2e bd 08 77 58 bd e9 e2 12 bd
       -0.029053222 -0.042572945 -0.052847892 -0.03586093
000200 26 44 c9 bc e6 f4 17 3d e7 13 86 3d 7a d9 44 3d
       -0.024568629 0.037098788 0.06546765 0.048058964
000210 3e 40 dc 3c 02 4b 5f bd 3a 62 9c 3d c3 13 77 3d
       0.026886102 -0.054514892 0.07635923 0.06032158
000220 8c b8 cf 3c 3b c0 c4 3c 34 a3 ad 3b df 59 e2 3d
       0.025356553 0.024017444 0.0052989963 0.11052298
000230 11 c3 08 be 7c ae 9f 3d 69 c3 bb 3b e7 b8 ce bd
       -0.13355662 0.07796952 0.005730082 -0.10093861
000240 e4 d2 7f 3d 00 e5 5b bc fc e4 d5 ba eb 4a 4d 3d
       0.06245698 -0.013421297 -0.0016318853 0.050120275
000250 9a 47 74 bd 4e da 2f bc d5 a3 c7 bd c2 59 10 3d
       -0.059638597 -0.0107332 -0.09748045 0.03524185
000260 34 35 7f 3c b2 35 16 bd 02 bc 82 3d 29 5c f2 bc
       0.015576649 -0.0366723 0.06383516 -0.029584961
000270 4a 3c 29 3c a1 02 aa 3d cd 54 b2 bc 4b 8e 6b 3d
       0.010329315 0.08301283 -0.021768952 0.057508748
000280 0b d0 f3 bc 92 6a 02 bd 48 15 7e 3d 4e 0d 42 bd
       -0.029762289 -0.031839915 0.062032014 -0.04737597
000290 48 cf bf bd a4 8c bd bc 7e 9c 2e bd c5 5b 85 bc
       -0.09365708 -0.023138352 -0.04262971 -0.01627911
0002a0 8f 94 af bd 58 a5 8e 3d 93 8d 7c 3c 15 91 b9 3d
       -0.08573257 0.069651306 0.015414613 0.09060875
0002b0 53 25 90 bc dc 22 0e 3d 1c c7 80 3d 1c b6 f4 bc
       -0.017595923 0.034701213 0.06287977 -0.029871993
0002c0 3c ff 9a 3c 44 53 bd 3a b3 bf 8e 3d 26 0f cb bd
       0.018920533 0.0014444371 0.069701575 -0.09914999
0002d0 51 7f 45 bd f5 4e fe 3c 8b 58 b1 3c 9a 24 98 ba
       -0.04821712 0.031043509 0.021648666 -0.0011607588
0002e0 41 ca bd bd 4a 89 0a ba c3 fe 41 bc f6 e9 e8 3c
       -0.092670925 -0.000528474 -0.011840525 0.028431874
0002f0 ff 8d 9a bc b3 e0 9e bd e1 05 28 bc c8 14 96 bd
       -0.018866537 -0.07757702 -0.010255308 -0.073281825
000300 3d d3 7a 3d 75 85 9a bd 1d 06 a5 bd be 56 ee 3c
       0.06123661 -0.07544986 -0.08057807 0.029094096
000310 ce 0d b5 bb 02 4c 52 3b 0c df 80 bd 7b df ee bc
       -0.0055253273 0.0032088761 -0.06292543 -0.029159298
000320 19 c5 f7 bc e2 f0 08 bd 80 cd d9 bd ff e0 5b bd
       -0.03024535 -0.03343285 -0.10634899 -0.05368137
000330 94 b0 d0 bd d3 97 05 3d 24 19 02 3d 6b b6 b0 bd
       -0.101899296 0.032615494 0.031762257 -0.086285435
000340 39 be f0 bc b6 81 3a bd 43 07 c3 bd 61 53 19 3d
       -0.02938758 -0.04553386 -0.095228694 0.037433032
000350 25 5f 99 bc 94 c9 ac 3d 7f 63 50 3c f9 c7 e1 ba
       -0.018722126 0.084368855 0.012719034 -0.0017225734
000360 4e 8d ff bc 7e ea 4e 3d 3c 89 98 3d c5 6d d6 bd
       -0.031195309 0.050516598 0.074480504 -0.104701556
000370 e6 55 21 bd ac 21 4b 3d e4 10 da 3d 32 ed b4 3d
       -0.03938856 0.04959266 0.10647753 0.08834304
000380 0b 8d 38 3d de 93 70 bc 9f e5 89 3d b7 c8 91 bd
       0.045056384 -0.014683692 0.0673325 -0.071183614
000390 02 7a 6e 3d 49 c2 6f 3d 18 40 7a 3d c2 e4 da 38
       0.058221824 0.058534894 0.06109628 0.000104376595
0003a0 6e 1b a3 bd 8f 31 96 bb 51 be 5b 3c 63 79 89 bd
       -0.07964216 -0.0045835446 0.013412074 -0.06712606
0003b0 60 72 38 3d 53 e8 0f bd 7c 4e e3 3c f8 3b 9d 3c
       0.04503095 -0.03513367 0.027747385 0.019193634
0003c0 9a 60 a8 bd 2f 54 ab bc b3 0a af bc 87 7f bd bd
       -0.0822155 -0.020914165 -0.021367406 -0.092528395
0003d0 30 a7 a9 3d c0 7e a6 3a d7 2d ec 3b 01 58 ef 3d
       0.082838416 0.0012702569 0.007207613 0.11686707
0003e0 8f 08 58 bd 5c 27 31 bb b0 df 11 bd f2 4d 94 3d
       -0.052742537 -0.0027031517 -0.035613716 0.072414294
0003f0 b4 e1 46 bb af 19 75 3d 98 79 c0 3c 40 33 95 bc
       -0.0030346932 0.059838947 0.02349548 -0.018212914

lstm.bias_ih_l0 f4 [512]
000000 e7 ac ad 3d 63 8d 5e 3d 28 65 84 3d e3 e0 b7 bc
       0.08480244 0.054334056 0.064646065 -0.022446102
000010 8c 2d 9c 3d a6 02 28 3b 05 fb 0d 3e c4 6a f5 3d
       0.07625875 0.0025636344 0.13865288 0.119832546
000020 b2 37 81 3b 1c 4c 0e 3c e8 6a c9 3d 7d a0 a4 3d
       0.003943407 0.008685138 0.09834844 0.08038423
000030 b9 9b dd ba f2 84 33 3c 53 73 8f 3d f2 03 6b bd
       -0.0016907371 0.01095699 0.07004418 -0.05737681
000040 3f c8 3c bd 81 67 d1 bc c1 59 1c 3d da 92 72 bb
       -0.046089407 -0.02556205 0.038171533 -0.00370138
000050 51 21 c6 3d 11 3b d2 bc c9 14 38 3d b7 2b 48 bd
       0.09674323 -0.02566293 0.044941697 -0.048869815
000060 63 f9 aa 3c bf 8f 02 3e 24 6a 96 3d 04 d1 ba 3d
       0.02087087 0.12750147 0.073444635 0.09121898
000070 b1 a1 b0 3d f3 37 12 3e 27 88 b1 3d b2 30 48 3d
       0.0862459 0.14279155 0.08668547 0.048874564
000080 14 00 92 bc 20 11 13 3d 1f da 2a bc aa 21 af 3b
       -0.017822303 0.035905004 -0.010427981 0.0053445892
000090 1f fd dd 3c ab cd 55 bd 3f 2f 46 3c 39 33 0d 3d
       0.027098237 -0.052198093 0.012096225 0.034472678
0000a0 57 32 2c bd 38 0d d9 3d 8c 36 7c 3d 94 25 52 3d
       -0.042040195 0.105982244 0.061575457 0.05130537
0000b0 24 8d 1f bd 4c 10 92 3d 9e 7e 45 3d bf f3 09 bc
       -0.03895296 0.07132015 0.048216455 -0.00841993
0000c0 90 b4 bf 3d 41 4b f9 3d 38 e9 65 3b fd 51 bb 3d
       0.093606114 0.12172557 0.0035081636 0.091464974
0000d0 d3 79 be 3d cc df 69 3d 59 b8 5b bd 7e 9c da 3d
       0.0930058 0.057098195 -0.053642605 0.1067438
0000e0 36 08 1a bd 8e e5 bd 3c 8c 67 87 3c cb 50 ef bc
       -0.037605487 0.02318075 0.016528867 -0.02921333
0000f0 ce 7c 85 3d c4 43 d2 bb 05 4c cf 3d b4 12 ea 3d
       0.06517945 -0.0064167697 0.101219214 0.114293486
000100 a0 75 d1 bc f3 9a 57 bc 17 eb 46 bd 22 c8 9c 3d
       -0.025568783 -0.013159501 -0.048564043 0.0765536
000110 b1 91 4f 3d 3b b7 9a 3d 81 88 ee 3c ad 43 22 3c
       0.05067605 0.0755448 0.029117825 0.0099038305
000120 f9 04 1e 3d a5 fa 3d bc 93 97 de 3d b0 a7 c5 3d
       0.03857896 -0.011595403 0.10868754 0.096511245
000130 45 10 8c 3c cc fc 33 bc a1 72 c5 3d 61 c6 89 3b
       0.017097602 -0.010985564 0.09641004 0.004204557
000140 b7 da 99 3d e7 dc cf 3d 7d 38 17 bb cb 1b de 3d
       0.0751242 0.10149556 -0.002307444 0.10845145
000150 6f ed cf 3c 92 cd 40 3d c4 f5 81 3d 10 d2 e2 3d
       0.025381772 0.047071047 0.06345704 0.110752225
000160 65 64 c6 3c 49 8d 8a bd 39 f8 dc 3d c6 6d e9 3d
       0.024217794 -0.06765229 0.10789532 0.11397891
000170 55 e3 b6 3d 56 60 be 3d 39 c1 13 bd 51 89 10 bd
       0.08930079 0.09295718 -0.036072943 -0.035287205
000180 e2 b0 7c bc 81 34 29 bd d0 ac ce 3c 26 af 0d bd
       -0.0154230315 -0.041309837 0.025228888 -0.034590863
000190 5d 28 b2 3d 0f 56 2e 3d 87 19 71 3d 6a 3d 3b bc
       0.08699105 0.04256254 0.058862235 -0.0114282165
0001a0 44 cf 91 3d b7 77 10 3e 0e 96 06 3e 35 94 31 3d
       0.07119611 0.14108168 0.13143179 0.043354232
0001b0 8c 3b 3e bd c0 66 05 ba 9c d1 f8 3c 69 b5 ec 3d
       -0.046443507 -0.00050888583 0.030373387 0.11558039
0001c0 02 18 37 3d a3 80 42 3d ee 73 db 3d 47 e6 95 3d
       0.04470063 0.04748596 0.10715471 0.073193125
0001d0 8c a3 cc 3d a8 fe 80 3d 3d 2f 49 bd 13 a6 30 3d
       0.099921316 0.06298572 -0.049117316 0.04312713
0001e0 61 19 1e 3d 75 7a df 3d 79 61 24 3e 15 d9 c3 3c
       0.038598422 0.10912029 0.16052808 0.023907224
0001f0 86 0a 4a 3d 26 a0 c6 bb e6 b6 51 3c bd 81 c0 3c
       0.049326442 -0.0060615717 0.012799954 0.023499364
000200 67 37 98 3c 5e 23 3c 3c 83 7a 11 bd 24 85 73 3d
       0.018581105 0.011483042 -0.035517227 0.059453145
000210 9c 1b 93 3c b4 46 86 bc 6f 16 84 3d f3 e5 da 3d
       0.017957501 -0.016391136 0.06449591 0.106883906
000220 58 07 a3 3d b8 cf ce 3d ab c7 a0 3d d5 1e af 3d
       0.07960385 0.10098213 0.07850584 0.085508026
000230 4f ff 88 3d 96 fd ab 3d bd af 6a 3d ba 7b 3d 3c
       0.06689321 0.08397977 0.057296503 0.011565143
000240 0f ae b0 bc 8a a4 19 bd 72 e1 88 3d 9d fa f2 3d
       -0.021567373 -0.037510432 0.06683625 0.11864207
000250 7f 5d c9 bb fa 61 66 3d 38 82 16 3d 9f 90 a0 3d
       -0.006145179 0.05624578 0.03674528 0.07840084
000260 f7 b7 ee 3c c1 ee 8d 3d 2b b1 b4 3d 96 f7 12 3b
       0.029140456 0.06930304 0.088228546 0.0022425405
000270 7d 44 2b 3c 91 b2 c7 3d 67 20 19 bd 51 0b d7 3d
       0.010453341 0.09750856 -0.037384417 0.10500205
000280 7c 4a d6 3d 20 e8 c4 3c 25 c4 aa bc 4e 46 19 3d
       0.104634255 0.024036467 -0.020845482 0.037420563
000290 5c 13 ad bc 48 32 d1 bb 84 13 ff 3d 3a 41 36 bb
       -0.021127395 -0.006384168 0.12454894 -0.0027809874
0002a0 76 bd 6b bd 7d 55 a1 3d 8d 0d 9b bb 67 85 d9 3c
       -0.05755373 0.07877634 -0.00473184 0.026552869
0002b0 5c 13 fa 3d 87 23 a9 3d ae 1e f9 bc 02 8c 97 3d
       0.12210724 0.082587294 -0.030410137 0.07399751
0002c0 c8 46 68 3d 95 c8 13 bd 96 ad 29 3e cd 2e a4 3b
       0.056708127 -0.03607996 0.16570124 0.005010462
0002d0 b4 72 17 bd c6 c8 c5 bc 0b 98 4c 3d 45 29 b1 3c
       -0.036974624 -0.024143588 0.049949687 0.021626124
0002e0 38 05 62 bc b0 ba 48 bd 41 4d c0 3d 32 47 82 b8
       -0.01379519 -0.049006164 0.09389735 -6.212144e-05
0002f0 76 42 3f bb 12 37 d2 3d 7d a5 4a ba cc ad 51 bd
       -0.00291839 0.1026441 -0.0007730348 -0.051191136
000300 07 33 4a 3d d1 0d e7 bc e1 2a aa 3d c0 24 b8 3d
       0.04936507 -0.02820483 0.0830896 0.089913845
000310 c2 01 64 3c 97 16 05 bd 90 fb 30 bd ce 84 bc 3d
       0.013916435 -0.032492246 -0.04320866 0.09205018
000320 4e b2 4b 3d 75 52 05 bd 87 98 d8 3d 47 b3 a7 3c
       0.04973059 -0.03254934 0.10575967 0.020471228
000330 80 36 47 3d a9 6e 8a 3d 9d a4 ba 3d 8a fd 82 3d
       0.04863596 0.06759388 0.09113429 0.06396015
000340 77 76 9c 3b 19 7b ee 3c 36 99 3c 3d 1f 5e b3 3d
       0.0047748643 0.029111432 0.04604455 0.087581865
000350 4b 06 ac 3d 2b 57 9b 3c 92 59 b1 3d a1 ed 29 bd
       0.08399638 0.018962463 0.08659662 -0.041486386
000360 10 97 5b 3d 12 c2 a5 3d 91 25 e3 3d d8 70 c8 3d
       0.05361086 0.080936566 0.110911496 0.09787148
000370 4c f7 a4 bb 75 43 10 bd 19 ca 84 3d f8 9e 1d 3c
       -0.005034363 -0.035220582 0.064838596 0.009620421
000380 da 8d 19 bd f1 55 c4 3d c7 86 c8 3d 32 9a 8e 3d
       -0.037488796 0.095867045 0.09791332 0.06963004
000390 14 91 48 3b 41 88 6a 3d ea f3 05 bd b6 3d 17 3d
       0.0030604051 0.057258848 -0.032703318 0.036924087
0003a0 c7 b9 d5 3d 7f b9 f0 3d 9f c7 c2 bc 6a 39 45 3d
       0.10435825 0.117541306 -0.023776827 0.048150457
0003b0 61 7d ba 3c 27 c8 27 3c 8d 9e 65 bc 06 53 66 bd
       0.022764863 0.010240591 -0.014014852 -0.05623152
0003c0 1a a5 92 3c 8d 90 5d 3d 66 e6 1d bd 54 a3 0d 3d
       0.017900992 0.054092932 -0.038549803 0.03457959
0003d0 97 ed 28 3d 90 a7 48 3c d8 2b 54 3d 9b 5d 20 3d
       0.04124221 0.012246981 0.051799625 0.03915177
0003e0 ab 44 c5 3d b6 c3 01 3d 5a 61 c4 3d 1d b0 1b 3d
       0.09632238 0.031680785 0.09588881 0.03800975
0003f0 5a fa af 3d 78 78 5d 3c c0 de 92 3d 1d 77 16 3c
       0.08592673 0.0135174915 0.071713924 0.009183672

lstm.bias_hh_l0 f4 [512]
000000 b8 63 ad 3c ad 24 d7 ba 4b d5 98 3d 12 bb 14 bd
       0.021165714 -0.0016414128 0.074625574 -0.036311217
000010 2a b8 00 bd f9 4c 23 bd e0 2e f0 3d 81 4b 79 3d
       -0.031425633 -0.03986833 0.11727691 0.06086302
000020 4d ac 01 bd c6 21 0f bb 70 8f 58 bc 34 26 a6 3d
       -0.03165846 -0.00218402 -0.013217792 0.081127554
000030 89 3a 39 bc 87 cd 34 bb d8 47 e7 3b 2c 00 2c 3d
       -0.01130546 -0.0027588324 0.007058125 0.04199235
000040 e9 a6 69 bc 7d d1 5d 3d 7e e5 56 3d ef 4c 57 3d
       -0.014260986 0.05415486 0.052464955 0.052563604
000050 ad c2 03 bd 62 95 df 3d 27 55 f6 bc d7 02 21 3c
       -0.03216808 0.109171644 -0.0300699 0.009827337
000060 c9 8e 6f bc de 95 bb 3d 25 14 4e bd 17 72 f8 3c
       -0.014621445 0.09159444 -0.05031218 0.03032784
000070 13 c4 b8 3d 08 ab f1 3d 0e f6 2b 3d 39 67 cc 3d
       0.09021773 0.118002 0.041982703 0.09980626
000080 dc 2c 2f 3d 60 9f 1a 3d 29 52 6c bc eb f1 53 3d
       0.04276739 0.037749648 -0.014423885 0.051744383
000090 16 69 d1 3d 4c f0 32 bd 08 5a a5 3d 75 35 db 3d
       0.10225122 -0.043686196 0.08073813 0.107035555
0000a0 dc 01 de bc 8b c9 a3 bc 6a f5 17 bd d9 31 8f 3d
       -0.027100496 -0.019993564 -0.03709928 0.069919296
0000b0 54 8a 71 3d 28 e5 ee 3d 1a bb 91 3d 3d b9 b1 3c
       0.05896981 0.11664802 0.07115765 0.021694774
0000c0 8f 70 77 bb a3 03 a3 3d 86 ab eb 3d 5c cb 28 bc
       -0.00377563 0.07959678 0.11507325 -0.010302391
0000d0 1a 28 ae 3d d6 39 a3 3c 81 fd 86 3c 90 56 bd bc
       0.085037425 0.01992504 0.016478302 -0.023112565
0000e0 79 e2 2f bd 45 d7 0f 3d aa 40 9f bc 90 6b 56 3b
       -0.04294059 0.035117406 -0.019440014 0.003271792
0000f0 18 82 73 3d 26 c3 b3 3d 01 59 29 3d d5 a6 db bb
       0.05945024 0.08777456 0.041344646 -0.0067032375
000100 c5 69 68 bc 7a 29 8b 3d a6 92 49 3d e1 e7 ad 3c
       -0.014185374 0.067950204 0.04921212 0.021228733
000110 8c 1a 65 bc 8a ee 83 bd 03 0a 9c 3c bf 17 47 bc
       -0.01398338 -0.06441982 0.019047743 -0.012151658
000120 64 5b b2 bc 27 f9 c2 3d ad 3d 26 3d 85 1c 0d 3d
       -0.021772094 0.09520178 0.040586162 0.034451026
000130 c1 40 5f 3c d0 02 22 3b 59 01 19 3e 9d 2f 99 3d
       0.013626278 0.0024720915 0.1494192 0.07479785
000140 1a d6 a5 bc dd c9 2c bc 2b 04 97 3d a1 d4 7e 3d
       -0.020243693 -0.010546175 0.07373842 0.062214497
000150 1a e0 0e 3e 60 5e 46 3d 8e 18 4c 3d a3 63 8a 3d
       0.13952675 0.048429847 0.049828105 0.067572854
000160 72 fb a8 bc f8 fd 97 3d 3c 5a 47 bc 4c e2 ac 3d
       -0.020627711 0.074214876 -0.01216751 0.084416
000170 99 c3 21 3d 38 1c 8c 3d ff 88 ea bc 8e 03 d2 3d
       0.039493177 0.0684132 -0.028629778 0.10254584
000180 c9 48 2d 3c 3d f8 99 bb 66 35 cf 3d 28 88 86 bc
       0.010576435 -0.0046987818 0.10117607 -0.016422346
000190 e2 a3 5b 3d 72 75 f6 bc 64 10 0a 3e b4 3b 2d bc
       0.053623088 -0.0300853 0.13482815 -0.010573316
0001a0 20 0c 55 bb 60 1d 67 3d f6 c2 d2 bc bb 5e 4e bd
       -0.0032508448 0.0564245 -0.02572773 -0.05038331
0001b0 27 03 70 3d 41 a8 1f 3e 20 1d 34 3d 24 dc 38 bd
       0.058596756 0.15591528 0.04397309 -0.045131817
0001c0 d4 30 47 3d 6f 4f 83 3b 83 c4 59 bd 5c 37 e9 bb
       0.04863055 0.004007272 -0.053165924 -0.007117195
0001d0 0f db 61 bd c9 77 9c 3a ab 27 97 3d a0 e5 ed 3d
       -0.05514055 0.0011937554 0.07380613 0.11616063
0001e0 e1 17 e3 3d 9a fb 1e 3d e8 55 6d 3d 37 77 b3 3c
       0.11088539 0.038814165 0.057943255 0.021907432
0001f0 d8 9e c2 3d 26 04 b0 3d c0 67 af 3d 8b c2 c5 3d
       0.09502953 0.08594541 0.085647106 0.09656247
000200 85 57 b9 3c 29 bb a8 3c b9 3e 0e 3d 3c 5a c7 3c
       0.02262474 0.020597057 0.034727786 0.02433502
000210 21 5e b0 3d ad 4b 78 3d cf b6 e5 3d 55 94 d0 3d
       0.08611704 0.060619045 0.112165086 0.10184542
000220 21 0f c3 3d 8a 2b 3d 3d a8 a4 30 3d c6 2d b6 3c
       0.0952437 0.0461841 0.04312578 0.022238623
000230 35 a4 8c 3d a8 96 fc 3d 42 20 7d bd c0 c3 87 3d
       0.068672575 0.12333423 -0.06179834 0.06629133
000240 94 01 81 bd e2 5a 4a 3d 6f 44 7b 3c 40 c7 12 3e
       -0.06299129 0.04940308 0.01533614 0.1433382
000250 de 1e 7f 3b ae af 14 bd 2b 39 d2 3b d6 4d 6e bd
       0.003892831 -0.036300354 0.0064155064 -0.0581797
000260 77 2f a1 3d d2 23 14 bc 08 e6 61 3c 3e e3 a5 bc
       0.07870381 -0.009041743 0.013787754 -0.02024996
000270 e8 68 4b bd de 32 fa 3d a7 c7 48 3c 6b b1 3c bd
       -0.049660593 0.122167334 0.012254632 -0.046067636
000280 b4 28 8e 3d bc f8 82 bc 8a e4 45 3d fd 93 b1 3b
       0.06941357 -0.015987746 0.048313655 0.005419253
000290 83 a4 39 bd cb 98 16 bd 0f 12 43 bc 28 0e 90 bc
       -0.045322906 -0.03676681 -0.011906161 -0.017584875
0002a0 a0 37 5e bd 1a 12 47 3d 79 3a 83 3d d9 6f 5b bd
       -0.054252267 0.048601247 0.06407637 -0.053573463
0002b0 d5 1e 11 3d 8e 74 93 3d 14 68 a2 3c 30 10 91 bc
       0.035429794 0.071999654 0.019825019 -0.017707914
0002c0 8f d0 18 bc 28 8e 88 3d 2d 04 2b 3e 83 12 4c 3d
       -0.009327068 0.06667739 0.16700812 0.04982234
0002d0 a8 49 b5 3d 69 71 17 bd 5c 3c 87 3d 9a 59 36 3d
       0.088519394 -0.03697339 0.066033095 0.044519044
0002e0 9c 09 bd 3d 09 2c 11 bd 22 44 88 3c cd 26 7e bd
       0.092303485 -0.035442386 0.01663405 -0.062048722
0002f0 53 95 e2 bb af 86 ad 3d 71 4f 72 3b 62 92 95 bc
       -0.0069147735 0.084729545 0.003697362 -0.018258277
000300 a6 cc 5d bd 91 af 92 3d 0f 9d 70 3d c9 ac 6b bd
       -0.054150246 0.07162393 0.058743533 -0.057537828
000310 2b 72 0c bd 48 82 a7 3c 24 b5 a3 3d 95 1c 7b 3d
       -0.034288567 0.020447865 0.07993534 0.061306555
000320 0d c0 d3 bb af 78 35 3d d4 9b 37 bd e0 1a 9e 3d
       -0.006462103 0.044304546 -0.044826344 0.0771997
000330 ac af b8 3d bd 60 5a bd 44 9d 8a 3d e9 74 86 3d
       0.09017882 -0.053314913 0.06768277 0.065652676
000340 55 5d 3f 3d 2e 1d 97 3d 19 34 31 bc df 7d f4 3c
       0.046719868 0.073786125 -0.010815644 0.029845176
000350 f9 a8 a5 3c f4 07 a8 3d 26 33 07 3e 8e d5 7d 3d
       0.020222174 0.08204642 0.13203105 0.06197124
000360 bc 30 c3 3d 3e 59 87 bd d4 64 14 3d 78 2e ca bc
       0.0953078 -0.066088185 0.03622897 -0.024680361
000370 75 81 55 3d 9f 51 08 bc c7 d2 4c bc a3 c6 3f bd
       0.052125413 -0.008320241 -0.012501425 -0.046820294
000380 fe 92 9c 3c 16 34 3f 3d 5e 59 8f 3b 4b 3b 00 3d
       0.01911306 0.046680532 0.004374667 0.031306546
000390 d9 9f a6 3d 77 38 85 3d 89 13 c0 3d 8a 9c b3 3b
       0.08135957 0.065049104 0.09378726 0.0054813074
0003a0 7f 65 18 bc 39 ed 0a bd ef 1a 20 3d 7d ec 56 bd
       -0.009301542 -0.03391764 0.039088186 -0.052471627
0003b0 9d 21 60 3d 6c 03 e2 3b 1b 0a ca bc b1 26 cf 3d
       0.054719556 0.0068973806 -0.024663022 0.10114802
0003c0 19 9d c2 3d 97 d8 4a bd 4d 1e 51 3b fa 3c d9 3c
       0.0950262 -0.049522962 0.003190893 0.026518334
0003d0 39 83 18 3d 36 d1 e2 bc 71 4e b2 3d e7 59 a1 3d
       0.03723452 -0.02768765 0.08706368 0.07878476
0003e0 18 40 1c bd b2 52 12 3d 3f 4f e8 3d 6d 58 d2 3d
       -0.038147062 0.035723396 0.1134324 0.10270772
0003f0 b4 f0 6b 3c 37 09 0a 3d 7f ee f6 3c 71 24 2b bd
       0.01440065 0.033700194 0.03014302 -0.0417828
