models/cnn_lstm_model.pth (torch, 992486 bytes, 15 tensors)

cnn.0.weight f4 [32, 7, 3]
0	0xbdd94f6d	-0.106108524
1	0x3da00dc0	0.078151226
2	0xbe00b9bb	-0.1257085
3	0xbc941c70	-0.018079966
4	0xbde9902a	-0.1140445
5	0x3dbe5a13	0.09294524
6	0xbd2201db	-0.03955255
7	0x3d2b9c5a	0.041897155
8	0xbd199526	-0.037495755
9	0xbe79ff6b	-0.2441384
10	0xbe3149dd	-0.17313333
11	0xbd36269b	-0.04447041
12	0xbdc9f87f	-0.0986185
13	0x3d43954f	0.047749814
14	0x3e5ccfef	0.21563695
15	0xbdd20472	-0.10254754
16	0xbe00f3eb	-0.12593047
17	0xbbaf52a0	-0.005350426
18	0x3e203cab	0.15648143
19	0xbe07f6b7	-0.13277708
20	0xbe433a17	-0.19065128
21	0x3e3eed86	0.18645296
22	0xbe389373	-0.18024997
23	0x3e333d4a	0.17503849
24	0xbe4c4839	-0.19949426
25	0x3e43621c	0.19080395
26	0xbe5578e4	-0.20846897
27	0xbe4748b3	-0.19461326
28	0x3d42d098	0.04756221
29	0x3d9f4a07	0.077777915
30	0x3e86a1a6	0.26295203
31	0x3dbd9ad7	0.09258049
32	0xbdcf1c4a	-0.101128176
33	0x3d9fefc1	0.07809401
34	0x3d759d7f	0.059964653
35	0x3e210c4e	0.1572735
36	0xbd0e20dc	-0.034699306
37	0xbdf30c29	-0.11867554
38	0x3dbedd67	0.09319573
39	0xbe7d2e01	-0.2472458
40	0x3acd5d67	0.0015668095
41	0x3db07f5f	0.08618044
42	0x3c1f2daa	0.009715477
43	0x3cf308aa	0.029667217
44	0x3d2a2054	0.041534737
45	0xbd6d0379	-0.05786464
46	0xbcdcaead	-0.02693876
47	0xbe438b39	-0.19096078
48	0x3d576b00	0.052592278
49	0xbd540bf2	-0.051769204
50	0xbe58044b	-0.21095388
51	0x3dc23df1	0.09484471
52	0xbe5182f0	-0.20460105
53	0x3c8063ca	0.015672583
54	0xbd7e070a	-0.06201843
55	0x3c93309c	0.017967515
56	0x3d144f0f	0.03620821
57	0xbe06645a	-0.13124219
58	0xbde4c9a9	-0.11171276
59	0x3e4dc0b9	0.20093049
60	0xbe339e0f	-0.17540763
61	0x3e209d15	0.15684922
62	0x3de7857e	0.113047585
63	0xbd79ff19	-0.061034296
64	0x3d0d7373	0.03453393
65	0x3c25a731	0.010110662
66	0x3d9b8a70	0.07594764
67	0xbbecd865	-0.0072279447
68	0x3e004e3d	0.12529846
69	0x3d4427f4	0.047889665
70	0x3da0ad66	0.07845573
71	0x3e63c151	0.22241713
72	0x3e38a610	0.18032098
73	0x3ddc7ce5	0.10766009
74	0xbdf09e8a	-0.11748989
75	0x3b98fca3	0.0046687885
76	0x3e526c2a	0.20549074
77	0x3d0c58f7	0.03426453
78	0x3e7c8c8c	0.2466299
79	0x3d9f8beb	0.07790359
80	0x3d671d13	0.05642421
81	0xbd32db3c	-0.04366611
82	0xbd856612	-0.06513609
83	0x3e3f0faf	0.18658327
84	0x3db7d852	0.08976807
85	0xbe683c80	-0.22679329
86	0xbe65c619	-0.2243885
87	0x3e24cde3	0.16094165
88	0xbda3d70a	-0.08
89	0xbe4c8878	-0.19973934
90	0x3d6bb41b	0.05754481
91	0x3e43dafc	0.19126505
92	0xbe134a75	-0.14383872
93	0xbbad8b93	-0.0052961796
94	0x3e6ebfce	0.23315355
95	0xbe187878	-0.14889705
96	0xbd18f081	-0.037338737
97	0x3e355f26	0.17712077
98	0x3cbabda4	0.022795506
99	0x3e5e1f4f	0.21691631
100	0xbce7c6df	-0.028293071
101	0xbe25b9b5	-0.16184123
102	0x3e561658	0.20906961
103	0x3d83d802	0.064376846
104	0xbd82959b	-0.06376191
105	0xbd9c18aa	-0.07621892
106	0xbe14a9bd	-0.14517875
107	0x3e1f09b0	0.15531039
108	0x3e252cce	0.16130373
109	0xbde122aa	-0.1099294
110	0x3d7e35ae	0.06206291
111	0xbe40795c	-0.18796295
112	0x3c21caa5	0.009874974
113	0xbc74fe1e	-0.014953164
114	0xbe57b12d	-0.21063681
115	0xbe01adef	-0.12664007
116	0x3e7c333f	0.24628924
117	0x3e183ec9	0.148677
118	0xbdc366f7	-0.09541123
119	0xbe52fa2d	-0.20603247
120	0x3ddfb410	0.10923016
121	0x3d78a9c1	0.060708765
122	0xbd8ea881	-0.06965733
123	0xbdbdfa18	-0.09276217
124	0x3d93cd44	0.07216886
125	0xbda12952	-0.07869209
126	0x3de624d1	0.11237491
127	0xbe4d3a45	-0.2004176
128	0x3e44e4b8	0.19227874
129	0xbe0b2d3a	-0.13591471
130	0xbdbb17fa	-0.091354325
131	0xbd711e4d	-0.058866788
132	0xbdcd9bab	-0.10039457
133	0x3d9d8564	0.07691458
134	0x3d25114e	0.040299706
135	0xbe6e6a2d	-0.2328269
136	0x3e207d60	0.15672827
137	0x3d933f17	0.07189768
138	0xbe2cfcdf	-0.16893338
139	0xbd6ad7a6	-0.057334565
140	0x3c578bb7	0.013155869
141	0xbe37f2cb	-0.17963712
142	0xbe3f24ce	-0.18666384
143	0xbde7da23	-0.11320903
144	0x3e845399	0.2584503
145	0x3e64d399	0.22346343
146	0x3e2347ab	0.15945308
147	0x3e2ffa3f	0.17185305
148	0x3e05bf3e	0.13061234
149	0x3e5dd725	0.21664102
150	0x3de0eabb	0.10982271
151	0x3cc9431f	0.024568139
152	0xbcad829a	-0.02118044
153	0xbde13e29	-0.10998184
154	0xbe4d8ce9	-0.20073284
155	0x3dbb05ed	0.0913199
156	0xbd75e817	-0.06003579
157	0xbe1ac74d	-0.1511509
158	0x3e39eaf1	0.1815603
159	0x3d8e7c56	0.06957309
160	0x3df024b6	0.11725752
161	0xbe15df84	-0.14636046
162	0x3dde24a5	0.10846833
163	0x3dd643ba	0.104621366
164	0x3dda6f8d	0.10665808
165	0x3e44222a	0.19153658
166	0xbd9be371	-0.076117404
167	0x3e2edb90	0.17075944
168	0xbdcad613	-0.09904113
169	0xbda45dd6	-0.0802571
170	0xbc32b78f	-0.010908022
171	0x3d203490	0.039112628
172	0xbdc60fb4	-0.09670964
173	0xbe4365a3	-0.1908174
174	0x3da07076	0.0783395
175	0xbe5d8fd8	-0.21636903
176	0x3ded21ec	0.11578736
177	0xbe456447	-0.19276534
178	0x3d143667	0.036184695
179	0x3dd1ab26	0.10237722
180	0x3ce6c646	0.028170716
181	0xbd2e3901	-0.042534832
182	0xbd115ebd	-0.03549074
183	0x3d7b2f5d	0.061324466
184	0xbdf354a1	-0.11881376
185	0x3e4c9b3e	0.19981095
186	0xbd4d7f11	-0.050170008
187	0xbe3ab34c	-0.18232459
188	0x3e411445	0.18855388
189	0xbddcb272	-0.10776223
190	0xbe440f65	-0.19146498
191	0x3d635929	0.05550495
192	0x3d9ceb58	0.07662076
193	0x3d228f04	0.03968717
194	0x3d991940	0.07475519
195	0xbe6c106f	-0.23053144
196	0xbd128e36	-0.035780154
197	0xbd19aa5b	-0.03751598
198	0x3e80a07e	0.25122446
199	0x3e06b389	0.13154425
200	0x3d9fea7e	0.07808398
201	0xbd8b014e	-0.06787358
202	0x3d39c621	0.045354966
203	0x3c9c7d65	0.019102762
204	0xbe08fcf2	-0.13377741
205	0x3cbb9d97	0.022902293
206	0x3e45d130	0.1931808
207	0x3e21ad8b	0.15788858
208	0x3de26250	0.11053908
209	0xbc96414c	-0.018341683
210	0x3bf9b8a5	0.0076208883
211	0x3e3afc4b	0.18260305
212	0xbe4189a0	-0.18900156
213	0xbe3cf3bd	-0.18452354
214	0xbd64cfa1	-0.055862073
215	0x3c87b961	0.016567888
216	0xbda4deaf	-0.08050286
217	0x3e341a77	0.1758822
218	0x3ca57aed	0.020200217
219	0xbd58d348	-0.05293587
220	0xbe371c30	-0.17881846
221	0x3d5345ea	0.051580347
222	0x3d8c2d1d	0.06844542
223	0xbe286c1c	-0.1644749
224	0x3e412132	0.1886032
225	0xbda57baf	-0.080802314
226	0x3dfd9f72	0.123839274
227	0xbe4da04a	-0.20080677
228	0xbdd3626d	-0.103215076
229	0xbe0e0089	-0.13867392
230	0xbe762969	-0.24039234
231	0xbd7a1a38	-0.06106016
232	0x3e31e85b	0.17373793
233	0xbd809066	-0.06277542
234	0xbe40bd1e	-0.18822142
235	0xbac97ad0	-0.0015371684
236	0x3d10b45f	0.035328265
237	0xbd03a468	-0.032139212
238	0x3da5adb0	0.08089769
239	0xbe127671	-0.14302994
240	0xbe18a71f	-0.14907502
241	0x3db54bf7	0.0885238
242	0xbdcd8887	-0.10035806
243	0x3c5e1602	0.013555052
244	0xbd8cc248	-0.06872994
245	0xbe5c0f03	-0.21490102
246	0x3e017ba9	0.12644829
247	0xbe254ec6	-0.16143331
248	0x3d29365c	0.041311607
249	0x3dce3f8e	0.10070716
250	0xbdfa023d	-0.12207458
251	0x3ddba757	0.10725277
252	0xbcd1a358	-0.025590584
253	0xbe4b9dd2	-0.19884422
254	0x3d14904d	0.03627043
255	0x3e0f16d6	0.13973555

cnn.0.bias f4 [32]
0	0xbd6809d7	-0.05665001
1	0x3e553510	0.20821023
2	0x3df61df1	0.120174296
3	0xbe4026f7	-0.18764864
4	0x3d919d7a	0.071101144
5	0x3e64a1cd	0.22327347
6	0xbe16dc11	-0.14732386
7	0x3e3eddf2	0.18639353
8	0x3e31c683	0.17360882
9	0xbd6ea4ef	-0.05826276
10	0xbe3bfe08	-0.18358624
11	0x3db50265	0.08838347
12	0xbdbf7bb8	-0.09349769
13	0xbe33e321	-0.17567112
14	0xbd5118f3	-0.051049184
15	0x3e097194	0.13422233
16	0xbc3485ad	-0.011018199
17	0xbdea6afb	-0.11446186
18	0x3e13fcf0	0.14451957
19	0x3e3f02b2	0.18653372
20	0x3e3cfe80	0.18456459
21	0xbd4da656	-0.05020746
22	0xbe407784	-0.18795592
23	0x3d1ec700	0.038764
24	0xbe03144b	-0.1280071
25	0xbdda0329	-0.10645134
26	0xbc8c849e	-0.01715308
27	0x3d1f40d3	0.03888018
28	0x3e3fa473	0.18715076
29	0xbdf9f4cb	-0.12204894
30	0x3e596faf	0.2123401
31	0xbda82f7a	-0.082121804

cnn.3.weight f4 [64, 32, 3]
0	0xbdb1a8ec	-0.086747974
1	0xbd62c0c8	-0.05535963
2	0x3da5c92f	0.08095013
3	0x3dc3da57	0.095631294
4	0x3dd7b332	0.10532226
5	0x3d335537	0.04378244
6	0xbda33ee0	-0.07970977
7	0x3d7a5417	0.06111535
8	0x3c57c906	0.013170486
9	0x3dce677c	0.10078332
10	0xbd5f7405	-0.054554004
11	0x3d8708e6	0.06593494
12	0x3d8104c6	0.062997386
13	0x3b7c047a	0.0038454817
14	0x3dde9089	0.10867412
15	0x3da12bfc	0.078697175
16	0x3da57b4b	0.08080157
17	0xbba527ed	-0.00504016
18	0xbd2d680d	-0.04233556
19	0xbbaa6c9a	-0.0052009346
20	0xbcb19712	-0.021678481
21	0x3dbbe01c	0.09173605
22	0x3d042ca5	0.03226914
23	0x3dc10bcc	0.09426078
24	0x3ca23b20	0.019803584
25	0x3db2a300	0.08722496
26	0xbbdd678d	-0.006756729
27	0xbd535309	-0.05159286
28	0xbd91c359	-0.07117338
29	0x3cf87210	0.030327827
30	0x3d843076	0.06454556
31	0xbd6d57d9	-0.057945106
32	0x3dadc9e8	0.08485776
33	0xbceff49c	-0.029291444
34	0x3cf1c5a0	0.02951318
35	0xbd331b6c	-0.043727323
36	0x3d2d9f51	0.042388264
37	0x3d65c19c	0.056092843
38	0x3c937927	0.018002106
39	0x3dddd612	0.10831846
40	0x3dda4e29	0.10659439
41	0xbc84b45b	-0.016199281
42	0xbd57669b	-0.052588087
43	0xbd572961	-0.052529696
44	0xbdafbb87	-0.0858069
45	0xbda348ea	-0.07972892
46	0x3da7fe4f	0.082028024
47	0x3c8575d2	0.016291533
48	0xbc697422	-0.01424888
49	0x3d8f3763	0.06992986
50	0x3d91a56a	0.07111628
51	0xbd89a1d9	-0.06720323
52	0x3c94c953	0.018162405
53	0x3dde181a	0.10844441
54	0xbbdb41dc	-0.0066912007
55	0xbc61354d	-0.013745618
56	0x3d5e033f	0.054202314
57	0xbd3dbea2	-0.04632438
58	0x3af845ae	0.0018941665
59	0x3d414c4e	0.04719191
60	0x3ad775cf	0.0016438308
61	0x3d0b79d2	0.034051724
62	0x3dee3d0a	0.11632736
63	0x3dbbc39f	0.09168171
64	0x3d9d6f18	0.07687205
65	0x3d883e35	0.0665249
66	0xbcb9fa02	-0.02270222
67	0xbd5af044	-0.05345179
68	0x3ce7e8a6	0.028309178
69	0xbdc17af0	-0.094472766
70	0x3d05ab7d	0.032634247
71	0x3d99e861	0.07515026
72	0x3d82a551	0.06379188
73	0xbd93e746	-0.07221846
74	0xbc959e42	-0.01826394
75	0xbceef65a	-0.029170204
76	0x3cde19ce	0.027111914
77	0x3dda201e	0.10650657
78	0x3d20bd9b	0.039243322
79	0x3d674ec0	0.056471586
80	0xbc70811c	-0.01467922
81	0x3dd325d0	0.103099465
82	0xbd8c84e7	-0.068612866
83	0xbcf70471	-0.030153485
84	0x3cdc69c7	0.026905907
85	0x3d91d2d8	0.071202934
86	0xbdc93ebe	-0.0982642
87	0xbdef7770	-0.11692703
88	0x3b113833	0.0022158741
89	0xbd312574	-0.04324861
90	0x3d3eda6c	0.046595022
91	0x3d182dd6	0.037153088
92	0xbc884495	-0.016634265
93	0xbd1f6fdb	-0.038925033
94	0x3c66ebe2	0.014094325
95	0xbd50fb87	-0.051021125
96	0x3d4020a1	0.046906117
97	0x3cb08485	0.021547565
98	0x3e00d80e	0.12582418
99	0xbcbbbdde	-0.022917684
100	0x3dbaf891	0.091294415
101	0x3c9b2ed3	0.018943226
102	0xbc22fd2b	-0.009948055
103	0xbd92349f	-0.07138943
104	0x3b3c24eb	0.0028708528
105	0xbdc10553	-0.09424844
106	0xbd6b2239	-0.057405684
107	0xbda9be25	-0.0828822
108	0xb8c716af	-9.4932846e-05
109	0xbd21ceab	-0.039503735
110	0x3c4191ef	0.011814578
111	0x3ddb819a	0.10718079
112	0x3da452ab	0.0802358
113	0x3d11b6d1	0.035574738
114	0xbddbdf5f	-0.10735964
115	0x3c07e45a	0.008294189
116	0x3c7d2600	0.015450954
117	0xbdd4a948	-0.1038385
118	0x3d06c61c	0.032903776
119	0x3dabac58	0.08382481
120	0x3d0e3ac7	0.034724023
121	0x3dba6414	0.0910112
122	0x3c964034	0.018341161
123	0xbb8f8bb4	-0.0043806676
124	0x3c8909cb	0.016728302
125	0x3c47df42	0.012199225
126	0x3d05fed0	0.03271371
127	0x3d413c5b	0.0471767
128	0xbdbf464b	-0.09339579
129	0xbd89ff1e	-0.06738113
130	0x3dc10efa	0.09426685
131	0xbd183bee	-0.03716653
132	0x3b88125f	0.0041525806
133	0xbe0caeb3	-0.13738517
134	0x3d77a1e7	0.060457136
135	0x3d27b9b2	0.040948577
136	0x3d43b0bc	0.04777597
137	0xbddc0771	-0.10743607
138	0xbdd8c0bc	-0.10583636
139	0x3d8b1655	0.06791369
140	0x3d92bb8d	0.07164679
141	0x3de41cdb	0.11138316
142	0x3db85b70	0.09001815
143	0xbd942a00	-0.07234573
144	0xbda0a239	-0.078434415
145	0x3d079ad7	0.03310665
146	0x3dbdb1f3	0.09262457
147	0xbdab6d8e	-0.08370505
148	0x3d0c17b9	0.03420231
149	0x3d2fb5cb	0.04289798
150	0xbdcd3a16	-0.10020845
151	0x3c80c841	0.015720489
152	0x3c843032	0.016136263
153	0x3cce32ff	0.025170801
154	0x3d3cca5f	0.046091434
155	0x3d5f87b5	0.05457278
156	0xbd8437da	-0.06455965
157	0x3d2fc8b4	0.042916015
158	0xbd69c2e6	-0.057070635
159	0xbcf367c6	-0.029712569
160	0xbd9c3152	-0.076265946
161	0x3d5c1358	0.053729385
162	0xbdb8682d	-0.09004245
163	0xbd6a0ad3	-0.05713923
164	0x3d9f52f7	0.07779496
165	0x3d4d4dbe	0.05012297
166	0x3d027be1	0.03185642
167	0xbcd5653f	-0.026049254
168	0xbddce53f	-0.10785913
169	0xbc140771	-0.009034977
170	0x3d855f91	0.065123685
171	0xbcfe7a83	-0.031064278
172	0x3d6593a8	0.05604902
173	0x3cff3fb9	0.031158315
174	0xbcd9952b	-0.026560387
175	0xbdeafec2	-0.114743724
176	0xbd905044	-0.070465595
177	0xbd29f0d2	-0.04148943
178	0xbdacfed7	-0.08447044
179	0xbd63a4b3	-0.05557699
180	0x3d9037b4	0.070418745
181	0x3ba64f96	0.0050754054
182	0xbc9581f2	-0.01825044
183	0xbdc7d54e	-0.097574815
184	0x3ccb363a	0.02480613
185	0x3ce2de8d	0.027694011
186	0xbd900d3d	-0.07033775
187	0x3db81be3	0.08989694
188	0xbc9b876d	-0.018985474
189	0xbdf8acfd	-0.1214237
190	0xbdc68f51	-0.09695304
191	0xbc474638	-0.012162738
192	0x3cd3ee39	0.02587043
193	0x3dc71918	0.09721583
194	0x3d35fea4	0.044432297
195	0x3dc0db2a	0.09416802
196	0x3cd034c2	0.025415782
197	0x3c4213c3	0.011845532
198	0xbd961b37	-0.073294096
199	0xbdaead69	-0.08529169
200	0xbccabecb	-0.02474918
201	0xbc75f1e8	-0.015011288
202	0x3bc0ca3a	0.0058834823
203	0xbdb6acea	-0.089196995
204	0xbb18a504	-0.0023291716
205	0x3d1476f9	0.036246274
206	0xbd931552	-0.07181801
207	0x3de9de7b	0.11419388
208	0xbc81c43f	-0.015840648
209	0x3d195cf8	0.037442178
210	0xbd3c8d36	-0.046033107
211	0xbdded7cc	-0.10881004
212	0xbd16dda8	-0.03683248
213	0xbdc5ceff	-0.09658622
214	0xbd4e468a	-0.05036024
215	0x3de39832	0.11113013
216	0x3d65cb66	0.05610218
217	0x3d17a771	0.03702492
218	0xbd9ab4f1	-0.07554043
219	0x3cfcd20c	0.030861877
220	0x3dc10c93	0.094262265
221	0x3cfdfcc3	0.031004315
222	0xbd8316ac	-0.06400809
223	0x3da61ac0	0.08110571
224	0xbd3ef45b	-0.046619754
225	0xbbf88be4	-0.0075850356
226	0x3d52ceaa	0.05146662
227	0x3d0468f7	0.032326665
228	0xbdcaf486	-0.099099204
229	0xbdda83d2	-0.10669674
230	0x3ce06ad2	0.027394686
231	0xbd65c2ad	-0.05609386
232	0xbdae8f65	-0.08523444
233	0x3bb68914	0.00557054
234	0xbce9b355	-0.028527895
235	0x3aa01a1b	0.0012214811
236	0xbd898c5e	-0.06716226
237	0x3c7f7aa5	0.015593206
238	0x3d1f267d	0.038855065
239	0xbd1fa40b	-0.038974803
240	0x3c2f2e00	0.01069212
241	0xbcb83283	-0.022485023
242	0x3dcce062	0.10003735
243	0x3d2782da	0.040896274
244	0x3b65a02d	0.00350381
245	0x3d98db00	0.07463646
246	0x3c38e7fd	0.011285779
247	0xbd910868	-0.070816815
248	0x3df491d3	0.11941876
249	0x3db883bc	0.09009501
250	0x3cdf40cb	0.027252575
251	0x3d4af478	0.04954955
252	0x3ce1b653	0.02755276
253	0x3d0ae142	0.03390623
254	0xbdd5a12f	-0.10431134
255	0xbd2f7655	-0.04283746

cnn.3.bias f4 [64]
0	0xbdae70ce	-0.085176095
1	0xbab3d69a	-0.0013720572
2	0x3d134527	0.03595462
3	0x3dbe12fd	0.092809655
4	0xbd19a527	-0.037511017
5	0x3dcf9f76	0.10137837
6	0x3dda6ed0	0.10665667
7	0x3d62bfe0	0.055358768
8	0xbd390653	-0.045172047
9	0x3ddb81c0	0.10718107
10	0xbd67eeff	-0.05662441
11	0x3dc328d6	0.09529273
12	0xbd092faf	-0.03349274
13	0x3dc8591f	0.097826235
14	0xbd2806b7	-0.04102203
15	0x3df52e3f	0.11971711
16	0xbc2de6d2	-0.010614114
17	0x3d89aa19	0.06721897
18	0x3d73c694	0.05951555
19	0x3dc211d1	0.094760545
20	0xbccf2144	-0.025284417
21	0x3b400923	0.002930232
22	0x3d275e4b	0.04086141
23	0x3b440165	0.0029908058
24	0x3bb2aa54	0.0054524336
25	0x3d79a6b7	0.060950007
26	0xbd2ae666	-0.04172363
27	0xbdc8bb86	-0.09801392
28	0x3dc983e8	0.09839612
29	0x3ca72330	0.02040252
30	0xbd8dfca9	-0.06932957
31	0xbc0363a2	-0.00801936
32	0x3d902b81	0.07039548
33	0x3df50874	0.11964503
34	0xbc0ac898	-0.008470677
35	0xbdcdcae2	-0.100484625
36	0xbc91e5d3	-0.017809784
37	0xbcfc3f52	-0.030791912
38	0x3cfb7704	0.0306964
39	0x3dab903b	0.08377119
40	0x3c99e881	0.018787624
41	0xbd9fc851	-0.07801879
42	0xbdacb9f6	-0.08433907
43	0xbd70685b	-0.05869327
44	0xbca4a405	-0.020097742
45	0x3da52d64	0.08065298
46	0x3d8c892b	0.068621
47	0x3c855181	0.016274216
48	0x3d4344cb	0.047673028
49	0xbb8badf4	-0.00426268
50	0x3cf002aa	0.029298145
51	0xbce1f303	-0.027581697
52	0xbdaf0e6b	-0.08547672
53	0x3dd6ae52	0.10482468
54	0xbdb4e453	-0.08832612
55	0xbd5538e6	-0.052056216
56	0x3d2cde6a	0.042204298
57	0x3ccb3d1c	0.024809413
58	0xbacdbbd3	-0.0015696235
59	0xbd9faed5	-0.077970184
60	0x3dbb5e5e	0.091488585
61	0x3d824ad5	0.06361929
62	0x3ddea5ab	0.108714424
63	0xbb061f2b	-0.0020465355

lstm.weight_ih_l0 f4 [512, 64]
0	0xbce5f255	-0.028069654
1	0x3b43b011	0.0029859582
2	0x3da20117	0.07910364
3	0x3d230d7e	0.03980779
4	0x3dbca1fb	0.09210583
5	0x3dc0b062	0.09408642
6	0x3df9e9bc	0.122027844
7	0x3d972a42	0.07381107
8	0x3dc9609e	0.098328814
9	0xbce6bfb2	-0.02816758
10	0x3beb53ae	0.0071816063
11	0x3de0068a	0.10938747
12	0xbcbc6fe2	-0.023002569
13	0xbd0cd60b	-0.034383815
14	0x3d8f0d4e	0.069849595
15	0x3dc36fd1	0.09542812
16	0x3bd55814	0.006510744
17	0x3d65ff57	0.056151714
18	0x3b3654d4	0.0027821558
19	0x3d82f24a	0.06393869
20	0xbc5278a8	-0.0128461495
21	0xbc45f862	-0.012083145
22	0xbd672c94	-0.056438997
23	0x3db09a5c	0.08623192
24	0xbc320171	-0.0108646015
25	0xbd40b90d	-0.04705148
26	0x3cb6d118	0.0223165
27	0x3d942820	0.07234216
28	0xbd7159d0	-0.058923542
29	0x3dcd880a	0.10035713
30	0xbbfd7c02	-0.00773573
31	0x3d9248d3	0.07142796
32	0x3d87f99e	0.066394076
33	0x3c17edca	0.009273002
34	0x3d6215c1	0.055196527
35	0x3dbcb9ed	0.0921515
36	0xbcc22dff	-0.023703573
37	0x3d5a4fcc	0.053298756
38	0x3cf1df4b	0.02952542
39	0xbc8d6a82	-0.017262701
40	0xbd424fef	-0.047439512
41	0x3d30e1ef	0.043184217
42	0x3dbec7a1	0.0931542
43	0x3d92c9b4	0.07167378
44	0x3dc72c92	0.09725298
45	0x3db6a9b5	0.08919088
46	0x3dad7202	0.08469011
47	0xbc90721c	-0.017632537
48	0x3cc5700c	0.02410128
49	0x3d432dab	0.047650974
50	0x3dbbb036	0.09164469
51	0x3d32b547	0.04362991
52	0x3d609193	0.05482633
53	0xbd30d27f	-0.043169495
54	0x3dd18b62	0.10231663
55	0x3dde58ef	0.108568065
56	0x3c115aa6	0.00887171
57	0x3cc1e73f	0.023669837
58	0xbd3d39ce	-0.046197705
59	0x3c718b6a	0.014742712
60	0x3d2678c1	0.040642504
61	0x3ca79730	0.020457834
62	0x3c02e7b0	0.007989809
63	0xbd2da5a8	-0.04239431
64	0xbcc1dc29	-0.02366455
65	0x3d8c1678	0.06840223
66	0xbd74728d	-0.059679557
67	0xbdec2978	-0.11531347
68	0x3cbf3771	0.023341866
69	0x3d3110d8	0.043228954
70	0xbdcc98d2	-0.09990086
71	0x3c2808e6	0.010256028
72	0x3d6f90cc	0.0584877
73	0xbc4f78a0	-0.012663037
74	0x3c407bb3	0.011748242
75	0x3dd664ef	0.1046847
76	0x3db6511b	0.089021884
77	0xbc845524	-0.01615388
78	0x3d976420	0.07392144
79	0x3de4b48c	0.11167249
80	0xbd7455fd	-0.059652317
81	0x3daf635e	0.08563875
82	0xbd09e5d2	-0.03366644
83	0x3c77a128	0.015114106
84	0x3d82cafc	0.063863724
85	0xbc3e3e3a	-0.011611516
86	0x3c1c6f43	0.009548011
87	0xbca58287	-0.020203842
88	0xbd35dbfc	-0.044399247
89	0x3db59d65	0.08867911
90	0xbcfa2092	-0.030533109
91	0x3c960a98	0.018315598
92	0x3d8124a4	0.06305817
93	0x3b474b24	0.0030409778
94	0xbce285a6	-0.02765162
95	0xbd614d87	-0.055005576
96	0x3db2b902	0.08726694
97	0xbd18cdc4	-0.03730561
98	0x3dfad7ee	0.122482166
99	0xbc749ab6	-0.014929464
100	0xbcf2f273	-0.029656624
101	0xbca01686	-0.01954199
102	0x3d52c7fe	0.05146026
103	0xbc49c31a	-0.012314582
104	0xbd62eb10	-0.055399954
105	0x3d6250f6	0.05525299
106	0x3d059b8e	0.03261905
107	0xbc1bb435	-0.009503414
108	0xbc1abb52	-0.009444075
109	0x3d5fc3e3	0.05463017
110	0xbbee6e40	-0.0072763264
111	0xbd669497	-0.05629405
112	0x3db5e215	0.08881012
113	0xbc8f431d	-0.017488057
114	0xbd19d0ec	-0.03755276
115	0x3da23986	0.07921128
116	0x3d840bce	0.06447564
117	0x3d3606e1	0.044440154
118	0xbd24fb8f	-0.040278967
119	0xbb61ce80	-0.003445536
120	0xbd47da61	-0.048792247
121	0x3c7c9d06	0.015418297
122	0x3d86937c	0.06571099
123	0x3d153c1e	0.036434285
124	0x3d186ee3	0.037215125
125	0x3d199b2d	0.037501503
126	0x3d2a86c3	0.041632425
127	0x3d409e28	0.04702583
128	0x3d766457	0.060154285
129	0x3dac5983	0.084155105
130	0x3e2200a0	0.15820551
131	0x3ceafebd	0.028685922
132	0xbd320f0e	-0.04347139
133	0x3d2ea4e5	0.042637724
134	0x3d4d7ee0	0.050169826
135	0x3ddf68b6	0.10908644
136	0x3da4c902	0.08046152
137	0xbbb621a4	-0.0055582095
138	0x3c35757b	0.011075373
139	0xbd19f8ec	-0.037590906
140	0xbd9d1336	-0.0766968
141	0xbcc7a85c	-0.024372272
142	0x3d8c4b26	0.06850271
143	0x3d755340	0.059893847
144	0xbc400109	-0.011718997
145	0xbd752f69	-0.059859667
146	0x3c239ae0	0.009985656
147	0x3d53dd92	0.051724978
148	0xbd3dac03	-0.04630662
149	0xbd1d0a88	-0.03834012
150	0x3d7933ad	0.060840297
151	0x3db25a94	0.08708683
152	0x3c7dec22	0.015498193
153	0x3d8090fd	0.06277654
154	0xbd3de44f	-0.04636031
155	0x3d341e10	0.043973982
156	0x3d24ca20	0.040231824
157	0x3cc2edb4	0.023794986
158	0x3d758439	0.05994055
159	0xbc2956da	-0.010335648
160	0xbd1e3399	-0.038623426
161	0x3dc99951	0.09843696
162	0x3d26fa04	0.040765777
163	0x3d353d2d	0.044247795
164	0x3d343d5c	0.04400383
165	0xbce244ce	-0.0276207
166	0xbd72dd5c	-0.059293136
167	0x3dc3b266	0.09555511
168	0x3cc31095	0.023811618
169	0xbd985ad3	-0.07439198
170	0x3d7cbaad	0.061701465
171	0xbc985e2e	-0.018599596
172	0xbc14a392	-0.009072201
173	0x3d664c4a	0.0562251
174	0x3bb22fcc	0.0054378267
175	0x3ccd2d72	0.025046084
176	0xbd5dfe54	-0.054197624
177	0x39b3174c	0.00034158898
178	0xbd0960aa	-0.03353945
179	0x3d5bccb1	0.053662006
180	0x3d740d23	0.05958284
181	0xbd90cb93	-0.07070079
182	0x3d2d4fb0	0.042312324
183	0xbcf9a67c	-0.030474894
184	0x3d4e7aa7	0.05040994
185	0xbd400b6d	-0.046885896
186	0x3d8dad80	0.06917858
187	0xbda3b683	-0.07993796
188	0xbbfaaff7	-0.007650371
189	0xbd8f5928	-0.06999427
190	0x3d7210b9	0.05909798
191	0x3c9ddeda	0.019271303
192	0xbd289b75	-0.04116388
193	0x3e27a52c	0.16371602
194	0x3e1a2670	0.15053725
195	0x3c0d456f	0.008622511
196	0x3e07cc45	0.13261516
197	0xba7205fd	-0.00092324597
198	0x3b9cbf0d	0.004783517
199	0xbd45eccb	-0.048321526
200	0x3cf290f9	0.029610144
201	0x3de46761	0.111525305
202	0x3dae1134	0.08499375
203	0x3d583fff	0.052795406
204	0x3c9443a2	0.018098656
205	0xbd730ea5	-0.059340138
206	0x3dda8992	0.10670771
207	0xbcbd5390	-0.023111135
208	0x3dc627e5	0.09675578
209	0x3cd1d94d	0.025616312
210	0x3d569868	0.05239144
211	0xbd93da53	-0.072193764
212	0xbc8ddf1b	-0.017318299
213	0xbcbc692d	-0.02299937
214	0xbd8ed44e	-0.06974088
215	0xbd2ea0a3	-0.042633664
216	0xbd8e1fea	-0.06939681
217	0x3d673ef5	0.056456525
218	0x3dad0a00	0.08449173
219	0x3d9cdc1c	0.0765917
220	0x3de567eb	0.112014614
221	0xbda83012	-0.08212294
222	0x3dd277fc	0.102767915
223	0xbd4a42db	-0.049380165
224	0xbcd9604f	-0.026535181
225	0x3e00b239	0.12567987
226	0x3bc1527a	0.0058997246
227	0xbc82b874	-0.015957095
228	0x3ca334f3	0.01992271
229	0x3d64372c	0.05571668
230	0x3ae59ec0	0.0017518625
231	0x3dd6e3c1	0.10492659
232	0xbcb243e5	-0.02176089
233	0x3db5d463	0.088784
234	0x3e14c453	0.14528017
235	0xbc10d85c	-0.008840647
236	0xbd8ca2a2	-0.06866957
237	0x3d988ff5	0.074493326
238	0xbd42bc0e	-0.047542624
239	0xbd4b7b07	-0.049677875
240	0xbdcf6365	-0.1012638
241	0xbc619031	-0.013767288
242	0x3c4c1ef1	0.012458549
243	0x3c836f8d	0.016044402
244	0xbc2aa2ad	-0.0104147615
245	0x3dba7f2d	0.09106288
246	0xbcaca49c	-0.021074586
247	0x3d65c665	0.056097407
248	0xbccb50d4	-0.024818815
249	0x3d77d937	0.060509887
250	0x3d0e09ab	0.03467719
251	0xbd2f71cd	-0.04283314
252	0x3cd57d5a	0.026060749
253	0xbd00c956	-0.03144201
254	0x3e06b7e3	0.13156085
255	0xbb641b31	-0.0034806246

lstm.weight_hh_l0 f4 [512, 128]
0	0xbdc99ecd	-0.09844742
1	0x3d98ee8e	0.07467376
2	0x3d3b6dbc	0.045758948
3	0x3dca39ae	0.09874283
4	0x3d8deda3	0.06930091
5	0xbd3fbee2	-0.0468129
6	0x3dc7c538	0.09754413
7	0xbb593c0b	-0.003314736
8	0x3d26de0e	0.04073911
9	0xbdaf74b7	-0.085671835
10	0xbdd91090	-0.10598862
11	0xbd23f402	-0.040027626
12	0xbd32b3c4	-0.04362847
13	0xbdfdf691	-0.124005444
14	0x3d4efc10	0.050533354
15	0xbd3d4af8	-0.046214074
16	0x3d503463	0.05083121
17	0x3d8cea65	0.06880645
18	0x3c16e2ff	0.0092093935
19	0xbda75f2b	-0.08172449
20	0x3d96908d	0.073517896
21	0xbd1db61e	-0.03850376
22	0xbd27be5d	-0.04095303
23	0xbcb066ca	-0.021533389
24	0xbdebdfa7	-0.11517268
25	0xbbbfdfb0	-0.005855523
26	0xbc914dc8	-0.017737284
27	0xbccdcfa7	-0.02512343
28	0xbdd4a63c	-0.10383269
29	0x3cf4ce9f	0.02988368
30	0xbd8629db	-0.06550952
31	0x3dd4e29c	0.10394785
32	0x3d428f51	0.04749996
33	0x3d13ec0b	0.03611378
34	0x3c1cc135	0.0095675485
35	0xbcc0d350	-0.023538262
36	0xbcac267a	-0.02101444
37	0xbd86230f	-0.06549656
38	0xbd12e106	-0.03585913
39	0x3d6a5fd2	0.057220288
40	0xbcabedde	-0.020987447
41	0xbdab1641	-0.08353854
42	0xbcb1545b	-0.02164667
43	0x3d058ced	0.0326051
44	0x3d1e9ae5	0.038721938
45	0x3c8206f9	0.015872465
46	0x3db60600	0.08887863
47	0xbd8889e8	-0.066669285
48	0x3c1f64f1	0.009728656
49	0xbcfce400	-0.030870438
50	0xbb267030	-0.0025396459
51	0x3d5a5415	0.053302843
52	0x3d3b0bc4	0.045665517
53	0xbe04c2d3	-0.12964945
54	0x3d361efa	0.044463135
55	0x3d906cea	0.07052024
56	0x3db6f1b9	0.08932824
57	0xbc4b69f0	-0.012415394
58	0x3d5ea690	0.054358065
59	0x3d8e4e71	0.06948555
60	0x3cc5be7c	0.024138682
61	0xbddc4c00	-0.10756683
62	0x3cbd6412	0.023119006
63	0xbd521365	-0.051288027
64	0xbe0392a5	-0.12848909
65	0x3bfeddf3	0.0077779233
66	0xbd77b4d4	-0.060475186
67	0x3cc4f850	0.024044186
68	0xbcb76fc8	-0.022392169
69	0xbdb913bb	-0.090369664
70	0xbd87931e	-0.06619857
71	0x3da414c2	0.08011772
72	0x3d3a55db	0.045492034
73	0xbd12838f	-0.035769995
74	0xbdbccaf5	-0.092183985
75	0xbd1b745d	-0.03795277
76	0x3dbd4784	0.09242156
77	0x3dd10170	0.10205352
78	0xbd12c5b1	-0.035833064
79	0x3c1793a8	0.009251513
80	0x3d498e42	0.049207933
81	0xbd96d10e	-0.07364093
82	0xbd1e27c3	-0.03861214
83	0xbd065ac7	-0.032801416
84	0x3c17bc19	0.009261155
85	0x3d1ecc69	0.03876916
86	0xbcccaffb	-0.024986258
87	0xbdb15bcf	-0.08660089
88	0xbd83d426	-0.064369485
89	0xbbf45a22	-0.0074570337
90	0x3cf1130a	0.029428024
91	0x3ce110c1	0.02747381
92	0xbcb5e6be	-0.022204753
93	0x3d0bc38a	0.034122027
94	0x3caf4680	0.021395922
95	0xbbce397c	-0.0062934738
96	0xbd8b313e	-0.067965016
97	0xbcef9bbc	-0.029249065
98	0xbcafdcf0	-0.021467656
99	0x3df8ce40	0.12148714
100	0x3c85efcf	0.016349701
101	0xbd8fafb2	-0.07015933
102	0x3d4c7275	0.049913842
103	0x3d80eb0a	0.0629483
104	0x3c0524a2	0.00812641
105	0x3b9c5494	0.0047708247
106	0x3d823b1f	0.06358933
107	0xbda72d1c	-0.08162901
108	0x3d01c5ab	0.03168265
109	0xbd5d8db6	-0.054090224
110	0xbdf29f87	-0.11846834
111	0xbddabc3e	-0.106804356
112	0x3ce0d958	0.027447388
113	0x3d00a243	0.031404745
114	0xbd4b87e7	-0.049690153
115	0xbdfe124b	-0.12405833
116	0xbd9c39db	-0.076282226
117	0xbc26ed92	-0.010188477
118	0x3dbd7c2d	0.092522
119	0x3c696663	0.014245602
120	0xbd0da3d6	-0.034580074
121	0x3c6bc2a7	0.01438967
122	0x3cc5178d	0.024059081
123	0x3d5715e5	0.052511115
124	0x3d42c477	0.047550645
125	0x3d27e147	0.040986326
126	0xbc920216	-0.01782326
127	0x3dbd353f	0.092386715
128	0xbd8ba3fb	-0.06818386
129	0x3d6c7f69	0.057738695
130	0x3d9423e8	0.07233411
131	0x3d45f65f	0.04833066
132	0xbca19613	-0.019724881
133	0x3cd268cd	0.025684739
134	0x3dbcb3d2	0.092139855
135	0x3d0400e7	0.032227423
136	0x3daa9511	0.083292134
137	0x3ba651ca	0.005075668
138	0xbcee2cf2	-0.029074166
139	0x3d523576	0.051320516
140	0x3dae34d9	0.08506174
141	0xbdb28c37	-0.0871815
142	0x3c6015f4	0.013677109
143	0x3de8e982	0.11372663
144	0xbdc9d45a	-0.09854956
145	0x3c2d1766	0.010564661
146	0xba50d2c7	-0.00079659786
147	0xbd8c1670	-0.06840217
148	0x3d00e6df	0.031470176
149	0x3cb7b794	0.022426404
150	0xbda15672	-0.07877816
151	0x3d7a972c	0.061179325
152	0x3d9155af	0.07096421
153	0xbd069c92	-0.03286416
154	0xbcbb0607	-0.022830022
155	0xbc6f4a73	-0.014605152
156	0xbdb69a35	-0.089161314
157	0xbd5ff176	-0.054673634
158	0xbc53677a	-0.012903089
159	0xbc89d512	-0.016825233
160	0xbbdc0f9d	-0.0067157284
161	0x3d611d27	0.054959442
162	0x3ba72f6d	0.005102089
163	0x3d86a08b	0.0657359
164	0x3ce9d1b8	0.028542385
165	0xbdaff2fc	-0.085912675
166	0xbd8f329f	-0.06992077
167	0x3d2f41ff	0.04278755
168	0x3d581260	0.0527519
169	0x3d0d315e	0.03447091
170	0x3d8bf92a	0.06834634
171	0x3c4da9ba	0.012552673
172	0x3c1cbe73	0.009566891
173	0x3cae770b	0.021296998
174	0x3db5b117	0.08871668
175	0x3d11360f	0.035451945
176	0x3cfdf582	0.031000856
177	0x3d3df14d	0.0463727
178	0x3d6402e0	0.055666804
179	0x3dc27262	0.09494473
180	0x3d8d65c7	0.06904178
181	0xbda286d9	-0.079358764
182	0x3dcf1a33	0.10112419
183	0x3cc58ade	0.024114069
184	0xbd1704bc	-0.03686975
185	0xbd460827	-0.04834762
186	0xbc2f71d2	-0.010708289
187	0x3c81ce82	0.01584554
188	0xbc77167c	-0.015081044
189	0xbd3ba108	-0.04580787
190	0xbd50ab42	-0.050944574
191	0xbd5c699b	-0.05381165
192	0x3d3d16f5	0.04616447
193	0x3da541f4	0.0806922
194	0x3c4a7073	0.012355912
195	0xbc990505	-0.018679151
196	0x3c5106cb	0.012757967
197	0x3d14c18f	0.036317404
198	0x3d06aabd	0.032877672
199	0xbd4eab09	-0.05045608
200	0x3d65e989	0.05613092
201	0xbd68e6e6	-0.056860827
202	0xbd424978	-0.047433347
203	0xbd252e14	-0.040327147
204	0x3d438aaa	0.047739662
205	0x3dd15f09	0.10223205
206	0xbd419765	-0.04726352
207	0xbbb7a875	-0.0056047984
208	0xbdc2f244	-0.09518865
209	0x3c29135f	0.01031956
210	0xbdd384db	-0.103280745
211	0x3dc1dead	0.094663
212	0x3dadb1e8	0.084811985
213	0xbd8830cf	-0.066499345
214	0xbd34e38c	-0.044162318
215	0xbc262627	-0.010140932
216	0xbda2cc2e	-0.079491004
217	0x3d72403b	0.059143286
218	0xbca13242	-0.019677285
219	0x3d42df30	0.04757613
220	0x3dc928d3	0.0982224
221	0xbd90655c	-0.07050583
222	0xbdf0b7cc	-0.117538065
223	0x3d9c2afe	0.076253876
224	0x3cfc4506	0.030794632
225	0x3d4c37bd	0.049857844
226	0xbc42ff6b	-0.011901717
227	0xbdb81003	-0.08987429
228	0xbd6e9051	-0.0582431
229	0xbdc0a901	-0.09407235
230	0x3d4b55f3	0.049642514
231	0xbba4acb0	-0.0050254688
232	0xbdf43fa3	-0.119262
233	0xbb01d469	-0.0019810444
234	0x3d628bb3	0.05530901
235	0xbc58ca44	-0.013231818
236	0x3d646921	0.05576432
237	0x3be9b214	0.0071318243
238	0xbd98c976	-0.074603006
239	0x3d99de78	0.07513136
240	0x3ce891df	0.02838987
241	0x3c0ff066	0.008785343
242	0xbdcde7ce	-0.10053979
243	0x3da28eff	0.079374306
244	0xbd9ec355	-0.077521004
245	0xbdda8ee0	-0.106717825
246	0x3c1ab27e	0.00944197
247	0xbc2fbd44	-0.010726277
248	0xbc2d17ee	-0.010564787
249	0x3d37f07c	0.04490708
250	0x3d541f22	0.051787503
251	0xbd3517e1	-0.044212226
252	0x3d21832e	0.039431743
253	0x3dc7b973	0.097521685
254	0xbd86f063	-0.06588819
255	0xbc46be76	-0.01213037

lstm.bias_ih_l0 f4 [512]
0	0x3daa0cd5	0.08303229
1	0x3d17a310	0.037020743
2	0x3d80ad36	0.06283037
3	0xbc077464	-0.008267496
4	0xbcebf072	-0.028801177
5	0x3d8fbfcf	0.070190065
6	0x3d972d2c	0.07381663
7	0xbd4153aa	-0.04719893
8	0x3dbba874	0.09162989
9	0x3b1a8a65	0.0023581025
10	0x3da90678	0.08253187
11	0xbd522f72	-0.05131478
12	0x3dbb92c2	0.09158851
13	0xbc7b11f8	-0.015324108
14	0xbcd9f6d0	-0.026606947
15	0xbca1ec59	-0.01976602
16	0xbd0d2dcf	-0.034467515
17	0x3dcc495a	0.09974928
18	0x3ddf8fae	0.109160766
19	0xbc524657	-0.012834153
20	0x3d261dcf	0.04055577
21	0x3b6365d8	0.0034698155
22	0x3b0061bc	0.0019589504
23	0x3dc07ed7	0.09399193
24	0x3d3170ee	0.04332059
25	0x3d829682	0.06376363
26	0xbd07f372	-0.033191152
27	0xbd9eb40b	-0.07749184
28	0xbb620820	-0.0034489706
29	0x3dd963be	0.106147274
30	0x3d07fc10	0.03319937
31	0xbd872b58	-0.06600064
32	0x3c10fbbe	0.0088490825
33	0xbd288282	-0.041140087
34	0x3db68c33	0.0891346
35	0x3d0738a4	0.033013
36	0x3d7bff04	0.0615225
37	0xbd0230f4	-0.031784967
38	0x3a2f04f2	0.0006676457
39	0xbd8d2806	-0.068923995
40	0xbd4cc380	-0.04999113
41	0x3ce24bf2	0.027624104
42	0x3d8d3734	0.06895295
43	0x3b6cfe95	0.0036162485
44	0x3c9a55c7	0.01883973
45	0x3dc1f6a9	0.09470875
46	0x3deca587	0.11555009
47	0x3d9b25bd	0.075755574
48	0x3d70120f	0.058610972
49	0x3dab9501	0.083780296
50	0x3d9d59a6	0.07683115
51	0x3d620584	0.05518104
52	0xbd11b685	-0.035574455
53	0x3c5d78fc	0.013517614
54	0x3d7cae18	0.061689466
55	0xbc736c7a	-0.014857406
56	0x3d3eeaa2	0.046610482
57	0x3cddce90	0.027076036
58	0xbc49f27a	-0.012325877
59	0xbd2e4812	-0.0425492
60	0x3d2d7c33	0.042354774
61	0xbd0f7ed2	-0.035033055
62	0x3c82c862	0.01596469
63	0xbb2af7bb	-0.00260876
64	0x3d5b445e	0.053531997
65	0x3c0a4dda	0.008441413
66	0xbcdec503	-0.027193552
67	0x3d000fcc	0.031265065
68	0xbd7e9cbb	-0.06216119
69	0x3b701b83	0.0036637492
70	0xbd363875	-0.044487435
71	0x3c565cd7	0.013083658
72	0xbd827d25	-0.06371526
73	0x3bd43386	0.0064758686
74	0xbd1fc388	-0.039004833
75	0x3d988122	0.07446505
76	0x3b0dbb34	0.0021626474
77	0x3dbb5162	0.09146382
78	0x3cc5b27a	0.024132956
79	0x3c9116bb	0.017711034
80	0xbd4847fc	-0.048896775
81	0x3d3122b6	0.043245994
82	0xbc286a21	-0.010279209
83	0xbd087404	-0.033313766
84	0x3d21af18	0.039473623
85	0xbd03eaa1	-0.03220618
86	0x3d4db5ec	0.050222322
87	0x3dd12c0a	0.10213478
88	0xbd690d77	-0.056897607
89	0x3d8944c8	0.06702572
90	0xbc8c9f9e	-0.017165955
91	0x3c37835a	0.01120075
92	0x3dd8f44b	0.1059347
93	0x3bfbe203	0.007686855
94	0xbcda0942	-0.026615743
95	0x3c8745e6	0.016512822
96	0xbd3ee293	-0.046602797
97	0xbd8ac93a	-0.06776662
98	0x3d0476af	0.032339748
99	0xbc6ef9e2	-0.014585944
100	0x3cfcb7cc	0.03084936
101	0x3c4f9d18	0.012671731
102	0x3c4788a6	0.012178576
103	0xbd2d537c	-0.042315945
104	0x3d73f397	0.059558477
105	0x3c95d3c0	0.018289447
106	0x3dbf6428	0.09345275
107	0xbd5317e4	-0.051536456
108	0x3dfd998e	0.12382804
109	0x3d8844e4	0.06653765
110	0x3cb43d7b	0.022001972
111	0x3da490e3	0.080354474
112	0xbd1e7f03	-0.038695347
113	0x3cf4d1d9	0.02988522
114	0x3d88d32f	0.06680905
115	0x3db42da4	0.08797768
116	0x3d827fa7	0.06372004
117	0x3d8cbac4	0.0687156
118	0xbc59171e	-0.0132501405
119	0x3dd5f206	0.10446553
120	0x3dcdc121	0.10046602
121	0x3dc7d338	0.09757084
122	0x3ccd5a2b	0.02506741
123	0x3d2884b8	0.041142195
124	0x3de52715	0.11189095
125	0x3d39ec94	0.045391634
126	0x3c8efdd2	0.017455015
127	0x3d5cc522	0.053898938
128	0x3d56d047	0.052444723
129	0x3d4fa15b	0.05069099
130	0x3dbdc17f	0.09265422
131	0xbd17fa0b	-0.037103694
132	0xbc8308a4	-0.015995331
133	0x3c02cf71	0.007984028
134	0x3d1cc855	0.03827699
135	0xbd5cab03	-0.053874027
136	0xbd00a403	-0.031406414
137	0x3d255701	0.040366177
138	0x3da22348	0.079168856
139	0xbc3123e5	-0.010811781
140	0x3d22d035	0.039749343
141	0x3ca1deb7	0.019759519
142	0x3c352fbc	0.011058744
143	0x3ca2d7b8	0.019878253
144	0x3d656ade	0.05601012
145	0x3d99a86e	0.075028285
146	0xbd44231c	-0.047885045
147	0x3d539917	0.05165967
148	0x3cf5a476	0.029985648
149	0x3d818ee6	0.06326084
150	0x3cf5d817	0.030010266
151	0xbcb1a2eb	-0.02168413
152	0x3d560c58	0.052257866
153	0x3de91ef4	0.11382857
154	0xbd10852c	-0.035283253
155	0x3d1f1de6	0.038846873
156	0x3d1af484	0.037830845
157	0x3d433207	0.04765513
158	0xbd310003	-0.0432129
159	0xbd48c44a	-0.04901532
160	0x3d37eeef	0.0449056
161	0xbd8df88b	-0.069321714
162	0xbd3e7704	-0.04650022
163	0x3d95ed80	0.0732069
164	0xbd7b9992	-0.061425753
165	0xbd5691cf	-0.052385148
166	0x3da6789b	0.081284724
167	0xbd6ec0ed	-0.058289457
168	0x3a8a5c67	0.0010556102
169	0x3d9ef9b4	0.07762471
170	0x3d0f34d3	0.034962486
171	0x3d1cf4d4	0.038319424
172	0x3d58249c	0.05276929
173	0x3d47a8d4	0.04874499
174	0x3cb38b3d	0.02191698
175	0xbc7b2f42	-0.015331091
176	0xbc9ceaea	-0.019154985
177	0x3c63464f	0.013871743
178	0xbc8016b4	-0.015635826
179	0x3cc85a26	0.024457049
180	0x3d2752cb	0.040850442
181	0x3ca3a16d	0.019974435
182	0xbc8f927b	-0.017525902
183	0x3d2803f6	0.041019402
184	0x3c3a93f1	0.011387811
185	0x3d973de0	0.073848486
186	0x3bc98c7a	0.0061507793
187	0xbd958404	-0.073005706
188	0xbd811e0d	-0.0630456
189	0xbd0988fb	-0.0335779
190	0xbd181ede	-0.037138812
191	0x3d3a982a	0.04555527
192	0xbd291246	-0.041277193
193	0x3d239891	0.03994042
194	0x3dd3ee37	0.1034817
195	0x3dc7fc61	0.09764934
196	0x3d307ff2	0.04309077
197	0x3c03eabc	0.0080515705
198	0xbc61540d	-0.013752949
199	0x3d301a30	0.042993724
200	0xbca91ddc	-0.02064412
201	0xbc22d60a	-0.009938726
202	0xbc862d06	-0.01637889
203	0x3c66ecec	0.0140945725
204	0x3d6fc975	0.058541734
205	0x3d4a2d07	0.049359348
206	0xbce05749	-0.02738537
207	0xbcdb9b49	-0.026807444
208	0x3d83f4ec	0.064431995
209	0x3a950c1d	0.0011371408
210	0x3cffc2d9	0.03122084
211	0x3ca1872a	0.019717772
212	0x3dbf0258	0.09326619
213	0xbd0d87ca	-0.034553327
214	0x3d7c4426	0.06158843
215	0x3d7193d6	0.058978878
216	0x3d0ccb63	0.034373652
217	0x3d908a8b	0.07057675
218	0x3d158e40	0.036512613
219	0x3d46b24b	0.048509877
220	0x3dad5064	0.08462599
221	0xbce9a3c2	-0.028520469
222	0xbcd40ce9	-0.025885062
223	0xbd3b71ff	-0.045763012
224	0x3cb3de0f	0.021956472
225	0xbc85b268	-0.016320422
226	0x3ddf417c	0.10901162
227	0x3d9e11d2	0.07718243
228	0x3d5fcb3d	0.054637183
229	0xbcf5a7fa	-0.029987324
230	0xbc9fed3b	-0.0195223
231	0x3d80eb7b	0.06294914
232	0x3d6f8a1a	0.058481313
233	0x3b7db6b0	0.0038713627
234	0x3d4e2b48	0.050334245
235	0x3b7a6b72	0.0038211015
236	0xbd0c1a70	-0.0342049
237	0xbce9be0a	-0.028533
238	0x3dda2caa	0.1065305
239	0x3ce0f018	0.027458236
240	0x3dd2d055	0.102936424
241	0xbd759c10	-0.059963286
242	0xbd4ba2d1	-0.04971582
243	0x3c8630b8	0.016380653
244	0xbcfa975c	-0.030589752
245	0x3dad879b	0.0847313
246	0x3dae1376	0.08499806
247	0x3d96efba	0.07369943
248	0xba74f2b7	-0.00093440287
249	0xbd92cbf3	-0.071678065
250	0x3dc9f2fc	0.09860799
251	0x3db84964	0.08998373
252	0x3dd96fad	0.106170036
253	0x3d97e01a	0.07415791
254	0x3dbaba38	0.0911755
255	0xbb0b2ba0	-0.002123572

lstm.bias_hh_l0 f4 [512]
0	0xbbbb9b1e	-0.0057252785
1	0xbd6c1b24	-0.05764307
2	0x3da7e143	0.08197262
3	0xbcf563e1	-0.029954853
4	0xbc37aa76	-0.011210075
5	0x3dc0355a	0.09385176
6	0x3d78daf2	0.060755678
7	0x3bc564bb	0.006023971
8	0x3c63760d	0.013883126
9	0x3cbc7852	0.023006592
10	0x3c0fcb08	0.008776434
11	0x3d7b7718	0.061392874
12	0xbd41b036	-0.04728719
13	0x3d3db289	0.046312843
14	0xbcb39409	-0.021921175
15	0xbd2abcdc	-0.041684017
16	0xbd4cb668	-0.049978644
17	0xbaf47459	-0.0018650397
18	0x3d5b4893	0.05353601
19	0xbd1a5e72	-0.037687726
20	0xbd26a380	-0.04068327
21	0xbcfcd19e	-0.030861672
22	0x3dd7ccec	0.105371326
23	0x3ba53290	0.005041428
24	0xbd4524e8	-0.0481309
25	0x3dcfb9cc	0.1014286
26	0x3dcf636d	0.10126386
27	0xbc6e18cf	-0.014532282
28	0xbd07112d	-0.032975364
29	0x3d7175b4	0.05895014
30	0xbd01f5c3	-0.031728517
31	0xbd4e803e	-0.05041527
32	0x3d23f921	0.04003251
33	0x3d3dc1d4	0.046327427
34	0x3da99483	0.082802795
35	0x3d62c420	0.05536282
36	0x3dc313e2	0.09525277
37	0xbd740ac0	-0.059580564
38	0xbd004993	-0.031320166
39	0xbcfe8c4d	-0.03107276
40	0x3c05a11e	0.008156089
41	0x3d89047e	0.0669031
42	0xbd3a10c1	-0.045426134
43	0xbd873dc4	-0.06603578
44	0x3dbd26a7	0.09235888
45	0x3dde9f8e	0.108702764
46	0xbcc3957e	-0.023874994
47	0x3c8261b5	0.015915731
48	0xbce84c27	-0.028356625
49	0xbd62c49d	-0.055363286
50	0xbd7bdde7	-0.06149092
51	0x3d6c91a9	0.0577561
52	0x3d935c49	0.07195336
53	0x3cd62c5c	0.0261442
54	0x3cd5fbf1	0.026121112
55	0xbb8e2219	-0.004337561
56	0x3d1a2846	0.037636064
57	0x3dd311a9	0.10306103
58	0x3de02e18	0.10946292
59	0x3d0ed3cb	0.03486995
60	0x3d40746d	0.046986032
61	0x3d97f655	0.07420031
62	0x3bcb0b5f	0.006196424
63	0xbd782e14	-0.06059082
64	0x3cb08e2f	0.021552173
65	0xba5216e0	-0.0008014273
66	0x3de2d54f	0.11075842
67	0xbd3f5c23	-0.046718728
68	0x3d117ea5	0.03552117
69	0x3d42ce3c	0.04755996
70	0xbd73cc68	-0.05952111
71	0xbca61ec6	-0.020278346
72	0x3d9903a1	0.07471395
73	0x3d99f410	0.07517254
74	0x3d19302a	0.03739945
75	0x3d058784	0.03259994
76	0x3dd08b9d	0.10182879
77	0x3da5b235	0.08090631
78	0xbca2ff41	-0.019897105
79	0xbca8df4a	-0.020614285
80	0x3d8e919b	0.06961366
81	0x3d625582	0.055257328
82	0x3cc9e15d	0.024643594
83	0x3de82e6c	0.11336979
84	0xbd4e19a9	-0.05031744
85	0x3ba0790b	0.004897242
86	0x3c571bf0	0.013129219
87	0x3dcccf48	0.10000473
88	0x3c44b681	0.012006403
89	0x3d4bf76b	0.049796503
90	0x3dd0dee5	0.10198764
91	0x3dba4d29	0.090967484
92	0xbc5efd19	-0.013610148
93	0x3d9942c6	0.07483439
94	0xbb98afd5	-0.0046596327
95	0x3dcb8196	0.09936826
96	0x3d77b8ed	0.060479093
97	0x3da70942	0.08156063
98	0x3c41d0b2	0.011829542
99	0x3cef0229	0.029175835
100	0x3c1b3362	0.0094727
101	0xbd87a416	-0.06623094
102	0x3c9ca0d3	0.019119656
103	0x3cd9ab5c	0.026570968
104	0x3daaa240	0.08331728
105	0xbd7e6b43	-0.06211401
106	0xbd5aacb8	-0.053387374
107	0x3d8e32cd	0.06943283
108	0x3e041110	0.12897134
109	0x3d34ffe1	0.044189338
110	0x3d5de9ac	0.054177925
111	0x3c93fe37	0.018065555
112	0xbd396da0	-0.045270562
113	0x3d6f73fe	0.05846023
114	0xbd2f718a	-0.04283289
115	0x3d29a58a	0.041417636
116	0x3d7bf040	0.061508417
117	0xbd598473	-0.05310483
118	0x3d9af7b1	0.07566775
119	0x3de3e88f	0.111283414
120	0x3da318b1	0.07963694
121	0x3d378087	0.044800308
122	0xbd7eac5c	-0.062176093
123	0x3d935938	0.071947515
124	0xbc80a3a4	-0.01570303
125	0x3daa4e83	0.08315756
126	0x3d47282d	0.0486223
127	0xbce16d38	-0.0275179
128	0xbd56da79	-0.052454446
129	0xbcef7fc2	-0.029235724
130	0xbc682567	-0.014169074
131	0x3d266d2b	0.040631454
132	0xbd01aa9b	-0.031656843
133	0x3c4ecd00	0.012622118
134	0x3b532776	0.0032219565
135	0xbc9658fa	-0.018352974
136	0xbcb30862	-0.021854583
137	0xbd49c05b	-0.04925571
138	0xbc30ac86	-0.01078332
139	0xbd8682e7	-0.065679364
140	0x3c15f66d	0.009152991
141	0xbbe08dc4	-0.0068528373
142	0x3cc42ecb	0.023948094
143	0xbd551de7	-0.05203047
144	0x3d997826	0.074936196
145	0x3d29b0aa	0.041428246
146	0xbcb5f1f1	-0.022210093
147	0xbd966aee	-0.07344614
148	0xbd61c495	-0.055119116
149	0xbb9f4af7	-0.0048612314
150	0xb8befebe	-9.1073554e-05
151	0xbb9ec3d5	-0.0048451223
152	0xbcb226dc	-0.021747045
153	0xbc9c9b89	-0.019117134
154	0x3cfb8579	0.030703293
155	0xbd7c1b38	-0.061549395
156	0x3db841cb	0.08996924
157	0xbc8fe308	-0.017564312
158	0xbcb3fc3c	-0.02197086
159	0xbcc4cc4e	-0.024023201
160	0x3c933324	0.017968722
161	0x3ba19e7c	0.004932223
162	0x3d11c494	0.035587862
163	0x3dda6896	0.106644794
164	0x3cf0576b	0.02933856
165	0xbd95bbaf	-0.073111884
166	0x3da72707	0.08161741
167	0x3d9f6dc6	0.077846095
168	0xbbbe7ae6	-0.0058129905
169	0x3ca965e5	0.02067847
170	0xbce85798	-0.02836208
171	0x3d761a64	0.06008376
172	0x3d8cba94	0.068715245
173	0x3d065afb	0.03280161
174	0x3d16665c	0.03671871
175	0xbcb14041	-0.021637084
176	0x3d8bafb2	0.068206206
177	0xbd45867f	-0.04822397
178	0xbd8c4d16	-0.068506405
179	0xbd910406	-0.070808455
180	0x3dc829b4	0.09773579
181	0x3da603fa	0.08106227
182	0xbd849c24	-0.06475094
183	0x3da15445	0.07877401
184	0x3d1a91f8	0.037736863
185	0x3cb7b13a	0.022423375
186	0x3bf455f7	0.007456537
187	0xbb3febcc	-0.0029284833
188	0xbc9d2868	-0.019184306
189	0x3db0c7ec	0.08631882
190	0xbcc70c1d	-0.024297768
191	0x3b0130ee	0.0019713002
192	0x3d719320	0.0589782
193	0xbcc2275d	-0.02370041
194	0x3dae5aa9	0.08513386
195	0xbc242917	-0.010019562
196	0x3cdc8ef6	0.026923638
197	0x3cdb8d64	0.026800819
198	0xbd444046	-0.04791286
199	0xbd640644	-0.055670038
200	0x3dcd75eb	0.10032257
201	0x3b7b2e24	0.0038327063
202	0x3ceb96db	0.028758457
203	0xbd31877a	-0.04334209
204	0x3d8b7637	0.06809657
205	0xbd4e8206	-0.05041697
206	0x3daeb8c0	0.08531332
207	0xbd3829c3	-0.044961702
208	0x3de9a977	0.11409276
209	0xbd449151	-0.047990147
210	0x3b81ea09	0.0039646667
211	0xbb3b9a88	-0.0028626043
212	0x3d9c2e5b	0.07626029
213	0xbd40a31a	-0.047030546
214	0xbda99bfe	-0.08281706
215	0x3dddda10	0.10832608
216	0x3cbf8c0d	0.023382211
217	0xbb8e25c7	-0.0043379995
218	0x3dde6550	0.108591676
219	0x3d9a5c06	0.07537083
220	0xbc932635	-0.017962554
221	0x3c31f858	0.010862432
222	0xbc7f11a0	-0.015568167
223	0x3dcebb17	0.10094278
224	0x3dd0d8f1	0.10197628
225	0x3d701e0b	0.0586224
226	0x3c2be818	0.010492347
227	0x3c75aeb8	0.0149952695
228	0x3cd0f158	0.025505707
229	0x3dd0a016	0.10186784
230	0x3d361366	0.044452094
231	0x3b67a625	0.0035346833
232	0xbd44f486	-0.04808476
233	0x3d4406bf	0.047857996
234	0x3dc63363	0.0967777
235	0x3db91417	0.09037035
236	0x3d07d0fb	0.033158284
237	0xbd43e46c	-0.047825262
238	0xbb6833ef	-0.0035431345
239	0xbc0eb577	-0.008710257
240	0xbd4960c8	-0.049164563
241	0xbd4e8de8	-0.0504283
242	0x3da7b797	0.08189314
243	0xbcc9f88a	-0.024654645
244	0x3d4b88af	0.0496909
245	0x3d39d730	0.045371234
246	0x3e025aaa	0.12729898
247	0x3dc76c0c	0.09737405
248	0x3cf608fb	0.03003358
249	0xbd68134a	-0.05665902
250	0x3d4c9711	0.049948756
251	0xbd0a8705	-0.03382017
252	0x3d40cecf	0.047072228
253	0x3c6d79e8	0.014494397
254	0x3d1cf6fa	0.038321473
255	0x3d785e51	0.060636822
