models/cnn_lstm_model.pth (torch, 992486 bytes, 15 tensors)

cnn.0.weight f4 [32, 7, 3]
0	0x3d14185c	0.036156043
1	0x3e62ea01	0.22159578
2	0x3e046e4d	0.12932701
3	0x3dcf88de	0.10133527
4	0xbdd96f43	-0.106169246
5	0x3d89ac0a	0.06722267
6	0x3c7ef5bd	0.015561518
7	0x3dcdc146	0.100466296
8	0x3dfc251c	0.123117656
9	0x3e489a66	0.19590148
10	0xbd905abb	-0.070485555
11	0xbcf8b544	-0.030359872
12	0x3e1336c5	0.14376362
13	0xbe00812f	-0.1254928
14	0x3e48d097	0.1961082
15	0xbcf69998	-0.030102536
16	0xbdf275f4	-0.11838904
17	0xbe15497d	-0.14578815
18	0xbe1f10b9	-0.15533723
19	0x3deb7621	0.11497141
20	0x3e2379d6	0.15964445
21	0xbc3745a1	-0.011186034
22	0xbcb48ab8	-0.022038803
23	0x3de4c880	0.11171055
24	0x3ad84f8e	0.0016503201
25	0x3e43c5d1	0.1911843
26	0xbdefd915	-0.11711327
27	0xbd990839	-0.074722715
28	0xbd355045	-0.044266004
29	0x3d15f5bb	0.0366113
30	0x3ce97e48	0.028502598
31	0x3e1c7be2	0.15281633
32	0xbc5b983e	-0.013402997
33	0xbd68cc12	-0.05683524
34	0xbd16cffa	-0.036819436
35	0xbce76334	-0.028245546
36	0xbe55b796	-0.20870814
37	0xbe12d0de	-0.14337489
38	0x3d1425cf	0.03616887
39	0x3befd6c7	0.0073193046
40	0x3bdffc0e	0.006835467
41	0x3dc5c1f6	0.09656136
42	0x3e3cde9b	0.18444292
43	0xbdba2b69	-0.09090311
44	0xbe03b465	-0.12861784
45	0x3df16322	0.11786486
46	0x3e097718	0.13424337
47	0xbd1ce0d5	-0.038300354
48	0xbe6bd7fb	-0.23031609
49	0xbe4ead06	-0.2018319
50	0xbe40669b	-0.18789141
51	0xbdfe4fa7	-0.12417536
52	0xbe239421	-0.15974475
53	0xbdb31b38	-0.08745426
54	0xbd1e310d	-0.038620997
55	0xbe03e4af	-0.12880205
56	0xbe086a10	-0.1332171
57	0xbd0ed77c	-0.03487347
58	0xbe504c49	-0.203416
59	0x3da6313f	0.08114862
60	0x3c2e3aa1	0.010634095
61	0xbe236228	-0.15955412
62	0x3e1a1984	0.15048796
63	0xbe07c938	-0.13260353
64	0xbd9f611f	-0.07782196
65	0x3e331040	0.17486668
66	0xbda68efc	-0.08132741
67	0x3e127e24	0.14305931
68	0x3e43d971	0.19125916
69	0x3d0f5b86	0.034999393
70	0x3dc15549	0.09440095
71	0xbe14fdb1	-0.145499
72	0xbdce6a21	-0.10078836
73	0x3c303e04	0.010756973
74	0x3d7b27d6	0.061317287
75	0xbde8432f	-0.11340939
76	0xbd84b380	-0.064795494
77	0xbc7ae3ad	-0.015313071
78	0x3df3b62b	0.1189998
79	0x3e56cd40	0.20976734
80	0x3d5ae4d8	0.0534409
81	0x3bf34f9b	0.007425261
82	0x3dbabf20	0.091184855
83	0x3cbbbbff	0.022916792
84	0xbde12df9	-0.10995097
85	0x3e15b32d	0.14619131
86	0x3d82d51a	0.06388302
87	0x3da2c468	0.07947618
88	0xbd23a823	-0.03995527
89	0xbce5a06c	-0.028030597
90	0xbdd5038d	-0.10401068
91	0x3c97839d	0.018495375
92	0xbdc21811	-0.094772466
93	0xbd9a0891	-0.07521165
94	0xbe111990	-0.14169908
95	0xbe48290e	-0.19546911
96	0x3e5ae1c4	0.21375185
97	0x3d2680bf	0.040650126
98	0x3dd43c4d	0.10363064
99	0xbcf08cdb	-0.02936404
100	0xbe1760e8	-0.1478306
101	0x3d5ecf15	0.054396708
102	0x3d11808f	0.035522994
103	0xbc21c9c0	-0.009874761
104	0xbccd69cb	-0.02507486
105	0x3e22836b	0.15870444
106	0x3dc46965	0.09590415
107	0x3e35fe04	0.1777268
108	0xbd0fcd83	-0.0351081
109	0xbe331692	-0.17489079
110	0xbe234eb0	-0.15947986
111	0x3dfcb5ce	0.12339364
112	0xbdf332af	-0.118749015
113	0xbd955678	-0.07291883
114	0xbe37e9cd	-0.17960282
115	0x3d23f45f	0.040027972
116	0x3de600ed	0.11230645
117	0x3e33b96e	0.17551205
118	0xbdb0c825	-0.086319245
119	0xbe6c7a14	-0.23093444
120	0x3e269b1e	0.1627011
121	0xbdda0888	-0.106461585
122	0x3d9efd49	0.07763154
123	0x3e52dc86	0.20591936
124	0xbdcc9b5d	-0.09990571
125	0xbd470cb3	-0.048596095
126	0x3cbe3e05	0.023222933
127	0x3d7fb16b	0.06242506
128	0x3d27e838	0.040992945
129	0xbe4455c9	-0.1917335
130	0x3dfb8b34	0.1228241
131	0xbd449f8a	-0.04800371
132	0x3e508477	0.20363031
133	0x3b963976	0.0045844866
134	0xbe0e5c2c	-0.13902348
135	0x3db602e0	0.08887267
136	0x3da354b3	0.079751395
137	0x3d18aa38	0.03727171
138	0x3e20f243	0.15717416
139	0x3e1cb770	0.15304351
140	0xbe2f29f1	-0.17105843
141	0xbbb4af02	-0.0055140266
142	0xbca6dde7	-0.020369483
143	0x3e675e82	0.22594646
144	0x3a0d8404	0.0005398395
145	0xbe425e8d	-0.18981381
146	0xbe5f26a0	-0.21792078
147	0xbe324362	-0.17408517
148	0xbde236f1	-0.110456355
149	0x3c4c688e	0.0124761
150	0xbdd4f134	-0.10397568
151	0xbd8b0fb8	-0.067901075
152	0x3e571742	0.21004966
153	0x3e32c26b	0.17456977
154	0x3e0eac8c	0.13933009
155	0xbcd6a384	-0.026201017
156	0x3e0ae72d	0.13564749
157	0xbd560cf0	-0.052258432
158	0x3de2e4ef	0.11078822
159	0x3e409843	0.18808083
160	0x3e0ec901	0.13943864
161	0x3d5e6c33	0.054302406
162	0xbdf4e2d7	-0.11957329
163	0x3ccbc74d	0.024875307
164	0x3e425487	0.18977557
165	0xbb0d1b85	-0.0021531295
166	0xbd3b1b8c	-0.045680568
167	0xbdc90871	-0.09816063
168	0xbe3233cb	-0.1740257
169	0x3e1529e6	0.14566764
170	0x3d9f4fe6	0.07778911
171	0x3e212c2e	0.1573951
172	0xbd8d2758	-0.0689227
173	0x3e11766b	0.14205329
174	0x3e1f37b7	0.15548597
175	0x3c9f6175	0.01945565
176	0x3ce23565	0.027613351
177	0x3db9233d	0.09039924
178	0xbd8d4fad	-0.068999626
179	0xbe13b467	-0.14424287
180	0x3e1530e3	0.1456943
181	0x3e0a5aad	0.13511153
182	0x3e2d4d8f	0.16924118
183	0xbe3ea1fd	-0.18616481
184	0x3d75ee1c	0.060041532
185	0x3e206f58	0.15667474
186	0x3e3a09fb	0.1816787
187	0x3d65c450	0.05609542
188	0xbdd8648a	-0.10566051
189	0x3e3e5120	0.18585634
190	0x3e291a84	0.16514021
191	0x3dd050d8	0.1017167
192	0xbccca477	-0.024980767
193	0x3cfa0791	0.030521186
194	0x3d8b521a	0.06802769
195	0x3b65482b	0.0034985642
196	0x3dafa12a	0.085756615
197	0xbe116f29	-0.1420256
198	0x3e3f387b	0.1867389
199	0x3e46c620	0.19411516
200	0xbdbdd142	-0.092684284
201	0x3a40b3d4	0.0007351015
202	0xbe44ceda	-0.19219533
203	0xbd72ad3d	-0.059247244
204	0x3dec85ab	0.11548933
205	0x3d288cb7	0.04114982
206	0xbd3acb59	-0.045604084
207	0x3e2bb09b	0.16766588
208	0xbb3ddcdb	-0.0028970751
209	0x3dedb2c6	0.11606364
210	0x3d990641	0.07471896
211	0x3e67a640	0.22622013
212	0x3d69ed50	0.057111084
213	0x3e1f8d58	0.15581262
214	0xbe449e59	-0.1920103
215	0x3e5003c1	0.20313932
216	0xbe243d69	-0.16039051
217	0x3e087c9c	0.13328785
218	0xbcff2c45	-0.031149039
219	0xbd0629e1	-0.032754783
220	0x3dceef20	0.10104203
221	0x3e3c4a50	0.18387723
222	0xbe314575	-0.17311652
223	0x3dfd704f	0.12374937
224	0xbe10de6c	-0.14147347
225	0xbde422ff	-0.111394875
226	0xbd97131a	-0.0737669
227	0x3e16a028	0.14709532
228	0xbe18291c	-0.14859432
229	0xbdcbb35c	-0.099463195
230	0xbde0a603	-0.10969164
231	0x3d958b63	0.073019765
232	0x3d5aab96	0.053386293
233	0xbe3e912e	-0.18610069
234	0x3e4702e4	0.19434696
235	0xbd33b41f	-0.04387295
236	0x3bb9ea79	0.0056737033
237	0xbcdf801f	-0.027282773
238	0x3e054c0c	0.13017291
239	0xbd7e1949	-0.062035833
240	0xbe834c2e	-0.25644058
241	0xbe0aa748	-0.13540375
242	0xbd4893d7	-0.048969116
243	0x3e26ab12	0.16276196
244	0xbe2dd053	-0.16974
245	0xbbdd3a9c	-0.0067513715
246	0xbd9b1460	-0.075722456
247	0xbe4ee2b6	-0.20203671
248	0xbe381985	-0.17978485
249	0xbe2b72cf	-0.16743015
250	0x3da38255	0.07983843
251	0x3e0e13b2	0.138747
252	0x3c636c45	0.013880794
253	0xbd7db2b2	-0.061937995
254	0x3ddce5ec	0.107860416
255	0xbe4addc4	-0.1981116

cnn.0.bias f4 [32]
0	0x3e01f4e4	0.12691075
1	0x3dee5458	0.11637181
2	0x3befb5a7	0.007315356
3	0x3ca7b6fe	0.020473
4	0x3d80242d	0.062569
5	0xbd252875	-0.040321786
6	0xbd6f4901	-0.05841923
7	0x3e13c4cc	0.14430541
8	0x3db679e2	0.08909966
9	0x3e18d32a	0.14924303
10	0x3e0d2ecb	0.13787381
11	0x3e558694	0.20852119
12	0x3d844595	0.06458584
13	0x3e126514	0.1429637
14	0xbd099627	-0.033590462
15	0x3e3605a6	0.17775592
16	0x3e4ff0b9	0.20306672
17	0x3ce1ac50	0.027547985
18	0x3e232e6d	0.15935679
19	0x3e417ef4	0.18896085
20	0x3e280fa3	0.16412215
21	0x3e2e016d	0.16992731
22	0x3c4a40a3	0.012344512
23	0xbd3e11f7	-0.04640385
24	0xbe56b137	-0.2096604
25	0xbe0b74bb	-0.13618748
26	0x3e1c7ec5	0.15282734
27	0xbb5d758a	-0.0033791983
28	0xbd3de1ce	-0.046357922
29	0xbc2b7ccb	-0.010466765
30	0x3e6ca9a8	0.23111594
31	0x3d1e9af7	0.038722005

cnn.3.weight f4 [64, 32, 3]
0	0xbd70214a	-0.058625497
1	0xbc9486af	-0.018130628
2	0x3ca5ff11	0.020263227
3	0xbc50b275	-0.01273786
4	0x3d42b136	0.047532283
5	0xb99e1a75	-0.0003015582
6	0x3d5fb2a1	0.054613713
7	0x3d269dca	0.040677823
8	0xbd584a15	-0.052805025
9	0x3d8f7b5e	0.07005952
10	0x3d928dc0	0.07155943
11	0x3d99bd76	0.0750684
12	0x3d8fd746	0.07023482
13	0x3d724d02	0.05915547
14	0x3d8374de	0.06418775
15	0x3dbcacae	0.092126235
16	0x3b9e9233	0.0048392056
17	0x3d815444	0.063149005
18	0xbd231b4f	-0.039820965
19	0x3d4fa50c	0.05069451
20	0xbd709836	-0.05873891
21	0x3b8559a4	0.004069524
22	0x3d20a143	0.03921629
23	0x3d0170fe	0.0316019
24	0x3d415957	0.04720434
25	0x3d3be6f3	0.045874547
26	0xbc8f7a5b	-0.017514398
27	0x3d8fe0eb	0.070253216
28	0x3d76625d	0.0601524
29	0xbc4b1ab7	-0.012396506
30	0x3de10eb7	0.10989135
31	0xbd80bfb8	-0.062865674
32	0xbd83cbbc	-0.064353436
33	0x3d9f6ab1	0.07784022
34	0x3d0add9f	0.03390276
35	0xbdc59e79	-0.09649367
36	0x3dbffa4e	0.09373914
37	0xbd99e5d7	-0.075145416
38	0xbd63b806	-0.05559542
39	0x3d8719fb	0.06596752
40	0x3b0c80b9	0.002143903
41	0x3debece2	0.11519791
42	0x3da2c8a4	0.079484254
43	0xbd62b765	-0.05535068
44	0xbc6b47a1	-0.014360339
45	0x3d50dde5	0.050992865
46	0x3cc847f9	0.024448382
47	0xbd0b40bf	-0.033997294
48	0x3da68460	0.08130717
49	0xbda025ee	-0.078197345
50	0x3bf70a86	0.0075390963
51	0x3da8b38c	0.08237371
52	0x3db556b0	0.08854425
53	0x3dc24931	0.094866164
54	0xbdb12c73	-0.08651056
55	0xbd790146	-0.06079223
56	0xbce94865	-0.028476903
57	0x3d1765f3	0.03696246
58	0x3d871b47	0.065969996
59	0x3d40e461	0.0470928
60	0xbc246526	-0.010033881
61	0xbbe4308b	-0.0069637946
62	0xbd44f17e	-0.048081867
63	0xbbab7092	-0.0052319253
64	0x3d172fd3	0.036910843
65	0xbd8b1e8a	-0.06792934
66	0xbdba9789	-0.09110934
67	0x3ca68da8	0.020331219
68	0x3d80656c	0.06269345
69	0x3d39d6ec	0.04537098
70	0x3da50ed5	0.080594696
71	0x3ce0eb03	0.027455812
72	0xbc4c86d7	-0.01248332
73	0xbd4bdc7d	-0.04977082
74	0x3d65f358	0.056140274
75	0x3cced4b1	0.025247904
76	0xbd8d4ac4	-0.06899026
77	0x3df936f7	0.12168687
78	0x3daab3e1	0.083350904
79	0xbd88b536	-0.06675188
80	0xbcb3d75c	-0.021953277
81	0x3dd0e92a	0.102007225
82	0x3da3cd3f	0.07998132
83	0xbd1aa24f	-0.037752446
84	0x3c051312	0.0081222225
85	0x3d34a60f	0.04410368
86	0xbddf1ae0	-0.10893798
87	0x3be6f20e	0.007047898
88	0xbd9fde51	-0.07806075
89	0x3d8b9fe1	0.06817604
90	0xbdd6bffd	-0.104858376
91	0xbd74c812	-0.059761114
92	0xbc8d7750	-0.017268807
93	0xbca1b1f3	-0.019738173
94	0xbd36d64d	-0.044637967
95	0xbd864bc4	-0.0655742
96	0xbd95414b	-0.07287844
97	0xbc372c84	-0.011180047
98	0xbd2e0203	-0.042482387
99	0x3df381f9	0.11890025
100	0xbc84aaf8	-0.016194806
101	0x3d53953c	0.051655993
102	0xbd864b87	-0.065573744
103	0xbd6de5ea	-0.05808059
104	0x3dbbfae3	0.09178712
105	0xbc2834de	-0.010266511
106	0x3cb0e21f	0.021592198
107	0x3d298745	0.04138877
108	0xbd59fda5	-0.05322041
109	0x3dc8cb58	0.0980441
110	0x3d0ae5e7	0.03391066
111	0x3b4c2870	0.0031152032
112	0xbc3a4dcd	-0.011371088
113	0x3d5f7409	0.05455402
114	0xbd42b47d	-0.04753541
115	0xbd77c488	-0.06049016
116	0xbd33b972	-0.043878026
117	0xbd38da87	-0.04513028
118	0xbda2cf51	-0.07949699
119	0xbd996b1b	-0.07491132
120	0xbdb9e5b6	-0.09077017
121	0xbda38f58	-0.07986325
122	0x3c0ffaa3	0.008787784
123	0xbdbe4e1a	-0.092922404
124	0xbd054f7c	-0.032546505
125	0x3c3da6e5	0.011575435
126	0xbcf78842	-0.03021634
127	0x3cfba297	0.030717177
128	0xbd66f762	-0.056388266
129	0x3d9b8b9d	0.075949885
130	0x3c091d3c	0.008368786
131	0x3d9f56df	0.07780241
132	0x3d8827b6	0.06648199
133	0x3d9bd7f2	0.07609548
134	0x3da3d666	0.07999878
135	0xbd6fee4a	-0.05857686
136	0xbd93e69c	-0.072217196
137	0xbcbf74f8	-0.023371205
138	0xbda686c9	-0.08131177
139	0xbd3ecd22	-0.04658235
140	0x3d42a364	0.047519103
141	0xbddea026	-0.1087039
142	0xbcf9bd86	-0.03048588
143	0xbd4bcf09	-0.04975799
144	0x3d12b0f0	0.035813272
145	0xbda3f724	-0.08006123
146	0xbd257213	-0.040391993
147	0x3df6c794	0.12049785
148	0x3d6e706d	0.058212686
149	0xbb130397	-0.002243256
150	0x3ddd68a6	0.10810976
151	0xbdc9f75d	-0.09861634
152	0x3d44b60f	0.048025187
153	0x3dbc57ff	0.091964714
154	0x3d502d1a	0.050824262
155	0xbba7df2f	-0.005123041
156	0xbd56348d	-0.05229621
157	0x3cb75a79	0.022382008
158	0x3d9c1579	0.07621283
159	0xbc504bb5	-0.012713362
160	0xbc3dab4c	-0.011576485
161	0x3bfc87fd	0.0077066408
162	0xbd50b7b8	-0.050956458
163	0x3d51d52d	0.05122869
164	0x3c51e4e8	0.012810923
165	0x3c34df40	0.011039555
166	0xbd9073f0	-0.07053363
167	0x3d90765a	0.07053824
168	0xbb0204a8	-0.00198392
169	0xbc3775d5	-0.011197527
170	0x3d071fe0	0.032989383
171	0xbae69ab9	-0.0017593718
172	0x3c40c2f2	0.011765229
173	0xbdb5a2f6	-0.08868973
174	0x3c60ad72	0.013713228
175	0x3d8720fe	0.0659809
176	0xbd2c5af5	-0.04207893
177	0x3d27747d	0.040882576
178	0x3d80e0d6	0.06292884
179	0x3d18a505	0.03726675
180	0x3dbeef6c	0.0932301
181	0xbd36aa80	-0.044596195
182	0x3dd493a2	0.10379721
183	0xbd35dd1c	-0.04440032
184	0x3c2cc506	0.010545021
185	0x3bc0fc5f	0.00588946
186	0x3db98f8f	0.09060585
187	0xbd2c26db	-0.042029243
188	0x3d4df8dd	0.050286163
189	0xbd61634c	-0.055026338
190	0x3b8b9ebd	0.0042608664
191	0x3d5b06df	0.05347335
192	0x3d2c33f2	0.042041726
193	0x3d017fe8	0.03161612
194	0xbdd2d9d8	-0.10295457
195	0x3d066b92	0.03281743
196	0xbd1805a7	-0.037114765
197	0xbd4261db	-0.047456603
198	0xbc126fbc	-0.008937772
199	0x3cbfd9c9	0.023419278
200	0x3d157007	0.03648379
201	0x3cfc078e	0.030765321
202	0xbc0e9cdb	-0.008704389
203	0x3d76ffe1	0.06030262
204	0xbd254217	-0.04034623
205	0xbc66563d	-0.014058647
206	0x3da8eb7b	0.08248039
207	0x3c2affd0	0.010436967
208	0xbd905aeb	-0.07048591
209	0x3a3dcb2f	0.00072400545
210	0xbd77f0c1	-0.060532335
211	0x3d571b97	0.052516546
212	0x3db50ac8	0.08839947
213	0xbd7f8a2f	-0.06238764
214	0x3db91777	0.09037679
215	0xbd92a994	-0.07161251
216	0xbcdde8ba	-0.027088512
217	0xbd2e02e8	-0.04248324
218	0x3d6939a4	0.056939736
219	0xbc4fbb95	-0.012679
220	0x3a6169ec	0.00085988524
221	0xbdba5061	-0.09097362
222	0xba888d9d	-0.0010418181
223	0xbdf2412b	-0.11828836
224	0x3db534a0	0.08847928
225	0x3d9d865e	0.07691644
226	0xbd8b34d6	-0.06797187
227	0xbc2c58f5	-0.010519256
228	0x3de08ea3	0.10964706
229	0x3d5e4068	0.05426064
230	0xbc7531f2	-0.014965521
231	0x3cc2af4e	0.023765232
232	0x3c049510	0.00809218
233	0xbd489c7c	-0.04897736
234	0x3d2494a9	0.040180836
235	0xbd282909	-0.04105476
236	0x3d2a5c94	0.041592196
237	0x3c9934b8	0.018701896
238	0x3ca63d65	0.020292947
239	0xbdfafffb	-0.12255856
240	0xbe065622	-0.13118795
241	0xbda43d1d	-0.08019469
242	0xbde95901	-0.11393929
243	0x3be864c9	0.0070920927
244	0xbdb22e5b	-0.08700248
245	0x3da60fda	0.08108492
246	0xbd9f6860	-0.0778358
247	0xbd930023	-0.071777605
248	0xbde9f9b5	-0.11424581
249	0xbc436520	-0.011925966
250	0x3dd6ce50	0.1048857
251	0x3dbdfd09	0.09276778
252	0xbba836c4	-0.0051334817
253	0x3c1b35cf	0.009473278
254	0x3cb34971	0.021885606
255	0x3d805e6b	0.06268009

cnn.3.bias f4 [64]
0	0x3d844533	0.06458511
1	0x3d9facca	0.07796629
2	0x3d163dc1	0.036679987
3	0x3d8ab261	0.06772304
4	0x3d859c05	0.06523899
5	0x3d1a62fe	0.037692063
6	0x3cfb322c	0.030663572
7	0x3d0a8e65	0.033827204
8	0x3d8b59c9	0.068042345
9	0xbd23b616	-0.039968573
10	0x3dc38884	0.09547523
11	0x3c974485	0.01846529
12	0xbceefae9	-0.029172378
13	0xbcba90da	-0.022774149
14	0xbd33057c	-0.043706402
15	0x3cbdae10	0.023154289
16	0xbd162d3a	-0.036664225
17	0xbd83b7e3	-0.06431558
18	0xbcd10c8b	-0.025518676
19	0xbd212aba	-0.039347388
20	0x3d2d4dd0	0.042310536
21	0xbc5c4848	-0.013444968
22	0x3d4cb68c	0.049978778
23	0x3dd0097f	0.10158061
24	0x3d40a340	0.047030687
25	0x3da55cf8	0.08074373
26	0xbd59d04e	-0.05317717
27	0x3d810f65	0.063017644
28	0x3d0640cb	0.032776635
29	0x3c70b56f	0.014691695
30	0xbd9a3f02	-0.07531549
31	0xbd8882c7	-0.06665569
32	0xbb5c38ef	-0.003360327
33	0x3d60f2e0	0.054919124
34	0xbad6d113	-0.0016389213
35	0xb98e3408	-0.00027123117
36	0x3c4329c8	0.011911817
37	0xbd46ea03	-0.048563015
38	0xbd6aee50	-0.05735618
39	0xbd74116b	-0.059586924
40	0xbd818ffa	-0.063262895
41	0x3dc6c010	0.09704602
42	0xbdb6c2d6	-0.08923881
43	0x3dae0647	0.08497291
44	0x3c0c06ee	0.008546574
45	0x3dbf0ead	0.09328971
46	0x3b164abe	0.0022932733
47	0xbd5ab965	-0.053399462
48	0x3cdb2f7e	0.026756044
49	0x3dc18a48	0.09450203
50	0xbbd7b743	-0.006583126
51	0xbcc0ff3b	-0.023559203
52	0xbd33f67c	-0.043936238
53	0x3c29f55a	0.010373438
54	0xbcf188b4	-0.02948413
55	0xbd1afd1a	-0.037839033
56	0xbc63d448	-0.013905592
57	0xbd11ae41	-0.035566572
58	0xbc9dc5d7	-0.019259376
59	0x3d21e22b	0.03952233
60	0x3d04dbee	0.032436304
61	0x3d568946	0.052377008
62	0xbda0336e	-0.078223094
63	0xbd38921b	-0.045061212

lstm.weight_ih_l0 f4 [512, 64]
0	0x3c5f9ee3	0.013648721
1	0x3d69d463	0.057087313
2	0x3d8490c2	0.06472923
3	0x3daa8e8c	0.0832797
4	0xbd27209f	-0.040802594
5	0x3d9d16b1	0.07670344
6	0xbd942b88	-0.072348654
7	0xbd8db8a2	-0.069199815
8	0xbd8d6705	-0.06904415
9	0x3d27f49d	0.041004766
10	0x3dce0eee	0.10061441
11	0x3d0e96ea	0.03481189
12	0xbd2d7d3e	-0.04235577
13	0x3da87355	0.08225123
14	0x3d2ff12e	0.042954616
15	0x3d690ae3	0.056895148
16	0x3c5580db	0.01303121
17	0x3c848f8c	0.01618173
18	0x3df332c1	0.11874915
19	0x3cb3d4a7	0.021951986
20	0x3d1f1f36	0.038848124
21	0xbd83b725	-0.064314164
22	0x3d3da376	0.046298467
23	0xbd70f54b	-0.05882768
24	0xbbfa286d	-0.0076342137
25	0x3da83be2	0.08214547
26	0x3d8c2a59	0.06844015
27	0x3bd1cd93	0.00640268
28	0xbc638286	-0.0138861
29	0x3d1bf8bc	0.03807901
30	0xbd366aeb	-0.04453556
31	0x3d7bc419	0.06146631
32	0x3cbd3676	0.023097258
33	0xbcfda54e	-0.030962612
34	0xbc85bb99	-0.016324805
35	0xbd142f4a	-0.03617791
36	0xbdcb82b6	-0.099370405
37	0xbca2360a	-0.019801158
38	0x3d325820	0.043541074
39	0x3d55e817	0.05222329
40	0x3d5344d2	0.051579304
41	0x3da7436d	0.08167157
42	0xbd219868	-0.039451987
43	0xbc8bcfcc	-0.017066859
44	0x3d21d3f0	0.03950876
45	0x3c05f967	0.008177138
46	0xbb41aa25	-0.0029550877
47	0x3d840ded	0.06447969
48	0xbcd032c6	-0.025414836
49	0x3db1a228	0.08673507
50	0x3cae3d95	0.021269599
51	0x3c6cb705	0.014447932
52	0xbd27ff29	-0.041014824
53	0x3dcab1ba	0.0989718
54	0x3db5b4bd	0.08872364
55	0x3cbd3565	0.02309675
56	0xbd9e01b9	-0.07715172
57	0xbc0c9ab7	-0.008581809
58	0x3d287e0c	0.041135833
59	0x3da88627	0.082287125
60	0x3da0cd7b	0.07851692
61	0x3d4f9576	0.050679646
62	0x3da1be0d	0.078975774
63	0x3cf26502	0.02958918
64	0x3ded1553	0.11576333
65	0x3da4474b	0.080214106
66	0xbd425710	-0.04744631
67	0x3dd5422e	0.104130134
68	0x3dc71332	0.09720458
69	0x3da299aa	0.07939465
70	0xbcb59589	-0.02216603
71	0xbda56575	-0.08075992
72	0x3de23dbc	0.11046931
73	0xbd03b8bb	-0.032158595
74	0x3cb902ea	0.022584397
75	0x3d8669ee	0.06563173
76	0x3d69bede	0.05706679
77	0x3d9b379e	0.075789675
78	0x3dab88be	0.08375691
79	0xbd530798	-0.051520914
80	0x3c3e5eaa	0.011619249
81	0xbd933a35	-0.071888365
82	0x3c607b5e	0.013701288
83	0x3da90b9f	0.0825417
84	0x3c326a31	0.010889576
85	0x3df1e6f8	0.11811632
86	0x3d0c2ea0	0.034224153
87	0x3d74de1b	0.05978213
88	0xbd6b2e2a	-0.057417072
89	0x3d991c9c	0.0747616
90	0x3ddc3adb	0.10753413
91	0xbcb12ac1	-0.021626832
92	0xbd71fa71	-0.05907673
93	0xbcd6d454	-0.026224293
94	0x3dee9a01	0.11650468
95	0x3da6e192	0.08148493
96	0xbc2d7a82	-0.01058829
97	0x3cd6776b	0.02617999
98	0x3c131de8	0.008979298
99	0x3d1ef0aa	0.038803734
100	0x3bf26456	0.007397215
101	0x3dc1813e	0.09448479
102	0xbcb5dcb9	-0.022199975
103	0xbccd7ca3	-0.025083845
104	0x3dd399cf	0.10332071
105	0xb974460c	-0.00023295748
106	0x3dd686c5	0.10474924
107	0xbc52dfd5	-0.0128707485
108	0x3d8835c3	0.06650879
109	0x3d32cd70	0.04365295
110	0xbc9f8f67	-0.01947756
111	0xbd01b7d5	-0.031669457
112	0x3ddd83d1	0.108161576
113	0xb92cfb27	-0.0001649676
114	0xbcc673a9	-0.024225073
115	0x3d62b253	0.055345844
116	0x3d309a05	0.043115634
117	0x3d978df1	0.0740012
118	0xbd90042b	-0.07032045
119	0xbd20168b	-0.039084
120	0x3d9c60eb	0.07635673
121	0x3d486890	0.048927844
122	0xb9ee3899	-0.00045437066
123	0xbd2db58e	-0.042409472
124	0x3d08bd5a	0.033383705
125	0x3c12f083	0.008968475
126	0x3d80ffea	0.06298812
127	0x3b5e7af9	0.003394781
128	0xbc79b543	-0.01524097
129	0xbd33913d	-0.043839682
130	0x3dad46f9	0.084608026
131	0x3d701ed1	0.05862314
132	0x3d2d6b05	0.04233839
133	0x3dc3b956	0.095568344
134	0xbdab6d4b	-0.08370455
135	0x3db53df6	0.08849709
136	0x3c2c1403	0.010502818
137	0x3b1514ca	0.0022747987
138	0xbd19de58	-0.03756556
139	0xbc068eaa	-0.008212725
140	0x3cc494b4	0.023996688
141	0x3c1308d5	0.008974274
142	0xbc46077f	-0.012086748
143	0x3d28423c	0.04107879
144	0xbd8437a4	-0.06455925
145	0x3dae8d09	0.08522994
146	0x3d1ddfc3	0.038543474
147	0x3cac2fac	0.021018825
148	0xbca16c51	-0.01970497
149	0xbc026e48	-0.007960863
150	0xbcd846e9	-0.026401
151	0xbd5de257	-0.054170933
152	0x3cdf9202	0.027291302
153	0xbd70a326	-0.05874934
154	0x3dd28810	0.10279858
155	0xbcab1476	-0.02088378
156	0xbdaad071	-0.08340538
157	0xbc95b7ce	-0.018276121
158	0x3db95ec8	0.09051281
159	0x3cf5d512	0.030008826
160	0xbcaad41f	-0.0208531
161	0xbba0662c	-0.0048949923
162	0x3d7cbd37	0.061703887
163	0xbcec7525	-0.028864453
164	0x3e098fd3	0.13433771
165	0x3cffc39e	0.031221207
166	0x3db6c2e4	0.08923891
167	0x3ba856cf	0.0051373015
168	0xbd99ec58	-0.07515782
169	0x3c897eec	0.016784154
170	0xbd4e2f17	-0.050337877
171	0xbc99dfc3	-0.018783456
172	0x3ca3f8af	0.020016043
173	0x3c6e42ef	0.014542325
174	0xbb62dd35	-0.0034616713
175	0x3c0161d6	0.007896861
176	0xbd018bbe	-0.03162741
177	0x3d964508	0.073373854
178	0xbda6c997	-0.08143919
179	0xbc52a985	-0.012857799
180	0x3d2f265a	0.042761184
181	0xbca7d0c2	-0.020485286
182	0x3dd653eb	0.10465225
183	0x3d828dc0	0.06374693
184	0xbcb007b0	-0.02148804
185	0xbb5be4c7	-0.003355311
186	0x3dbc1480	0.091835976
187	0x3d4dca17	0.050241556
188	0x3d69303c	0.056930766
189	0x3d3084be	0.043095343
190	0xbd315bf0	-0.04330057
191	0x3c6643fb	0.014054294
192	0x3d9fe13b	0.07806631
193	0x3d7d3f2e	0.06182783
194	0xbba08d67	-0.004899669
195	0x3d3abb61	0.045588855
196	0x3d04d5d3	0.03243048
197	0x3ddc4a96	0.10756414
198	0xbd89fd76	-0.06737797
199	0x3d94bceb	0.07262596
200	0x3d1be2d5	0.03805812
201	0xbc0c1517	-0.00854995
202	0x3aaec752	0.0013334549
203	0xbcfed0dc	-0.031105451
204	0xbd12c4bd	-0.035832155
205	0x3dbb66ce	0.09150468
206	0x3db83549	0.08994538
207	0x3d2641df	0.040590163
208	0xbc968907	-0.018375887
209	0xbc9000a8	-0.017578438
210	0xbc931758	-0.017955467
211	0xbd8eb8db	-0.06968852
212	0xbc40cdae	-0.011767788
213	0xbceab432	-0.028650377
214	0x3d7044f8	0.058659524
215	0x3db84dd3	0.08999219
216	0xbd3332eb	-0.04374973
217	0x3c79c956	0.015245756
218	0x3c3b025a	0.011414135
219	0xbbfea80d	-0.007771498
220	0x3cf4c623	0.029879635
221	0x3d975e66	0.07391052
222	0xbcc7fbfd	-0.02441215
223	0xbd2483bc	-0.040164694
224	0xbd8729b4	-0.06599751
225	0xbda727d4	-0.081618935
226	0xbd22f11b	-0.039780717
227	0xbc3a62e2	-0.011376115
228	0xbd16ad4d	-0.036786366
229	0xbd1eb4b7	-0.03874656
230	0xbd20534b	-0.039141934
231	0x3d96785e	0.07347177
232	0x3d468627	0.04846778
233	0xbd85e86c	-0.065384716
234	0xbd8d3729	-0.068952866
235	0x3dc41b8c	0.09575567
236	0x3dae4090	0.08508408
237	0x3c049e1d	0.008094338
238	0x3d2607d8	0.040534824
239	0x3c9d2033	0.019180393
240	0xbd1f6dcb	-0.038923066
241	0x3d83aa31	0.06428946
242	0x3c98105e	0.018562492
243	0x3d267c0f	0.040645655
244	0x3dd0fd9d	0.10204623
245	0x3d9fc434	0.07801095
246	0x3a90e68d	0.0011055038
247	0x3d926e11	0.071499
248	0xbd0d41c3	-0.034486543
249	0x3dc30730	0.09522855
250	0x3d8365bb	0.06415888
251	0x3cc027f4	0.023456551
252	0x3d51c058	0.051208824
253	0xbca997a7	-0.020702196
254	0xbd2af6b2	-0.041739173
255	0xbd150a9b	-0.036387067

lstm.weight_hh_l0 f4 [512, 128]
0	0xbc130d13	-0.008975285
1	0x3d840d06	0.064477965
2	0xbdd6fa3e	-0.10496949
3	0x3d8edb18	0.069753826
4	0xbb859daf	-0.0040776352
5	0xbd442048	-0.04788235
6	0x3dbb40d5	0.09143225
7	0x3d4ef801	0.050529484
8	0xbb283a2c	-0.0025669439
9	0xbdb11dd2	-0.08648266
10	0xbd95a47c	-0.073067635
11	0x3d592971	0.053018037
12	0x3c07712d	0.008266729
13	0xbd96e3df	-0.07367682
14	0x3dc1efce	0.09469567
15	0x3cbfd9c3	0.023419267
16	0x3db2d4a2	0.08731963
17	0xbd641478	-0.055683583
18	0xbd85d131	-0.06534041
19	0x3d82f8ef	0.063951366
20	0x3c9230ee	0.017845597
21	0x3d59a48e	0.053135447
22	0xbda8ff88	-0.08251864
23	0x3dd1ed33	0.1025032
24	0xbabacbf7	-0.001425146
25	0x3da5bb11	0.08092321
26	0xbd89f6ce	-0.067365274
27	0x3d58edaf	0.052961048
28	0xbcece51c	-0.028917842
29	0xbcd01fe9	-0.025405841
30	0xbd6cbb0f	-0.05779558
31	0x3d9fceb8	0.078031
32	0x3d97f56d	0.07419858
33	0x3d09e971	0.033669893
34	0xbd493ff5	-0.04913326
35	0xbd932918	-0.071855724
36	0x3da8a91f	0.08235382
37	0x3dc96d07	0.098352484
38	0xbd5e9673	-0.0543427
39	0xbc532a80	-0.012888551
40	0x3cd5e033	0.026107883
41	0x3d8e0089	0.06933696
42	0xbdb5bda8	-0.08874065
43	0xbc85695b	-0.016285589
44	0xbb629220	-0.003457196
45	0xbd0f8b0b	-0.03504471
46	0x3d6ea964	0.058267012
47	0xbd4fb3d6	-0.050708614
48	0xbda82eef	-0.08212077
49	0xbd9a81ab	-0.075442635
50	0xbd89c6a2	-0.06727339
51	0xbdb96497	-0.09052389
52	0x3c30c929	0.010790148
53	0xbd8c57b6	-0.06852667
54	0x3bd08cca	0.0063644396
55	0xbca4fac4	-0.020139106
56	0x3d417a95	0.047236044
57	0x3d4b1a4c	0.049585626
58	0x3d7356f3	0.059409093
59	0x3db62d75	0.08895389
60	0xbd22e7ab	-0.039771717
61	0xbde309f5	-0.110858835
62	0x3d962f97	0.07333296
63	0x3dc7eb38	0.09761661
64	0xbcf4ac7b	-0.029867401
65	0x3afa5068	0.0019097449
66	0xbd69391b	-0.056939226
67	0xbdc094ff	-0.09403419
68	0xbdb25592	-0.087077275
69	0xbc4e4c1d	-0.012591389
70	0x3c3ff2d9	0.011715614
71	0x38bb6ccd	8.9371206e-05
72	0x3d851528	0.06498176
73	0xbda6bd66	-0.08141594
74	0x3d30f4de	0.043202274
75	0x3d850e39	0.064968534
76	0xbc5f2d9a	-0.013621712
77	0x3c805143	0.015663749
78	0x3d7a8cca	0.061169423
79	0x3d685185	0.056718368
80	0xbcf9b7e6	-0.030483197
81	0xbcdf0d9e	-0.027228173
82	0x3cae3cbf	0.0212692
83	0xbcfffbbb	-0.031247964
84	0xbd5163fb	-0.05112074
85	0x3d92ebe6	0.071739
86	0x3d85adf3	0.06527319
87	0x3c210181	0.009827019
88	0xbb7d8617	-0.003868466
89	0xbd832c48	-0.0640493
90	0x3d86699e	0.06563114
91	0xbc1a6e10	-0.009425655
92	0x3d24caac	0.040232345
93	0x3d8f8eb1	0.07009638
94	0x3c58b57f	0.013226866
95	0x3d4b3e75	0.04962011
96	0xbd09aadb	-0.033610206
97	0xbd195bea	-0.03744117
98	0xbd9a6474	-0.07538691
99	0xbdc33fb6	-0.09533636
100	0xbcc35e95	-0.023848811
101	0x3dd3f903	0.103502296
102	0x3d64263a	0.05570052
103	0x3cb2621f	0.021775303
104	0xbca3ef0f	-0.020011453
105	0x3d78857f	0.060674187
106	0xbc9ef078	-0.019401774
107	0x3c96cbb7	0.018407686
108	0x3c694990	0.01423873
109	0x3c8c3a43	0.017117625
110	0x3d83300d	0.06405649
111	0xbcface46	-0.030615937
112	0xbd865c4a	-0.065605715
113	0x3d5dcaeb	0.054148596
114	0xbca8d394	-0.0206087
115	0xbda1d91e	-0.0790274
116	0x3b8986b9	0.0041969684
117	0xbd55422e	-0.052065067
118	0xbd23c5e9	-0.039983664
119	0xbda0c6c4	-0.078504115
120	0xbd820d4f	-0.06350195
121	0xbd063420	-0.032764554
122	0xbc10a238	-0.008827738
123	0xbc178675	-0.009248366
124	0xbd892a7d	-0.06697557
125	0x3d80411e	0.0626242
126	0xbdadaf5d	-0.084807135
127	0x3d8f11dc	0.06985828
128	0xbc1e26c1	-0.009652794
129	0x3ca514d9	0.020151542
130	0xbd99e269	-0.075138874
131	0xbb8c3a08	-0.004279379
132	0xbd04d72c	-0.032431766
133	0xbdb1e508	-0.08686262
134	0x3be24b2c	0.006905934
135	0xbdb0168d	-0.08598051
136	0x3d812964	0.06306723
137	0xbd982010	-0.074279904
138	0x3d30aeab	0.043135326
139	0x3d532ab3	0.051554393
140	0x3cc4e54c	0.024035119
141	0x3de1a7b8	0.11018318
142	0xbcdbb63e	-0.026820298
143	0xbd6801b6	-0.056642257
144	0xbd07755d	-0.03307091
145	0xbd37a791	-0.04483754
146	0xbd9c9f67	-0.07647591
147	0x3d08aa1a	0.033365346
148	0x3d901451	0.07035125
149	0x3d0af898	0.033928484
150	0x3d6f61fb	0.05844305
151	0x3b545201	0.003239751
152	0xbce93f21	-0.028472485
153	0x3d95dbd6	0.07317321
154	0xbdaea73a	-0.0852799
155	0x3d6707df	0.05640399
156	0x3d9593c3	0.07303574
157	0xbd298b8b	-0.041392844
158	0x3dca68af	0.09883248
159	0xbdb9b4df	-0.090677015
160	0xbda958db	-0.08268901
161	0x3c9e1d02	0.019300941
162	0x3d7353a5	0.05940594
163	0xbd612e72	-0.054975934
164	0xbb939682	-0.004504026
165	0xbd35aca8	-0.04435411
166	0x3dcfd431	0.10147894
167	0x3d8da970	0.06917083
168	0x3d8dd037	0.069244795
169	0x3c60602b	0.013694803
170	0x3d320132	0.04345817
171	0xbdc8dc9f	-0.09807705
172	0xbcb8bae1	-0.022550048
173	0x3c8fb4d0	0.017542273
174	0x3d853aaf	0.06505334
175	0x3d3d23dc	0.046176776
176	0x3d90ce4f	0.070706
177	0xbd4caa02	-0.04996682
178	0x3cff66d4	0.031176962
179	0x3d662d2d	0.056195427
180	0x3d8d2d70	0.06893432
181	0x3da366fd	0.07978628
182	0xbdb8caca	-0.09023054
183	0xbd062ed2	-0.032759495
184	0xbd7ba3e0	-0.06143558
185	0xbdeae44c	-0.114693254
186	0xbd369020	-0.044571042
187	0x3dddd430	0.10831487
188	0xbd81f5b6	-0.06345694
189	0x3bac626c	0.0052607562
190	0x3d116e8e	0.035505824
191	0xbd5bba68	-0.053644568
192	0xbd96c9fe	-0.07362746
193	0x3cfd4621	0.03091723
194	0x3dc9c1a2	0.09851386
195	0x3cd19bd4	0.025587
196	0xbda75765	-0.08170966
197	0xbcd70701	-0.026248457
198	0xbb245580	-0.0025075376
199	0xbb8c242e	-0.004276774
200	0xbd317e69	-0.043333445
201	0xbdb4c1aa	-0.08826001
202	0x3d58007d	0.05273484
203	0x3db0ac60	0.08626628
204	0x3d40f2a5	0.047106404
205	0x3ddfbe2c	0.10924944
206	0x3d63c632	0.055608936
207	0xbdc2d5ee	-0.0951346
208	0x3b2ccba7	0.0026366503
209	0x3cb1d65f	0.021708665
210	0x3d9acb7b	0.07558342
211	0xbcc1cfa0	-0.023658574
212	0x3daa4ced	0.08315454
213	0x3dcd7c69	0.10033495
214	0xbc642565	-0.013924931
215	0xbd9daf17	-0.07699411
216	0x3ccd0328	0.02502592
217	0x3da7befe	0.08190726
218	0xbd36764c	-0.04454641
219	0xbba3e1b0	-0.0050012693
220	0xbb86ad45	-0.004110011
221	0x3cc65463	0.02421016
222	0xbdc50f05	-0.096220054
223	0xbd8103b2	-0.06299533
224	0xbd4916c8	-0.04909399
225	0xbdb22bee	-0.08699785
226	0xbc2a8a9e	-0.0104090255
227	0xbc678667	-0.014131165
228	0x3cc78fe6	0.024360608
229	0x3d383533	0.04497261
230	0xbd9feafc	-0.078084916
231	0x3d85f74b	0.06541308
232	0x3d39e0aa	0.045380272
233	0x3daabbbc	0.08336589
234	0xbc8c79a7	-0.017147852
235	0xbd14805f	-0.036255237
236	0x3d69645f	0.056980487
237	0x3d81055f	0.062998526
238	0x3d7a0357	0.06103834
239	0x3ce0fbb1	0.027463766
240	0x3c7b9818	0.015356086
241	0xbc090269	-0.008362391
242	0x3d53b1f4	0.05168338
243	0x3c6829cc	0.014170121
244	0xbdddd294	-0.1083118
245	0x3c47ab9a	0.012186909
246	0x3de7ff10	0.11327946
247	0xbd0e797f	-0.034783836
248	0x3c45d01f	0.012073546
249	0x3cd57a61	0.026059331
250	0xbb510ef9	-0.0031899794
251	0x3d5eb54e	0.054372124
252	0x3be143d8	0.0068745427
253	0xbcdb06b1	-0.02673659
254	0x3cb2ac21	0.021810593
255	0x3d2a3939	0.041558478

lstm.bias_ih_l0 f4 [512]
0	0x3741a496	1.1542017e-05
1	0x3dccd1bd	0.10000942
2	0xbc60ccd9	-0.0137207145
3	0x3c8c7bbb	0.017148843
4	0xbd7e0edb	-0.062025886
5	0x3dc534d2	0.09629215
6	0x3daf9dcc	0.08575019
7	0x3d9c5e5d	0.07635186
8	0x3d7f5785	0.062339325
9	0x3db580b4	0.08862439
10	0x3d74da83	0.0597787
11	0xbd62e48d	-0.055393744
12	0xbcbd0410	-0.023073226
13	0xbcdd8145	-0.02703918
14	0x3b3b47c2	0.0028576707
15	0x3dbc51c6	0.091952845
16	0xbd1e87ed	-0.038703848
17	0x3d9228a8	0.07136661
18	0x3de57763	0.11204412
19	0x3d3c6628	0.04599586
20	0xbd688ec0	-0.056776762
21	0x3d70e682	0.05881358
22	0x3c8e7052	0.017387543
23	0x3d4c090a	0.049813308
24	0x3ddcf829	0.1078952
25	0x3c130074	0.008972276
26	0x3d2c1931	0.042016212
27	0xbcfffa9e	-0.031247433
28	0xbaa8f5a7	-0.0012890593
29	0x3da3287a	0.07966705
30	0x3dc36059	0.09539861
31	0x3de427a1	0.11140371
32	0xbd12f055	-0.03587373
33	0xbd5f9e1f	-0.054594155
34	0x3d0ee469	0.034885798
35	0xbd5b2ca8	-0.053509384
36	0x3d4f2176	0.05056902
37	0x3c8a145e	0.016855415
38	0x3ccedd89	0.02525212
39	0x3dd97951	0.106188424
40	0xbd57379d	-0.05254327
41	0xbd55ab3d	-0.05216526
42	0xbc2a4ce2	-0.010394307
43	0x3d882bd8	0.066489875
44	0xbc8a95c1	-0.016917111
45	0x3d70bf9f	0.058776494
46	0xbcebaf9b	-0.028770259
47	0x3d7cd0f4	0.06172271
48	0x3bb61978	0.0055572353
49	0xbcaf96e0	-0.021434247
50	0x3ca7fe3a	0.020506967
51	0xbd051e33	-0.032499503
52	0x3d3c0027	0.045898583
53	0x3d3838c4	0.04497601
54	0xbd82cfca	-0.06387289
55	0x3c702a77	0.014658562
56	0x3b51bb8d	0.0032002658
57	0x3cb2636f	0.02177593
58	0xbc156ae0	-0.009119719
59	0x3daac8dc	0.08339092
60	0x3d02009a	0.031738855
61	0xbb411619	-0.0029462634
62	0x3d3640ed	0.04449551
63	0x3c918062	0.017761413
64	0x3d438898	0.047737688
65	0x3b439833	0.0029845356
66	0x3c230753	0.009950477
67	0xbd7b187a	-0.06130264
68	0xbd88a2ec	-0.066717
69	0x3dd57c2a	0.10424073
70	0x3b9a4342	0.004707725
71	0x3d1fc43b	0.0390055
72	0x3d8bb233	0.06821098
73	0x3d4915e3	0.04909314
74	0xbc82ccb1	-0.015966745
75	0xbd5330ec	-0.051560327
76	0xbd1c8c84	-0.038219944
77	0xbc281aed	-0.010260326
78	0x3c36a8ab	0.011148612
79	0x3d959d3f	0.07305383
80	0xbd4ef95a	-0.05053077
81	0x3cd20705	0.025638113
82	0xbd20d6e1	-0.039267424
83	0x3d647005	0.055770893
84	0x3daa4019	0.08313007
85	0xbd6570fd	-0.056015957
86	0x3dd038ad	0.1016706
87	0x3ccf5360	0.025308311
88	0x3d33295a	0.043740608
89	0x3d44e5c9	0.048070703
90	0x3d074cd8	0.03303227
91	0xbc375181	-0.011188866
92	0x3d94aa40	0.07259035
93	0xbd6a41a2	-0.0571915
94	0x3dd74008	0.1051026
95	0xbcc9c731	-0.024631115
96	0x3df58155	0.11987559
97	0xbd4ea91a	-0.050454237
98	0xbd506c9b	-0.050884824
99	0x3c1b1b46	0.009466952
100	0x3c4acf4f	0.012378528
101	0xbb45d99b	-0.0030189517
102	0xbd100b5d	-0.035167087
103	0xbd02d1e5	-0.031938452
104	0x3cf50863	0.029911226
105	0x3d46f0eb	0.0485696
106	0x3dbd0141	0.09228755
107	0x3d97c851	0.07411254
108	0x3d803117	0.06259363
109	0x3cc2d716	0.023784202
110	0x3d116803	0.035499584
111	0x3cbb3d96	0.022856515
112	0xbd547428	-0.051868588
113	0xbcf95fa1	-0.030441107
114	0xbc7a47ef	-0.015275939
115	0x3d86ef8d	0.065886594
116	0x3c6d87db	0.0144977225
117	0xbd428dc2	-0.047498472
118	0x3c0e8c37	0.008700422
119	0x3c7dffd3	0.015502888
120	0x3d1292b9	0.035784457
121	0xbd080750	-0.0332101
122	0x3c9c4c6e	0.019079413
123	0x3c29b2e5	0.010357593
124	0x3dfd15f1	0.123577006
125	0x3daf07f8	0.08546442
126	0x3d914d5e	0.07094835
127	0x3d41ed85	0.047345657
128	0x3d3022b8	0.04300186
129	0x3dad7e97	0.08471411
130	0xbbe01873	-0.006838852
131	0x3c60f4ac	0.013730209
132	0x3d9b117c	0.07571694
133	0xbcc12051	-0.02357498
134	0x3d3804e3	0.044926535
135	0xbcd0095d	-0.02539509
136	0xbcd62b7f	-0.026143787
137	0xbc459338	-0.0120590255
138	0x3dc73dc2	0.09728576
139	0x3d76e188	0.060273677
140	0xbd65d533	-0.056111526
141	0x3de29541	0.11063624
142	0x3dc00977	0.09376805
143	0x3d8daa83	0.06917288
144	0x3d0b4145	0.033997793
145	0x3c52eb32	0.012873458
146	0x3b064350	0.0020486899
147	0x3b26aec1	0.0025433751
148	0x3c390d90	0.011294737
149	0xbd063747	-0.03276756
150	0x3da51d05	0.08062176
151	0x3da5d64e	0.08097516
152	0xbc350ea5	-0.011050855
153	0x3d66de00	0.05636406
154	0xbca9338c	-0.020654462
155	0x3d2a54cb	0.04158477
156	0x3d00cfea	0.031448282
157	0x3c8daa0d	0.017293
158	0xbd120cab	-0.035656612
159	0xbc66eabc	-0.014094051
160	0x3d7e23b9	0.062045787
161	0xbca24b40	-0.019811273
162	0x3daf825f	0.08569788
163	0x3d1ce3fb	0.038303357
164	0x3d04e9ce	0.032449536
165	0x3db05311	0.08609594
166	0x3ce079c2	0.027401809
167	0x3ddee7a2	0.10884024
168	0x3d48504d	0.048904706
169	0xbcb2e69c	-0.021838479
170	0x3c1044f1	0.008805499
171	0xbd33a45a	-0.04385791
172	0xbd92d25b	-0.07169028
173	0x3ae91780	0.0017783493
174	0x3db462b0	0.08807886
175	0x3cc42d83	0.023947483
176	0xbb6df049	-0.0036306551
177	0xbcb61eaa	-0.022231419
178	0xbb8aedfc	-0.0042397957
179	0xbd530012	-0.05151374
180	0xbcb0ddc1	-0.021590116
181	0x3d2a5825	0.041587967
182	0xbd7bf307	-0.061511066
183	0xbd4d3e73	-0.050108384
184	0x3dacd59e	0.08439182
185	0xbc7ff664	-0.015622709
186	0x3dbf3a74	0.09337321
187	0x3c111013	0.00885393
188	0x3e01cdb8	0.12676132
189	0xbd0a65e8	-0.03378859
190	0x3da5c62e	0.080944404
191	0xbd3d82f6	-0.046267472
192	0x3d2c60d3	0.042084526
193	0xba9a16e2	-0.0011756087
194	0x3d4acb11	0.049510065
195	0x3d3be907	0.04587653
196	0x3cf4d93e	0.029888745
197	0xbb833903	-0.004004599
198	0x3dbc359f	0.09189915
199	0xbd5de8fe	-0.054177277
200	0x3db196f7	0.086713724
201	0x3dd66e5f	0.1047027
202	0x3c3ea6ea	0.011636475
203	0x3d5ab9aa	0.05339972
204	0xbd883b39	-0.06651921
205	0x3c8cfc64	0.017210193
206	0xbb537e88	-0.0032271463
207	0x3d0a193b	0.033715468
208	0xbd74d7e4	-0.0597762
209	0x3c67f7bb	0.014158185
210	0x3d6e7e9e	0.05822622
211	0xbd5d5d4b	-0.05404405
212	0x3da01d26	0.078180596
213	0x3d3d5de6	0.046232127
214	0x3dcfd79a	0.101485446
215	0x3da4b0eb	0.08041557
216	0x3d008137	0.03137323
217	0xbd3a6bd2	-0.04551298
218	0xbcfc3fe3	-0.030792182
219	0xbb77d123	-0.0037813864
220	0x3d6b71cd	0.057481576
221	0xbc142f77	-0.00904452
222	0x3cd080dc	0.02545207
223	0x3d6fc6ee	0.058539324
224	0x3df4e307	0.119573645
225	0x3d91747b	0.07102295
226	0xbd0f59ed	-0.03499787
227	0xbc94a224	-0.01814372
228	0x3b5a7200	0.003333211
229	0x3d88fb52	0.066885605
230	0xbd0bc8ea	-0.034127153
231	0x3dbe6287	0.09296136
232	0xbc915174	-0.017739035
233	0xbcc0760c	-0.02349379
234	0xbd1c336c	-0.038134977
235	0x3c7f5a17	0.015585444
236	0x3d52ddb6	0.05148097
237	0x3d328ba9	0.04359022
238	0xbce0717d	-0.027397865
239	0x3ce44734	0.027865984
240	0x3c29ab3e	0.010355769
241	0xb64d0fb8	-3.055653e-06
242	0xbce276ad	-0.02764448
243	0x3de30e65	0.1108673
244	0x3dae1688	0.08500391
245	0x3d843398	0.06455153
246	0x3d50cddd	0.050977577
247	0xb9bd0e85	-0.00036059707
248	0x3d92a990	0.07161248
249	0x3dcb9631	0.09940756
250	0x3be1f0af	0.006895147
251	0xbd6fe812	-0.05857093
252	0x3db9a752	0.09065117
253	0x3dad4983	0.08461287
254	0x3b8ddd84	0.0043293852
255	0x3d8d39a8	0.06895763

lstm.bias_hh_l0 f4 [512]
0	0x3d65e8a4	0.056130067
1	0x3d18d17d	0.03730916
2	0xbc7dc2b6	-0.015488317
3	0x3dd265c3	0.10273316
4	0x3d362f25	0.044478554
5	0xbbaa622f	-0.0051996927
6	0xbd8f745c	-0.07004616
7	0x3c7cac8a	0.015421996
8	0x3d4b3309	0.049609218
9	0x3d0047bb	0.031318408
10	0xbd8906b1	-0.066907294
11	0xbccad549	-0.024759905
12	0xbd894658	-0.0670287
13	0xbce5a242	-0.028031472
14	0xbd054595	-0.03253706
15	0xbd42301b	-0.04740916
16	0x3cf96225	0.030442307
17	0xbcb2e6e9	-0.021838622
18	0xbc373ffe	-0.0111846905
19	0xbd602af3	-0.05472846
20	0x3da5241b	0.08063527
21	0xbd2bade2	-0.041913874
22	0x3d94722e	0.072483405
23	0x3c9bc6b6	0.019015651
24	0x3d402050	0.046905816
25	0x3d653562	0.055959113
26	0x3dbdcffc	0.092681855
27	0x3ccdaef6	0.025107842
28	0x3d27fba1	0.041011456
29	0xbd28feae	-0.041258506
30	0x3dbca9af	0.09212052
31	0xbd473db8	-0.048642844
32	0x3de8eba2	0.113730684
33	0xbd823871	-0.063584216
34	0xbba4d631	-0.0050304164
35	0x3ce38d51	0.027777346
36	0x3dd3d1bc	0.10342738
37	0x3d06ece6	0.032940768
38	0x3dd22a57	0.10261982
39	0x3dbabd48	0.09118134
40	0x3c2010b8	0.009769611
41	0x3d3836b7	0.044974055
42	0x3db93b24	0.09044483
43	0x3bc907d5	0.006134967
44	0x3d58b707	0.052908923
45	0x3d5bcc29	0.0536615
46	0x3ddb84be	0.10718678
47	0x3d321f61	0.043486957
48	0x3dce7737	0.10081332
49	0x3bacd650	0.0052745715
50	0x3ce021be	0.02735984
51	0x3bb908ae	0.0056467867
52	0xbc6ceb34	-0.014460374
53	0xbd5e28b4	-0.054238036
54	0x3db41f31	0.08795012
55	0x3d9ee4c6	0.07758479
56	0xba936d62	-0.0011247809
57	0xbc322827	-0.010873831
58	0x3cd3eecc	0.025870703
59	0x3d283c94	0.041073397
60	0x3d3d0eab	0.046156567
61	0x3c83c693	0.016085899
62	0x3d95113f	0.0727868
63	0x3d1d0d8b	0.038342994
64	0x3ccf34f6	0.025293808
65	0x3d3c26a4	0.045935288
66	0xbd1c52ff	-0.03816509
67	0xbd14ac0f	-0.0362969
68	0xbd7159b0	-0.058923423
69	0x3d2b6dff	0.041852947
70	0x3dc1773b	0.094465695
71	0x3d463022	0.048385747
72	0xbd378d51	-0.044812504
73	0xbd588a33	-0.052866172
74	0x3d853324	0.06503895
75	0xbd0db98f	-0.03460079
76	0x3ca0193f	0.019543288
77	0x3d9c6f8c	0.076384634
78	0x3acde30c	0.0015707924
79	0x3db1161a	0.08646794
80	0xbc802fb4	-0.015647747
81	0x3d2ee539	0.042699073
82	0x3dd6c18f	0.10486137
83	0x3dc49a89	0.09599788
84	0x3de1480f	0.11000072
85	0xbd27c1db	-0.04095636
86	0xbcf40a83	-0.029790169
87	0xbd7111b8	-0.05885479
88	0x3c623c32	0.013808297
89	0x3d907cc6	0.07055049
90	0x3dc3d7ea	0.09562667
91	0xbc330b9d	-0.010928062
92	0xbca2174c	-0.0197865
93	0x3d80f2df	0.06296324
94	0x3d5d21ff	0.0539875
95	0xbd1e704d	-0.038681317
96	0x3c08f034	0.00835805
97	0x3dc4bdd1	0.09606517
98	0x3d501908	0.05080512
99	0x3dc18dff	0.09450912
100	0xbd811222	-0.06302287
101	0x3ddff7e2	0.10935952
102	0x3df15754	0.11784235
103	0x3d37587e	0.044762127
104	0xbd2f08b4	-0.04273291
105	0xbd2f3a25	-0.04278006
106	0xbc3308c0	-0.010927379
107	0x3d920bf6	0.071311876
108	0x3d7a0c16	0.061046682
109	0xbd087017	-0.033310022
110	0xbca41bb2	-0.020032737
111	0xbb856efe	-0.004072069
112	0x3ce28027	0.027648998
113	0xbd198b44	-0.03748633
114	0x3d5b6f0b	0.053572696
115	0x3debb41f	0.11508965
116	0x3cd311aa	0.025765259
117	0xbce285dd	-0.027651722
118	0xbd67c5fd	-0.0565853
119	0x3c19e017	0.009391806
120	0xbc415259	-0.011799418
121	0x3da3204c	0.079651445
122	0xbd8e24f0	-0.06940639
123	0xbd81bc84	-0.063347846
124	0x3cf732b6	0.030175548
125	0xbd0f05ec	-0.034917757
126	0x3d952db8	0.07284111
127	0xba5535d5	-0.0008133327
128	0x3dae85ad	0.085215904
129	0x3da61874	0.08110133
130	0x3c7c19e0	0.015387028
131	0x3ca63a6e	0.020291533
132	0xbcb5927d	-0.022164578
133	0x3de03e99	0.109494396
134	0x3c36b6dd	0.011151996
135	0x3d397bb5	0.04528399
136	0xbc0e0160	-0.00866732
137	0xbd659f9f	-0.05606043
138	0xbce0c667	-0.027438356
139	0x3d290a19	0.041269396
140	0xbd41b77b	-0.04729412
141	0x3ddba64c	0.10725078
142	0xbd97a646	-0.07404761
143	0xbd6e9c14	-0.058254316
144	0xbd102451	-0.035190884
145	0x3dbdbb67	0.0926426
146	0x3c52b562	0.012860628
147	0x3c4fff23	0.012695107
148	0x3b663443	0.0035126365
149	0xbb65d5db	-0.0035070095
150	0xbcd0b2bb	-0.02547585
151	0xbd31110a	-0.04322914
152	0x3cb4c398	0.022065923
153	0x3d98ddd4	0.07464185
154	0xbcb33ae9	-0.021878676
155	0xbd8e3685	-0.069439925
156	0x3c8994a1	0.016794505
157	0xbd2aa0c5	-0.041657228
158	0x3dd3f69e	0.10349773
159	0x3d9c4e4e	0.07632123
160	0x3ddd95e5	0.10819606
161	0xbb8f2dd8	-0.0043694787
162	0xbc2eb110	-0.010662332
163	0x3cdf3e30	0.027251333
164	0xbc1d8313	-0.00961377
165	0x3ca4f713	0.020137345
166	0xbd82b0c7	-0.06381374
167	0x3c650005	0.013977055
168	0xbd6eb73f	-0.058280226
169	0x3d6e30ed	0.058152128
170	0x3c447fc7	0.011993355
171	0x3dc24d0d	0.094873525
172	0x3c560b09	0.013064154
173	0xbd167922	-0.036736615
174	0xbca5c613	-0.02023605
175	0x3dc610ee	0.09671198
176	0x3d332c47	0.043743398
177	0x3d4ec94f	0.05048495
178	0xbc11ccad	-0.008898896
179	0x3b026008	0.0019893665
180	0xbd097772	-0.033561178
181	0x3dadb992	0.0848266
182	0xbd6247a0	-0.05524409
183	0x3d20fd08	0.03930381
184	0x3d93d117	0.07217615
185	0x3dd6629d	0.10468028
186	0x3c8c7b70	0.017148703
187	0xbc336887	-0.010950214
188	0x3db7c9a2	0.08974005
189	0xbd816b9d	-0.06319354
190	0x3db0ed8a	0.08639057
191	0x3dd5d2f7	0.10440629
192	0x3dc5ada0	0.09652257
193	0x3d9efd13	0.07763114
194	0xbd342d1f	-0.043988343
195	0xbd8285f1	-0.063732035
196	0x3cb72c48	0.022359982
197	0x3d884eab	0.0665563
198	0x3dafaba5	0.085776605
199	0x3dc1ed6d	0.094691135
200	0xbc945090	-0.018104821
201	0x3dbab88e	0.09117232
202	0x3d42816b	0.047486704
203	0x3d24f3f8	0.04027173
204	0xbc101db1	-0.0087961415
205	0x3d957651	0.07297958
206	0x3cd5caf3	0.02609775
207	0x3d61bedf	0.05511367
208	0x3d9f5c51	0.0778128
209	0xbd5e4714	-0.054267004
210	0x3d17b9c2	0.037042387
211	0xbca0d550	-0.019632965
212	0x3cdae89d	0.026722247
213	0xbb4c3b9a	-0.0031163455
214	0xbd07f7bb	-0.03319524
215	0xbd93ffe8	-0.072265446
216	0x3c5664e5	0.013085579
217	0x3d70bdcc	0.058774754
218	0x3c25d045	0.010120456
219	0xbaf0ec1c	-0.0018380913
220	0x3da25302	0.07925989
221	0x3d6b1c17	0.057399835
222	0x3d0e2fb6	0.03471347
223	0xbc3c56d0	-0.011495307
224	0x3d2681b5	0.040651042
225	0x3d992f9d	0.07479785
226	0x3d920acc	0.071309656
227	0x3ddd89d6	0.10817306
228	0xbc9cedb5	-0.019156316
229	0x3c37a5bb	0.011208947
230	0xbb718339	-0.0036851896
231	0x3d01f315	0.03172596
232	0x3c69e1f2	0.014275061
233	0x3de30130	0.11084211
234	0x3d1f5d8d	0.038907576
235	0x3b958e02	0.004564048
236	0xbccf7b47	-0.025327338
237	0x3d978612	0.07398619
238	0x3da7bfc7	0.081908755
239	0x3dd1daeb	0.102468334
240	0x3d8ee6d3	0.0697762
241	0xbd50da59	-0.050989483
242	0xbb2de942	-0.0026536738
243	0x3dc02f18	0.093839824
244	0x3d00477a	0.031318165
245	0xbc875c85	-0.016523609
246	0xbd536a72	-0.051615186
247	0x3d87abca	0.06624563
248	0xbd7ac034	-0.061218455
249	0x3cf55948	0.0299498
250	0x3c3e77df	0.011625259
251	0x3d88ccf2	0.06679715
252	0x3d02df10	0.03195101
253	0x3db12e95	0.08651463
254	0x3db407d7	0.08790558
255	0xbd86da32	-0.06584586
