models/cnn_lstm_model.pth (torch, 992486 bytes, 15 tensors)

cnn.0.weight f4 [32, 7, 3]
00000000: a1e1 463e b4b2 103e 8987 34bd c2ac c03d
00000010: 7cf7 19be 5060 613d 9e95 0b3e 1c08 183e
00000020: ef62 07be 67df 403e 1eaf 413d 9b94 953d
00000030: 3832 6d3e 2104 20be 02dc 86bd ef3b b7bd
00000040: 79b5 5abe e425 123e fc26 0f3d 7ada 51be
00000050: 2bce 543e bfa7 df3d b64a 48bd ea8a ca3b
00000060: 9c45 e1bd 1a05 cd3d 0491 87bd 105d 9abd
00000070: 5ac9 25be 15e1 1e3e f77b cfbd 6a9d 44bd
00000080: 863d 86bd 09e6 03bb 4273 4b3e 3673 33be
00000090: 7e2e 26be 98f1 5a3d bbbe 16bd 51f9 a93b
000000a0: f89f df3d 1707 22be 50b4 053e 8170 c5bd
000000b0: 9dba a4bd ce1f 26bd 6ef6 af3c 8d0a 323e
000000c0: 6937 06be 8eb1 303e 959b 57be 1bd3 343e
000000d0: 4290 5b3e f8b8 633d 99e3 54be 66b2 bebd
000000e0: 283c 0dbe f234 15bd d8d3 55be 4d73 4bbe
000000f0: d195 8bbb 5b81 b83d cebc 3fbe bba0 3bbe
00000100: df3a 18be 9871 4a3e 125c b23d f344 2ebe
00000110: 61e5 5dbd 44bf a53d 8c41 7f3d 1f37 5dbe
00000120: 5856 413e c617 a93d 5a0d 093e d64d 8cbc
00000130: 1715 023e a3b2 393e 0712 653e 0091 fc3c
00000140: 2923 4a3e 44c0 593b 0135 c23c 5faa 2cbd
00000150: 8936 663e 817a 523e abc3 3abd c1c0 5b3c
00000160: 9584 da3d 3f00 dabd a282 463e 0b57 4cbc
00000170: 3c83 9b3d a861 b63d e734 2bbe 3f7e 33bc
00000180: bcd1 603e 7275 003d 2ddb 8abd 146e 053e
00000190: cbfe f4bc a897 433e 07a9 80be 6996 d33d
000001a0: 2ec4 433e d196 503e e918 15be 04f6 e63d
000001b0: fef7 b93d d24c 16bd 8e03 873d 7258 e8bb
000001c0: 3353 4bbe 900b 48be aa99 cb3d bcb6 41bc
000001d0: ee22 3c3e bb4c 553e 396f bf3d b0c6 603e
000001e0: 6dbc 063e ac02 b0bd f72a 09be 8f16 683d
000001f0: 4806 2ebe cfdb 82be ad7f 3dbe d283 f73d
00000200: 6ef1 41be 6918 9cbd 3366 ba3d fb10 f9bd
00000210: a70b 003e 3d94 54be 61a6 343c e0cc 04be
00000220: 2394 633e fe66 78bd f8c2 4a3e 847b 1abc
00000230: 2501 0ebe 409e 5abe aa3f 62be f0d2 193e
00000240: 3531 6a3d 45b0 0d3e 55be 773c 4822 3dbe
00000250: f721 c4bd 26d5 acbb a677 643e 2a16 c339
00000260: 16c8 20be ef69 1e3d 6c65 163e 9912 323e
00000270: 86c3 e6bd e870 52be 570e 2cbd 87b8 ae3d
00000280: d5ee 543d 5c4f 663e 5d9b 33be 3b37 6abe
00000290: 7b24 a83d ee27 47be b64c 0b3d 3a03 363e
000002a0: 9e2d 5bbe 1f98 4abc 706c b4bd fce0 babc
000002b0: 449a da3c fa42 f63d 4dd4 033e d806 d1bd
000002c0: 98a6 4cbe 1b75 2e3e 83d9 50be 985d 3dbe
000002d0: bd67 0fbe 7058 14be 7f12 71be 331c 373e
000002e0: 7186 333d df00 453e 8b32 303c 622c 463e
000002f0: 5658 e8bd ab65 fb3d 038a d8bc dda8 193e
00000300: 28ad 78bd 2b47 153c 66fd 733e ab7c 1a3d
00000310: 155e 053e e7c0 233e 5b9c e43d 198e 493e
00000320: cdef 0bbd 8374 56bd 82c7 81bd d27a 3ebe
00000330: 0b63 43be b881 633e c041 573e 48b0 023e
00000340: 3c6a f73c 2967 dfbd c2d9 223d 5659 0e3e
00000350: 65d7 a43d 0410 f8bd 2695 343e 1f87 01bd
00000360: 56e3 6fbc 6a9e 393e 2e74 45be 4a53 063e
00000370: c9a2 36be 417f 51be af2b de3d 797b d53d
00000380: 86b1 1ebd 814a b63d f229 87bd 71c9 8dbd
00000390: 188f 57be 9ac0 253e 73e2 53be ae0d bb3d
000003a0: 892e babd 6e90 96bb 346e 0bbe 1eb2 c13c
000003b0: bbdd 36bd 871b 383e 65dc 413e 7c42 8f3d
000003c0: 232c 87bd ad5c 12be 37f7 26be cb12 3d3e
000003d0: 08a8 103c 39f0 b13d ae49 e13d cd48 bbbd
000003e0: 57eb dabd e121 e13d 325d 0b3e d799 d93d
000003f0: 7cc3 ddbd 51a3 e63c b2d2 8bbd f004 df3c
0.19422008 0.1413067 -0.04407457 0.09407951 -0.15035814 0.05502349 0.13631293 0.14846843
-0.13221334 0.18835221 0.047286145 0.07303735 0.23163688 -0.15626575 -0.06584932 -0.08946978
-0.21358289 0.14272267 0.034949288 -0.20493498 0.20781772 0.10920667 -0.048899375 0.0061811106
-0.10999605 0.10010739 -0.066194564 -0.075372815 -0.16190091 0.1551555 -0.10131066 -0.048001684
-0.065547034 -0.0020126125 0.19868186 -0.17524418 -0.16228673 0.053453058 -0.03680299 0.0051871915
0.109191835 -0.15823017 0.13057065 -0.09640599 -0.08043406 -0.040557675 0.021479812 0.17386837
-0.13107075 0.17255232 -0.21055444 0.17658655 0.21441749 0.05559632 -0.20789947 -0.093113706
-0.13792479 -0.036427446 -0.20881593 -0.19868203 -0.004259803 0.090090476 -0.18724367 -0.18323033
-0.14866208 0.19769895 0.08708967 -0.1701849 -0.05417383 0.08093122 0.06231837 -0.21603058
0.18880594 0.082564875 0.13384 -0.017126959 0.12703358 0.18134551 0.22370158 0.03083086
0.19739975 0.0033226172 0.023706915 -0.042154666 0.22481741 0.20554544 -0.04559676 0.013412655
0.10669819 -0.10644578 0.1938577 -0.012471925 0.0759339 0.08905345 -0.167194 -0.010955392
0.21955007 0.031362005 -0.06780086 0.13030273 -0.029906651 0.19100821 -0.25128958 0.10331423
0.19117805 0.20370032 -0.14560284 0.112773925 0.09080504 -0.036694355 0.06592475 -0.0070906216
-0.19855957 -0.1953566 0.099414185 -0.011823352 0.183727 0.20830052 0.09347386 0.21950793
0.13157816 -0.085942596 -0.13395296 0.05666214 -0.16994584 -0.25558326 -0.18505736 0.120856896
-0.18939754 -0.07621843 0.09101524 -0.12161442 0.12504445 -0.20759673 0.011025996 -0.12968779
0.22224478 -0.060645096 0.19800937 -0.0094288625 -0.13867624 -0.2134943 -0.22094598 0.15021873
0.057175834 0.13836773 0.015121062 -0.18470109 -0.09576791 -0.0052744327 0.22311267 0.00037209812
-0.15701327 0.038675245 0.14687127 0.17389907 -0.11267762 -0.20550883 -0.042005863 0.085312895
0.05198558 0.2249121 -0.17539735 -0.22872631 0.08210083 -0.19448826 0.034008704 0.17774668
-0.2140412 -0.01236537 -0.08809745 -0.022812359 0.026684888 0.120244935 0.12873955 -0.102063835
-0.19985425 0.1703686 -0.20395474 -0.18492734 -0.14004417 -0.14486861 -0.23542212 0.17881851
0.043829385 0.19238614 0.010754238 0.19352868 -0.11344974 0.12275251 -0.026432997 0.15005822
-0.06071201 0.009111206 0.23827133 0.03771655 0.1302417 0.15991555 0.11162635 0.19683112
-0.03416424 -0.052357208 -0.06336881 -0.1860154 -0.1908075 0.22217453 0.21021175 0.12762558
0.030202024 -0.10908348 0.03975845 0.13901266 0.08048896 -0.1211243 0.1763502 -0.031623002
-0.014641603 0.18126836 -0.192826 0.1311771 -0.17835535 -0.204587 0.10848176 0.10423941
-0.03874352 0.08900929 -0.06599797 -0.069231875 -0.2105068 0.16186753 -0.20691852 0.091334686
-0.09090907 -0.004594854 -0.13616258 0.023644503 -0.044645052 0.17979251 0.1893173 0.06995103
-0.06600215 -0.14293166 -0.16305242 0.184642 0.008829124 0.08688397 0.110003814 -0.09144745
-0.10689419 0.1099279 0.1360977 0.10625046 -0.10828301 0.028154047 -0.06827296 0.027224034

cnn.0.bias f4 [32]
00000000: 1bee c4bc 50cc 043e f272 adbd 7268 653d
00000010: 4d7f 52be f59d 39be ae00 0ebe affc 2a3d
00000020: cb3e 433e f00b 8bba 7ab9 af3d e047 c03c
00000030: 70b7 38be 35b8 703e 210e 09be 7252 253e
00000040: 9253 3bbe 812f 803e b3e8 5abc 8543 e7bd
00000050: 472b 55be 10f8 e03c 7836 08bc 8081 04bb
00000060: bf16 073e 98d8 683d 7cea a6bd acc7 2a3e
00000070: fa60 8bbd 00af 6a3e 3639 273c 3ead 11be
-0.024039319 0.12968564 -0.0846919 0.05600781 -0.20556374 -0.18126662 -0.13867447 0.041744884
0.19066922 -0.0010608416 0.08580299 0.023471773 -0.18038726 0.2350777 -0.13384296 0.16144732
-0.18293598 0.25036243 -0.013361144 -0.11292175 -0.2081729 0.027462035 -0.008313768 -0.002021879
0.1319227 0.056847185 -0.08150193 0.16677731 -0.06805606 0.2291832 0.010206511 -0.14226243

cnn.3.weight f4 [64, 32, 3]
00000000: 8a38 d7bd ed92 233d 913b 65bd e8be bc3d
00000010: cc5a 983d 36dc 50bd 2351 98bc 09a5 643d
00000020: d6fc 2d3d fd4d cabd 330e b33d dbdd 283d
00000030: 13e1 843d aa2c 893d 0763 97bd 1913 abbd
00000040: 97f2 bdbb a7aa 15bc 85f1 793d 48f0 ae3d
00000050: c834 95bd 8520 183d 38ce bdbd 2913 fc3d
00000060: 8efc 23bd eb43 ec3d d56e d2bc 9875 48bd
00000070: ae0e 4e3d 336c 023d f1c0 483d 4fee b53c
00000080: 4944 323d 1387 0e3d ee22 90bc cd5f c13b
00000090: 4629 023d b31d c3bc e840 0bbc acc0 ca3c
000000a0: 7d73 57bc 32ef 263d d519 23bd 84be 62bd
000000b0: 54e8 b739 737e b3bd 4202 f73c 5c70 a93d
000000c0: bc76 ae3d bfef 56bd 8453 cbbc 6bac 0c3d
000000d0: 654a a13d 207a b13d 8c80 c8bd 3507 9f3d
000000e0: 319a c2bd 0c5b 5c3d 42c4 833d 375f 873d
000000f0: f83b 87bc 4fba 70bd 4d7c b53d 7920 47bd
00000100: 1bfd 013d a844 86bd e763 e83c 4770 95bd
00000110: d2f2 8a3d b60d 7bbd 289c b7bd fa94 c73d
00000120: 044a f9bc 413b 2c3d 359d 7fbd e7e3 c7bd
00000130: 23d3 e93d fba0 33bd 481b a6bd 665c fa3c
00000140: 6387 4d3d 3721 b5bd a602 e83c 6710 11bd
00000150: 886b 1c3d b5c2 583d 0b8d f83d ad61 a33d
00000160: 0e74 913d 3b43 48bc 05ef 9c3d 7826 de3d
00000170: 879e 3cbd 1806 86bd 5ec9 263c 4480 83bd
00000180: a5cf c8bb 31b7 02bc 0285 5cbc 41cb 513d
00000190: e84b 1f3d 06f1 79bd cb4b b5bd 30a1 e8bd
000001a0: f2a3 223d 15fb 26bd 481d 733d f652 d5bc
000001b0: 3681 3dba 2b08 673d 1b9f 4b3d b66f 8bbd
000001c0: 06c6 aebd 6c97 b7bc e379 b83d 7b6b 4c3b
000001d0: b6dc 2b3d d5ca 703d bcb5 753d d3fb 22bd
000001e0: 7fa1 583d 8a27 d3bc 7b9c d6ba 5905 c13d
000001f0: c200 b7bc d11c 78bd 1335 de3d 2713 7f3d
00000200: be92 85bd 9f5d 6b3d c90b b5bc 5336 70bd
00000210: 283e 95bd 0dc7 94bd 1583 bc3c 9b73 ab3d
00000220: c18f 22bd c8bb 543d d332 493d c812 12bd
00000230: 83cc ef3c 5aff 23bd 790b e4ba 9b74 253c
00000240: 729d a3bd a756 84bd 6b6f 813d 94fb 043b
00000250: c2ca fb3b e09d 8f3b d8d6 42bd 3b27 f1bd
00000260: ffa9 9d3d 18be 30bc dc6f b73c 8a4b 903d
00000270: 65ca 533d ad16 b13c b0a0 893d 3c11 27bd
00000280: 5ee6 d73d 3aa4 e2bc 906f 873d 172b 2b3c
00000290: a0c6 d63d 8294 7d3d 73c2 c1bd 0d6d 2bbd
000002a0: d79f 7cbd da29 4c3d 3721 1dbd b0e2 403c
000002b0: b9ad 8b3d 7144 3dbd 29c3 1abd 549e a43d
000002c0: 4cfb 58bd eb96 613d 9639 8c3d 03bf bdbc
000002d0: 4cfa 133d 8879 dc3d 2525 53bd 85ad cc3d
000002e0: 34d1 b93d 0207 48bc 93d2 5dbd 6068 3cbd
000002f0: def7 12bc 1288 953d 597c 3e3c 9f8b 1cbd
00000300: 6887 c93d f57f 993d 10d9 8dbd 13f3 6bbc
00000310: b547 e7bc 929a debc 05b7 c0bd d7c9 afbc
00000320: 6b2d 993d 9d37 a5bd 49cc a93c 8ddf b4bd
00000330: bc0c a7bd 7b82 e83c e296 a7bd 9ef5 c6bd
00000340: ad7d bf3d d9e1 05bd a264 9f3d 8aab 20bd
00000350: 1f79 193d b91a a83d c366 603d a041 4dbd
00000360: 220a 013e 4053 f33d 3946 ae3b 0497 8b3b
00000370: adc1 643d 1cdd c03d 4c49 063d 3e10 94bd
00000380: de1f 87bd 8956 2ebc c595 833d d28b 4f3d
00000390: 0490 813b 3ca1 fa3d 479f 5e3d d451 70bd
000003a0: 17f5 253d a292 c53d 5dea 343c b138 babd
000003b0: 8739 393d 7868 a63d 5b2c bbbc 51fa 933d
000003c0: 5436 57bc b36d f93d 0bd9 10bc 3d3d 0a3c
000003d0: 58b1 e5bc 711d 9f3d 782d 1c3d 518c d53d
000003e0: d402 75bd b5c8 8d3d 745b 2abb a4e0 9a3d
000003f0: 5202 b3bd acce a53d ba74 a0bd 81cf cd3c
-0.10508831 0.03993504 -0.05596501 0.092161 0.07439193 -0.05099126 -0.018593377 0.055821452
0.04247745 -0.09878156 0.08742943 0.041227203 0.06488242 0.06697972 -0.07391935 -0.08353252
-0.005796741 -0.009134925 0.061021347 0.08541924 -0.07285458 0.037140388 -0.09267849 0.12308342
-0.040035777 0.11536392 -0.025687614 -0.04894027 0.05030697 0.031841468 0.04901213 0.022208361
0.043522153 0.034796786 -0.01759478 0.005901313 0.031777643 -0.023817873 -0.008499362 0.024750076
-0.013150093 0.04075546 -0.039819557 -0.05535747 0.00035077578 -0.08764353 0.030152444 0.08273384
0.085187405 -0.052474733 -0.024820097 0.034344118 0.07875518 0.086658716 -0.09790143 0.077650465
-0.09502066 0.053797767 0.064339176 0.06609958 -0.016508088 -0.058771428 0.08861599 -0.048614953
0.03173552 -0.06556064 0.02836795 -0.07296806 0.067845955 -0.061292373 -0.08965331 0.09745212
-0.030430801 0.042048696 -0.062405784 -0.09760266 0.11417224 -0.043854695 -0.08110672 0.030561637
0.050177943 -0.08844226 0.028321575 -0.035416033 0.038188487 0.052920062 0.12136277 0.079776146
0.07102214 -0.01222306 0.07662777 0.10847181 -0.04604962 -0.06544131 0.010179846 -0.06420949
-0.006128269 -0.007978247 -0.013459446 0.05121923 0.03889075 -0.061020873 -0.08852347 -0.11358869
0.03970713 -0.040766794 0.059354097 -0.026040535 -0.0007229032 0.056404274 0.04971228 -0.068084165
-0.08533864 -0.02241107 0.09007623 0.0031191993 0.041958533 0.058787186 0.05998777 -0.03979094
0.05288839 -0.02577569 -0.0016373539 0.09424848 -0.022339229 -0.060574356 0.10849967 0.062274124
-0.065221295 0.05746233 -0.022100346 -0.058645558 -0.07287246 -0.072645284 0.023011724 0.08371659
-0.039687876 0.051936895 0.049120735 -0.035662442 0.029272323 -0.040038444 -0.0017398439 0.010098602
-0.07989015 -0.0646184 0.063200794 0.0020291554 0.0076840827 0.004382834 -0.047568172 -0.11775061
0.0769844 -0.010787509 0.022392206 0.07045658 0.05170669 0.021617258 0.06720102 -0.04078792
0.10541986 -0.0276662 0.06613076 0.010447285 0.104871035 0.061909206 -0.09460916 -0.041852046
-0.061675873 0.0498446 -0.038361754 0.0117727965 0.06820244 -0.04620785 -0.037783775 0.08038011
-0.05297403 0.055075567 0.06846921 -0.02316237 0.036127374 0.10765368 -0.051549096 0.09994034
0.090731055 -0.012208702 -0.054155897 -0.045997977 -0.008970229 0.07301344 0.0116263265 -0.03821909
0.0984028 0.07495109 -0.06926167 -0.014401215 -0.028232435 -0.027173314 -0.09409908 -0.02145855
0.07479366 -0.08067248 0.020727294 -0.088317014 -0.08156726 0.02838253 -0.081830755 -0.097148165
0.09350143 -0.03268609 0.07782866 -0.039226092 0.037469026 0.08208222 0.0547855 -0.050111413
0.12601522 0.11881113 0.00531843 0.004259946 0.055848766 0.09417173 0.032784745 -0.072296605
-0.06597875 -0.010640749 0.06425051 0.050670452 0.0039539356 0.12237784 0.054351117 -0.058671787
0.04051694 0.096471086 0.011042205 -0.09092844 0.045220878 0.081253946 -0.022848299 0.072254784
-0.013135511 0.121791266 -0.00884081 0.008437452 -0.028038666 0.077692874 0.0381293 0.10427154
-0.05981715 0.069230475 -0.0025994452 0.07562378 -0.08740677 0.0809606 -0.07834764 0.02512336

cnn.3.bias f4 [64]
00000000: 4232 edbc 8858 1d3d b9d4 ba3d a9a7 323d
00000010: 0ae3 473c 74c7 773d d971 2abd 4582 8bbd
00000020: fd50 57bd a876 90bd 0457 b6bd 5637 67bd
00000030: 8a29 c8bc 8e2e babd 1f2d 113d 5bd7 8a3d
00000040: f6cb 433b 16f5 7dba 335d a1bc 8a0b 80bd
00000050: 9c9f b0bd 46c6 853d d60c dd3c 48b3 a23d
00000060: ced1 68bc e92e 23bc d49d b7bd 416a 94bd
00000070: d094 863d 6096 d63d a0b7 bc3c beaa 77bc
00000080: 4825 79bd cb80 2a3c afc9 78bd 9c79 13bd
00000090: e3a7 443d bcaa c2bc c197 b1bd 7ade da3d
000000a0: cb9f 193d 969f 18bc 7bcd 7a3d af31 7d3d
000000b0: 6acf 7abd b266 963c bc9b dcbc bfb3 ecbb
000000c0: 911b 173d d1c3 a1bd b511 bebd 5ef7 bc3d
000000d0: d173 7abd 0c77 c1bd edce 953d b2f4 3fbd
000000e0: cc69 3a3d d653 6c3d 8796 723c 4488 8ebc
000000f0: 3c63 7c3b 6890 d5bc 209f 883d 2860 14bd
-0.028954629 0.038414508 0.09122605 0.043616924 0.012200126 0.060492948 -0.04161248 -0.06811956
-0.05256747 -0.07053882 -0.08903316 -0.056449257 -0.02443387 -0.09090911 0.03544342 0.06779357
0.002987621 -0.0009687705 -0.019697761 -0.06252201 -0.08624193 0.06531958 0.02698366 0.079443514
-0.014210178 -0.009959915 -0.0896565 -0.07246829 0.065713525 0.104779005 0.023036778 -0.015116392
-0.06082657 0.010406683 -0.060739215 -0.036004648 0.04801167 -0.023763053 -0.08671523 0.10686965
0.037505906 -0.009315392 0.061231118 0.06181496 -0.06123296 0.018359516 -0.026929729 -0.007223576
0.036891524 -0.07898677 -0.09280721 0.09226869 -0.061145607 -0.094465345 0.073148586 -0.04686422
0.045511052 0.05769714 0.014806396 -0.01739896 0.0038511297 -0.026069835 0.06670976 -0.036224514

lstm.weight_ih_l0 f4 [512, 64]
00000000: 345c 93bd 6d66 913d 6307 d03d 02e7 b3bd
00000010: 51ba 56b9 2662 ab3c 3ac2 7e3d 88ac 053c
00000020: a1cf 133c d2e7 aaba 4a98 833c ccd3 233d
00000030: b239 20bd a939 883d b4e0 2ebc 44ac de3c
00000040: 7b8d 94bd a939 073c f539 153d 9d34 2dbd
00000050: b62c 913d 2471 dc3d 5b35 c3bc a9e5 8a3d
00000060: dbb2 303d 5c86 303d 507e 763d ff43 bb3b
00000070: f4eb 843c 6651 85bd 2318 50bd 96bf 9f3c
00000080: 6859 073d 1153 033d 419d c4bc 2328 51bd
00000090: 3f75 423d 6d11 263d 50d7 173d 4ad8 b33d
000000a0: 07ac 1f3c 7a11 843d a9c8 3cbd 33db d63d
000000b0: f4ff 4dbc 942d 933c e933 c83d 81d7 643d
000000c0: 79f4 90bd 3731 edbb 911c ab3d 6c1c adbc
000000d0: ae76 aa3b d1db b4bc 1a8d af3c 8a49 093c
000000e0: a972 41bd 56c2 4c3d d9d4 84bd 461b e63d
000000f0: 4441 ae3d 09b6 79bd 75a3 25bd a5b8 f23d
00000100: 1cf9 1a3d 7412 e8bc 706f c63d 668c 72bd
00000110: ffb0 e93d c3a1 c7bc a7b8 df3d 041f eebd
00000120: 89c2 073d fde1 a2bc 07d1 b53d 02fa e63d
00000130: 4ba1 a73b 1797 8ebc 0c0c 49bc 3e68 8b3c
00000140: a8b9 473d ee19 71bd d10d 02bc f661 813d
00000150: f6e4 9d3d f571 9abc a40e efbc 657d a0bc
00000160: 5297 383d cafd 8d3d e18a 4a3d 5088 e63b
00000170: 33ab 6b3d 8484 93bd 4cc8 b13d ced4 cabc
00000180: 886b cebc 6f3c b53b 56c4 39bd 5658 723d
00000190: 8bb0 913d d3ce e0bc bdfc 30bd fb2a 55bc
000001a0: 22b9 653b 3ec5 64bc 3565 933d 27d6 2fbd
000001b0: 99d5 75bc 9ed5 36bd df09 6bbc 9cc2 1abd
000001c0: 00ac 9d3d d481 753c 83ca 8e3d 9361 80bc
000001d0: e122 c33c 3385 8a3d bb0b 02bd 2ed0 943c
000001e0: 0023 233a 8e24 4fbd f3de c53b d481 58bd
000001f0: abb8 b83d 4524 debb 30a8 cc3d 3e20 50bc
00000200: d07a 4abd 0989 1e3d a02d 6a3d 9464 713c
00000210: a46e c43d 0538 dc3d 2d2c 013b 874c 393d
00000220: 09ab 813d ea2b 60bd 52db 01bd 96e5 32bd
00000230: c7c9 a13b 5abe a53d 2984 92bc bf39 0cbd
00000240: f74b 373d e1d0 6ebd 052b 13bc 5ab0 9d3c
00000250: c003 50bd f8ac 3fbd 9134 d33c 3b6b 6dbd
00000260: 9cc5 953d f550 6fbc 8dc7 f33d 10ea a13d
00000270: 8947 adbd 602e c13d 6a3f 2a3d 113c c33d
00000280: 6d04 85bd bea0 863d e44b 8fbd 2b9c e0bc
00000290: 25fd 73bd 7198 a83d 5789 9abd 4533 e43d
000002a0: c955 8a3d 5e83 aabc ca0f 1c3d 855d 44bd
000002b0: be0f 85bd 3364 8bbd 9487 cabc ce34 313c
000002c0: 1b1c 93bd b32f 8d3d bc45 863c efbb ae3d
000002d0: da84 9d3d 96df 263c d2c2 7a3d f1ec 4bbd
000002e0: 93f2 ea3c 8682 8fbd 4761 8f3b 71c1 7cbc
000002f0: 1907 d23d a3b6 0f3d 26af 85bd c545 643c
00000300: db26 c83c 9d6b c7bd 6f77 01bd f2d0 21bc
00000310: 95d1 08bd 781f db3d 8610 2abc c906 1e3d
00000320: 8779 133d 46c8 663c 4abe 94bd 8715 ce3d
00000330: 4165 a3bc 718a d83c d6d5 afbc 6cc3 043d
00000340: fd57 7d3d 4d3a cd3d 09bd f93c 811d b7bc
00000350: 4a23 17bd 2c34 61bd ccba a6bc 267a 833d
00000360: 8c55 06bd 284d 443a c33d f73d 00e1 bc3d
00000370: 6cae 62bd d60e 3d3d f438 e73b 02f7 923d
00000380: ade2 ff3c 014c bc3c 40b1 40bd e437 953c
00000390: 4acc 35bc 940d f63d 710e 18bd 35aa 9dbc
000003a0: e7eb 4a3d ec3c 993d 2e2f 72bb 95dc b63d
000003b0: 46b3 6ebd c160 723c f386 cebc 3d13 53bd
000003c0: 45d4 4f3d 3d8a 2c3d 9ad6 e23b 7a2f 493d
000003d0: 5ec5 343b 27f6 253d 2b72 8bbd b419 58bd
000003e0: d4e7 8fbd 3815 50bd 087b 3c3d 6539 dd3d
000003f0: 8c1e ab3d 5363 9a3d 0a2e 9d3d 43d2 e8bb
-0.07195321 0.07099614 0.10157659 -0.087842956 -0.00020478039 0.020920824 0.062196948 0.00815881
0.009021671 -0.0013039059 0.016063828 0.039996907 -0.039117523 0.06651623 -0.010673691 0.027181752
-0.07253548 0.008253493 0.036432225 -0.042286504 0.07088606 0.10763767 -0.023829153 0.067820854
0.04313932 0.043096885 0.060179055 0.005714893 0.016225792 -0.06509666 -0.05080427 0.019500535
0.03304425 0.03206164 -0.024000766 -0.051063668 0.047475096 0.040543962 0.037070572 0.08781488
0.009745604 0.06448646 -0.046089802 0.10491028 -0.012573231 0.01796607 0.09775526 0.055869583
-0.070778795 -0.007238533 0.08355058 -0.021131717 0.005202136 -0.022077473 0.021429587 0.0083793495
-0.04722849 0.04999002 -0.0648591 0.11235671 0.08508542 -0.060964618 -0.040439088 0.118516244
0.037835225 -0.028329112 0.09689224 -0.059215926 0.114107125 -0.024369126 0.109238915 -0.116270095
0.033144508 -0.01988315 0.088777594 0.11278154 0.005115663 -0.01740603 -0.012270939 0.01701748
0.04876104 -0.05886262 -0.007937864 0.06317513 0.077096865 -0.018853167 -0.029181786 -0.019591043
0.045066185 0.06933172 0.04944885 0.0070352927 0.057536315 -0.0720301 0.08680782 -0.024759676
-0.02519776 0.005530886 -0.045353256 0.059166275 0.07113751 -0.027442371 -0.04320978 -0.013010736
0.0035052975 -0.013963042 0.07197038 -0.04292884 -0.015004539 -0.044637315 -0.014345615 -0.03778325
0.07698822 0.014984567 0.0697222 -0.015671527 0.023820342 0.06763687 -0.03174947 0.018165674
0.0006223172 -0.05057197 0.0060385405 -0.05285819 0.090195976 -0.006779226 0.09993017 -0.012703
-0.04943353 0.038704906 0.057172418 0.014733452 0.095914155 0.107528724 0.0019710169 0.045238998
0.063314505 -0.05472938 -0.0317033 -0.04367598 0.004937384 0.08092947 -0.017885284 -0.03423476
0.04475018 -0.05830467 -0.008982425 0.01924913 -0.050784826 -0.046795815 0.025781902 -0.05796359
0.073130816 -0.014606704 0.11903296 0.07905972 -0.0846091 0.094326735 0.041564383 0.09532941
-0.06494985 0.06573628 -0.06996897 -0.027418217 -0.05956759 0.08232201 -0.07545727 0.111425914
0.067546435 -0.020814594 0.038100995 -0.04794075 -0.06497143 -0.06806221 -0.024722852 0.010815812
-0.07183095 0.068938635 0.016390674 0.08531939 0.07691355 0.010185143 0.06122095 -0.04978651
0.028680122 -0.07007317 0.00437561 -0.015426979 0.1025526 0.035086285 -0.065275475 0.01393265
0.02443259 -0.097373225 -0.03160804 -0.009876477 -0.033402998 0.106993616 -0.010379916 0.03858069
0.03600457 0.014085835 -0.07262857 0.100627 -0.019945743 0.026433202 -0.02146427 0.03241293
0.06185149 0.100208856 0.030485647 -0.022352936 -0.03689889 -0.054981396 -0.020352744 0.06419782
-0.032796428 0.0007488304 0.12072327 0.09222603 -0.055342123 0.046156727 0.00705635 0.07176019
0.031236017 0.02298546 -0.04704404 0.018215127 -0.01109607 0.120143086 -0.037123147 -0.0192462
0.04954138 0.07482323 -0.003695439 0.089287914 -0.058276437 0.014793576 -0.025210833 -0.05153202
0.050739545 0.04212402 0.006922555 0.049117543 0.002758346 0.040517952 -0.06808885 -0.052758887
-0.070266396 -0.050801486 0.04601577 0.10801963 0.08355436 0.07538476 0.07674797 -0.0071051433

lstm.weight_hh_l0 f4 [512, 128]
00000000: 9a8f 9fbd 496d e13b 63cc 50bd 7abf 823d
00000010: 6604 1b3d 275e 603b 0b5f a73d d5ff bd3d
00000020: d23a d0bd a27e 693d b1d2 033c ff4e d4bc
00000030: 6313 ea3c af1b 543c 12b9 2e3d 9690 6cbc
00000040: a727 fa3d f673 ce3b 075a 55bd 8425 9ebc
00000050: 543a 2e3d 678b 913d 7266 f23c 8dfb a3bd
00000060: 5a67 843d f44d 953c b87c 59bd 7e7f 82bb
00000070: 1c60 993d a86b 39bd 3818 673d 15bb 80bc
00000080: 0b0e af3d a581 b23d 0bd4 403c 20a8 d5bc
00000090: 0220 5d3d d777 0c3d b55f 91bc 10ee 7cbc
000000a0: cfbb debc 6b18 7b3d 96ff 0c3c 8293 b83d
000000b0: 372c 05bd 8f2d 39bd ccdb 143d 5e5d 4bba
000000c0: 9edc 713d 33ed d33c 0c6f 30bd 4b1c e9bb
000000d0: 0474 6e3d b7d1 b4bb cd69 9f3c 1423 813d
000000e0: cfcd b0bc 5cf5 b53b 30b4 583b 1009 49bc
000000f0: d5e2 2b3d 41b8 02bd 5dfe 92bb 58d9 f1bc
00000100: d74e 243d 7ad4 6cbd ccc6 3d3c d77a 6c3d
00000110: 442e 543d 347c f4bb b449 393d a9a4 e7bc
00000120: 707b 023d 75a1 bd3c a3c5 063d 436e 20bd
00000130: fe34 ddbc a434 a63d ef6e 94bd 9862 563d
00000140: a769 91bc 30f8 ccbd 3d88 27bd c95b 543d
00000150: 381f 02bd 48c7 bbbb e320 383d 3499 e238
00000160: 3667 38bd 81be 6d3d a329 93bd befb 4d3c
00000170: cd82 c43c 6c02 603d fc39 27bd ea73 59bd
00000180: 7847 53bd e140 4e3d 70de 64bd 160f d13d
00000190: f48e 753d 0a4e 1cbd 7820 98bd 6cb4 bc3d
000001a0: d3e5 3e3c 90be 8c3b 87d8 e3bc e86e b2bd
000001b0: f709 bb3d 785c 76bd 75b6 df3b e332 3cbd
000001c0: fe89 7cbd d048 c43d ac03 08bd 920d 66bb
000001d0: ce40 4c3d 1869 d3bd 1baa db3c 25eb 7a3b
000001e0: bfdc b83d 6d4f 60bd bb48 5fbc a8f7 763d
000001f0: 379a fc3c ce8f ed3d 4558 fbbb 4264 ab3d
00000200: 9b2b fdbc 1fb8 edbd 9764 0ebc 951e 8bbb
00000210: 087a e73c d00b 713c 1bfb fdbc b338 89bc
00000220: 3b62 85bc bf95 b5bd 9cb8 a73d b96b 9abd
00000230: d771 97bd bd82 923d 1486 89bd 9a16 5f3d
00000240: 4c17 9c3c 4e9c 583c 0f98 943d ed2c f33c
00000250: 71c7 90bc 7369 f73c 9d94 093d 27c2 413d
00000260: ec5d af3c b79a e53d bc21 863d 2233 f83d
00000270: a321 75bd 5e77 88bd 0a0e 59bd 308f 113d
00000280: 719c 823c 54b8 07bd 3544 11bd 63d8 703d
00000290: 4e88 b4bd 87b6 1abd b3e3 12bb 4475 543d
000002a0: c9ff d9bd 4fe4 023d 03af dfbd b9bc b03d
000002b0: eb66 c23d 9029 e23c 2a37 ae3d 3b7f 93bd
000002c0: ef32 74bd 8f3c 14bc 5d53 44bd 4edc c2bc
000002d0: fa48 cd3b 3037 85bd 5fe9 9abd 0a4a d43c
000002e0: 6339 b73d 4495 373d 75cd 933d a611 99bd
000002f0: 0156 d2bd cae2 1dbd 0e82 ee3c dbce 8d3d
00000300: 5c40 24bd 6e97 1f3d afc1 a8bd 72b9 023d
00000310: cb16 143d 5b64 66bd 16c7 7b3d 1d43 ab3d
00000320: b01e 653d 78d6 61bc 37fe a8bc 637c 853d
00000330: b212 463d 364e f0bb 75d7 943d a554 433d
00000340: 8ace 32bb 7bb2 453d 7b41 33bd 4476 d63d
00000350: 3f97 3a3d f248 f5bc 19fb 9abd 463b 3f3d
00000360: 2bb8 c2bd cbf3 1b3d 0c19 2cbd 89ec b33d
00000370: 230e f53c af7a 57bd 8565 ebbd 126a 3c3d
00000380: f4a1 4a3d 7f1d 933d cccb c13d 30d5 e9bc
00000390: 192c cfbd f4a4 44bd 0b6a a0bd 110f 053d
000003a0: a877 3fbd b361 0ab9 0a5e 643c aafb 80bd
000003b0: dbe2 9b3b 3e7e 813d c085 cf3c 5927 5cbd
000003c0: 00ac 33bd 971f 87bc 0425 903c f9c7 84bd
000003d0: 77a0 82bd 5b1e e3bd ebca 6dbd f21e 00bd
000003e0: a898 413d db5b a4bc c088 adbc 01ef fdbc
000003f0: 27f7 783d 79e4 c4bc 3c40 bd3a 1012 dc3d
-0.07791062 0.006879483 -0.05097617 0.063841775 0.03784599 0.0034235807 0.08172425 0.09277312
-0.10167469 0.057005532 0.008045838 -0.025916575 0.028573697 0.012946053 0.042656966 -0.014438769
0.12214594 0.0063004447 -0.05208781 -0.019304998 0.042536095 0.07106667 0.029589865 -0.08006964
0.06465025 0.018225648 -0.053097457 -0.0039824834 0.074890345 -0.045268685 0.05641958 -0.015714208
0.085476 0.08716134 0.011769305 -0.026081145 0.053985603 0.034293976 -0.017745832 -0.015437618
-0.027189163 0.061302584 0.008605858 0.0901251 -0.03251287 -0.045209464 0.036342427 -0.0007757748
0.059048288 0.025869941 -0.043074653 -0.0071139685 0.05821611 -0.005518164 0.01945963 0.06305519
-0.021582512 0.0055529308 0.0033066384 -0.012270227 0.04196437 -0.031914 -0.004485889 -0.029522583
0.04011425 -0.05781982 0.011583041 0.057734337 0.051801935 -0.007461095 0.045236304 -0.028276758
0.031856 0.023148278 0.032903325 -0.039167654 -0.027002808 0.08115509 -0.072477214 0.05234012
-0.017750574 -0.100082755 -0.04090141 0.051845346 -0.031768054 -0.0057305433 0.04495324 0.00010805056
-0.045020305 0.058043007 -0.07185676 0.012572227 0.023988152 0.05468981 -0.040826783 -0.05308906
-0.05158183 0.050354842 -0.055876195 0.102079555 0.059950784 -0.03816036 -0.07428068 0.092141
0.011651474 0.0042951778 -0.02781321 -0.0871256 0.0913276 -0.06014678 0.0068271705 -0.045946967
-0.061655037 0.095842004 -0.033206627 -0.0035103303 0.04986649 -0.103227794 0.026814511 0.003828713
0.09026479 -0.054763246 -0.01362818 0.060294777 0.030835254 0.11599694 -0.0076704347 0.08368732
-0.030904582 -0.11607384 -0.008690975 -0.004245589 0.028256431 0.014712289 -0.031003525 -0.01675067
-0.016282192 -0.088664524 0.08189508 -0.07540078 -0.0739476 0.071538426 -0.067150265 0.054464914
0.019054078 0.01322086 0.072555654 0.029684508 -0.017673226 0.03020165 0.033588994 0.0473043
0.02140709 0.1121115 0.06549403 0.12119128 -0.05984653 -0.066633925 -0.052991904 0.035536945
0.015943738 -0.033134773 -0.035465438 0.058800112 -0.088150606 -0.037771728 -0.0022413551 0.051869646
-0.1064449 0.031956013 -0.10922053 0.08629746 0.09492286 0.02760771 0.085066155 -0.07202002
-0.059618887 -0.009047641 -0.047931064 -0.02378669 0.006264803 -0.06504667 -0.07564043 0.02591421
0.089464925 0.044820085 0.07216922 -0.07474069 -0.1027031 -0.03854636 0.02911475 0.0692422
-0.04010044 0.038962774 -0.08240067 0.031915136 0.03615455 -0.05624805 0.06146916 0.0836241
0.05593747 -0.0137840435 -0.020629032 0.065178655 0.048357673 -0.007333542 0.07267658 0.047688145
-0.0027283751 0.048265915 -0.04376362 0.10471776 0.045554396 -0.02994201 -0.07567424 0.046687387
-0.095077835 0.038074296 -0.042016074 0.0878535 0.029913967 -0.052607235 -0.11493973 0.045999594
0.049470857 0.0718336 0.09462699 -0.028544039 -0.10115833 -0.048008874 -0.07832726 0.03248507
-0.046744972 -0.00013197101 0.013938436 -0.06298001 0.004757268 0.06322907 0.025332332 -0.053748462
-0.043865204 -0.016494555 0.017595775 -0.06483454 -0.063782625 -0.11089774 -0.058054846 -0.03127951
0.047264725 -0.020063331 -0.021183372 -0.030997755 0.060782578 -0.024034726 0.0014438699 0.10745633

lstm.bias_ih_l0 f4 [512]
00000000: 1cd5 dcbb 8baf a73d a382 ac3c 6ff2 3c3c
00000010: dc91 97bd 1420 923d ffe7 c13c e1a6 f03c
00000020: 5f14 0ebd d704 8b3d 89d6 c53d e169 28bd
00000030: e939 b23d b132 903c 50bb 553c 93ff 18bd
00000040: 6d1e d7bc c5dd 5dbd ed51 e83d 676c 66bd
00000050: 3e1d 203d ee49 093e f57b 08bd f3c1 f13c
00000060: cb29 093d 332b fb3c ac17 45bc 3a49 193c
00000070: c662 3d3c f3ff 31bd 4611 e93d 7615 8a3c
00000080: 438f ac3d f385 00bd 106e 563d 9dd0 9e39
00000090: 92a4 29bc d494 af3d 0787 163d e891 ec3c
000000a0: 3842 5ebc 2c6b b13d cafb 44bd 2cee c63b
000000b0: 1601 1dbd a4ef 32bd ebd6 da3d 74ba 2dbd
000000c0: 53d0 493c 8fec c23d 68d6 903d 8bb0 0c3d
000000d0: a6fb 2f3d 9c48 c63d a44b a2ba 62c4 443d
000000e0: f812 58bd cbac 0c3c 4799 7f3d 6b57 ccbb
000000f0: e5cc 9a3d 4791 14bd 5a23 1e3d 6974 db3d
00000100: c8c2 3e3d 0ff0 4e3d 0cbb 80bd b0f1 d0bc
00000110: b797 933d a84e 5f3d 4fd5 5c3d 8438 9d3d
00000120: ee36 bb3c 038f 5cbd 1e90 113c 1655 aa3d
00000130: 7ccc 003d 70ca 943c 7c74 d3bc 1a1d 323d
00000140: 31b0 41bb 5bf1 a73d 24a1 b43d d79e 2fbc
00000150: 06a1 a13d 4ec4 793d 0b1e 2b3d 1520 95bd
00000160: 803f 173d 2011 c1bc 82ca c93d d01a e3bc
00000170: f7a8 bb3d 3237 4cbc 465d 42bb 3f42 3dbc
00000180: fcac acba 13f5 cf3d e40a a63c 145d 083e
00000190: bb70 c03d 0faa 553d 296e d8bc d495 a43d
000001a0: da92 d13c 9c20 f73c 599b 45bd 4f9c 703d
000001b0: 0a2d aa3d 3e05 9dbc 0c05 a5ba 9739 903c
000001c0: d480 e1bc 84e1 76bc 1922 283d 5885 bf3d
000001d0: 1932 813d 99f8 9abc f296 c63d 8f6a d73d
000001e0: af36 51bd 8795 6b3d 4a9c ffbc da34 11bd
000001f0: 89ab a93d af5c 8b3d a77d 433d 77b1 c5bc
00000200: a2f9 c53d 4a7e 9c3d f99d e9bc 1182 073c
00000210: 9a0a 63bd be2c 89bd 498f b93b 146f 1b3d
00000220: c144 553d 8b4f aa3c fa80 c43d 9b58 943d
00000230: 0170 d03c 01c7 cc3d bd77 d73c d3da 1c3c
00000240: 833e 0a3e d729 4cbd 4a52 3a3d 656b e13d
00000250: 7cd7 58bd 8056 4dbc d48d ad3d 2b8e 5dbd
00000260: 4b68 b43a 763a 17bd 16f9 023e f488 92bd
00000270: 47f1 c93d cdd8 863d b383 a13d 2340 0c3c
00000280: 9078 ca3d 10dd 3d3d d262 8c3c 0924 21bd
00000290: 6afa a63d 09e7 123d 1250 cf3d f326 1cbd
000002a0: 599d 5c3d cbbb d2bc 8717 683c efc2 363d
000002b0: dfa3 5a3d eccf a83d ebbb 4cbd 0532 a63c
000002c0: 0292 803d d318 79bc 9ec7 8b3d ccf7 063d
000002d0: 210f 75bd 7979 fa3c 5484 bfbc cb1f 63bd
000002e0: 8498 8bbd 8cc2 353b cdc1 b43d d173 8e3d
000002f0: 2ce0 55bd d303 4f3d cf71 92bd 2ad7 9cbd
00000300: 6fa4 39bd ea89 92bd 547b 05bd 6fce f63c
00000310: b14f f5bc 2aac 9f3d 6b22 2abd e927 9abc
00000320: 2177 ad3d 17bd 01bc 54f6 c03d 6fdd 933d
00000330: 5ce4 ddbc ff47 023d 2f7e 3fbd a3f4 d03d
00000340: 085b 1f3d 92d4 4abd 61e5 5d3a 4bed 853d
00000350: c877 9ebc e7be 6e3d 9f32 c73b 51d4 37bd
00000360: a717 c83d 4cae ad3d 0d4f 773a c0ee eb3d
00000370: de10 f7bc e11c 92bd 634e a43d 88e3 7a3c
00000380: 51a9 a83d 8a77 e53c 5b7f 31bb ad67 a23d
00000390: 0b30 48bd 6d2e 833c 49e7 873d 6e58 ca3c
000003a0: 7ad2 de3d d8cc 17bc fda1 953d 1029 b23c
000003b0: e603 46bd e21f 23bd 64ef b53d f563 e63c
000003c0: 3cf8 5cbd 197d 2a3d 9194 833d cbd2 89bd
000003d0: 5298 9d3d 13ff 5f3d 8e73 703d e5ab d33d
000003e0: d2d2 a03d 8e8a 6b3d 54c8 50bd 60ed 24bc
000003f0: 0d3e 243c f3fd 8b3d 5807 9c3d 8b5c d63c
-0.006739272 0.08187779 0.021058386 0.01153241 -0.07400867 0.07135025 0.023670195 0.029376449
-0.034687396 0.067880325 0.0966006 -0.0411166 0.08702452 0.017602297 0.013045147 -0.03735311
-0.026259625 -0.054166574 0.11343751 -0.056255724 0.039090388 0.13407108 -0.03332134 0.029511428
0.033487123 0.030660247 -0.01202957 0.0093558375 0.011559194 -0.043456983 0.11380248 0.016855936
0.084257625 -0.031377744 0.052351058 0.00030291537 -0.010354178 0.085733086 0.036749866 0.028878167
-0.0135655925 0.086630195 -0.048091687 0.006070873 -0.038331114 -0.04368557 0.106855236 -0.042414144
0.012317735 0.09517776 0.07072145 0.034348052 0.0429646 0.09681818 -0.0012382162 0.048038848
-0.052752465 0.008586119 0.062402036 -0.006236007 0.07558612 -0.03627136 0.038607933 0.10715563
0.046572477 0.050521906 -0.06285676 -0.02550587 0.07206672 0.05451837 0.053914364 0.07676795
0.022853341 -0.053847324 0.008884458 0.0831701 0.03144501 0.018162936 -0.02581238 0.043484785
-0.002955448 0.08200332 0.08819798 -0.010719023 0.07892041 0.060978226 0.041776698 -0.0728151
0.036925793 -0.023567736 0.098530784 -0.027722746 0.09163087 -0.012464331 -0.0029657646 -0.011551439
-0.0013174112 0.10154166 0.020268865 0.13316756 0.09396502 0.052164134 -0.026419716 0.0803639
0.02558272 0.030166917 -0.048243854 0.058742817 0.08309372 -0.019167539 -0.0012590005 0.017605586
-0.02752725 -0.015068416 0.041048143 0.09351605 0.063083835 -0.018917369 0.09696759 0.10518371
-0.05107754 0.057515647 -0.031202454 -0.035450794 0.08284671 0.06804787 0.047727253 -0.024132473
0.09666754 0.07641275 -0.02851771 0.008270756 -0.055430032 -0.06697987 0.005662833 0.03794773
0.052067522 0.020789882 0.09594913 0.07243463 0.025444033 0.099988945 0.026302213 0.009573656
0.13500409 -0.04984459 0.045488633 0.11006812 -0.052939877 -0.01253283 0.08474317 -0.05409066
0.0013763992 -0.036920987 0.12790331 -0.07155028 0.09860473 0.0658432 0.07886448 0.008560213
0.09886277 0.0463534 0.017136965 -0.039341006 0.081532314 0.035864864 0.10122694 -0.038123082
0.053860996 -0.025724312 0.014165766 0.044619497 0.053378936 0.08242783 -0.0499839 0.020287523
0.06277849 -0.015203672 0.06825183 0.03295116 -0.05982888 0.0305755 -0.023378529 -0.055450242
-0.068161994 0.0027734367 0.08826027 0.06955684 -0.05221574 0.050540756 -0.071506135 -0.07658227
-0.04532283 -0.07155211 -0.032588318 0.030127732 -0.029945226 0.077965096 -0.04153673 -0.018817859
0.08469988 -0.007918618 0.09421983 0.072199695 -0.02708643 0.031806942 -0.046751197 0.10202911
0.038905174 -0.04951913 0.0008464661 0.06539401 -0.019344226 0.058287527 0.0060790326 -0.044880215
0.09770136 0.0848051 0.0009434082 0.11520147 -0.03015941 -0.071344145 0.080227636 0.015313037
0.082354195 0.028011102 -0.0027083966 0.07929931 -0.048873942 0.016013348 0.06635911 0.02470037
0.10879989 -0.009265147 0.073062874 0.021748096 -0.04834356 -0.039825328 0.08883551 0.028123835
-0.053947672 0.04162321 0.06424821 -0.06729659 0.076950684 0.054686617 0.05870395 0.10335521
0.07852711 0.057505183 -0.050972298 -0.01006636 0.01002456 0.06835546 0.07618588 0.026167175

lstm.bias_hh_l0 f4 [512]
00000000: 642b c0ba bb52 b93d 6077 153c d79a c43d
00000010: c44b d93c bbcb 12bd f55d c93d bcc2 8e3d
00000020: a91f f53d f7f4 8d3d 5af9 583d 6603 813d
00000030: ab78 7c3d d10f 0dbc 208f 693d 7c64 0fbc
00000040: a265 91bc d366 2a3d e501 2c3d 55f0 b43d
00000050: fe6c df3c ae71 ffbc 4f04 15bd 66e7 c63d
00000060: 4e75 b03d e80d 813c d5dd b53d 5054 94bd
00000070: c09e ac3c a63f 9f3c ae52 cabc 3716 b43c
00000080: 027d 12bd 6589 ae3d 1c94 2e3d de34 e5bb
00000090: 916b d4bc 26c6 2a3d 809a db3c 5d7d 5f3d
000000a0: 46f7 803d 5e0e e63c e630 9a3d bac3 1cbd
000000b0: 784d 8b3c 7da8 3bbc 8265 8f3d 0330 863c
000000c0: b07f 83bd 6203 833c 4e0f e9bb 2f29 273d
000000d0: abbf 863c 6cbb 85bd b077 9c3d 8441 15bd
000000e0: bcca 36bd f917 303d a4b7 d23d 524f 01bd
000000f0: 6626 5f3d 2299 873d 11ec 9f3d 12f8 09b9
00000100: 63b4 5b3b 49ca 8ebd 1765 1b3c b363 c13d
00000110: 5168 eb3b 0a11 473d 0df3 b73d 2eb3 33bd
00000120: 16ed 03bd 85ad 4d3d 9635 e1bc 6631 b23c
00000130: 0ea3 983d 76be 3c3d 5832 713d c1d8 29bd
00000140: 3033 9b3d 3c5d d13c f692 15bd d830 7bbd
00000150: 1500 933d 585c b73c 01a4 433d 41dd 19bc
00000160: 307b aa3d be24 9e3b efa7 d13d cdbe ed3d
00000170: 26b0 8b3d 9a12 efbc 477e 013b 0768 82bc
00000180: db1a 60bd 05f1 3bbd ab7b 81bd 634c b0ba
00000190: f616 9f3d 1b05 db3c 5d3e cf3d e4d0 cb3d
000001a0: 88e7 3a3d 37c7 0f3e 81c5 36bd db3e c73c
000001b0: c89e c93d c770 0bbd b68d 1b3d bfa9 883d
000001c0: efc8 723d 79fe ee3d 652a 22bd 71e7 993c
000001d0: 30d8 823c f354 093d b6d1 5dbb 3b98 2c3d
000001e0: 4138 733d ba54 b03d 8cf6 8e3d 9f99 91bd
000001f0: 6b67 ac3d 9ec5 e5b9 298f 443d fd2c 073d
00000200: 03a1 0cbd 60e6 cc3d 5c80 483c 0c6c 61bd
00000210: 79ad a03d 31ef 37bd a40b 84bc e963 da3c
00000220: a14e 5d38 bdb7 153d b016 6fbd def0 89bd
00000230: 4b3b a23d 431b b93d 0559 383d 6ef1 a03d
00000240: 4953 a2bb 2db5 b9bc 7a1e 403d 8243 693d
00000250: 60a1 54bd 697d b93c bb59 2dbd f914 723c
00000260: 9c3e 95bc 9a11 8abb f656 3e3d d035 b63c
00000270: d5ea 97bb 3e0e 663d 3d20 9c3d dac4 44bd
00000280: ed6a 0d3d c83e 83bd bea7 8abd bd45 c63d
00000290: d4d7 763d 385b bb3d 90d9 953d 9b29 413d
000002a0: 2c54 c1bc 1423 23bd 154c d03c a630 2fbd
000002b0: 480c 93bc 7e94 893d 8e2b a03d 5acf 743d
000002c0: c6d6 ce3d 38b0 5bbc 44cd f93c e062 003d
000002d0: 97d9 d4bc 8fc1 523d 9fff 44bd 773e 7cbc
000002e0: b988 19bd 3456 ba3d 815a 923d a9ad 173d
000002f0: 966f 62bd c72d be3c 57d1 82bd 28ac 6ebd
00000300: 2345 f13c 8a21 84bd 7877 86bd b18c 6f3d
00000310: e9af dd3c d3fc 8c3d 8b95 f13c baab 653d
00000320: b1e4 f4bc a0d7 463d f9ff 2d3d ea2b 60bd
00000330: 089b 693d aafe ba3d 30ba eebb 409c 04bb
00000340: b7ba b0bb 7472 b53c 7347 d33c 25c1 9b3d
00000350: 3028 d93c 97bb 883d 20da ca3b 22cb 6c3d
00000360: 6e18 94bd 492a 78bd 158e bf3d 1415 14bd
00000370: 66ed 7b3d 25c2 77bd d75e cc3d 78ef dc3b
00000380: e195 ce3d 5bf2 493d d27e 7b3d 6d39 833d
00000390: 1db1 b33d 375d 8c3d 5245 00bd fc62 873c
000003a0: ca29 ccbc 473b 5e3d c922 073d 6c2b 0b3d
000003b0: 514b cd3d 4c62 81bd 59c1 20bd c3c1 a63b
000003c0: 4eba cabb d9bc 643d 23a9 87bc 373d ca3d
000003d0: 1f48 a13d 05bd d1bb d05e 3a3d 2d5e b13d
000003e0: 1cbd 12bd 1ede b53d 8a36 b4bc d032 2c3d
000003f0: ce04 0bbd 0802 203c 49f2 263d 8b34 bd3d
-0.0014661369 0.09048983 0.0091226995 0.09599846 0.026525386 -0.035838824 0.09832374 0.069707364
0.11968929 0.06931489 0.052972175 0.06299476 0.061638515 -0.008609728 0.05702126 -0.008751985
-0.017748658 0.041601967 0.041993994 0.08834902 0.027273651 -0.031182136 -0.036381062 0.097121045
0.08616124 0.015753701 0.08880202 -0.07242644 0.021071792 0.01943953 -0.024697628 0.02198325
-0.035763748 0.085223 0.042621717 -0.0069948277 -0.025930198 0.041692875 0.02680707 0.054562915
0.06297164 0.028083023 0.07528858 -0.038272597 0.017004713 -0.011453745 0.07001783 0.016380316
-0.06420839 0.015992824 -0.00711242 0.04081076 0.016448816 -0.065298885 0.07640016 -0.036439434
-0.044626936 0.042991612 0.10288933 -0.031569786 0.05447998 0.06621005 0.07808698 -0.00013157752
0.0033524267 -0.069721766 0.009484551 0.09442844 0.0071840663 0.048600234 0.08981905 -0.04387205
-0.032208525 0.05021431 -0.027491372 0.02175207 0.07452975 0.046080075 0.058885902 -0.04146648
0.075781226 0.025557153 -0.036517106 -0.061325878 0.0717775 0.0223829 0.04776383 -0.00939113
0.083242774 0.0048261574 0.10237109 0.11608658 0.06820707 -0.029183675 0.0019759105 -0.015918745
-0.05471311 -0.04588415 -0.06322416 -0.0013450499 0.07768051 0.026735833 0.10119317 0.09951952
0.04563096 0.14040838 -0.04462195 0.024321964 0.09844738 -0.0340431 0.037976943 0.066730015
0.059273656 0.116696306 -0.03959121 0.018787118 0.015972227 0.03352828 -0.0033846921 0.042137366
0.05937982 0.0860991 0.06980619 -0.07109379 0.08418163 -0.0004382552 0.04798809 0.03300189
-0.03433324 0.10004878 0.0122376345 -0.055034682 0.07845587 -0.044905845 -0.016118832 0.026658969
5.2763735e-05 0.03655218 -0.058371246 -0.06735395 0.079214655 0.09038403 0.04500677 0.07858549
-0.004953776 -0.0226694 0.046904065 0.056949146 -0.05191171 0.022642808 -0.0423219 0.014775508
-0.018218331 -0.004213524 0.04646965 0.022242457 -0.0046361485 0.056165926 0.076233365 -0.048039295
0.0345258 -0.06408459 -0.067702755 0.0968127 0.060264423 0.09148258 0.073168874 0.04715882
-0.023599707 -0.039828375 0.025426904 -0.042771004 -0.017950192 0.06717776 0.078208074 0.05976806
0.100995585 -0.013408713 0.030493386 0.031344295 -0.025982661 0.051454123 -0.04809534 -0.015395752
-0.037483905 0.09098473 0.071461685 0.03703085 -0.055282198 0.023215188 -0.06387585 -0.05826965
0.029451912 -0.064517096 -0.065657556 0.058483783 0.02706142 0.0688416 0.029490253 0.056071974
-0.029894205 0.04854548 0.042480443 -0.05472938 0.057032615 0.091306046 -0.007285379 -0.0020234734
-0.005393352 0.022149302 0.025790906 0.07605199 0.02650842 0.06676405 0.0061905533 0.05781091
-0.07231222 -0.0605872 0.09353272 -0.036152914 0.061505698 -0.060487885 0.09979027 0.006742414
0.10087181 0.049303394 0.061400242 0.064074375 0.08774016 0.06853717 -0.03131611 0.016526692
-0.02492227 0.05425575 0.032992158 0.033976957 0.10024131 -0.06317577 -0.03924689 0.005089016
-0.00618676 0.05584416 -0.016560143 0.09874957 0.07875084 -0.0064007067 0.045500576 0.08660541
-0.03582488 0.08880256 -0.021998663 0.042040646 -0.03394013 0.009766109 0.040758405 0.092385374

lstm.weight_ih_l1 f4 [512, 128]
00000000: 1a8f e33b 636e 04bd 6abd c63c bded 43bd
00000010: 0a75 53bd 2b16 56ba 2d0f 033d b900 7abd
00000020: f4b4 b23d 8574 143d 873f ac3d 91b9 5abc
00000030: 0e83 9f3d 8c3b d1bc 6f84 173d b0b5 413c
00000040: 3274 183b 2b2d 9a3d 60c7 573b 7b9f f5bc
00000050: 3d42 f9bd 24bd c33c 2782 99bc 4427 a03d
00000060: 655f b33c b6f1 3dbc 286e 1ebb c146 103d
00000070: 82f1 86bd 1d48 843d b3c0 6ebc 5f21 4fbc
00000080: ec5e 983d 9505 57bd aaaa f1bd d955 acbd
00000090: 4a71 0a3d 888a d93d 284e 113d d7cf a9bd
000000a0: 833d 0f3d 2f75 0fbd 7c0d 683d 204c 43bd
000000b0: 7505 393d a819 a13d 28a3 dc3d 8906 8fbd
000000c0: 5b86 c4bb b217 c73d d864 953d 5d7c 923d
000000d0: 73ce 47bc 226e c4bd e162 b6bd e0c2 d23c
000000e0: e127 6dbd 5956 263d aaa1 86bd 7152 263d
000000f0: 10f1 8cbd 7295 43bd 9a15 4f3d 79a1 f5bb
00000100: 9b4b b43c 5633 49bd f747 903c 1794 ae3d
00000110: 385b c63d c39f e4bb 893c a4bd 4230 b53c
00000120: 50b3 83bd e854 583d e80e 663d 008d cc3d
00000130: fbc1 923b fb11 853c 8b01 9d3d 5cf0 90bd
00000140: a1f9 063d c0ec 21bd 57db fdbd e13c c4bc
00000150: 751c 64bd 6146 51bc b638 8d3c a1de 9bbc
00000160: 39cc 013c e688 923c e77b babc f1aa b3bd
00000170: e984 4abd 36f2 be3d 2a3d 07bd 5d10 3fbc
00000180: 732d 3ebd 8a76 7e3d ab4c 573d be81 81bd
00000190: 342f 62bd 78ca 27bd 16c6 47bd e2c0 333d
000001a0: 58b8 15bd e35d 08bd 01a1 723d 1aec 88bd
000001b0: 5d63 cabb acd2 453d b4b9 a0bd 6754 0fbd
000001c0: 24a4 913d 4697 d03b 0df8 ad3d 3a45 96bd
000001d0: a6bd fcbc c9f6 cfbc 094f 83bd 88a9 3ebd
000001e0: 9904 ca3d 259d b13d 5b47 503d f3af 06bd
000001f0: 368e b93d 9d0d 3b3c fed0 90bd 45dd 7f3d
00000200: 6d31 cebd 052b f0bd e98b 94bd d033 ebbd
00000210: 9539 27bd 7779 c73c 1ed5 a73d b654 6abd
00000220: 8534 2dbd 3c76 57bc 2179 40bd 3607 b13d
00000230: 739a 8e3d f7bc 673d bd80 a43d 7b23 ac3c
00000240: 560d 803d 3cff 31bd 0559 e83c cadf f5bd
00000250: adc4 2fbd d1cb 5fbd 58c0 d43d 5076 653d
00000260: 3aac a93d a746 853d b112 2abd d8a1 09bd
00000270: 4581 c23d 724d af3d 3b3a 013d 7d30 5dbd
00000280: 2249 843d 0b75 09bd 2483 e7bd e984 aabd
00000290: 7dfa f8bd 4130 ba3b 5efb af3c 1ab4 c0bd
000002a0: 4468 e2bc eab7 f6bd dc80 b2bc d76c ae3d
000002b0: 39b2 d73c 5333 43bc f11d d83d 98fa 88bd
000002c0: 54d0 33bc ba19 d83d e516 7cbd e5e5 973d
000002d0: 0087 b93c 755f bcbd 54d9 f4bd 018a 5c3c
000002e0: b22b b7bd f5a5 92bd a8c4 4ebd 6539 763d
000002f0: 45c2 733d 39c8 2a3d 1fbe ac3d 7263 913c
00000300: 7160 6e3d 3e5d c83d d0d1 afbd a222 923d
00000310: 7749 9ebb 57b8 463d b3aa 193d 8ca1 f63d
00000320: bc0c c1bb b06d c8bd a055 9d3d 35a7 1c3d
00000330: 8cd1 7bbc 04b9 c3bd 40db ea3d b938 7c3a
00000340: dbda 6e3d a9d8 e9bd c37c 6dbd 4d2f cfbb
00000350: 86da e1bc 9f8e 9e3d 1295 1ebd 9b95 f53c
00000360: 0fa7 98bd 2907 db3d ab8d bbbc b277 673d
00000370: dc7d 483d 2d47 21bd c5c1 4ebd c89e 703d
00000380: 6eac bf3d 984c af3d c242 26bd aabc 81bc
00000390: 5b67 5e3d d98d c4bb bc0a 69bd c32f 4abd
000003a0: 8377 34bd 66fc f13d cdce c2ba 4f1b 7bbd
000003b0: dfa4 c83c c91f 413d 2e39 84bd aafe fc3b
000003c0: 8067 133d 8449 7e3d ff32 e03d 2114 b43b
000003d0: 92f5 08be b1c9 9e3d 3441 0dbb 696a f6bc
000003e0: a14b 1b3c 33d0 913d f537 6e3d cbbf 563d
000003f0: 8b27 643c 5f51 b23d a898 2f3d 8dab eb3b
0.0069445493 -0.032331835 0.024260242 -0.047834147 -0.05162529 -0.00081667554 0.031996895 -0.061035845
0.0872592 0.036243934 0.084105544 -0.013349907 0.077886686 -0.02554109 0.036991533 0.011823103
0.0023262617 0.07528146 0.0032925233 -0.029983273 -0.12170837 0.0238939 -0.01873882 0.07819989
0.021896074 -0.011593273 -0.0024174545 0.035223726 -0.06589033 0.06459067 -0.01457231 -0.012642234
0.0743998 -0.052495558 -0.1180013 -0.08414812 0.033799447 0.10622126 0.035474926 -0.082915954
0.03497077 -0.035023864 0.056653485 -0.04768002 0.04517122 0.07866222 0.10773307 -0.06983668
-0.0059974617 0.097213164 0.07294625 0.07152627 -0.012195217 -0.09591319 -0.089055784 0.02572769
-0.05789936 0.04060969 -0.06573804 0.040605966 -0.068819165 -0.047749944 0.05055771 -0.0074960557
0.022008708 -0.049121223 0.01761244 0.0852434 0.09685367 -0.006977053 -0.08019359 0.022117738
-0.064306855 0.052815348 0.05616656 0.09987831 0.0044786907 0.016243925 0.0766631 -0.07077095
0.03295291 -0.039532423 -0.123953514 -0.02395481 -0.0556912 -0.012773127 0.017238956 -0.019027056
0.007922226 0.017887544 -0.02276416 -0.08772839 -0.04944316 0.09323542 -0.033017315 -0.011661616
-0.046430063 0.062124766 0.05256335 -0.063235745 -0.055220798 -0.040964574 -0.048772894 0.04388512
-0.036552757 -0.033292662 0.059235577 -0.06685658 -0.006176396 0.048296615 -0.0784792 -0.0349926
0.071113855 0.0063656894 0.084945776 -0.07337423 -0.03085215 -0.025386231 -0.06411559 -0.046548396
0.09864158 0.08672551 0.0508493 -0.032882642 0.09060328 0.01141682 -0.07071112 0.06246688
-0.10068021 -0.11726955 -0.07253248 -0.11484492 -0.0408264 0.024349911 0.08194946 -0.057209693
-0.042286415 -0.013150748 -0.046990518 0.086439535 0.069630526 0.056576695 0.080323674 0.021013012
0.06252544 -0.0434563 0.02836276 -0.12005575 -0.042912174 -0.054637734 0.10388249 0.056021035
0.08284803 0.065076165 -0.04152173 -0.03360161 0.094973125 0.085596934 0.031549674 -0.05400132
0.064592615 -0.033558886 -0.1130431 -0.08326132 -0.12157152 0.005682022 0.021482166 -0.09409352
-0.027637608 -0.120467976 -0.02178996 0.08516853 0.0263301 -0.011914092 0.10552586 -0.06688422
-0.010974962 0.10551782 -0.06154527 0.07416896 0.02264738 -0.091978945 -0.119555146 0.013460637
-0.08943881 -0.0716056 -0.050480515 0.06011333 0.05951144 0.041694853 0.084347 0.017747615
0.058197442 0.097834095 -0.085849404 0.07135512 -0.004830535 0.048515644 0.037516307 0.12042531
-0.0058914106 -0.09786546 0.07682347 0.0382454 -0.015369784 -0.09556773 0.114676 0.00096214894
0.058314186 -0.11418278 -0.05798031 -0.0063227774 -0.02757002 0.077420466 -0.038716383 0.029978564
-0.07453739 0.10694725 -0.022894701 0.056510635 0.048948154 -0.03937452 -0.05047776 0.058745176
0.0935906 0.08559531 -0.04059101 -0.015837032 0.054297786 -0.005998355 -0.056895003 -0.049361955
-0.044059288 0.11815719 -0.0014862657 -0.06130534 0.02449268 0.047149453 -0.06456219 0.007720788
0.035987377 0.06208183 0.10947227 0.0054955636 -0.13374928 0.07753313 -0.0021553757 -0.030080037
0.009478481 0.07119789 0.058158834 0.052429 0.013925443 0.087069266 0.042870194 0.0071920813
