models/cnn_lstm_model.pth (torch, 992486 bytes, 15 tensors)

cnn.0.weight f4 [32, 7, 3]
000000 99 2c 89 3a 9c da 4c bd 0a f2 2d be c8 17 28 3e
       0.0010465562 -0.05001317 -0.16986862 0.16415322
000010 cf 75 f0 bd 67 e6 cc 3d 36 63 e8 bc 7a 00 55 3e
       -0.1174122 0.10004883 -0.02836762 0.20800963
000020 7d 96 e9 3d 30 fe 67 3e 38 4c af bd f6 0b 95 3d
       0.114056565 0.22655559 -0.085594594 0.07277672
000030 47 44 f8 bd 24 1e 28 3e 12 a0 b5 bd 3c f4 e0 3d
       -0.12122398 0.16417748 -0.088684216 0.10984084
000040 b3 88 71 bd 6f 51 62 be 20 bb 60 be 3b 22 97 bd
       -0.058968257 -0.22101377 -0.21946383 -0.07379576
000050 a0 01 53 3d 31 ea de bd 5c ed 6e be 5d d8 32 be
       0.05151522 -0.10884512 -0.23332733 -0.17465349
000060 e2 20 76 be 02 4c 73 be 10 50 60 bd 97 e8 9e bd
       -0.24035981 -0.23759463 -0.054763854 -0.07759207
000070 15 97 bc 3d 8d b7 36 be 31 c2 8e bd 91 38 d7 bd
       0.09208504 -0.17843457 -0.06970633 -0.10508836
000080 73 bd f3 bd 76 66 94 bd 9f 0f aa 3d 4b ab c1 3d
       -0.11901369 -0.072461054 0.08303761 0.094565
000090 85 18 f3 bd e9 3a d5 3a c2 b2 d7 3d 9f 36 a2 bd
       -0.11869911 0.0016268167 0.10532142 -0.079205744
0000a0 a7 a5 84 be 93 0d f5 3b 0e d2 29 3e 74 c3 c0 bd
       -0.25907633 0.007478425 0.16584036 -0.0941228
0000b0 61 2c 48 3e 24 39 20 be d4 29 e8 bd c2 17 c4 bd
       0.19548179 -0.15646797 -0.11336103 -0.09574844
0000c0 6b f8 6c bd 5f 9c 8b 3d dd db a8 bc f4 8a 21 3e
       -0.057854097 0.06816935 -0.020612651 0.15775663
0000d0 f4 92 4e 3e f1 43 5f bd 6f 37 bd bc 3a 7a 10 bd
       0.20173246 -0.054508153 -0.023097722 -0.035272814
0000e0 5d 51 9b bd 7f 16 8d bd 1e e4 1e 3d 45 46 00 3e
       -0.07583878 -0.068890564 0.03879177 0.12526806
0000f0 1e 42 6e 3b b9 de 26 bd 06 17 6a bd 2e d8 af 3d
       0.0036355327 -0.04073975 -0.057150863 0.08586155
000100 b7 e6 be 3d ce 16 16 3e 79 2b 0e 3d b8 42 16 3e
       0.09321349 0.14657137 0.034709428 0.14673889
000110 aa f0 2a 3e df b6 00 be f7 87 8a bd 17 4d 17 be
       0.16693369 -0.1256976 -0.067642145 -0.14775501
000120 53 e5 7b ba e6 7e 71 3c 72 45 76 3e b1 bb 1e be
       -0.0009609062 0.014739728 0.24049929 -0.15501286
000130 d8 dd 71 3d d9 ab be bc 5c a9 88 3c 17 8c 23 be
       0.059049457 -0.023275303 0.01668232 -0.15971409
000140 65 98 b1 bd 61 bd 42 3e ac 7e de 3d 70 7e 9c 3d
       -0.08671645 0.19017555 0.108640045 0.076413035
000150 e9 de af 3d f8 2d ef bd 8e 70 94 3d 23 15 18 be
       0.085874386 -0.1167869 0.072480306 -0.14851813
000160 82 fa 18 be 2d 76 bb bd 08 83 65 be 0d 39 63 be
       -0.14939311 -0.091533996 -0.22413266 -0.22189732
000170 af 21 81 3d 3c 22 4a bd 40 88 35 3e 76 ce 25 bd
       0.06305253 -0.049349055 0.17727757 -0.0404801
000180 01 66 30 3e 48 e7 1f 3e fa d4 7c bc ef ce 3f bc
       0.17226411 0.1561557 -0.015431637 -0.011707052
000190 d0 82 19 be ce c2 11 bd 8f 30 3c be 31 63 35 bc
       -0.14991307 -0.03558617 -0.18377899 -0.011071012
0001a0 fc 6c 2a be 67 22 27 be 7a a9 a1 3c 3f 80 59 3e
       -0.16643137 -0.16321717 0.019734133 0.21240328
0001b0 7f 14 ac 3d 9d 69 1d be 6e be d1 3d c4 d7 43 3e
       0.08402347 -0.1537232 0.102414 0.19125277
0001c0 5b 99 ab 3d c4 97 e7 3d 18 3d 76 be 75 99 2a be
       0.083788596 0.11308244 -0.24046743 -0.16660102
0001d0 c0 ae 61 be b0 ed ef 3c 97 64 29 be 2d 92 f0 bd
       -0.22039318 0.029288143 -0.16542278 -0.11746631
0001e0 b9 08 2a 3e ce 97 41 be 9e ea 2d 3d 89 2d 10 be
       0.1660489 -0.18905565 0.042460077 -0.1407987
0001f0 49 c2 35 be 7b 21 af 3d 37 27 1c bd d2 51 40 3e
       -0.17749895 0.08551308 -0.038123336 0.18781212
000200 9c af 37 be 15 58 ce bd a8 e3 26 be 8b c2 12 be
       -0.17938083 -0.10075394 -0.16297781 -0.14332025
000210 cf 26 1e 3d f5 84 96 3d 2f 9e 15 be 93 f3 a1 3d
       0.03861123 0.07349578 -0.14611124 0.07907786
000220 a7 ce 48 bd 94 70 a2 3d 54 c5 19 3c a8 1e 24 be
       -0.049025204 0.07931629 0.009385426 -0.1602732
000230 dd 3b cf bd a4 0d bc 3d 6c de 38 3e ed 6d 4a be
       -0.1011884 0.09182289 0.18053597 -0.19768496
000240 49 40 45 3e 3c 9a 4a 3e f3 59 4e 3e c7 d3 7f 3b
       0.19262804 0.19785398 0.201515 0.0039036141
000250 69 f1 f1 bd 8e 9d a2 bd 61 6f 40 3e ae fe 5f be
       -0.118136235 -0.079402074 0.18792488 -0.21874496
000260 86 f6 30 3e a5 38 64 be 94 7f 40 be d6 ff 48 be
       0.17281541 -0.22287233 -0.18798667 -0.19628844
000270 3c b6 07 be 74 5d 8c 3d 49 f0 21 be aa 51 1b 3d
       -0.1325311 0.06853762 -0.15814318 0.037919678
000280 9c 13 53 be cc 6b 53 3e 78 ab ac 3d 2d 13 29 bc
       -0.20612949 0.2064659 0.084311426 -0.010319513
000290 13 4e 60 bd c1 38 2f be 25 03 1f 3d 58 23 34 3d
       -0.054761957 -0.17111494 0.03882136 0.04397902
0002a0 82 04 38 be 59 d5 d6 3d 45 77 4d be b4 13 33 3d
       -0.1797047 0.104899116 -0.20065029 0.043719962
0002b0 29 20 c8 bd d4 e6 3d 3e 39 56 08 3e 7b 1b 85 bc
       -0.09771759 0.18545085 0.13314141 -0.016248455
0002c0 26 54 17 3e fd 97 6d 3d 4d 5f 34 be 8e 9e d1 3c
       0.14778194 0.058006275 -0.1761448 0.0255883
0002d0 d7 c2 4b bd 5d d4 fc bc 47 34 3e be a3 61 58 be
       -0.04974636 -0.030862981 -0.1857463 -0.21130995
0002e0 c8 50 2d 3e 63 a5 e5 3d b7 64 14 3e 61 54 2a 3e
       0.16925347 0.11213186 0.14491545 0.1663375
0002f0 70 cb 18 3e 24 39 3a be 32 3c 00 3e 66 d5 a5 3d
       0.14921355 -0.1818586 0.12522963 0.08097343
000300 41 7a 13 be e3 65 ac bd 91 b5 fa bd 04 31 24 be
       -0.14402105 -0.08417871 -0.12241662 -0.16034323
000310 96 7d 9c 3c d9 a8 42 bd bf fa 1e 3e 14 1a 56 3e
       0.019102853 -0.047524307 0.1552534 0.20908386
000320 22 1f 14 be f9 9b 20 be 49 1a 93 bd 91 24 8c 3b
       -0.14465001 -0.15684499 -0.07182748 0.00427682
000330 2b 8d 1a 3e de 01 13 be 75 7b e4 bd 1e ba 60 bc
       0.15092914 -0.14356181 -0.1115636 -0.013716249
000340 83 71 1c be fa ff 76 be ee 36 38 3e 0c 60 d0 3d
       -0.15277676 -0.24121085 0.17989704 0.101745695
000350 f7 c0 40 3d 60 e4 50 3e 32 fd 58 3d 94 97 ef 3d
       0.047059026 0.20399618 0.05297584 0.11698833
000360 02 97 1b bc 88 6d 64 3e ca d0 30 be 64 96 36 bd
       -0.009496452 0.22307408 -0.17267147 -0.044577017
000370 0d 6a cd 3d 07 a5 23 bd ed 44 a8 3d 54 a5 50 be
       0.10029993 -0.039952304 0.082162715 -0.20375568
000380 5b 56 19 3e 84 ec 88 3d 63 c9 f3 bd d6 fb 36 3e
       0.14974348 0.06685737 -0.11903646 0.17869505
000390 9d a5 13 3d bb f7 67 3d 2e 6c 29 3e 4b 50 09 be
       0.036046613 0.05663274 0.16545174 -0.13409536
0003a0 50 6e 4d 3e ea 59 f7 3d b3 1d d0 3d 27 95 a1 bd
       0.20061612 0.120776966 0.10161915 -0.07889777
0003b0 1a d2 47 be 1d 4f b2 bd a5 2e ce bd bd c5 f6 bd
       -0.19513741 -0.08706496 -0.100674905 -0.12049434
0003c0 7d 80 47 be 19 65 9e 3d 05 6d 4e be 03 bf 47 be
       -0.19482608 0.077341266 -0.20158775 -0.19506459
0003d0 28 73 28 3c fa e6 38 be 0b 73 e8 bc 17 43 17 be
       0.010281362 -0.1805686 -0.02837517 -0.14771686
0003e0 ac f1 94 3d 4d 28 87 be f4 74 94 bc b7 38 87 bd
       0.07272658 -0.26397935 -0.018122174 -0.066026144
0003f0 71 d2 3e 3e 23 3e 60 3e 4c 3a 40 be 9e 99 18 3e
       0.18634965 0.21898703 -0.18772238 0.1490235

cnn.0.bias f4 [32]
000000 58 21 50 3e bc 82 a6 bd e1 66 c5 3d 0c 5e f5 3d
       0.2032522 -0.08130404 0.09638763 0.11980829
000010 18 ea 5a 3e 86 c6 38 bc da ae 5f 3e f3 21 af bc
       0.21378362 -0.0112778 0.21844044 -0.021378493
000020 e0 fc 33 3e 7c e7 e8 3c 2b 8e 10 3c 46 55 8a 3c
       0.17576933 0.028430693 0.008822958 0.016886365
000030 7a 6d 7b 3e b6 28 88 3b e0 39 cf bd b4 96 ae bd
       0.2455348 0.0041552437 -0.10118461 -0.08524838
000040 8d d0 5e 3d 98 a5 b1 bd e1 11 d1 bc e3 b1 08 3e
       0.05439811 -0.086741626 -0.02552122 0.13349108
000050 95 4b 8f bc 36 b0 a3 bd f1 d8 09 3e f0 e6 81 bd
       -0.017492095 -0.07992594 0.13461663 -0.06342876
000060 b8 07 7c bd ae 30 d2 bd 51 fc ca bd 90 73 25 3e
       -0.0615308 -0.10263191 -0.09911407 0.16157365
000070 7b e1 74 3e 3d c5 88 3c 8a b4 a4 3d eb 5f 89 3e
       0.23914139 0.016695613 0.080422476 0.26830992

cnn.3.weight f4 [64, 32, 3]
000000 0e 05 4d 3d 0e 90 be 3b 6e b7 f9 3d a5 4f a1 3c
       0.05005365 0.0058155125 0.121931896 0.019691298
000010 99 06 22 bc 58 30 65 bd 5a f5 a3 3d 1c ec 45 3d
       -0.009889268 -0.055954307 0.080057815 0.048320875
000020 12 c3 2c bd 37 f0 a7 3d 15 b0 8e 3c 00 43 f6 3d
       -0.04217822 0.08200114 0.017417947 0.12024498
000030 bf b6 0a 3d 87 a3 78 3d e3 36 8a bd e2 c5 7d 3c
       0.033865687 0.060702827 -0.0674875 0.0154890735
000040 45 fe a5 3c be 80 70 bd bf 57 16 3d 74 77 6f bd
       0.020262847 -0.058716528 0.036704775 -0.05846353
000050 1e 90 0e bd 66 21 d4 3d eb 0e 7a 3d 62 53 60 3c
       -0.03480541 0.10357933 0.061049383 0.013691755
000060 0e d5 5f 3d 36 b6 53 bd ad c1 25 bd 86 37 15 3c
       0.054646544 -0.05168744 -0.040467907 0.009107476
000070 15 44 99 bd ac 05 73 3d 32 cc 88 3d f1 76 2c 3d
       -0.07483689 0.05933158 0.06679572 0.04210562
000080 e3 dc 0e 3d 13 de 5d bc a2 a5 a6 bb 3f eb 96 3d
       0.034878623 -0.013541716 -0.005085663 0.073690884
000090 e5 de 06 3d e9 90 9f 3d 26 70 ba bd c9 c9 61 3c
       0.032927413 0.07791311 -0.09103422 0.0137810195
0000a0 ef e5 80 3c 89 20 ae 3d 33 62 62 bd bc fe 9d bd
       0.01573464 0.08502299 -0.05526943 -0.07714602
0000b0 1f 13 af 3d ea 2e 87 3d de 4c 67 bc 12 0e a2 bc
       0.08548569 0.06600745 -0.014117448 -0.0197821
0000c0 5b 70 b4 3d 60 d2 c9 3d bc 4f 5f bb 0f 74 9c 3d
       0.088104926 0.09854579 -0.0034074625 0.07639324
0000d0 51 bf 32 3d 08 a7 57 3d 74 ed b8 3d 29 9c 0c 3d
       0.043639485 0.052649528 0.090296656 0.034328613
0000e0 5b 4e b6 3d be a4 81 bd e9 91 dd 3d 07 a8 ca 3c
       0.08901664 -0.0633025 0.10818846 0.024738325
0000f0 ba 60 50 3d d8 4b 04 bd 39 62 31 3c ba 03 02 3e
       0.050873496 -0.032298893 0.010826641 0.12696734
000100 82 35 92 b9 b0 dc e2 3c 3e c3 4c bd 98 f8 e0 3d
       -0.00027887156 0.027693123 -0.049990885 0.109849155
000110 58 ae 89 bd 3a 7b f1 3b 57 6e b5 3a ab d5 16 3c
       -0.067227066 0.007369426 0.0013842088 0.009206216
000120 f8 df 7b 3d d1 6f 8f bc 9d 6b 1a 3c e5 2f e8 3d
       0.06149289 -0.017509373 0.009425071 0.1133726
000130 8a 2d 01 3e a6 dc 63 3d 09 ec 47 bc 4f e1 e4 3d
       0.12615028 0.05563035 -0.012202271 0.11175787
000140 f4 7e 4a bd 35 21 12 bd 98 a5 d2 3d 0b fc 91 bd
       -0.04943748 -0.0356762 0.10285491 -0.071281515
000150 d1 2e 8b 3b 0e 05 00 3d f7 2b e8 bc 86 4b f6 b9
       0.0042475243 0.03125482 -0.028341277 -0.00046977046
000160 76 8e 05 3d 85 a6 27 3d 35 60 86 3d 95 93 11 bd
       0.032606564 0.04093029 0.06561319 -0.035541136
000170 41 5d 61 bd c9 79 3b 3d cf b3 f0 3d 90 83 86 3d
       -0.055020574 0.04577044 0.11753046 0.06568062
000180 1a 05 7e bd 36 3f e9 3d 9b 2f 9e bd 13 d8 1a bc
       -0.062016584 0.1138901 -0.07723924 -0.00945093
000190 93 8d 55 bc 9e 15 8f 3d ca 87 26 bd e3 ed 58 bd
       -0.013034242 0.06986545 -0.040656842 -0.05296124
0001a0 e3 f5 8f bd ff bd 12 3e 76 79 0b 3e d4 ef 52 bc
       -0.07029321 0.1433029 0.13620552 -0.012874562
0001b0 0c 43 2a 3b 88 ea 57 3d 53 14 a4 bd f3 0a 6a bc
       0.0025979904 0.0527139 -0.08011689 -0.014284837
0001c0 53 c7 af bd e2 72 92 bd f0 48 10 bb 24 3f f3 bd
       -0.0858294 -0.071508184 -0.002201613 -0.118772775
0001d0 64 02 25 bd 6d 79 93 bc 72 5c 6e 3c bf 3d 30 bd
       -0.040285483 -0.018002236 0.014548408 -0.043027636
0001e0 33 63 08 bd 8f 6c a1 bd 38 79 a6 bc b4 bf 8f 3d
       -0.03329773 -0.07882034 -0.020321473 0.07018986
0001f0 cf e1 b4 bd 0d 7a 63 3d 92 01 bd 3d ac e7 d1 bd
       -0.08832132 0.05553632 0.09228815 -0.10249266
000200 cd 04 80 bd be 93 bf 3d 2b 27 eb 3b d1 25 bf bd
       -0.06250916 0.093543515 0.0071763 -0.09333385
000210 b4 68 ae 3d 5b 7c 15 3e 3b ec 23 3d 8b 7e 54 bb
       0.08516064 0.14598219 0.04002021 -0.0032424058
000220 ca 0a 88 3d f6 9b 00 3e d7 02 bf 3d 4c 2a 00 bd
       0.06642683 0.12559494 0.093267135 -0.031290337
000230 44 63 8a bd 04 36 d7 3c 40 2c 02 bc b1 d1 ba bd
       -0.06757215 0.026270874 -0.00794512 -0.09122027
000240 8d 09 90 bd 88 52 55 bc 0b f7 20 3c 3e d5 41 bc
       -0.07033072 -0.013020165 0.009824525 -0.011830626
000250 62 56 ad bd 6d e7 fa bd 5e 12 c6 bc 0c 6b 63 3d
       -0.08463742 -0.12251172 -0.02417868 0.05552201
000260 e0 e4 2e bd d7 12 3b 3d ff e4 a3 3d 23 8a 1b 3c
       -0.04269874 0.045672264 0.08002662 0.009493384
000270 58 99 e1 3d f1 35 c0 3d 56 7e 4c 3d 30 8d f2 ba
       0.11015576 0.093852885 0.04992517 -0.0018505212
000280 1a f1 38 3d 29 e8 42 bd f9 0c a8 3d 51 5e d6 bd
       0.045151807 -0.047584686 0.08205599 -0.10467208
000290 df 16 68 3d dc a7 d7 bd d4 66 6d bc 2d ed d9 bd
       0.056662437 -0.105300635 -0.014489848 -0.10640941
0002a0 ff 17 82 3d 52 78 07 3d 4a d5 04 3d f8 97 29 bd
       0.06352233 0.03307373 0.03242997 -0.041404694
0002b0 72 a8 78 3c 5e 0d 9d bd cd aa 06 3d be e0 0b 3d
       0.015176879 -0.07668565 0.032877732 0.034149878
0002c0 c7 c8 42 bc 71 17 c1 3c 46 45 7c 3d 7c 4a 3b 3d
       -0.011888689 0.023570748 0.0615895 0.04572533
0002d0 fa 58 8a bd 99 48 7b bc 6e 80 a9 3d ea d6 dd bd
       -0.06755252 -0.015337133 0.08276449 -0.10832007
0002e0 7a 7c 36 bd c0 90 af 3d be a0 8e 3d 05 1d 8c 3c
       -0.044552304 0.08572531 0.06964253 0.017103681
0002f0 a8 dd 05 bd 74 fa 26 3b 2c d9 b8 3d 3b fc 4b bd
       -0.03268209 0.0025478872 0.09025797 -0.049801093
000300 d1 e6 35 3c 94 18 ea 3d 5b 52 da bc aa 27 2f 3d
       0.011102394 0.11430469 -0.026650598 0.042762436
000310 78 10 f2 3d 99 d6 3a bd 98 1b b1 38 9a 77 38 bc
       0.118195474 -0.045614813 8.4451574e-05 -0.011258984
000320 54 1c c7 bd bf e8 f1 bc 48 b1 e2 3d cd 11 06 3c
       -0.097222 -0.029529927 0.1106897 0.008182955
000330 e2 28 75 3d 11 b9 84 3d ee d1 05 3e 30 43 09 3e
       0.059853442 0.06480611 0.13068363 0.13404536
000340 03 f7 c9 3b d6 0f bc 3d 68 e2 ab bd 12 15 d6 3d
       0.0061634793 0.09182708 -0.08392793 0.104532376
000350 ae 81 08 bd 0e 5e 9d 3c cf 0f b2 bd 91 18 a9 3d
       -0.033326797 0.019209888 -0.086944215 0.08256639
000360 62 59 cc bc aa d6 cf 3c 1f 4c 11 bc 5d d0 65 3d
       -0.024944965 0.025370914 -0.008868246 0.056106914
000370 ff 74 a0 bd a4 03 61 bd 50 42 d7 bd 1f 49 80 bd
       -0.07834815 -0.054935113 -0.10510695 -0.06263947
000380 14 e5 1a bd 1a a6 03 3d 1f f1 ab 3d 1a 68 01 3e
       -0.037816122 0.03214083 0.083955996 0.12637368
000390 9a 6a c9 3d 07 24 6d 3d 7f 78 19 3e 61 a2 02 3c
       0.09834786 0.057895686 0.14987372 0.007973284
0003a0 c9 98 2a 3d 6b d9 dc 3c fe 8e d8 3a 79 f1 04 bd
       0.041649614 0.026959142 0.0016522107 -0.03245685
0003b0 ae 23 c3 3d a1 89 30 bc bb c0 e9 bd 65 e1 40 3d
       0.0952829 -0.010775001 -0.114137135 0.047089953
0003c0 c0 bb 37 be be 46 ef bd 5e d3 a1 3d 2a a7 53 3d
       -0.17942715 -0.11683415 0.07901643 0.051673092
0003d0 73 7c cc 3d 58 c6 ea bd b7 eb 07 3d a0 02 d0 3d
       0.09984674 -0.11463612 0.03318378 0.10156751
0003e0 b4 0e 33 3c 1e 0a 02 3e e7 43 4b 3c bd 0d 29 3d
       0.0109287985 0.12699172 0.012406326 0.041272867
0003f0 c7 c6 5f bc 2a 26 6c 3c c5 47 1c 3d 99 88 a1 bd
       -0.013658232 0.014413396 0.038154382 -0.07887382

cnn.3.bias f4 [64]
000000 4e 18 cd bc 14 72 ad bd 21 23 c2 3b 44 7b 33 bd
       -0.025036003 -0.08469024 0.005924598 -0.043818727
000010 39 05 c1 3a f7 7c a9 3c 58 90 78 3d d4 87 d3 3b
       0.0014726288 0.02068947 0.060684532 0.006455401
000020 10 38 a4 3d c3 d2 b1 3c 46 af 4d bd b5 ce ce 3d
       0.080185056 0.021706944 -0.050215982 0.1009802
000030 cf 17 d1 3c 4f ab b7 3d c2 b6 aa 3d d6 5e 86 3d
       0.025524048 0.089682214 0.083356395 0.06561057
000040 f4 dd cb 3c 00 c3 3b bc 77 af 8c 3d 7f e7 85 bd
       0.024886109 -0.011460066 0.06869405 -0.06538295
000050 90 9a 54 3d 29 58 cc 3c c4 00 b5 3c 3d 5c 1a 3d
       0.051905215 0.024944382 0.022095092 0.03768562
000060 b6 4b ab 3d d9 c6 b8 bc 1f fc fc 3d 36 68 c0 bb
       0.0836405 -0.022555755 0.12352776 -0.005871798
000070 6c b7 ab bd 34 da 7a 3d 87 eb 28 3d b7 f5 90 3d
       -0.08384594 0.06124325 0.04124024 0.070781164
000080 e4 7a b7 3d 6e 7f 72 bd 0c df b4 bd 13 ec 82 bd
       0.089589864 -0.059203558 -0.08831605 -0.06392684
000090 e7 24 54 bd 46 96 de 3d ca 33 a0 3c 26 8c f7 bc
       -0.051793005 0.10868506 0.019555945 -0.030218195
0000a0 3d 82 6b bd 83 85 1c 3d a2 aa 93 3d c6 69 17 3d
       -0.05749725 0.038213264 0.0721028 0.036966108
0000b0 f3 4e 05 3d b3 01 7f bb d6 83 e1 3c 28 75 9e 3d
       0.032545995 -0.0038910925 0.027528685 0.077371895
0000c0 7a 93 30 3d 26 9e 50 3d 64 92 96 3d 68 31 22 bd
       0.043109395 0.050932072 0.073521405 -0.0395979
0000d0 d2 4e a7 3d 68 d1 a6 bd a2 b5 aa 3d 24 9a 71 3c
       0.08169331 -0.0814541 0.08335425 0.014746223
0000e0 8a 28 b8 bc 72 f2 cf bd 3d b0 29 bd ed 6d a9 3c
       -0.022480268 -0.10153665 -0.04142784 0.0206823
0000f0 b6 39 8a bc 50 90 f2 3d 45 1f 32 3d ba 50 af bc
       -0.016873222 0.11843932 0.043486852 -0.021400798

lstm.weight_ih_l0 f4 [512, 64]
000000 e9 aa 29 3d a1 5c 74 3d 3d 5a 66 3d 59 07 92 3d
       0.04142276 0.05965865 0.0562384 0.07130308
000010 83 46 90 bc ca d5 1a bc 18 fe dd bc 4e 14 4c bc
       -0.017611748 -0.009450385 -0.0270987 -0.012456013
000020 fa e0 11 3d d3 68 6f bb 7b 4f 9d 3c 04 ae d4 bc
       0.035614945 -0.0036530986 0.019202938 -0.025961883
000030 fb d9 b9 3d 1b b1 c4 3d fa ed 83 3d ef d6 61 bd
       0.090747796 0.09604093 0.06441875 -0.055136617
000040 e3 5c 19 bd fe 56 44 3d ac 3e 51 bc 2f c4 b7 3d
       -0.0374421 0.047934525 -0.01277129 0.08972966
000050 f7 a4 e9 3d a0 39 10 3d eb ce 7a bd 48 86 ae 3d
       0.11408418 0.035211205 -0.06123249 0.08521706
000060 ac ea 8a 3d 7e 41 1d bd 23 c0 3a 3d da d9 73 3d
       0.06783041 -0.038392536 0.045593392 0.05953393
000070 8a 1f cf 3d 75 bb f4 3b 6d 7d 93 3d c8 10 fa b9
       0.101134375 0.0074686357 0.072016574 -0.0004769622
000080 06 3e ef 3d 76 45 67 bd a7 33 cf 3d 45 de d2 3c
       0.11681752 -0.056462727 0.10117274 0.025740752
000090 8e 10 a2 bc 42 42 be bc e7 83 ab bd fe 16 f3 3d
       -0.019783285 -0.023224954 -0.08374768 0.1186962
0000a0 35 74 41 bd 1b b0 9b 3d 7c c9 b9 3d d4 3a 5a bd
       -0.047229964 0.07601949 0.09071633 -0.05327876
0000b0 2c 8e e3 3c 13 60 99 3d de 60 94 bc ae 52 ca 3d
       0.027777754 0.07489028 -0.018112596 0.09879051
0000c0 63 67 ab 3d 6b 35 87 3d 58 f5 89 3b ef aa b7 3d
       0.08369329 0.066019855 0.0042101555 0.0896815
0000d0 2e 6c 06 3d c9 0c 16 bd 6b ba 82 3d ec 55 1d bd
       0.032818012 -0.036633287 0.06383213 -0.03841202
0000e0 cb c3 93 3d 26 e8 54 3c 50 0c 59 bd 7c 85 bc 3d
       0.07215079 0.012994802 -0.052990258 0.092051476
0000f0 ad c8 4c 3c a1 15 a8 3d 48 fe ec 3c 73 4c c0 bc
       0.012499017 0.082072504 0.028929844 -0.023473954
000100 f5 0e d2 3d 5f c8 de 3d ca 04 13 bc ac ec c5 3d
       0.10256759 0.108780615 -0.00897331 0.09664282
000110 fd 8c b2 3d 7e 00 2e bd c6 ba c8 bc dc 72 31 bc
       0.08718298 -0.042480938 -0.024503123 -0.010830607
000120 c4 7e 7d 3d 44 fc 16 bd 51 bd 19 3d d0 d2 f2 bc
       0.06188847 -0.036861673 0.03753406 -0.029641539
000130 ef aa 1d 3d 19 e1 d9 3d 15 33 8c 3d 34 aa 8e ba
       0.038493093 0.10638637 0.068456806 -0.0010884465
000140 4f dd 91 bb 6e cd 4b 3d 89 fc 90 3c ec dc a8 3d
       -0.004451431 0.04975646 0.017698543 0.082452625
000150 71 c8 02 3d 99 32 95 3c c2 11 a2 bd c7 af 32 3d
       0.031929437 0.018212603 -0.07913543 0.043624666
000160 76 bb a9 3d 8c de 83 bc 35 bd 10 3d e1 a7 dd bd
       0.082877085 -0.01609733 0.035336692 -0.10823036
000170 9c 34 ea 3d 3c fb 31 3d d4 1c 08 3d 37 08 e3 bc
       0.11435816 0.043452486 0.033230618 -0.027713878
000180 2e 8c f3 3c f4 d4 fb 3c 36 2c 30 3d 48 86 46 3d
       0.029729929 0.030741192 0.043010913 0.048467904
000190 ba d7 12 bd b1 71 11 3d de 5c 84 3c d0 c4 d8 3d
       -0.035850264 0.035508815 0.016157564 0.10584414
0001a0 19 60 4f bc ab a1 42 bd a2 28 dd bc 20 6d 0c bc
       -0.012657189 -0.04751746 -0.026996914 -0.008570939
0001b0 09 8b 5f 3d e8 f9 1d bc 76 ae 36 3c 04 60 49 3d
       0.054575954 -0.009642102 0.011149993 0.049163833
0001c0 49 0c d0 3d 76 7c ca 3d de 4e 2e bc 0f fc 56 3d
       0.10158593 0.0988702 -0.010638921 0.052486476
0001d0 cd 56 83 3d 39 5c e4 3d 40 55 e3 3d 28 f5 09 3d
       0.0641304 0.111504026 0.111002445 0.033681065
0001e0 7e bc fc 3d 4b b8 83 3c cc 1c 1a 3c c7 df 84 3d
       0.123406395 0.016079089 0.00940628 0.06487995
0001f0 b5 f6 62 3d 9e 01 be 3d b9 08 38 3e 10 88 dc 3d
       0.05541106 0.09277652 0.17972077 0.10768139
000200 90 5b 41 bc fc 54 78 b9 12 bf 33 3e 49 01 06 3e
       -0.011801615 -0.00023682782 0.17553356 0.13086428
000210 cf 04 ad bd 49 61 c7 3b 36 b4 d4 3d e7 c8 42 3d
       -0.08448183 0.0060845953 0.10385935 0.047554877
000220 69 c3 d8 3d 3c b7 24 3d d5 26 3c bd bb ae 81 3c
       0.105841465 0.04021381 -0.04593547 0.015830388
000230 61 1d 83 3d 56 6b 8c 3d 44 4a 8a 3d 8d 55 19 3d
       0.06402088 0.0685641 0.06752446 0.037435103
000240 27 b2 cf 3d a8 2a a9 3d 29 a6 c3 bc 12 89 81 3d
       0.10141402 0.08260089 -0.023882942 0.06324972
000250 ac ce e4 bc 85 e3 94 bc 29 62 0f 3c e1 0c 75 3d
       -0.02793058 -0.018174896 0.008751431 0.059826735
000260 66 07 8f bd c0 fd c5 3d e1 ec f7 3d 82 a4 69 bd
       -0.06983833 0.096675396 0.12105728 -0.057041653
000270 05 2b 82 3d 9e fc 89 bc 50 1e c3 bb 34 ee 5f bd
       0.063558616 -0.01684409 -0.0059545413 -0.054670528
000280 1e f9 f2 3c dc 2d db bc 51 f8 fd 3c a5 82 ca 3d
       0.029659804 -0.026755266 0.031002196 0.098882
000290 70 62 b7 3d 71 aa 97 3d be 15 80 3d 61 1e b0 bc
       0.08954322 0.07405556 0.06254147 -0.02149886
0002a0 64 a8 8f bc b9 45 26 3c 03 cd 87 3d 32 aa a0 3d
       -0.01753635 0.010148459 0.066309 0.07844962
0002b0 d7 b0 35 bd 83 81 51 3d f3 69 e2 bc fb 16 c1 bb
       -0.0443581 0.051148903 -0.027638411 -0.005892632
0002c0 f7 a4 f3 bc 61 b1 16 bd 88 47 fa 3d 74 9e ca 3d
       -0.029741747 -0.036790255 0.12220675 0.09893504
0002d0 29 0e d2 3c d3 3f 2a 3b e0 ac 67 3d 87 83 93 3d
       0.025641518 0.0025977984 0.05656135 0.07202821
0002e0 c0 f6 49 3c 96 cb 0c bc ab e9 3d 3d 1a ab 71 3c
       0.012326896 -0.008593461 0.04636542 0.014750266
0002f0 9f 3f 2d bc c0 63 30 3d c7 fc 6f 3d 19 fa d2 3d
       -0.0105742505 0.04306388 0.058590677 0.103016086
000300 cb cd 88 3d 5c e2 c8 3c e3 98 bd 3c f0 5c 60 3d
       0.06679877 0.024521999 0.023144191 0.054776132
000310 aa 6f e6 3c 1a 66 1f 3d 4d ed c9 3d c3 a3 f1 3d
       0.028129417 0.03891573 0.09859715 0.11798813
000320 34 39 a3 3c 9b 4c d8 3b f9 17 2d 3d e8 3d ff 3d
       0.019924738 0.006600929 0.04225919 0.124629796
000330 d5 85 04 3e 91 17 cf 3d f2 ed 10 3e 39 22 46 bc
       0.12941678 0.10111917 0.14153269 -0.01209312
000340 0f a1 42 3d 38 aa b0 bc b8 32 10 3e d9 16 ad bb
       0.04751688 -0.021565542 0.14081848 -0.0052822647
000350 83 50 31 bd 0a 7e 43 3d bb e2 98 ba 1d f2 57 bd
       -0.043289673 0.047727622 -0.0011664251 -0.05272113
000360 d6 19 60 3e a4 b1 dc 3d 18 1c ad 3d 50 55 1a bd
       0.21884856 0.1077607 0.08452624 -0.037679017
000370 14 51 f2 3b 26 e5 cf 3d b8 22 2b 3e fd 23 88 3c
       0.007394919 0.101511285 0.16712463 0.016618723
000380 9f 77 f9 3d 2e 01 81 3d c1 d4 d8 3d 4f 7f 37 bd
       0.12181019 0.06299053 0.105874546 -0.044799145
000390 c0 75 80 bd 44 e6 c8 3d 89 0a 5a 3d d5 f0 2f bc
       -0.06272459 0.09809545 0.053232703 -0.010738571
0003a0 b1 05 13 3d da b7 ac 3d 8c 29 35 3b c4 06 e3 3d
       0.0358941 0.084335044 0.0027643172 0.11085275
0003b0 3f b1 07 3d c0 66 3a 3d b7 0d 3c 3d 6d a9 19 3d
       0.03312802 0.045508146 0.045911517 0.037515093
0003c0 cf cd 87 3d 68 9f 82 3d f7 24 58 bc 8e d0 8c 3d
       0.06631052 0.063780606 -0.013192407 0.06875716
0003d0 c9 f0 d4 3d 55 67 a8 3b 4a 38 b6 3d dc 2f 38 bd
       0.103974886 0.0051392713 0.08897455 -0.044967517
0003e0 6e 8b df 3d f4 60 cb bc b8 49 a9 3d b8 e2 03 3c
       0.10915266 -0.024826504 0.08266014 0.008049659
0003f0 3a ab bf 3d ba c6 56 3c 76 13 7a bc f9 49 74 bc
       0.09358831 0.013108904 -0.015263429 -0.014910215

lstm.weight_hh_l0 f4 [512, 128]
000000 51 27 89 3d 26 36 ab 3d 3e 51 55 3d eb ec 6d 3d
       0.06696952 0.08359937 0.05207943 0.05808727
000010 b1 3c 60 bd 46 d8 2a bc 1c e8 8a 3d 07 ff 8a bd
       -0.05474538 -0.01042754 0.067825526 -0.06786924
000020 53 15 b0 bd 80 7c fb 3d 3d 96 b9 3d d2 1b 36 3c
       -0.08597817 0.12279606 0.09061859 0.011115031
000030 e6 22 61 3c a3 52 30 3d bc a6 cb 3c e6 89 69 3d
       0.013741231 0.04304756 0.024859779 0.057016276
000040 4c 6e 03 be 1c 94 d9 bd f6 38 e2 3b 5d e2 91 3d
       -0.12835044 -0.10623953 0.006903763 0.071232535
000050 33 af 22 bd a7 c3 c4 3d 79 75 d3 3c 4a e4 84 bd
       -0.039717864 0.0960763 0.025812851 -0.06488855
000060 23 a8 dc bd 85 d1 a4 3c 89 14 bb 3a fb f3 e2 bc
       -0.10774257 0.020119438 0.0014273088 -0.02770423
000070 3d 3f 99 3c 82 0f 9e bd 3c 53 45 bd 3b 3f 4e 3d
       0.018706912 -0.07717802 -0.04817508 0.05035327
000080 5b 00 e2 3d b8 b6 0f 3d 88 a8 bd 3c b0 1b bf 3d
       0.11035224 0.035086364 0.023151651 0.09331453
000090 c8 4d 67 3d 76 92 22 bd eb f2 17 3d 57 48 62 bb
       0.056470662 -0.039690457 0.0370969 -0.0034527981
0000a0 79 bd 9e 3d 30 69 cb 3c 7f b2 17 bd 10 93 4f bd
       0.07750983 0.02483043 -0.03703546 -0.05067736
0000b0 ab bc 61 3d fc 7e 27 bc 8b 8c c9 3d 62 8a 06 3d
       0.05511157 -0.0102231465 0.098412596 0.032846816
0000c0 16 38 34 bd 81 ed af bd c1 1a f5 3d 32 8d a9 3d
       -0.0439988 -0.08590222 0.119679935 0.08278884
0000d0 97 ee a2 bc 8e b9 08 bd 0b b1 68 bd 60 a7 ba 3d
       -0.01988916 -0.033380084 -0.056809466 0.091139555
0000e0 31 27 00 3b 00 02 d1 bd 90 fb 98 bc e3 da c3 bc
       0.001955461 -0.102054596 -0.018674642 -0.023908084
0000f0 fc 30 b7 bd 84 86 64 bd 35 50 60 3d 60 d8 1d 3c
       -0.0894489 -0.055792347 0.05476399 0.009634107
000100 a1 c2 e2 3d a2 6a 63 3d d8 d8 06 bd 06 34 8f 3d
       0.11072279 0.055521615 -0.032921642 0.069923446
000110 df 1f b7 bc e4 b3 06 3e cc ed 00 3d 10 e4 ca 3d
       -0.022354065 0.1315456 0.03147678 0.09906781
000120 4d 6a 6b 3d 8b 14 94 3c b7 b0 96 3d ad 73 fe 3c
       0.057474423 0.018076202 0.073579244 0.031061018
000130 19 77 a8 bc 34 e2 f6 bb e5 eb 7c 3d f7 7a a7 bd
       -0.020564603 -0.0075342897 0.061748404 -0.081777506
000140 0a df 32 3d 15 93 e4 3c b5 7e 63 3d 84 52 d9 bd
       0.043669738 0.027902165 0.05554076 -0.10611442
000150 ea c8 b9 3c 8d ad 28 3d 4d cf 3f bd a3 0e 99 bd
       0.022678811 0.041181136 -0.046828557 -0.07473495
000160 5a 9a b2 3d f9 89 fd 3b 9d 59 99 3b 86 3b 4d bc
       0.087208465 0.007737395 0.004679872 -0.0125263985
000170 a6 c1 0c bc 97 3a b0 3c d4 04 dd 3c 57 43 94 3d
       -0.008591091 0.021512313 0.026979841 0.072394066
000180 9a 78 91 3d 9c 2a 24 3d bf b8 48 bd 4d 20 ca bd
       0.07103081 0.040079698 -0.049004313 -0.09869442
000190 b0 04 72 3c 49 ca b1 3d fc 14 50 bc 88 0e 36 3d
       0.014771625 0.08681161 -0.012700316 0.04444745
0001a0 49 f9 5a 3c c3 39 b2 3c 6b e4 a8 3d 4d 24 e7 bc
       0.013365098 0.021756059 0.08246692 -0.028215552
0001b0 c0 80 62 3d a7 26 3c bd e6 46 95 3c 1a 23 18 3d
       0.055298567 -0.0459353 0.018222284 0.03714285
0001c0 cc c1 31 bd ad c9 01 3d 0a 67 11 3d 30 a6 cf 3a
       -0.04339771 0.031686474 0.035498656 0.0015842374
0001d0 94 3f aa 3d bd e5 b3 bd b3 97 95 3c 45 15 ac 3d
       0.08312908 -0.087840535 0.018260812 0.08402494
0001e0 d8 09 6b 3c 71 bb 90 3d f6 db 0c bd 4e bf 2c bd
       0.014345609 0.070670016 -0.03438946 -0.04217463
0001f0 5a 9a 76 bc fa 64 b9 bb d9 75 ab 3d 68 46 c4 3d
       -0.015051449 -0.0056577893 0.08372087 0.095837414
000200 c6 a0 0b 3e e1 a7 b1 bc 86 a6 de bd d6 1f b9 bd
       0.13635549 -0.021686496 -0.108716056 -0.09039275
000210 92 5d 15 3d 6e b6 6f bd 93 af 01 3d bb 01 60 bd
       0.03646619 -0.058523588 0.03166158 -0.05468915
000220 28 6f e1 3d 4a 7f 24 3c 43 50 46 3c 2a b8 a1 3d
       0.110075295 0.010040114 0.012104097 0.07896455
000230 38 65 c0 3d a8 5a 7b bd 61 10 ab 3d 8a 51 7f 3d
       0.09394306 -0.061365753 0.083527334 0.06233362
000240 f1 f6 c2 3c 0a f2 b9 3c 28 b0 b6 bc 5f d5 4f 3d
       0.023799391 0.022698421 -0.022300795 0.050740596
000250 e6 8e 5e bc 38 7c c0 3d 20 ef 5c 3d 24 25 85 bd
       -0.013583874 0.09398693 0.053938985 -0.06501225
000260 8d 1b 8c 3c 29 8f 01 be 85 50 a6 bd f9 db 54 bd
       0.017102981 -0.12652268 -0.08120827 -0.051967595
000270 95 47 99 bd 49 cc 6b bd 19 e3 fe bc 1c 08 bc bd
       -0.07484356 -0.05756787 -0.031114148 -0.09181234
000280 43 18 00 bd ec 5d 05 bd f6 ad aa 3c 52 da 92 bb
       -0.031273138 -0.032560274 0.020834904 -0.004481592
000290 73 89 fc 3b 3e 45 4b bc 75 dd 99 3d 71 6a 5e bd
       0.007706815 -0.012406645 0.07512943 -0.05430073
0002a0 34 70 bd 3d 93 fe fd bd 89 4b b7 bc 2a 43 0a 3d
       0.09249917 -0.12402072 -0.022374885 0.03375546
0002b0 8a ac b5 bc 68 ae 55 3d 58 f9 41 3d f9 8c a0 3d
       -0.022177 0.05216828 0.047356933 0.078393884
0002c0 c0 8e 77 3d 8e b0 b3 3c 9a 4c 08 bd 94 2a 06 3d
       0.06043887 0.021934774 -0.033276178 0.03275545
0002d0 49 c4 fd bd 9b e5 e3 bd d7 6c 3f bd 70 44 a9 3d
       -0.12390954 -0.11127778 -0.046734657 0.082650065
0002e0 ed b1 24 bd a0 d3 ce bd 79 15 dc bd 5c cf ab 3d
       -0.040208746 -0.10098958 -0.10746283 0.0838916
0002f0 26 48 d1 3c 62 1c d3 bd d0 7a 82 3d f6 c0 d1 bc
       0.025547098 -0.10308148 0.06371081 -0.025604706
000300 79 27 07 3e 19 27 f3 3d 07 1d 12 bd 1f 0f 38 3d
       0.13198651 0.11872692 -0.035672214 0.044936296
000310 df c9 00 3c b2 cb a2 3b 35 1c ca bd 15 ab 05 3e
       0.00786063 0.00496813 -0.09868661 0.13053544
000320 73 02 b0 3d 74 76 69 3d c8 b8 18 3d 0b a7 85 3d
       0.08594217 0.05699773 0.037285596 0.065260015
000330 b5 23 ec bc 25 67 99 3c 21 60 dc 3a f4 88 1a bd
       -0.02882562 0.018725941 0.0016813317 -0.037728265
000340 af fe e6 3d 46 77 f7 3d b3 41 38 3d 60 78 f0 3c
       0.11279046 0.120832965 0.04498453 0.029354274
000350 74 ba 12 3d 81 d0 53 3d 62 c1 95 3b 0f 1a ed 3c
       0.035822347 0.051712517 0.004570172 0.02894309
000360 e3 9d 28 3d f5 90 db bd f4 e7 54 bc 88 f4 9c 3c
       0.041166198 -0.10721008 -0.012994755 0.01915957
000370 fb 04 26 bc bc 86 82 bd ec 2a 12 3d 95 a6 5f 3d
       -0.010133023 -0.06373355 0.035685465 0.054602224
000380 e8 2e 79 3d ad b7 8f bc 5e a6 2c 3d 5f e9 1c bc
       0.06083575 -0.017543638 0.042150848 -0.009577124
000390 5a 70 95 3d bd f2 e0 3d 1d e9 28 3c d3 7b fc 3c
       0.0729682 0.10983799 0.010309485 0.030820763
0003a0 a8 fb 84 bd 00 66 35 bc 9b 91 11 bc 8c a8 45 3d
       -0.06493312 -0.011071682 -0.008884813 0.048256442
0003b0 86 df 62 bb d7 e0 42 bd 23 84 a7 bd 14 4c 0e bc
       -0.0034618094 -0.047577705 -0.081795 -0.008685131
0003c0 a8 40 e5 3c 38 f5 53 3d cf 36 33 3a fd 6f 49 bd
       0.027984932 0.05174753 0.0006836475 -0.049179066
0003d0 ad 31 85 3d 31 82 85 b9 94 84 a2 3c 2a 08 64 bd
       0.065036155 -0.00025464737 0.019838609 -0.05567185
0003e0 52 a4 99 3d 6e df 0b 3e d9 37 d6 bd de 10 b5 3d
       0.07502045 0.1365945 -0.10459871 0.08841108
0003f0 5d fb 06 3e ef 1d 8f bc 35 40 ee 3d 6b 8f 88 bd
       0.13181825 -0.017470328 0.1163334 -0.0666798

lstm.bias_ih_l0 f4 [512]
000000 b4 af c7 3d b7 b5 07 bd 72 90 b2 3d bd c1 15 3e
       0.097503096 -0.03313228 0.08718957 0.14624687
000010 d4 0f 45 3d e1 ca fa 3c 9e 2c 5c bd c2 d0 2b bd
       0.048110798 0.030614318 -0.053753488 -0.041947134
000020 dd 4e 72 3d 6d 0b 76 3c fc 92 13 3e 79 27 69 3d
       0.05915724 0.015017373 0.14411539 0.05692241
000030 8f 56 f4 3d e9 e4 ba 3c 10 1c f8 3d e9 8b 93 3d
       0.11930572 0.022814231 0.121147275 0.0720442
000040 9a 61 43 bc d5 cb 00 3e 8a 71 6f 3c 29 33 32 3d
       -0.0119251255 0.12577756 0.014614472 0.04350582
000050 a8 49 13 3e 2b 0b b4 3d 96 1f 66 bd af be f2 bc
       0.14383566 0.087911926 -0.056182466 -0.02963194
000060 71 58 b8 3d 01 63 55 3d 44 0b 99 3d d3 35 d2 3d
       0.09001244 0.05209637 0.07472852 0.102641724
000070 3c 0f 5e bd 2c a7 43 3c d1 0a 0a 3d 61 1a c0 3d
       -0.054213747 0.011941712 0.03370172 0.093800314
000080 44 c2 6c 3d 34 4a a6 bc 9e a2 92 3d 29 72 a8 3d
       0.057802454 -0.020299055 0.07159923 0.08224899
000090 35 5c b0 3d 9c b9 32 bb 87 15 d3 3d 77 28 e4 bb
       0.08611337 -0.0027271276 0.103068404 -0.0069628316
0000a0 5f 01 f4 bc 45 c5 65 3d 35 55 42 bd 2c 4b 69 3d
       -0.02978581 0.056096334 -0.04744454 0.056956455
0000b0 9c 3c 70 3d 5d 8b 81 3d 2c 10 a4 bc 6d 23 38 3d
       0.05865155 0.063254096 -0.020027243 0.04495566
0000c0 12 6f 38 bc 64 7b 8f 3d de 22 05 bc a3 5a d5 bc
       -0.01125695 0.07005957 -0.008125989 -0.026044196
0000d0 9d f5 f4 bc c2 cc 8b 3d 16 2e 03 3d 82 f9 90 3d
       -0.029902274 0.06826164 0.032026373 0.0707884
0000e0 02 67 75 3d 3e e3 fc 3d 88 3d bd bc 6d cb 86 3d
       0.05991269 0.123480305 -0.02310063 0.06581769
0000f0 48 a1 19 3e d2 9f 19 3d 40 09 e7 b9 cf e9 9c bc
       0.1500293 0.037505932 -0.00044066645 -0.019154457
000100 04 dc 84 3c a9 91 43 bc fc 4d 1f 3d 7b aa 4a 3c
       0.016218193 -0.011936584 0.03889273 0.012369747
000110 ec d6 c0 3c a1 41 24 bd 9e 67 90 3b ef 1a c0 3d
       0.023539983 -0.04010165 0.0044068834 0.09380137
000120 c4 bc 93 3d b6 ae d9 bc 67 f5 bb 3d 44 cb 63 3d
       0.072137386 -0.026572566 0.09177666 0.05561377
000130 bc 52 cc bc cc 05 28 3b 76 13 e1 3c d9 29 9b b9
       -0.024941795 0.002563822 0.0274751 -0.00029595083
000140 7b 4d ac 3c be 89 97 3d 5b 88 07 3d ed 39 cf bc
       0.02103304 0.07399319 0.033089023 -0.025296176
000150 3e 66 04 bd 2a 48 9e 3d 13 ef 54 3b f7 d1 be 3d
       -0.03232407 0.07728608 0.0032491132 0.09317391
000160 6a 20 13 3d 74 79 00 3d 7c 4a ee 3d 3a f4 08 bd
       0.035919584 0.031365827 0.116353005 -0.033436038
000170 55 ec 18 bd cb 41 ba 3c 26 87 0a 3d 82 5c 6f bc
       -0.03733476 0.02273645 0.033820294 -0.014609458
000180 69 08 68 3c ce 75 9f 3d e8 d4 63 3c 7a 1a cd 3d
       0.014162161 0.07786141 0.013905741 0.10014816
000190 72 92 e0 3d f5 49 e0 3d b4 27 79 3d e3 85 9a 3d
       0.10965432 0.10951606 0.06082888 0.07545068
0001a0 65 8a 30 3c af be f7 3d 9e ce 42 bd 26 74 23 3d
       0.010775183 0.12096917 -0.047560327 0.03990569
0001b0 65 97 37 3c 2e 16 0e 3c f8 39 72 3d b7 a2 88 3c
       0.011205529 0.00867228 0.059137315 0.016679151
0001c0 26 51 cf 3d 22 ff b3 3d f7 da 9a 3d 7f 02 56 3a
       0.101229 0.08788897 0.075612955 0.0008163824
0001d0 96 ac ef bb c4 bd ce 3d 84 0a 47 3d 55 e8 a3 3c
       -0.007314275 0.10094789 0.048594013 0.020008245
0001e0 4d 1e db 3d 2a 6c 47 3a 6a 01 d2 bc 70 43 33 3d
       0.10699139 0.0007607365 -0.02563544 0.043765485
0001f0 19 c8 92 3d 11 e4 83 3c 27 d6 b1 bc bb a8 5b bd
       0.07167072 0.016099961 -0.021708561 -0.05362771
000200 dd 85 c1 3d a8 dc aa 3d dd 3d ff 3c 63 b4 19 3e
       0.094493605 0.08342868 0.031157428 0.15010218
000210 43 b5 f5 3d ce 09 69 bd 46 e7 2a 3c 1b 8e 4d bc
       0.119974636 -0.056894116 0.010431116 -0.012546088
000220 ca 69 63 bd 89 60 4d bd c1 0d 99 3d a4 d8 7f 3d
       -0.05552081 -0.05014089 0.074733265 0.062462464
000230 fa f4 e4 3d 45 1e 96 bc f7 d7 a7 3c 93 08 10 3c
       0.11179538 -0.01832498 0.020488722 0.008791107
000240 ee 06 aa 3d 13 62 22 3d ba 3c 34 bc a7 18 1c 3d
       0.08302103 0.039644312 -0.0110008065 0.038109448
000250 76 80 93 3d fc bb 99 3d 94 17 27 3d 81 72 95 3c
       0.07202236 0.07506558 0.04079397 0.018243076
000260 ab 60 55 bc 4e 7f aa 3d 95 28 11 3e 93 f6 95 3d
       -0.013023536 0.08325063 0.14175637 0.07322421
000270 55 83 d5 3d d4 cc c9 3c 8e 2b df bc 29 51 e1 3d
       0.1042544 0.024633802 -0.027242448 0.11001808
000280 25 11 5a bb 7c 48 50 3d 37 11 c4 3d 07 5b 3d 3d
       -0.003327438 0.050850376 0.09573596 0.04622939
000290 ae fe f0 bc cc 14 e7 3d 6f 78 92 3d 97 0e b8 bc
       -0.029418316 0.112832636 0.07151877 -0.022467894
0002a0 80 82 6a 3d 6d 7d cc 3c 07 1d 28 bd 5e 6a 55 bd
       0.05725336 0.024962151 -0.041043308 -0.052103393
0002b0 be fc 56 3d bd 64 99 bd e9 21 62 bd da 4d 38 bd
       0.052487127 -0.074899174 -0.05520812 -0.04499612
0002c0 b5 16 7d 3d 69 b7 bd 3d 65 21 7e 3d 39 36 52 3d
       0.061789233 0.09263498 0.062043566 0.051321242
0002d0 42 7c 35 3d e7 9d 3e 3d 5e d6 d0 3c eb 9d b1 3d
       0.044307955 0.046537306 0.025492843 0.086726986
0002e0 3f ff 27 bd 5a e9 93 3d 95 59 e7 3d 53 e8 f0 bc
       -0.041014906 0.07222243 0.11296383 -0.029407656
0002f0 22 27 28 3d d8 f2 28 3d 46 6c 25 bc 14 fb c8 3d
       0.041052945 0.04124722 -0.010096615 0.09813514
000300 a0 c4 7c 3d 9f 8f 18 bd 32 fc a9 3d 9b 03 1f 3d
       0.061710954 -0.037246343 0.083000556 0.038821798
000310 4e 64 6c bd 9c a6 45 bd 01 57 85 3c 04 54 99 3c
       -0.057712846 -0.048254594 0.016276838 0.01871682
000320 16 8e 6f bc af 5c fd 3d c5 f5 c1 3d 63 3a 70 bd
       -0.014621278 0.123711936 0.09470705 -0.058649432
000330 f2 f9 a9 3d 6d 3a 3f 3c c2 eb 6d 3c 27 b3 29 bc
       0.082996264 0.011671645 0.014521541 -0.010357655
000340 1d 27 92 3d 1b 84 60 3b 6b cf 82 bb b2 6b a7 3d
       0.071363665 0.0034258428 -0.0039920113 0.08174838
000350 65 13 50 bd 21 09 88 bd 70 25 51 bd 3a d9 05 3e
       -0.050799746 -0.06642366 -0.051061094 0.13071147
000360 91 d0 da 3d 93 75 97 3c fa b3 0b bd ea 7b bb 3c
       0.10684312 0.018488681 -0.034107186 0.022886235
000370 39 98 cd 3d 94 e8 2f 3d fb d9 11 3d e7 f2 4a bd
       0.100388 0.042946413 0.035608273 -0.049548056
000380 7a bd e3 bc 6f e5 5b bd cb dc 83 bc 7c a9 0e 3d
       -0.02780031 -0.0536856 -0.016096493 0.0348296
000390 e2 d4 80 3d 63 cb cc 3d b9 65 6d bc 1d c6 15 bd
       0.06290604 0.099997304 -0.014489585 -0.03656589
0003a0 86 1f e3 3d 1e 39 09 3e 80 8f 7d bd d0 05 e6 3d
       0.11089997 0.13400695 -0.06190443 0.112315774
0003b0 fb 51 8c bd f8 c2 25 bd c6 24 24 3e f7 de 16 bc
       -0.06851574 -0.04046914 0.16029653 -0.009208432
0003c0 d8 4f b6 3d 55 d8 a0 3d af 38 aa 3d a5 09 ac 3d
       0.08901948 0.07853762 0.08311593 0.08400277
0003d0 e1 38 02 bd 13 5a 17 bd 1d 9a 76 bd 2c 4e d4 3d
       -0.031792525 -0.036951136 -0.060205568 0.103664726
0003e0 c3 b5 0b bd 42 7a 67 3d 97 0c 8c bd a6 66 67 3d
       -0.03410889 0.05651308 -0.06838339 0.056494378
0003f0 bd e2 d8 bc 48 ea 66 bd 58 87 97 3d 85 31 ab 3d
       -0.026475305 -0.05637577 0.07398862 0.083590545

lstm.bias_hh_l0 f4 [512]
000000 43 22 53 3c 57 9b a8 bb 1f 5e 1e 3d 75 2c 0a 3e
       0.012886587 -0.005145471 0.03866398 0.13493522
000010 e6 88 93 3c 02 5f 08 3e 12 08 e9 3d c6 5d 23 bd
       0.018009614 0.13317493 0.113784924 -0.03988435
000020 61 a6 45 3c 06 b4 55 bd f0 c6 a5 3c f1 99 b3 bc
       0.012063594 -0.052173637 0.020236462 -0.02192399
000030 2d 3b 9a 3d 81 a6 2e 3c 19 a8 b9 3d 08 2c 38 bd
       0.07530818 0.010659815 0.09065265 -0.044963866
000040 5b c5 af bc e1 3a ac 3d 7c d7 9f 3d c3 a4 0d 3e
       -0.021456411 0.08409668 0.07804772 0.13832383
000050 91 06 ee 3d 70 04 8f 3d a9 6c 17 3d b1 c4 ee 3d
       0.11622346 0.06983268 0.03696886 0.1165861
000060 17 8a 9e bc a3 14 99 3d 93 2e c4 3d 1e df ba bc
       -0.019352956 0.07474639 0.09579196 -0.022811469
000070 f8 85 72 3c 5a b5 9b 3d cb 9e f5 3d 5f d6 c2 3d
       0.014802448 0.076029494 0.11993178 0.09513544
000080 84 a3 59 bd f3 15 03 bd 8f 28 e5 bc c9 cf 49 3d
       -0.053134456 -0.032003354 -0.027973441 0.049270425
000090 3e af fb 3d 38 a6 d8 bc bf 6e 26 3c 2a c2 22 3d
       0.12289284 -0.026446447 0.01015824 0.03973595
0000a0 3f 74 9f 3c c2 75 d1 3c ff 68 3e bd d3 3c be 3d
       0.01946461 0.025568847 -0.04648685 0.09288945
0000b0 fe 4c 0e 3e 15 a5 33 bd 2d 9d 2c bd c7 99 ed 3c
       0.13896558 -0.043858606 -0.042142082 0.02900399
0000c0 66 6f ec 3d b9 b7 07 3c 72 27 18 3d 59 96 ab 3d
       0.11544685 0.008283549 0.037146993 0.08378286
0000d0 bc 99 90 3d 66 78 d6 bb 23 57 57 3b dd e7 0d 3e
       0.070605725 -0.0065451143 0.0032858334 0.1385798
0000e0 08 25 56 3d 3a a5 63 3d b2 6c 78 3d fb 7f f9 3d
       0.05228141 0.055577494 0.060650535 0.121826135
0000f0 6e 15 04 3e c3 18 d5 3c 49 4b 04 3e e8 8b 8e 3d
       0.128988 0.026012784 0.12919344 0.06960279
000100 2d b3 a9 3d 92 21 ac 3c 71 a9 78 bd 4a 83 99 3c
       0.08286128 0.021012101 -0.060708467 0.018739361
000110 bc b3 c3 3d 37 95 a6 3c 1c ae d0 3d 2f b7 d0 3d
       0.09555766 0.020334823 0.10189459 0.101911895
000120 23 2e fc 3d 6e b7 56 3d 60 d6 8f 3d df a4 80 3d
       0.123134874 0.052421026 0.07023311 0.06281447
000130 29 a1 71 3d 7e 17 6d 3c f1 fc 9e 3d b7 71 fd bc
       0.058991585 0.014470933 0.077630885 -0.030938013
000140 b5 97 3b 3b 8e b3 f3 3d 80 5b 8c bc 4f 7d 8e bc
       0.002862436 0.11899482 -0.017133474 -0.017393736
000150 68 9b c4 bc 23 f8 95 bc 65 45 2c bc 25 70 7d 3d
       -0.023999885 -0.018306797 -0.010514592 0.061874527
000160 07 a7 be 3d bf d9 3d 3d 5c 8d df 3d b6 cf 5e 3d
       0.09309202 0.046350237 0.10915634 0.054397307
000170 f4 d4 3f bd c4 6b 99 3d 3d 46 89 bc 65 bb b2 3d
       -0.046833947 0.07491258 -0.016757125 0.08727149
000180 5f 25 d0 3d 87 6f b9 3d 7d e4 dc 3c cb a3 9a 3d
       0.10163378 0.09054475 0.02696442 0.07550772
000190 07 87 08 bd 28 c6 9e bc 65 bf e0 3d 74 6b fa 3d
       -0.033331897 -0.019381598 0.109740056 0.12227526
0001a0 55 b7 30 3c 29 56 b8 3d a3 06 23 bd 51 e7 67 3d
       0.010785897 0.09000809 -0.03980125 0.056617085
0001b0 6b c4 8c 3d b9 7e 4b 3c cc 1d 56 3d 2b ff 03 3c
       0.06873401 0.01242035 0.05227451 0.008056442
0001c0 1e a2 95 3d 2f af 8c 3b a4 10 c7 bb 69 6f 45 bb
       0.07306312 0.0042933444 -0.0060749818 -0.003012622
0001d0 b8 b9 00 3d 6b 82 e4 3c a8 8f de 3d 0d 80 35 3d
       0.031427115 0.02789422 0.10867244 0.044311572
0001e0 ce 47 2d 3d 41 b4 e9 bb e2 4c 91 3d 86 0c 85 bc
       0.042304806 -0.0071320836 0.07094742 -0.016241323
0001f0 2d 6e 1e 3c d6 c3 0d 3e 67 8f d2 bb a7 dc 32 3d
       0.009669823 0.13844237 -0.0064257863 0.04366746
000200 6f 94 ca 3d 7a 9b 72 bd b9 02 9a 3b ba c9 c1 3d
       0.09891593 -0.059230305 0.0047000316 0.094623044
000210 d0 9f b5 3d 52 61 1c bc 55 33 8e bc ee 77 af 3c
       0.088683724 -0.009544687 -0.017358461 0.021419492
000220 8b 60 bc 3d 8f 2c e3 bb 3e f0 b9 3c b3 02 a6 3d
       0.091981016 -0.006932802 0.022697564 0.081059836
000230 45 17 84 3d 4d 6b 83 37 31 84 ab bb 14 6b 67 bc
       0.06449751 1.5666383e-05 -0.0052342643 -0.0141246505
000240 2c c9 d0 3d 26 20 f1 bb ee 79 ba 3b 5d 5c cb 3d
       0.101946205 -0.0073585687 0.0056908047 0.09929726
000250 19 d0 5b 3d 8b 44 57 bc 49 14 35 3c 7d 02 89 3c
       0.053665254 -0.0131389005 0.0110522 0.01672482
000260 2b 0d a4 3d 27 10 b7 3d e7 ff b6 3d b6 49 6a bd
       0.08010324 0.08938628 0.08935528 -0.057199202
000270 e5 5d cb 3c 13 e7 7a bc 70 b5 b5 3d 9e d7 3c bc
       0.024825046 -0.015313881 0.08872497 -0.0115260165
000280 17 b0 70 3c 1c bc cc 3c a2 a5 90 3c e5 c5 98 3c
       0.014690421 0.024992041 0.017657105 0.018649051
000290 17 81 af 3d 0e de 1a bd 0f 1c 2d 3d 38 e2 97 3d
       0.08569544 -0.037809424 0.042263087 0.07416195
0002a0 0d 7f ca 3c 0c 28 a2 bd 71 9d a4 3d 60 e4 c9 3d
       0.024718786 -0.079177946 0.08037842 0.09858012
0002b0 c9 1f a6 3d d7 bb 59 3c 47 88 c9 bc 05 28 1a bc
       0.08111531 0.013289413 -0.024601115 -0.009408955
0002c0 1e 6a 3a bd df 3a 45 bd eb 7a a9 bc fb 97 55 3d
       -0.045511357 -0.048151847 -0.020688495 0.052146893
0002d0 5b ca 21 3c b7 01 53 3c 66 22 d3 3d 3a a4 22 bc
       0.009874905 0.012878827 0.10309295 -0.00992685
0002e0 a5 f4 ae 3d f3 53 8b 3d f7 4a c0 3d b6 90 40 3d
       0.08542756 0.068031214 0.093892984 0.047013007
0002f0 71 e6 1b bd fb 2e c0 bc 06 67 75 3b 8f 3e fe 3c
       -0.038061563 -0.023459902 0.003744544 0.03103569
000300 6c 67 11 bd ed 3c 38 bd 93 41 04 bd 3c d9 96 3d
       -0.03549902 -0.04497998 -0.0322891 0.07365653
000310 69 28 9f bc bf 71 74 3d 6a bb 41 bd 40 e8 82 3d
       -0.019428449 0.05967879 -0.047297873 0.063919544
000320 c5 c3 37 3d e9 5a 97 3d cb ba d3 3d 1e 01 8c 3d
       0.044864435 0.073903866 0.10338362 0.068361506
000330 22 80 56 3d cf 14 53 3d 6c 57 a3 bc 9c 4e 2c 3c
       0.05236829 0.051533516 -0.019939147 0.010516789
000340 08 b7 53 3d 48 66 19 3d 75 67 82 3c 17 d8 1f 3d
       0.051688224 0.03745106 0.015918473 0.03902444
000350 69 78 1c 3d 6d 1b 7c bc bc 89 9d 3d e3 dd f0 bc
       0.03820077 -0.015387398 0.07692286 -0.029402679
000360 77 46 27 3d 20 57 38 bd 81 f3 8f bd 88 2f 61 3d
       0.040838685 -0.045004964 -0.070288666 0.05497697
000370 1a 5c 6b 3d de 61 77 bd 7a db 43 bc ae 73 a8 3d
       0.05746088 -0.060396068 -0.011954183 0.08225189
000380 2b 72 cf bc fe 0f 16 bd 87 da a9 bb 9c f3 36 3d
       -0.025322994 -0.036636345 -0.005183521 0.044665918
000390 3b ec 3b 3d bd 8c 3f 3d 45 9f c2 3d 84 ef 07 3e
       0.045879584 0.046765078 0.095030345 0.13274962
0003a0 16 26 c4 bc 7c 18 04 3e 00 0a da bc 30 e1 98 bb
       -0.023943942 0.12899965 -0.026616096 -0.0046655163
0003b0 44 79 12 bd e4 58 e8 3c de 49 da 3d 08 f5 35 bc
       -0.03576018 0.028362699 0.1065862 -0.011105783
0003c0 b1 81 25 bd 2c fa c7 3c c5 b8 31 3d 49 20 02 bc
       -0.040406886 0.024411283 0.0433891 -0.007942268
0003d0 0a e3 97 3d 98 c5 80 3d 7b 5a a1 bc e0 ff e3 3c
       0.07416351 0.06287688 -0.019696465 0.027831972
0003e0 18 4d e5 3d b2 e4 91 3b 3e a9 0a 3c a1 b6 dd 3d
       0.11196345 0.0044523114 0.008463202 0.10825849
0003f0 e3 09 c2 3c f8 74 72 bc 5c a3 b4 3b a0 3b 5a bd
       0.023686355 -0.014798395 0.005512638 -0.05327952
